<?xml version="1.0" ?>
<net name="shufflenet_v2_x1_0" version="10">
	<layers>
		<layer id="0" name="input.1" type="Parameter" version="opset1">
			<data element_type="f16" shape="1, 3, 224, 224"/>
			<output>
				<port id="0" names="input.1" precision="FP16">
					<dim>1</dim>
					<dim>3</dim>
					<dim>224</dim>
					<dim>224</dim>
				</port>
			</output>
		</layer>
		<layer id="1" name="data_mul_1692936793" type="Const" version="opset1">
			<data element_type="f16" offset="0" shape="1, 3, 1, 1" size="6"/>
			<output>
				<port id="0" precision="FP16">
					<dim>1</dim>
					<dim>3</dim>
					<dim>1</dim>
					<dim>1</dim>
				</port>
			</output>
		</layer>
		<layer id="2" name="input.1/scale/Fused_Mul_" type="Multiply" version="opset1">
			<data auto_broadcast="numpy"/>
			<input>
				<port id="0" precision="FP16">
					<dim>1</dim>
					<dim>3</dim>
					<dim>224</dim>
					<dim>224</dim>
				</port>
				<port id="1" precision="FP16">
					<dim>1</dim>
					<dim>3</dim>
					<dim>1</dim>
					<dim>1</dim>
				</port>
			</input>
			<output>
				<port id="2" precision="FP16">
					<dim>1</dim>
					<dim>3</dim>
					<dim>224</dim>
					<dim>224</dim>
				</port>
			</output>
		</layer>
		<layer id="3" name="data_add_1693136637" type="Const" version="opset1">
			<data element_type="f16" offset="6" shape="1, 3, 1, 1" size="6"/>
			<output>
				<port id="0" precision="FP16">
					<dim>1</dim>
					<dim>3</dim>
					<dim>1</dim>
					<dim>1</dim>
				</port>
			</output>
		</layer>
		<layer id="4" name="input.1/mean/Fused_Add_" type="Add" version="opset1">
			<data auto_broadcast="numpy"/>
			<input>
				<port id="0" precision="FP16">
					<dim>1</dim>
					<dim>3</dim>
					<dim>224</dim>
					<dim>224</dim>
				</port>
				<port id="1" precision="FP16">
					<dim>1</dim>
					<dim>3</dim>
					<dim>1</dim>
					<dim>1</dim>
				</port>
			</input>
			<output>
				<port id="2" precision="FP16">
					<dim>1</dim>
					<dim>3</dim>
					<dim>224</dim>
					<dim>224</dim>
				</port>
			</output>
		</layer>
		<layer id="5" name="1202" type="Const" version="opset1">
			<data element_type="f16" offset="12" shape="24, 3, 3, 3" size="1296"/>
			<output>
				<port id="0" names="1202" precision="FP16">
					<dim>24</dim>
					<dim>3</dim>
					<dim>3</dim>
					<dim>3</dim>
				</port>
			</output>
		</layer>
		<layer id="6" name="Conv_0/WithoutBiases" type="Convolution" version="opset1">
			<data auto_pad="explicit" dilations="1, 1" pads_begin="1, 1" pads_end="1, 1" strides="2, 2"/>
			<input>
				<port id="0" precision="FP16">
					<dim>1</dim>
					<dim>3</dim>
					<dim>224</dim>
					<dim>224</dim>
				</port>
				<port id="1" precision="FP16">
					<dim>24</dim>
					<dim>3</dim>
					<dim>3</dim>
					<dim>3</dim>
				</port>
			</input>
			<output>
				<port id="2" precision="FP16">
					<dim>1</dim>
					<dim>24</dim>
					<dim>112</dim>
					<dim>112</dim>
				</port>
			</output>
		</layer>
		<layer id="7" name="Conv_0/Dims10239" type="Const" version="opset1">
			<data element_type="f16" offset="1308" shape="1, 24, 1, 1" size="48"/>
			<output>
				<port id="0" precision="FP16">
					<dim>1</dim>
					<dim>24</dim>
					<dim>1</dim>
					<dim>1</dim>
				</port>
			</output>
		</layer>
		<layer id="8" name="Conv_0" type="Add" version="opset1">
			<data auto_broadcast="numpy"/>
			<input>
				<port id="0" precision="FP16">
					<dim>1</dim>
					<dim>24</dim>
					<dim>112</dim>
					<dim>112</dim>
				</port>
				<port id="1" precision="FP16">
					<dim>1</dim>
					<dim>24</dim>
					<dim>1</dim>
					<dim>1</dim>
				</port>
			</input>
			<output>
				<port id="2" names="1201" precision="FP16">
					<dim>1</dim>
					<dim>24</dim>
					<dim>112</dim>
					<dim>112</dim>
				</port>
			</output>
		</layer>
		<layer id="9" name="Relu_1" type="ReLU" version="opset1">
			<input>
				<port id="0" precision="FP16">
					<dim>1</dim>
					<dim>24</dim>
					<dim>112</dim>
					<dim>112</dim>
				</port>
			</input>
			<output>
				<port id="1" names="341" precision="FP16">
					<dim>1</dim>
					<dim>24</dim>
					<dim>112</dim>
					<dim>112</dim>
				</port>
			</output>
		</layer>
		<layer id="10" name="MaxPool_2" type="MaxPool" version="opset1">
			<data auto_pad="explicit" kernel="3, 3" pads_begin="1, 1" pads_end="1, 1" rounding_type="floor" strides="2, 2"/>
			<input>
				<port id="0" precision="FP16">
					<dim>1</dim>
					<dim>24</dim>
					<dim>112</dim>
					<dim>112</dim>
				</port>
			</input>
			<output>
				<port id="1" names="342" precision="FP16">
					<dim>1</dim>
					<dim>24</dim>
					<dim>56</dim>
					<dim>56</dim>
				</port>
			</output>
		</layer>
		<layer id="11" name="1205" type="Const" version="opset1">
			<data element_type="f16" offset="1356" shape="24, 1, 1, 3, 3" size="432"/>
			<output>
				<port id="0" names="1205" precision="FP16">
					<dim>24</dim>
					<dim>1</dim>
					<dim>1</dim>
					<dim>3</dim>
					<dim>3</dim>
				</port>
			</output>
		</layer>
		<layer id="12" name="Conv_3/WithoutBiases" type="GroupConvolution" version="opset1">
			<data auto_pad="explicit" dilations="1, 1" pads_begin="1, 1" pads_end="1, 1" strides="2, 2"/>
			<input>
				<port id="0" precision="FP16">
					<dim>1</dim>
					<dim>24</dim>
					<dim>56</dim>
					<dim>56</dim>
				</port>
				<port id="1" precision="FP16">
					<dim>24</dim>
					<dim>1</dim>
					<dim>1</dim>
					<dim>3</dim>
					<dim>3</dim>
				</port>
			</input>
			<output>
				<port id="2" precision="FP16">
					<dim>1</dim>
					<dim>24</dim>
					<dim>28</dim>
					<dim>28</dim>
				</port>
			</output>
		</layer>
		<layer id="13" name="Conv_3/Dims10107" type="Const" version="opset1">
			<data element_type="f16" offset="1308" shape="1, 24, 1, 1" size="48"/>
			<output>
				<port id="0" precision="FP16">
					<dim>1</dim>
					<dim>24</dim>
					<dim>1</dim>
					<dim>1</dim>
				</port>
			</output>
		</layer>
		<layer id="14" name="Conv_3" type="Add" version="opset1">
			<data auto_broadcast="numpy"/>
			<input>
				<port id="0" precision="FP16">
					<dim>1</dim>
					<dim>24</dim>
					<dim>28</dim>
					<dim>28</dim>
				</port>
				<port id="1" precision="FP16">
					<dim>1</dim>
					<dim>24</dim>
					<dim>1</dim>
					<dim>1</dim>
				</port>
			</input>
			<output>
				<port id="2" names="1204" precision="FP16">
					<dim>1</dim>
					<dim>24</dim>
					<dim>28</dim>
					<dim>28</dim>
				</port>
			</output>
		</layer>
		<layer id="15" name="1208" type="Const" version="opset1">
			<data element_type="f16" offset="1788" shape="58, 24, 1, 1" size="2784"/>
			<output>
				<port id="0" names="1208" precision="FP16">
					<dim>58</dim>
					<dim>24</dim>
					<dim>1</dim>
					<dim>1</dim>
				</port>
			</output>
		</layer>
		<layer id="16" name="Conv_4/WithoutBiases" type="Convolution" version="opset1">
			<data auto_pad="explicit" dilations="1, 1" pads_begin="0, 0" pads_end="0, 0" strides="1, 1"/>
			<input>
				<port id="0" precision="FP16">
					<dim>1</dim>
					<dim>24</dim>
					<dim>28</dim>
					<dim>28</dim>
				</port>
				<port id="1" precision="FP16">
					<dim>58</dim>
					<dim>24</dim>
					<dim>1</dim>
					<dim>1</dim>
				</port>
			</input>
			<output>
				<port id="2" precision="FP16">
					<dim>1</dim>
					<dim>58</dim>
					<dim>28</dim>
					<dim>28</dim>
				</port>
			</output>
		</layer>
		<layer id="17" name="Conv_4/Dims10221" type="Const" version="opset1">
			<data element_type="f16" offset="4572" shape="1, 58, 1, 1" size="116"/>
			<output>
				<port id="0" precision="FP16">
					<dim>1</dim>
					<dim>58</dim>
					<dim>1</dim>
					<dim>1</dim>
				</port>
			</output>
		</layer>
		<layer id="18" name="Conv_4" type="Add" version="opset1">
			<data auto_broadcast="numpy"/>
			<input>
				<port id="0" precision="FP16">
					<dim>1</dim>
					<dim>58</dim>
					<dim>28</dim>
					<dim>28</dim>
				</port>
				<port id="1" precision="FP16">
					<dim>1</dim>
					<dim>58</dim>
					<dim>1</dim>
					<dim>1</dim>
				</port>
			</input>
			<output>
				<port id="2" names="1207" precision="FP16">
					<dim>1</dim>
					<dim>58</dim>
					<dim>28</dim>
					<dim>28</dim>
				</port>
			</output>
		</layer>
		<layer id="19" name="Relu_5" type="ReLU" version="opset1">
			<input>
				<port id="0" precision="FP16">
					<dim>1</dim>
					<dim>58</dim>
					<dim>28</dim>
					<dim>28</dim>
				</port>
			</input>
			<output>
				<port id="1" names="347" precision="FP16">
					<dim>1</dim>
					<dim>58</dim>
					<dim>28</dim>
					<dim>28</dim>
				</port>
			</output>
		</layer>
		<layer id="20" name="1211" type="Const" version="opset1">
			<data element_type="f16" offset="4688" shape="58, 24, 1, 1" size="2784"/>
			<output>
				<port id="0" names="1211" precision="FP16">
					<dim>58</dim>
					<dim>24</dim>
					<dim>1</dim>
					<dim>1</dim>
				</port>
			</output>
		</layer>
		<layer id="21" name="Conv_6/WithoutBiases" type="Convolution" version="opset1">
			<data auto_pad="explicit" dilations="1, 1" pads_begin="0, 0" pads_end="0, 0" strides="1, 1"/>
			<input>
				<port id="0" precision="FP16">
					<dim>1</dim>
					<dim>24</dim>
					<dim>56</dim>
					<dim>56</dim>
				</port>
				<port id="1" precision="FP16">
					<dim>58</dim>
					<dim>24</dim>
					<dim>1</dim>
					<dim>1</dim>
				</port>
			</input>
			<output>
				<port id="2" precision="FP16">
					<dim>1</dim>
					<dim>58</dim>
					<dim>56</dim>
					<dim>56</dim>
				</port>
			</output>
		</layer>
		<layer id="22" name="Conv_6/Dims9927" type="Const" version="opset1">
			<data element_type="f16" offset="4572" shape="1, 58, 1, 1" size="116"/>
			<output>
				<port id="0" precision="FP16">
					<dim>1</dim>
					<dim>58</dim>
					<dim>1</dim>
					<dim>1</dim>
				</port>
			</output>
		</layer>
		<layer id="23" name="Conv_6" type="Add" version="opset1">
			<data auto_broadcast="numpy"/>
			<input>
				<port id="0" precision="FP16">
					<dim>1</dim>
					<dim>58</dim>
					<dim>56</dim>
					<dim>56</dim>
				</port>
				<port id="1" precision="FP16">
					<dim>1</dim>
					<dim>58</dim>
					<dim>1</dim>
					<dim>1</dim>
				</port>
			</input>
			<output>
				<port id="2" names="1210" precision="FP16">
					<dim>1</dim>
					<dim>58</dim>
					<dim>56</dim>
					<dim>56</dim>
				</port>
			</output>
		</layer>
		<layer id="24" name="Relu_7" type="ReLU" version="opset1">
			<input>
				<port id="0" precision="FP16">
					<dim>1</dim>
					<dim>58</dim>
					<dim>56</dim>
					<dim>56</dim>
				</port>
			</input>
			<output>
				<port id="1" names="350" precision="FP16">
					<dim>1</dim>
					<dim>58</dim>
					<dim>56</dim>
					<dim>56</dim>
				</port>
			</output>
		</layer>
		<layer id="25" name="1214" type="Const" version="opset1">
			<data element_type="f16" offset="7472" shape="58, 1, 1, 3, 3" size="1044"/>
			<output>
				<port id="0" names="1214" precision="FP16">
					<dim>58</dim>
					<dim>1</dim>
					<dim>1</dim>
					<dim>3</dim>
					<dim>3</dim>
				</port>
			</output>
		</layer>
		<layer id="26" name="Conv_8/WithoutBiases" type="GroupConvolution" version="opset1">
			<data auto_pad="explicit" dilations="1, 1" pads_begin="1, 1" pads_end="1, 1" strides="2, 2"/>
			<input>
				<port id="0" precision="FP16">
					<dim>1</dim>
					<dim>58</dim>
					<dim>56</dim>
					<dim>56</dim>
				</port>
				<port id="1" precision="FP16">
					<dim>58</dim>
					<dim>1</dim>
					<dim>1</dim>
					<dim>3</dim>
					<dim>3</dim>
				</port>
			</input>
			<output>
				<port id="2" precision="FP16">
					<dim>1</dim>
					<dim>58</dim>
					<dim>28</dim>
					<dim>28</dim>
				</port>
			</output>
		</layer>
		<layer id="27" name="Conv_8/Dims10035" type="Const" version="opset1">
			<data element_type="f16" offset="4572" shape="1, 58, 1, 1" size="116"/>
			<output>
				<port id="0" precision="FP16">
					<dim>1</dim>
					<dim>58</dim>
					<dim>1</dim>
					<dim>1</dim>
				</port>
			</output>
		</layer>
		<layer id="28" name="Conv_8" type="Add" version="opset1">
			<data auto_broadcast="numpy"/>
			<input>
				<port id="0" precision="FP16">
					<dim>1</dim>
					<dim>58</dim>
					<dim>28</dim>
					<dim>28</dim>
				</port>
				<port id="1" precision="FP16">
					<dim>1</dim>
					<dim>58</dim>
					<dim>1</dim>
					<dim>1</dim>
				</port>
			</input>
			<output>
				<port id="2" names="1213" precision="FP16">
					<dim>1</dim>
					<dim>58</dim>
					<dim>28</dim>
					<dim>28</dim>
				</port>
			</output>
		</layer>
		<layer id="29" name="1217" type="Const" version="opset1">
			<data element_type="f16" offset="8516" shape="58, 58, 1, 1" size="6728"/>
			<output>
				<port id="0" names="1217" precision="FP16">
					<dim>58</dim>
					<dim>58</dim>
					<dim>1</dim>
					<dim>1</dim>
				</port>
			</output>
		</layer>
		<layer id="30" name="Conv_9/WithoutBiases" type="Convolution" version="opset1">
			<data auto_pad="explicit" dilations="1, 1" pads_begin="0, 0" pads_end="0, 0" strides="1, 1"/>
			<input>
				<port id="0" precision="FP16">
					<dim>1</dim>
					<dim>58</dim>
					<dim>28</dim>
					<dim>28</dim>
				</port>
				<port id="1" precision="FP16">
					<dim>58</dim>
					<dim>58</dim>
					<dim>1</dim>
					<dim>1</dim>
				</port>
			</input>
			<output>
				<port id="2" precision="FP16">
					<dim>1</dim>
					<dim>58</dim>
					<dim>28</dim>
					<dim>28</dim>
				</port>
			</output>
		</layer>
		<layer id="31" name="Conv_9/Dims10143" type="Const" version="opset1">
			<data element_type="f16" offset="4572" shape="1, 58, 1, 1" size="116"/>
			<output>
				<port id="0" precision="FP16">
					<dim>1</dim>
					<dim>58</dim>
					<dim>1</dim>
					<dim>1</dim>
				</port>
			</output>
		</layer>
		<layer id="32" name="Conv_9" type="Add" version="opset1">
			<data auto_broadcast="numpy"/>
			<input>
				<port id="0" precision="FP16">
					<dim>1</dim>
					<dim>58</dim>
					<dim>28</dim>
					<dim>28</dim>
				</port>
				<port id="1" precision="FP16">
					<dim>1</dim>
					<dim>58</dim>
					<dim>1</dim>
					<dim>1</dim>
				</port>
			</input>
			<output>
				<port id="2" names="1216" precision="FP16">
					<dim>1</dim>
					<dim>58</dim>
					<dim>28</dim>
					<dim>28</dim>
				</port>
			</output>
		</layer>
		<layer id="33" name="Relu_10" type="ReLU" version="opset1">
			<input>
				<port id="0" precision="FP16">
					<dim>1</dim>
					<dim>58</dim>
					<dim>28</dim>
					<dim>28</dim>
				</port>
			</input>
			<output>
				<port id="1" names="355" precision="FP16">
					<dim>1</dim>
					<dim>58</dim>
					<dim>28</dim>
					<dim>28</dim>
				</port>
			</output>
		</layer>
		<layer id="34" name="Concat_11" type="Concat" version="opset1">
			<data axis="1"/>
			<input>
				<port id="0" precision="FP16">
					<dim>1</dim>
					<dim>58</dim>
					<dim>28</dim>
					<dim>28</dim>
				</port>
				<port id="1" precision="FP16">
					<dim>1</dim>
					<dim>58</dim>
					<dim>28</dim>
					<dim>28</dim>
				</port>
			</input>
			<output>
				<port id="2" names="356" precision="FP16">
					<dim>1</dim>
					<dim>116</dim>
					<dim>28</dim>
					<dim>28</dim>
				</port>
			</output>
		</layer>
		<layer id="35" name="Shape_12" type="ShapeOf" version="opset3">
			<data output_type="i64"/>
			<input>
				<port id="0" precision="FP16">
					<dim>1</dim>
					<dim>116</dim>
					<dim>28</dim>
					<dim>28</dim>
				</port>
			</input>
			<output>
				<port id="1" names="357" precision="I64">
					<dim>4</dim>
				</port>
			</output>
		</layer>
		<layer id="36" name="Constant_13" type="Const" version="opset1">
			<data element_type="i32" offset="15244" shape="" size="4"/>
			<output>
				<port id="0" names="358" precision="I32"/>
			</output>
		</layer>
		<layer id="37" name="Gather_14/axis" type="Const" version="opset1">
			<data element_type="i64" offset="15248" shape="" size="8"/>
			<output>
				<port id="0" precision="I64"/>
			</output>
		</layer>
		<layer id="38" name="Gather_141231" type="Gather" version="opset7">
			<data batch_dims="0"/>
			<input>
				<port id="0" precision="I64">
					<dim>4</dim>
				</port>
				<port id="1" precision="I32"/>
				<port id="2" precision="I64"/>
			</input>
			<output>
				<port id="3" names="359" precision="I64"/>
			</output>
		</layer>
		<layer id="39" name="Unsqueeze_28/Dims" type="Const" version="opset1">
			<data element_type="i64" offset="15248" shape="1" size="8"/>
			<output>
				<port id="0" precision="I64">
					<dim>1</dim>
				</port>
			</output>
		</layer>
		<layer id="40" name="Unsqueeze_28/Unsqueeze" type="Unsqueeze" version="opset1">
			<input>
				<port id="0" precision="I64"/>
				<port id="1" precision="I64">
					<dim>1</dim>
				</port>
			</input>
			<output>
				<port id="2" names="374" precision="I64">
					<dim>1</dim>
				</port>
			</output>
		</layer>
		<layer id="41" name="1369" type="Const" version="opset1">
			<data element_type="i64" offset="15256" shape="1" size="8"/>
			<output>
				<port id="0" names="1369" precision="I64">
					<dim>1</dim>
				</port>
			</output>
		</layer>
		<layer id="42" name="Shape_15" type="ShapeOf" version="opset3">
			<data output_type="i64"/>
			<input>
				<port id="0" precision="FP16">
					<dim>1</dim>
					<dim>116</dim>
					<dim>28</dim>
					<dim>28</dim>
				</port>
			</input>
			<output>
				<port id="1" names="360" precision="I64">
					<dim>4</dim>
				</port>
			</output>
		</layer>
		<layer id="43" name="Constant_16" type="Const" version="opset1">
			<data element_type="i32" offset="15264" shape="" size="4"/>
			<output>
				<port id="0" names="361" precision="I32"/>
			</output>
		</layer>
		<layer id="44" name="Gather_17/axis" type="Const" version="opset1">
			<data element_type="i64" offset="15248" shape="" size="8"/>
			<output>
				<port id="0" precision="I64"/>
			</output>
		</layer>
		<layer id="45" name="Gather_171185" type="Gather" version="opset7">
			<data batch_dims="0"/>
			<input>
				<port id="0" precision="I64">
					<dim>4</dim>
				</port>
				<port id="1" precision="I32"/>
				<port id="2" precision="I64"/>
			</input>
			<output>
				<port id="3" names="362" precision="I64"/>
			</output>
		</layer>
		<layer id="46" name="Constant_24" type="Const" version="opset1">
			<data element_type="i64" offset="15256" shape="" size="8"/>
			<output>
				<port id="0" names="369" precision="I64"/>
			</output>
		</layer>
		<layer id="47" name="Div_25" type="Divide" version="opset1">
			<data auto_broadcast="numpy" m_pythondiv="true"/>
			<input>
				<port id="0" precision="I64"/>
				<port id="1" precision="I64"/>
			</input>
			<output>
				<port id="2" names="370,371,372" precision="I64"/>
			</output>
		</layer>
		<layer id="48" name="Unsqueeze_29/Dims" type="Const" version="opset1">
			<data element_type="i64" offset="15248" shape="1" size="8"/>
			<output>
				<port id="0" precision="I64">
					<dim>1</dim>
				</port>
			</output>
		</layer>
		<layer id="49" name="Unsqueeze_29/Unsqueeze" type="Unsqueeze" version="opset1">
			<input>
				<port id="0" precision="I64"/>
				<port id="1" precision="I64">
					<dim>1</dim>
				</port>
			</input>
			<output>
				<port id="2" names="376" precision="I64">
					<dim>1</dim>
				</port>
			</output>
		</layer>
		<layer id="50" name="Shape_18" type="ShapeOf" version="opset3">
			<data output_type="i64"/>
			<input>
				<port id="0" precision="FP16">
					<dim>1</dim>
					<dim>116</dim>
					<dim>28</dim>
					<dim>28</dim>
				</port>
			</input>
			<output>
				<port id="1" names="363" precision="I64">
					<dim>4</dim>
				</port>
			</output>
		</layer>
		<layer id="51" name="Constant_19" type="Const" version="opset1">
			<data element_type="i32" offset="15268" shape="" size="4"/>
			<output>
				<port id="0" names="364" precision="I32"/>
			</output>
		</layer>
		<layer id="52" name="Gather_20/axis" type="Const" version="opset1">
			<data element_type="i64" offset="15248" shape="" size="8"/>
			<output>
				<port id="0" precision="I64"/>
			</output>
		</layer>
		<layer id="53" name="Gather_201197" type="Gather" version="opset7">
			<data batch_dims="0"/>
			<input>
				<port id="0" precision="I64">
					<dim>4</dim>
				</port>
				<port id="1" precision="I32"/>
				<port id="2" precision="I64"/>
			</input>
			<output>
				<port id="3" names="365" precision="I64"/>
			</output>
		</layer>
		<layer id="54" name="Unsqueeze_30/Dims" type="Const" version="opset1">
			<data element_type="i64" offset="15248" shape="1" size="8"/>
			<output>
				<port id="0" precision="I64">
					<dim>1</dim>
				</port>
			</output>
		</layer>
		<layer id="55" name="Unsqueeze_30/Unsqueeze" type="Unsqueeze" version="opset1">
			<input>
				<port id="0" precision="I64"/>
				<port id="1" precision="I64">
					<dim>1</dim>
				</port>
			</input>
			<output>
				<port id="2" names="377" precision="I64">
					<dim>1</dim>
				</port>
			</output>
		</layer>
		<layer id="56" name="Shape_21" type="ShapeOf" version="opset3">
			<data output_type="i64"/>
			<input>
				<port id="0" precision="FP16">
					<dim>1</dim>
					<dim>116</dim>
					<dim>28</dim>
					<dim>28</dim>
				</port>
			</input>
			<output>
				<port id="1" names="366" precision="I64">
					<dim>4</dim>
				</port>
			</output>
		</layer>
		<layer id="57" name="Constant_22" type="Const" version="opset1">
			<data element_type="i32" offset="15272" shape="" size="4"/>
			<output>
				<port id="0" names="367" precision="I32"/>
			</output>
		</layer>
		<layer id="58" name="Gather_23/axis" type="Const" version="opset1">
			<data element_type="i64" offset="15248" shape="" size="8"/>
			<output>
				<port id="0" precision="I64"/>
			</output>
		</layer>
		<layer id="59" name="Gather_231187" type="Gather" version="opset7">
			<data batch_dims="0"/>
			<input>
				<port id="0" precision="I64">
					<dim>4</dim>
				</port>
				<port id="1" precision="I32"/>
				<port id="2" precision="I64"/>
			</input>
			<output>
				<port id="3" names="368" precision="I64"/>
			</output>
		</layer>
		<layer id="60" name="Unsqueeze_31/Dims" type="Const" version="opset1">
			<data element_type="i64" offset="15248" shape="1" size="8"/>
			<output>
				<port id="0" precision="I64">
					<dim>1</dim>
				</port>
			</output>
		</layer>
		<layer id="61" name="Unsqueeze_31/Unsqueeze" type="Unsqueeze" version="opset1">
			<input>
				<port id="0" precision="I64"/>
				<port id="1" precision="I64">
					<dim>1</dim>
				</port>
			</input>
			<output>
				<port id="2" names="378" precision="I64">
					<dim>1</dim>
				</port>
			</output>
		</layer>
		<layer id="62" name="Concat_32" type="Concat" version="opset1">
			<data axis="0"/>
			<input>
				<port id="0" precision="I64">
					<dim>1</dim>
				</port>
				<port id="1" precision="I64">
					<dim>1</dim>
				</port>
				<port id="2" precision="I64">
					<dim>1</dim>
				</port>
				<port id="3" precision="I64">
					<dim>1</dim>
				</port>
				<port id="4" precision="I64">
					<dim>1</dim>
				</port>
			</input>
			<output>
				<port id="5" names="379" precision="I64">
					<dim>5</dim>
				</port>
			</output>
		</layer>
		<layer id="63" name="Reshape_33" type="Reshape" version="opset1">
			<data special_zero="true"/>
			<input>
				<port id="0" precision="FP16">
					<dim>1</dim>
					<dim>116</dim>
					<dim>28</dim>
					<dim>28</dim>
				</port>
				<port id="1" precision="I64">
					<dim>5</dim>
				</port>
			</input>
			<output>
				<port id="2" names="380" precision="FP16">
					<dim>1</dim>
					<dim>2</dim>
					<dim>58</dim>
					<dim>28</dim>
					<dim>28</dim>
				</port>
			</output>
		</layer>
		<layer id="64" name="897" type="Const" version="opset1">
			<data element_type="i64" offset="15276" shape="5" size="40"/>
			<output>
				<port id="0" precision="I64">
					<dim>5</dim>
				</port>
			</output>
		</layer>
		<layer id="65" name="Transpose_34" type="Transpose" version="opset1">
			<input>
				<port id="0" precision="FP16">
					<dim>1</dim>
					<dim>2</dim>
					<dim>58</dim>
					<dim>28</dim>
					<dim>28</dim>
				</port>
				<port id="1" precision="I64">
					<dim>5</dim>
				</port>
			</input>
			<output>
				<port id="2" names="381" precision="FP16">
					<dim>1</dim>
					<dim>58</dim>
					<dim>2</dim>
					<dim>28</dim>
					<dim>28</dim>
				</port>
			</output>
		</layer>
		<layer id="66" name="Unsqueeze_35/Dims" type="Const" version="opset1">
			<data element_type="i64" offset="15248" shape="1" size="8"/>
			<output>
				<port id="0" precision="I64">
					<dim>1</dim>
				</port>
			</output>
		</layer>
		<layer id="67" name="Unsqueeze_35/Unsqueeze" type="Unsqueeze" version="opset1">
			<input>
				<port id="0" precision="I64"/>
				<port id="1" precision="I64">
					<dim>1</dim>
				</port>
			</input>
			<output>
				<port id="2" names="383" precision="I64">
					<dim>1</dim>
				</port>
			</output>
		</layer>
		<layer id="68" name="1370" type="Const" version="opset1">
			<data element_type="i64" offset="15316" shape="1" size="8"/>
			<output>
				<port id="0" names="1370" precision="I64">
					<dim>1</dim>
				</port>
			</output>
		</layer>
		<layer id="69" name="Unsqueeze_36/Dims" type="Const" version="opset1">
			<data element_type="i64" offset="15248" shape="1" size="8"/>
			<output>
				<port id="0" precision="I64">
					<dim>1</dim>
				</port>
			</output>
		</layer>
		<layer id="70" name="Unsqueeze_36/Unsqueeze" type="Unsqueeze" version="opset1">
			<input>
				<port id="0" precision="I64"/>
				<port id="1" precision="I64">
					<dim>1</dim>
				</port>
			</input>
			<output>
				<port id="2" names="385" precision="I64">
					<dim>1</dim>
				</port>
			</output>
		</layer>
		<layer id="71" name="Unsqueeze_37/Dims" type="Const" version="opset1">
			<data element_type="i64" offset="15248" shape="1" size="8"/>
			<output>
				<port id="0" precision="I64">
					<dim>1</dim>
				</port>
			</output>
		</layer>
		<layer id="72" name="Unsqueeze_37/Unsqueeze" type="Unsqueeze" version="opset1">
			<input>
				<port id="0" precision="I64"/>
				<port id="1" precision="I64">
					<dim>1</dim>
				</port>
			</input>
			<output>
				<port id="2" names="386" precision="I64">
					<dim>1</dim>
				</port>
			</output>
		</layer>
		<layer id="73" name="Concat_38" type="Concat" version="opset1">
			<data axis="0"/>
			<input>
				<port id="0" precision="I64">
					<dim>1</dim>
				</port>
				<port id="1" precision="I64">
					<dim>1</dim>
				</port>
				<port id="2" precision="I64">
					<dim>1</dim>
				</port>
				<port id="3" precision="I64">
					<dim>1</dim>
				</port>
			</input>
			<output>
				<port id="4" names="387" precision="I64">
					<dim>4</dim>
				</port>
			</output>
		</layer>
		<layer id="74" name="Reshape_39" type="Reshape" version="opset1">
			<data special_zero="true"/>
			<input>
				<port id="0" precision="FP16">
					<dim>1</dim>
					<dim>58</dim>
					<dim>2</dim>
					<dim>28</dim>
					<dim>28</dim>
				</port>
				<port id="1" precision="I64">
					<dim>4</dim>
				</port>
			</input>
			<output>
				<port id="2" names="388" precision="FP16">
					<dim>1</dim>
					<dim>116</dim>
					<dim>28</dim>
					<dim>28</dim>
				</port>
			</output>
		</layer>
		<layer id="75" name="1283836409" type="Const" version="opset1">
			<data element_type="i64" offset="15324" shape="" size="8"/>
			<output>
				<port id="0" precision="I64"/>
			</output>
		</layer>
		<layer id="76" name="1284036631" type="Const" version="opset1">
			<data element_type="i64" offset="15332" shape="2" size="16"/>
			<output>
				<port id="0" precision="I64">
					<dim>2</dim>
				</port>
			</output>
		</layer>
		<layer id="77" name="Slice_50/Split" type="VariadicSplit" version="opset1">
			<input>
				<port id="0" precision="FP16">
					<dim>1</dim>
					<dim>116</dim>
					<dim>28</dim>
					<dim>28</dim>
				</port>
				<port id="1" precision="I64"/>
				<port id="2" precision="I64">
					<dim>2</dim>
				</port>
			</input>
			<output>
				<port id="3" names="399" precision="FP16">
					<dim>1</dim>
					<dim>58</dim>
					<dim>28</dim>
					<dim>28</dim>
				</port>
				<port id="4" names="402" precision="FP16">
					<dim>1</dim>
					<dim>58</dim>
					<dim>28</dim>
					<dim>28</dim>
				</port>
			</output>
		</layer>
		<layer id="78" name="1220" type="Const" version="opset1">
			<data element_type="f16" offset="15348" shape="58, 58, 1, 1" size="6728"/>
			<output>
				<port id="0" names="1220" precision="FP16">
					<dim>58</dim>
					<dim>58</dim>
					<dim>1</dim>
					<dim>1</dim>
				</port>
			</output>
		</layer>
		<layer id="79" name="Conv_54/WithoutBiases" type="Convolution" version="opset1">
			<data auto_pad="explicit" dilations="1, 1" pads_begin="0, 0" pads_end="0, 0" strides="1, 1"/>
			<input>
				<port id="0" precision="FP16">
					<dim>1</dim>
					<dim>58</dim>
					<dim>28</dim>
					<dim>28</dim>
				</port>
				<port id="1" precision="FP16">
					<dim>58</dim>
					<dim>58</dim>
					<dim>1</dim>
					<dim>1</dim>
				</port>
			</input>
			<output>
				<port id="2" precision="FP16">
					<dim>1</dim>
					<dim>58</dim>
					<dim>28</dim>
					<dim>28</dim>
				</port>
			</output>
		</layer>
		<layer id="80" name="Conv_54/Dims10017" type="Const" version="opset1">
			<data element_type="f16" offset="4572" shape="1, 58, 1, 1" size="116"/>
			<output>
				<port id="0" precision="FP16">
					<dim>1</dim>
					<dim>58</dim>
					<dim>1</dim>
					<dim>1</dim>
				</port>
			</output>
		</layer>
		<layer id="81" name="Conv_54" type="Add" version="opset1">
			<data auto_broadcast="numpy"/>
			<input>
				<port id="0" precision="FP16">
					<dim>1</dim>
					<dim>58</dim>
					<dim>28</dim>
					<dim>28</dim>
				</port>
				<port id="1" precision="FP16">
					<dim>1</dim>
					<dim>58</dim>
					<dim>1</dim>
					<dim>1</dim>
				</port>
			</input>
			<output>
				<port id="2" names="1219" precision="FP16">
					<dim>1</dim>
					<dim>58</dim>
					<dim>28</dim>
					<dim>28</dim>
				</port>
			</output>
		</layer>
		<layer id="82" name="Relu_55" type="ReLU" version="opset1">
			<input>
				<port id="0" precision="FP16">
					<dim>1</dim>
					<dim>58</dim>
					<dim>28</dim>
					<dim>28</dim>
				</port>
			</input>
			<output>
				<port id="1" names="405" precision="FP16">
					<dim>1</dim>
					<dim>58</dim>
					<dim>28</dim>
					<dim>28</dim>
				</port>
			</output>
		</layer>
		<layer id="83" name="1223" type="Const" version="opset1">
			<data element_type="f16" offset="22076" shape="58, 1, 1, 3, 3" size="1044"/>
			<output>
				<port id="0" names="1223" precision="FP16">
					<dim>58</dim>
					<dim>1</dim>
					<dim>1</dim>
					<dim>3</dim>
					<dim>3</dim>
				</port>
			</output>
		</layer>
		<layer id="84" name="Conv_56/WithoutBiases" type="GroupConvolution" version="opset1">
			<data auto_pad="explicit" dilations="1, 1" pads_begin="1, 1" pads_end="1, 1" strides="1, 1"/>
			<input>
				<port id="0" precision="FP16">
					<dim>1</dim>
					<dim>58</dim>
					<dim>28</dim>
					<dim>28</dim>
				</port>
				<port id="1" precision="FP16">
					<dim>58</dim>
					<dim>1</dim>
					<dim>1</dim>
					<dim>3</dim>
					<dim>3</dim>
				</port>
			</input>
			<output>
				<port id="2" precision="FP16">
					<dim>1</dim>
					<dim>58</dim>
					<dim>28</dim>
					<dim>28</dim>
				</port>
			</output>
		</layer>
		<layer id="85" name="Conv_56/Dims9981" type="Const" version="opset1">
			<data element_type="f16" offset="4572" shape="1, 58, 1, 1" size="116"/>
			<output>
				<port id="0" precision="FP16">
					<dim>1</dim>
					<dim>58</dim>
					<dim>1</dim>
					<dim>1</dim>
				</port>
			</output>
		</layer>
		<layer id="86" name="Conv_56" type="Add" version="opset1">
			<data auto_broadcast="numpy"/>
			<input>
				<port id="0" precision="FP16">
					<dim>1</dim>
					<dim>58</dim>
					<dim>28</dim>
					<dim>28</dim>
				</port>
				<port id="1" precision="FP16">
					<dim>1</dim>
					<dim>58</dim>
					<dim>1</dim>
					<dim>1</dim>
				</port>
			</input>
			<output>
				<port id="2" names="1222" precision="FP16">
					<dim>1</dim>
					<dim>58</dim>
					<dim>28</dim>
					<dim>28</dim>
				</port>
			</output>
		</layer>
		<layer id="87" name="1226" type="Const" version="opset1">
			<data element_type="f16" offset="23120" shape="58, 58, 1, 1" size="6728"/>
			<output>
				<port id="0" names="1226" precision="FP16">
					<dim>58</dim>
					<dim>58</dim>
					<dim>1</dim>
					<dim>1</dim>
				</port>
			</output>
		</layer>
		<layer id="88" name="Conv_57/WithoutBiases" type="Convolution" version="opset1">
			<data auto_pad="explicit" dilations="1, 1" pads_begin="0, 0" pads_end="0, 0" strides="1, 1"/>
			<input>
				<port id="0" precision="FP16">
					<dim>1</dim>
					<dim>58</dim>
					<dim>28</dim>
					<dim>28</dim>
				</port>
				<port id="1" precision="FP16">
					<dim>58</dim>
					<dim>58</dim>
					<dim>1</dim>
					<dim>1</dim>
				</port>
			</input>
			<output>
				<port id="2" precision="FP16">
					<dim>1</dim>
					<dim>58</dim>
					<dim>28</dim>
					<dim>28</dim>
				</port>
			</output>
		</layer>
		<layer id="89" name="Conv_57/Dims10149" type="Const" version="opset1">
			<data element_type="f16" offset="4572" shape="1, 58, 1, 1" size="116"/>
			<output>
				<port id="0" precision="FP16">
					<dim>1</dim>
					<dim>58</dim>
					<dim>1</dim>
					<dim>1</dim>
				</port>
			</output>
		</layer>
		<layer id="90" name="Conv_57" type="Add" version="opset1">
			<data auto_broadcast="numpy"/>
			<input>
				<port id="0" precision="FP16">
					<dim>1</dim>
					<dim>58</dim>
					<dim>28</dim>
					<dim>28</dim>
				</port>
				<port id="1" precision="FP16">
					<dim>1</dim>
					<dim>58</dim>
					<dim>1</dim>
					<dim>1</dim>
				</port>
			</input>
			<output>
				<port id="2" names="1225" precision="FP16">
					<dim>1</dim>
					<dim>58</dim>
					<dim>28</dim>
					<dim>28</dim>
				</port>
			</output>
		</layer>
		<layer id="91" name="Relu_58" type="ReLU" version="opset1">
			<input>
				<port id="0" precision="FP16">
					<dim>1</dim>
					<dim>58</dim>
					<dim>28</dim>
					<dim>28</dim>
				</port>
			</input>
			<output>
				<port id="1" names="410" precision="FP16">
					<dim>1</dim>
					<dim>58</dim>
					<dim>28</dim>
					<dim>28</dim>
				</port>
			</output>
		</layer>
		<layer id="92" name="Concat_59" type="Concat" version="opset1">
			<data axis="1"/>
			<input>
				<port id="0" precision="FP16">
					<dim>1</dim>
					<dim>58</dim>
					<dim>28</dim>
					<dim>28</dim>
				</port>
				<port id="1" precision="FP16">
					<dim>1</dim>
					<dim>58</dim>
					<dim>28</dim>
					<dim>28</dim>
				</port>
			</input>
			<output>
				<port id="2" names="411" precision="FP16">
					<dim>1</dim>
					<dim>116</dim>
					<dim>28</dim>
					<dim>28</dim>
				</port>
			</output>
		</layer>
		<layer id="93" name="Shape_60" type="ShapeOf" version="opset3">
			<data output_type="i64"/>
			<input>
				<port id="0" precision="FP16">
					<dim>1</dim>
					<dim>116</dim>
					<dim>28</dim>
					<dim>28</dim>
				</port>
			</input>
			<output>
				<port id="1" names="412" precision="I64">
					<dim>4</dim>
				</port>
			</output>
		</layer>
		<layer id="94" name="Constant_61" type="Const" version="opset1">
			<data element_type="i32" offset="15244" shape="" size="4"/>
			<output>
				<port id="0" names="413" precision="I32"/>
			</output>
		</layer>
		<layer id="95" name="Gather_62/axis" type="Const" version="opset1">
			<data element_type="i64" offset="15248" shape="" size="8"/>
			<output>
				<port id="0" precision="I64"/>
			</output>
		</layer>
		<layer id="96" name="Gather_621249" type="Gather" version="opset7">
			<data batch_dims="0"/>
			<input>
				<port id="0" precision="I64">
					<dim>4</dim>
				</port>
				<port id="1" precision="I32"/>
				<port id="2" precision="I64"/>
			</input>
			<output>
				<port id="3" names="414" precision="I64"/>
			</output>
		</layer>
		<layer id="97" name="Unsqueeze_76/Dims" type="Const" version="opset1">
			<data element_type="i64" offset="15248" shape="1" size="8"/>
			<output>
				<port id="0" precision="I64">
					<dim>1</dim>
				</port>
			</output>
		</layer>
		<layer id="98" name="Unsqueeze_76/Unsqueeze" type="Unsqueeze" version="opset1">
			<input>
				<port id="0" precision="I64"/>
				<port id="1" precision="I64">
					<dim>1</dim>
				</port>
			</input>
			<output>
				<port id="2" names="429" precision="I64">
					<dim>1</dim>
				</port>
			</output>
		</layer>
		<layer id="99" name="1371" type="Const" version="opset1">
			<data element_type="i64" offset="15256" shape="1" size="8"/>
			<output>
				<port id="0" names="1371" precision="I64">
					<dim>1</dim>
				</port>
			</output>
		</layer>
		<layer id="100" name="Shape_63" type="ShapeOf" version="opset3">
			<data output_type="i64"/>
			<input>
				<port id="0" precision="FP16">
					<dim>1</dim>
					<dim>116</dim>
					<dim>28</dim>
					<dim>28</dim>
				</port>
			</input>
			<output>
				<port id="1" names="415" precision="I64">
					<dim>4</dim>
				</port>
			</output>
		</layer>
		<layer id="101" name="Constant_64" type="Const" version="opset1">
			<data element_type="i32" offset="15264" shape="" size="4"/>
			<output>
				<port id="0" names="416" precision="I32"/>
			</output>
		</layer>
		<layer id="102" name="Gather_65/axis" type="Const" version="opset1">
			<data element_type="i64" offset="15248" shape="" size="8"/>
			<output>
				<port id="0" precision="I64"/>
			</output>
		</layer>
		<layer id="103" name="Gather_651145" type="Gather" version="opset7">
			<data batch_dims="0"/>
			<input>
				<port id="0" precision="I64">
					<dim>4</dim>
				</port>
				<port id="1" precision="I32"/>
				<port id="2" precision="I64"/>
			</input>
			<output>
				<port id="3" names="417" precision="I64"/>
			</output>
		</layer>
		<layer id="104" name="Constant_72" type="Const" version="opset1">
			<data element_type="i64" offset="15256" shape="" size="8"/>
			<output>
				<port id="0" names="424" precision="I64"/>
			</output>
		</layer>
		<layer id="105" name="Div_73" type="Divide" version="opset1">
			<data auto_broadcast="numpy" m_pythondiv="true"/>
			<input>
				<port id="0" precision="I64"/>
				<port id="1" precision="I64"/>
			</input>
			<output>
				<port id="2" names="425,426,427" precision="I64"/>
			</output>
		</layer>
		<layer id="106" name="Unsqueeze_77/Dims" type="Const" version="opset1">
			<data element_type="i64" offset="15248" shape="1" size="8"/>
			<output>
				<port id="0" precision="I64">
					<dim>1</dim>
				</port>
			</output>
		</layer>
		<layer id="107" name="Unsqueeze_77/Unsqueeze" type="Unsqueeze" version="opset1">
			<input>
				<port id="0" precision="I64"/>
				<port id="1" precision="I64">
					<dim>1</dim>
				</port>
			</input>
			<output>
				<port id="2" names="431" precision="I64">
					<dim>1</dim>
				</port>
			</output>
		</layer>
		<layer id="108" name="Shape_66" type="ShapeOf" version="opset3">
			<data output_type="i64"/>
			<input>
				<port id="0" precision="FP16">
					<dim>1</dim>
					<dim>116</dim>
					<dim>28</dim>
					<dim>28</dim>
				</port>
			</input>
			<output>
				<port id="1" names="418" precision="I64">
					<dim>4</dim>
				</port>
			</output>
		</layer>
		<layer id="109" name="Constant_67" type="Const" version="opset1">
			<data element_type="i32" offset="15268" shape="" size="4"/>
			<output>
				<port id="0" names="419" precision="I32"/>
			</output>
		</layer>
		<layer id="110" name="Gather_68/axis" type="Const" version="opset1">
			<data element_type="i64" offset="15248" shape="" size="8"/>
			<output>
				<port id="0" precision="I64"/>
			</output>
		</layer>
		<layer id="111" name="Gather_681217" type="Gather" version="opset7">
			<data batch_dims="0"/>
			<input>
				<port id="0" precision="I64">
					<dim>4</dim>
				</port>
				<port id="1" precision="I32"/>
				<port id="2" precision="I64"/>
			</input>
			<output>
				<port id="3" names="420" precision="I64"/>
			</output>
		</layer>
		<layer id="112" name="Unsqueeze_78/Dims" type="Const" version="opset1">
			<data element_type="i64" offset="15248" shape="1" size="8"/>
			<output>
				<port id="0" precision="I64">
					<dim>1</dim>
				</port>
			</output>
		</layer>
		<layer id="113" name="Unsqueeze_78/Unsqueeze" type="Unsqueeze" version="opset1">
			<input>
				<port id="0" precision="I64"/>
				<port id="1" precision="I64">
					<dim>1</dim>
				</port>
			</input>
			<output>
				<port id="2" names="432" precision="I64">
					<dim>1</dim>
				</port>
			</output>
		</layer>
		<layer id="114" name="Shape_69" type="ShapeOf" version="opset3">
			<data output_type="i64"/>
			<input>
				<port id="0" precision="FP16">
					<dim>1</dim>
					<dim>116</dim>
					<dim>28</dim>
					<dim>28</dim>
				</port>
			</input>
			<output>
				<port id="1" names="421" precision="I64">
					<dim>4</dim>
				</port>
			</output>
		</layer>
		<layer id="115" name="Constant_70" type="Const" version="opset1">
			<data element_type="i32" offset="15272" shape="" size="4"/>
			<output>
				<port id="0" names="422" precision="I32"/>
			</output>
		</layer>
		<layer id="116" name="Gather_71/axis" type="Const" version="opset1">
			<data element_type="i64" offset="15248" shape="" size="8"/>
			<output>
				<port id="0" precision="I64"/>
			</output>
		</layer>
		<layer id="117" name="Gather_711247" type="Gather" version="opset7">
			<data batch_dims="0"/>
			<input>
				<port id="0" precision="I64">
					<dim>4</dim>
				</port>
				<port id="1" precision="I32"/>
				<port id="2" precision="I64"/>
			</input>
			<output>
				<port id="3" names="423" precision="I64"/>
			</output>
		</layer>
		<layer id="118" name="Unsqueeze_79/Dims" type="Const" version="opset1">
			<data element_type="i64" offset="15248" shape="1" size="8"/>
			<output>
				<port id="0" precision="I64">
					<dim>1</dim>
				</port>
			</output>
		</layer>
		<layer id="119" name="Unsqueeze_79/Unsqueeze" type="Unsqueeze" version="opset1">
			<input>
				<port id="0" precision="I64"/>
				<port id="1" precision="I64">
					<dim>1</dim>
				</port>
			</input>
			<output>
				<port id="2" names="433" precision="I64">
					<dim>1</dim>
				</port>
			</output>
		</layer>
		<layer id="120" name="Concat_80" type="Concat" version="opset1">
			<data axis="0"/>
			<input>
				<port id="0" precision="I64">
					<dim>1</dim>
				</port>
				<port id="1" precision="I64">
					<dim>1</dim>
				</port>
				<port id="2" precision="I64">
					<dim>1</dim>
				</port>
				<port id="3" precision="I64">
					<dim>1</dim>
				</port>
				<port id="4" precision="I64">
					<dim>1</dim>
				</port>
			</input>
			<output>
				<port id="5" names="434" precision="I64">
					<dim>5</dim>
				</port>
			</output>
		</layer>
		<layer id="121" name="Reshape_81" type="Reshape" version="opset1">
			<data special_zero="true"/>
			<input>
				<port id="0" precision="FP16">
					<dim>1</dim>
					<dim>116</dim>
					<dim>28</dim>
					<dim>28</dim>
				</port>
				<port id="1" precision="I64">
					<dim>5</dim>
				</port>
			</input>
			<output>
				<port id="2" names="435" precision="FP16">
					<dim>1</dim>
					<dim>2</dim>
					<dim>58</dim>
					<dim>28</dim>
					<dim>28</dim>
				</port>
			</output>
		</layer>
		<layer id="122" name="893" type="Const" version="opset1">
			<data element_type="i64" offset="15276" shape="5" size="40"/>
			<output>
				<port id="0" precision="I64">
					<dim>5</dim>
				</port>
			</output>
		</layer>
		<layer id="123" name="Transpose_82" type="Transpose" version="opset1">
			<input>
				<port id="0" precision="FP16">
					<dim>1</dim>
					<dim>2</dim>
					<dim>58</dim>
					<dim>28</dim>
					<dim>28</dim>
				</port>
				<port id="1" precision="I64">
					<dim>5</dim>
				</port>
			</input>
			<output>
				<port id="2" names="436" precision="FP16">
					<dim>1</dim>
					<dim>58</dim>
					<dim>2</dim>
					<dim>28</dim>
					<dim>28</dim>
				</port>
			</output>
		</layer>
		<layer id="124" name="Unsqueeze_83/Dims" type="Const" version="opset1">
			<data element_type="i64" offset="15248" shape="1" size="8"/>
			<output>
				<port id="0" precision="I64">
					<dim>1</dim>
				</port>
			</output>
		</layer>
		<layer id="125" name="Unsqueeze_83/Unsqueeze" type="Unsqueeze" version="opset1">
			<input>
				<port id="0" precision="I64"/>
				<port id="1" precision="I64">
					<dim>1</dim>
				</port>
			</input>
			<output>
				<port id="2" names="438" precision="I64">
					<dim>1</dim>
				</port>
			</output>
		</layer>
		<layer id="126" name="1372" type="Const" version="opset1">
			<data element_type="i64" offset="15316" shape="1" size="8"/>
			<output>
				<port id="0" names="1372" precision="I64">
					<dim>1</dim>
				</port>
			</output>
		</layer>
		<layer id="127" name="Unsqueeze_84/Dims" type="Const" version="opset1">
			<data element_type="i64" offset="15248" shape="1" size="8"/>
			<output>
				<port id="0" precision="I64">
					<dim>1</dim>
				</port>
			</output>
		</layer>
		<layer id="128" name="Unsqueeze_84/Unsqueeze" type="Unsqueeze" version="opset1">
			<input>
				<port id="0" precision="I64"/>
				<port id="1" precision="I64">
					<dim>1</dim>
				</port>
			</input>
			<output>
				<port id="2" names="440" precision="I64">
					<dim>1</dim>
				</port>
			</output>
		</layer>
		<layer id="129" name="Unsqueeze_85/Dims" type="Const" version="opset1">
			<data element_type="i64" offset="15248" shape="1" size="8"/>
			<output>
				<port id="0" precision="I64">
					<dim>1</dim>
				</port>
			</output>
		</layer>
		<layer id="130" name="Unsqueeze_85/Unsqueeze" type="Unsqueeze" version="opset1">
			<input>
				<port id="0" precision="I64"/>
				<port id="1" precision="I64">
					<dim>1</dim>
				</port>
			</input>
			<output>
				<port id="2" names="441" precision="I64">
					<dim>1</dim>
				</port>
			</output>
		</layer>
		<layer id="131" name="Concat_86" type="Concat" version="opset1">
			<data axis="0"/>
			<input>
				<port id="0" precision="I64">
					<dim>1</dim>
				</port>
				<port id="1" precision="I64">
					<dim>1</dim>
				</port>
				<port id="2" precision="I64">
					<dim>1</dim>
				</port>
				<port id="3" precision="I64">
					<dim>1</dim>
				</port>
			</input>
			<output>
				<port id="4" names="442" precision="I64">
					<dim>4</dim>
				</port>
			</output>
		</layer>
		<layer id="132" name="Reshape_87" type="Reshape" version="opset1">
			<data special_zero="true"/>
			<input>
				<port id="0" precision="FP16">
					<dim>1</dim>
					<dim>58</dim>
					<dim>2</dim>
					<dim>28</dim>
					<dim>28</dim>
				</port>
				<port id="1" precision="I64">
					<dim>4</dim>
				</port>
			</input>
			<output>
				<port id="2" names="443" precision="FP16">
					<dim>1</dim>
					<dim>116</dim>
					<dim>28</dim>
					<dim>28</dim>
				</port>
			</output>
		</layer>
		<layer id="133" name="1284336391" type="Const" version="opset1">
			<data element_type="i64" offset="15324" shape="" size="8"/>
			<output>
				<port id="0" precision="I64"/>
			</output>
		</layer>
		<layer id="134" name="1284536676" type="Const" version="opset1">
			<data element_type="i64" offset="15332" shape="2" size="16"/>
			<output>
				<port id="0" precision="I64">
					<dim>2</dim>
				</port>
			</output>
		</layer>
		<layer id="135" name="Slice_98/Split" type="VariadicSplit" version="opset1">
			<input>
				<port id="0" precision="FP16">
					<dim>1</dim>
					<dim>116</dim>
					<dim>28</dim>
					<dim>28</dim>
				</port>
				<port id="1" precision="I64"/>
				<port id="2" precision="I64">
					<dim>2</dim>
				</port>
			</input>
			<output>
				<port id="3" names="454" precision="FP16">
					<dim>1</dim>
					<dim>58</dim>
					<dim>28</dim>
					<dim>28</dim>
				</port>
				<port id="4" names="457" precision="FP16">
					<dim>1</dim>
					<dim>58</dim>
					<dim>28</dim>
					<dim>28</dim>
				</port>
			</output>
		</layer>
		<layer id="136" name="1229" type="Const" version="opset1">
			<data element_type="f16" offset="29848" shape="58, 58, 1, 1" size="6728"/>
			<output>
				<port id="0" names="1229" precision="FP16">
					<dim>58</dim>
					<dim>58</dim>
					<dim>1</dim>
					<dim>1</dim>
				</port>
			</output>
		</layer>
		<layer id="137" name="Conv_102/WithoutBiases" type="Convolution" version="opset1">
			<data auto_pad="explicit" dilations="1, 1" pads_begin="0, 0" pads_end="0, 0" strides="1, 1"/>
			<input>
				<port id="0" precision="FP16">
					<dim>1</dim>
					<dim>58</dim>
					<dim>28</dim>
					<dim>28</dim>
				</port>
				<port id="1" precision="FP16">
					<dim>58</dim>
					<dim>58</dim>
					<dim>1</dim>
					<dim>1</dim>
				</port>
			</input>
			<output>
				<port id="2" precision="FP16">
					<dim>1</dim>
					<dim>58</dim>
					<dim>28</dim>
					<dim>28</dim>
				</port>
			</output>
		</layer>
		<layer id="138" name="Conv_102/Dims10041" type="Const" version="opset1">
			<data element_type="f16" offset="4572" shape="1, 58, 1, 1" size="116"/>
			<output>
				<port id="0" precision="FP16">
					<dim>1</dim>
					<dim>58</dim>
					<dim>1</dim>
					<dim>1</dim>
				</port>
			</output>
		</layer>
		<layer id="139" name="Conv_102" type="Add" version="opset1">
			<data auto_broadcast="numpy"/>
			<input>
				<port id="0" precision="FP16">
					<dim>1</dim>
					<dim>58</dim>
					<dim>28</dim>
					<dim>28</dim>
				</port>
				<port id="1" precision="FP16">
					<dim>1</dim>
					<dim>58</dim>
					<dim>1</dim>
					<dim>1</dim>
				</port>
			</input>
			<output>
				<port id="2" names="1228" precision="FP16">
					<dim>1</dim>
					<dim>58</dim>
					<dim>28</dim>
					<dim>28</dim>
				</port>
			</output>
		</layer>
		<layer id="140" name="Relu_103" type="ReLU" version="opset1">
			<input>
				<port id="0" precision="FP16">
					<dim>1</dim>
					<dim>58</dim>
					<dim>28</dim>
					<dim>28</dim>
				</port>
			</input>
			<output>
				<port id="1" names="460" precision="FP16">
					<dim>1</dim>
					<dim>58</dim>
					<dim>28</dim>
					<dim>28</dim>
				</port>
			</output>
		</layer>
		<layer id="141" name="1232" type="Const" version="opset1">
			<data element_type="f16" offset="36576" shape="58, 1, 1, 3, 3" size="1044"/>
			<output>
				<port id="0" names="1232" precision="FP16">
					<dim>58</dim>
					<dim>1</dim>
					<dim>1</dim>
					<dim>3</dim>
					<dim>3</dim>
				</port>
			</output>
		</layer>
		<layer id="142" name="Conv_104/WithoutBiases" type="GroupConvolution" version="opset1">
			<data auto_pad="explicit" dilations="1, 1" pads_begin="1, 1" pads_end="1, 1" strides="1, 1"/>
			<input>
				<port id="0" precision="FP16">
					<dim>1</dim>
					<dim>58</dim>
					<dim>28</dim>
					<dim>28</dim>
				</port>
				<port id="1" precision="FP16">
					<dim>58</dim>
					<dim>1</dim>
					<dim>1</dim>
					<dim>3</dim>
					<dim>3</dim>
				</port>
			</input>
			<output>
				<port id="2" precision="FP16">
					<dim>1</dim>
					<dim>58</dim>
					<dim>28</dim>
					<dim>28</dim>
				</port>
			</output>
		</layer>
		<layer id="143" name="Conv_104/Dims10209" type="Const" version="opset1">
			<data element_type="f16" offset="4572" shape="1, 58, 1, 1" size="116"/>
			<output>
				<port id="0" precision="FP16">
					<dim>1</dim>
					<dim>58</dim>
					<dim>1</dim>
					<dim>1</dim>
				</port>
			</output>
		</layer>
		<layer id="144" name="Conv_104" type="Add" version="opset1">
			<data auto_broadcast="numpy"/>
			<input>
				<port id="0" precision="FP16">
					<dim>1</dim>
					<dim>58</dim>
					<dim>28</dim>
					<dim>28</dim>
				</port>
				<port id="1" precision="FP16">
					<dim>1</dim>
					<dim>58</dim>
					<dim>1</dim>
					<dim>1</dim>
				</port>
			</input>
			<output>
				<port id="2" names="1231" precision="FP16">
					<dim>1</dim>
					<dim>58</dim>
					<dim>28</dim>
					<dim>28</dim>
				</port>
			</output>
		</layer>
		<layer id="145" name="1235" type="Const" version="opset1">
			<data element_type="f16" offset="37620" shape="58, 58, 1, 1" size="6728"/>
			<output>
				<port id="0" names="1235" precision="FP16">
					<dim>58</dim>
					<dim>58</dim>
					<dim>1</dim>
					<dim>1</dim>
				</port>
			</output>
		</layer>
		<layer id="146" name="Conv_105/WithoutBiases" type="Convolution" version="opset1">
			<data auto_pad="explicit" dilations="1, 1" pads_begin="0, 0" pads_end="0, 0" strides="1, 1"/>
			<input>
				<port id="0" precision="FP16">
					<dim>1</dim>
					<dim>58</dim>
					<dim>28</dim>
					<dim>28</dim>
				</port>
				<port id="1" precision="FP16">
					<dim>58</dim>
					<dim>58</dim>
					<dim>1</dim>
					<dim>1</dim>
				</port>
			</input>
			<output>
				<port id="2" precision="FP16">
					<dim>1</dim>
					<dim>58</dim>
					<dim>28</dim>
					<dim>28</dim>
				</port>
			</output>
		</layer>
		<layer id="147" name="Conv_105/Dims9969" type="Const" version="opset1">
			<data element_type="f16" offset="4572" shape="1, 58, 1, 1" size="116"/>
			<output>
				<port id="0" precision="FP16">
					<dim>1</dim>
					<dim>58</dim>
					<dim>1</dim>
					<dim>1</dim>
				</port>
			</output>
		</layer>
		<layer id="148" name="Conv_105" type="Add" version="opset1">
			<data auto_broadcast="numpy"/>
			<input>
				<port id="0" precision="FP16">
					<dim>1</dim>
					<dim>58</dim>
					<dim>28</dim>
					<dim>28</dim>
				</port>
				<port id="1" precision="FP16">
					<dim>1</dim>
					<dim>58</dim>
					<dim>1</dim>
					<dim>1</dim>
				</port>
			</input>
			<output>
				<port id="2" names="1234" precision="FP16">
					<dim>1</dim>
					<dim>58</dim>
					<dim>28</dim>
					<dim>28</dim>
				</port>
			</output>
		</layer>
		<layer id="149" name="Relu_106" type="ReLU" version="opset1">
			<input>
				<port id="0" precision="FP16">
					<dim>1</dim>
					<dim>58</dim>
					<dim>28</dim>
					<dim>28</dim>
				</port>
			</input>
			<output>
				<port id="1" names="465" precision="FP16">
					<dim>1</dim>
					<dim>58</dim>
					<dim>28</dim>
					<dim>28</dim>
				</port>
			</output>
		</layer>
		<layer id="150" name="Concat_107" type="Concat" version="opset1">
			<data axis="1"/>
			<input>
				<port id="0" precision="FP16">
					<dim>1</dim>
					<dim>58</dim>
					<dim>28</dim>
					<dim>28</dim>
				</port>
				<port id="1" precision="FP16">
					<dim>1</dim>
					<dim>58</dim>
					<dim>28</dim>
					<dim>28</dim>
				</port>
			</input>
			<output>
				<port id="2" names="466" precision="FP16">
					<dim>1</dim>
					<dim>116</dim>
					<dim>28</dim>
					<dim>28</dim>
				</port>
			</output>
		</layer>
		<layer id="151" name="Shape_108" type="ShapeOf" version="opset3">
			<data output_type="i64"/>
			<input>
				<port id="0" precision="FP16">
					<dim>1</dim>
					<dim>116</dim>
					<dim>28</dim>
					<dim>28</dim>
				</port>
			</input>
			<output>
				<port id="1" names="467" precision="I64">
					<dim>4</dim>
				</port>
			</output>
		</layer>
		<layer id="152" name="Constant_109" type="Const" version="opset1">
			<data element_type="i32" offset="15244" shape="" size="4"/>
			<output>
				<port id="0" names="468" precision="I32"/>
			</output>
		</layer>
		<layer id="153" name="Gather_110/axis" type="Const" version="opset1">
			<data element_type="i64" offset="15248" shape="" size="8"/>
			<output>
				<port id="0" precision="I64"/>
			</output>
		</layer>
		<layer id="154" name="Gather_1101277" type="Gather" version="opset7">
			<data batch_dims="0"/>
			<input>
				<port id="0" precision="I64">
					<dim>4</dim>
				</port>
				<port id="1" precision="I32"/>
				<port id="2" precision="I64"/>
			</input>
			<output>
				<port id="3" names="469" precision="I64"/>
			</output>
		</layer>
		<layer id="155" name="Unsqueeze_124/Dims" type="Const" version="opset1">
			<data element_type="i64" offset="15248" shape="1" size="8"/>
			<output>
				<port id="0" precision="I64">
					<dim>1</dim>
				</port>
			</output>
		</layer>
		<layer id="156" name="Unsqueeze_124/Unsqueeze" type="Unsqueeze" version="opset1">
			<input>
				<port id="0" precision="I64"/>
				<port id="1" precision="I64">
					<dim>1</dim>
				</port>
			</input>
			<output>
				<port id="2" names="484" precision="I64">
					<dim>1</dim>
				</port>
			</output>
		</layer>
		<layer id="157" name="1373" type="Const" version="opset1">
			<data element_type="i64" offset="15256" shape="1" size="8"/>
			<output>
				<port id="0" names="1373" precision="I64">
					<dim>1</dim>
				</port>
			</output>
		</layer>
		<layer id="158" name="Shape_111" type="ShapeOf" version="opset3">
			<data output_type="i64"/>
			<input>
				<port id="0" precision="FP16">
					<dim>1</dim>
					<dim>116</dim>
					<dim>28</dim>
					<dim>28</dim>
				</port>
			</input>
			<output>
				<port id="1" names="470" precision="I64">
					<dim>4</dim>
				</port>
			</output>
		</layer>
		<layer id="159" name="Constant_112" type="Const" version="opset1">
			<data element_type="i32" offset="15264" shape="" size="4"/>
			<output>
				<port id="0" names="471" precision="I32"/>
			</output>
		</layer>
		<layer id="160" name="Gather_113/axis" type="Const" version="opset1">
			<data element_type="i64" offset="15248" shape="" size="8"/>
			<output>
				<port id="0" precision="I64"/>
			</output>
		</layer>
		<layer id="161" name="Gather_1131209" type="Gather" version="opset7">
			<data batch_dims="0"/>
			<input>
				<port id="0" precision="I64">
					<dim>4</dim>
				</port>
				<port id="1" precision="I32"/>
				<port id="2" precision="I64"/>
			</input>
			<output>
				<port id="3" names="472" precision="I64"/>
			</output>
		</layer>
		<layer id="162" name="Constant_120" type="Const" version="opset1">
			<data element_type="i64" offset="15256" shape="" size="8"/>
			<output>
				<port id="0" names="479" precision="I64"/>
			</output>
		</layer>
		<layer id="163" name="Div_121" type="Divide" version="opset1">
			<data auto_broadcast="numpy" m_pythondiv="true"/>
			<input>
				<port id="0" precision="I64"/>
				<port id="1" precision="I64"/>
			</input>
			<output>
				<port id="2" names="480,481,482" precision="I64"/>
			</output>
		</layer>
		<layer id="164" name="Unsqueeze_125/Dims" type="Const" version="opset1">
			<data element_type="i64" offset="15248" shape="1" size="8"/>
			<output>
				<port id="0" precision="I64">
					<dim>1</dim>
				</port>
			</output>
		</layer>
		<layer id="165" name="Unsqueeze_125/Unsqueeze" type="Unsqueeze" version="opset1">
			<input>
				<port id="0" precision="I64"/>
				<port id="1" precision="I64">
					<dim>1</dim>
				</port>
			</input>
			<output>
				<port id="2" names="486" precision="I64">
					<dim>1</dim>
				</port>
			</output>
		</layer>
		<layer id="166" name="Shape_114" type="ShapeOf" version="opset3">
			<data output_type="i64"/>
			<input>
				<port id="0" precision="FP16">
					<dim>1</dim>
					<dim>116</dim>
					<dim>28</dim>
					<dim>28</dim>
				</port>
			</input>
			<output>
				<port id="1" names="473" precision="I64">
					<dim>4</dim>
				</port>
			</output>
		</layer>
		<layer id="167" name="Constant_115" type="Const" version="opset1">
			<data element_type="i32" offset="15268" shape="" size="4"/>
			<output>
				<port id="0" names="474" precision="I32"/>
			</output>
		</layer>
		<layer id="168" name="Gather_116/axis" type="Const" version="opset1">
			<data element_type="i64" offset="15248" shape="" size="8"/>
			<output>
				<port id="0" precision="I64"/>
			</output>
		</layer>
		<layer id="169" name="Gather_1161175" type="Gather" version="opset7">
			<data batch_dims="0"/>
			<input>
				<port id="0" precision="I64">
					<dim>4</dim>
				</port>
				<port id="1" precision="I32"/>
				<port id="2" precision="I64"/>
			</input>
			<output>
				<port id="3" names="475" precision="I64"/>
			</output>
		</layer>
		<layer id="170" name="Unsqueeze_126/Dims" type="Const" version="opset1">
			<data element_type="i64" offset="15248" shape="1" size="8"/>
			<output>
				<port id="0" precision="I64">
					<dim>1</dim>
				</port>
			</output>
		</layer>
		<layer id="171" name="Unsqueeze_126/Unsqueeze" type="Unsqueeze" version="opset1">
			<input>
				<port id="0" precision="I64"/>
				<port id="1" precision="I64">
					<dim>1</dim>
				</port>
			</input>
			<output>
				<port id="2" names="487" precision="I64">
					<dim>1</dim>
				</port>
			</output>
		</layer>
		<layer id="172" name="Shape_117" type="ShapeOf" version="opset3">
			<data output_type="i64"/>
			<input>
				<port id="0" precision="FP16">
					<dim>1</dim>
					<dim>116</dim>
					<dim>28</dim>
					<dim>28</dim>
				</port>
			</input>
			<output>
				<port id="1" names="476" precision="I64">
					<dim>4</dim>
				</port>
			</output>
		</layer>
		<layer id="173" name="Constant_118" type="Const" version="opset1">
			<data element_type="i32" offset="15272" shape="" size="4"/>
			<output>
				<port id="0" names="477" precision="I32"/>
			</output>
		</layer>
		<layer id="174" name="Gather_119/axis" type="Const" version="opset1">
			<data element_type="i64" offset="15248" shape="" size="8"/>
			<output>
				<port id="0" precision="I64"/>
			</output>
		</layer>
		<layer id="175" name="Gather_1191163" type="Gather" version="opset7">
			<data batch_dims="0"/>
			<input>
				<port id="0" precision="I64">
					<dim>4</dim>
				</port>
				<port id="1" precision="I32"/>
				<port id="2" precision="I64"/>
			</input>
			<output>
				<port id="3" names="478" precision="I64"/>
			</output>
		</layer>
		<layer id="176" name="Unsqueeze_127/Dims" type="Const" version="opset1">
			<data element_type="i64" offset="15248" shape="1" size="8"/>
			<output>
				<port id="0" precision="I64">
					<dim>1</dim>
				</port>
			</output>
		</layer>
		<layer id="177" name="Unsqueeze_127/Unsqueeze" type="Unsqueeze" version="opset1">
			<input>
				<port id="0" precision="I64"/>
				<port id="1" precision="I64">
					<dim>1</dim>
				</port>
			</input>
			<output>
				<port id="2" names="488" precision="I64">
					<dim>1</dim>
				</port>
			</output>
		</layer>
		<layer id="178" name="Concat_128" type="Concat" version="opset1">
			<data axis="0"/>
			<input>
				<port id="0" precision="I64">
					<dim>1</dim>
				</port>
				<port id="1" precision="I64">
					<dim>1</dim>
				</port>
				<port id="2" precision="I64">
					<dim>1</dim>
				</port>
				<port id="3" precision="I64">
					<dim>1</dim>
				</port>
				<port id="4" precision="I64">
					<dim>1</dim>
				</port>
			</input>
			<output>
				<port id="5" names="489" precision="I64">
					<dim>5</dim>
				</port>
			</output>
		</layer>
		<layer id="179" name="Reshape_129" type="Reshape" version="opset1">
			<data special_zero="true"/>
			<input>
				<port id="0" precision="FP16">
					<dim>1</dim>
					<dim>116</dim>
					<dim>28</dim>
					<dim>28</dim>
				</port>
				<port id="1" precision="I64">
					<dim>5</dim>
				</port>
			</input>
			<output>
				<port id="2" names="490" precision="FP16">
					<dim>1</dim>
					<dim>2</dim>
					<dim>58</dim>
					<dim>28</dim>
					<dim>28</dim>
				</port>
			</output>
		</layer>
		<layer id="180" name="901" type="Const" version="opset1">
			<data element_type="i64" offset="15276" shape="5" size="40"/>
			<output>
				<port id="0" precision="I64">
					<dim>5</dim>
				</port>
			</output>
		</layer>
		<layer id="181" name="Transpose_130" type="Transpose" version="opset1">
			<input>
				<port id="0" precision="FP16">
					<dim>1</dim>
					<dim>2</dim>
					<dim>58</dim>
					<dim>28</dim>
					<dim>28</dim>
				</port>
				<port id="1" precision="I64">
					<dim>5</dim>
				</port>
			</input>
			<output>
				<port id="2" names="491" precision="FP16">
					<dim>1</dim>
					<dim>58</dim>
					<dim>2</dim>
					<dim>28</dim>
					<dim>28</dim>
				</port>
			</output>
		</layer>
		<layer id="182" name="Unsqueeze_131/Dims" type="Const" version="opset1">
			<data element_type="i64" offset="15248" shape="1" size="8"/>
			<output>
				<port id="0" precision="I64">
					<dim>1</dim>
				</port>
			</output>
		</layer>
		<layer id="183" name="Unsqueeze_131/Unsqueeze" type="Unsqueeze" version="opset1">
			<input>
				<port id="0" precision="I64"/>
				<port id="1" precision="I64">
					<dim>1</dim>
				</port>
			</input>
			<output>
				<port id="2" names="493" precision="I64">
					<dim>1</dim>
				</port>
			</output>
		</layer>
		<layer id="184" name="1374" type="Const" version="opset1">
			<data element_type="i64" offset="15316" shape="1" size="8"/>
			<output>
				<port id="0" names="1374" precision="I64">
					<dim>1</dim>
				</port>
			</output>
		</layer>
		<layer id="185" name="Unsqueeze_132/Dims" type="Const" version="opset1">
			<data element_type="i64" offset="15248" shape="1" size="8"/>
			<output>
				<port id="0" precision="I64">
					<dim>1</dim>
				</port>
			</output>
		</layer>
		<layer id="186" name="Unsqueeze_132/Unsqueeze" type="Unsqueeze" version="opset1">
			<input>
				<port id="0" precision="I64"/>
				<port id="1" precision="I64">
					<dim>1</dim>
				</port>
			</input>
			<output>
				<port id="2" names="495" precision="I64">
					<dim>1</dim>
				</port>
			</output>
		</layer>
		<layer id="187" name="Unsqueeze_133/Dims" type="Const" version="opset1">
			<data element_type="i64" offset="15248" shape="1" size="8"/>
			<output>
				<port id="0" precision="I64">
					<dim>1</dim>
				</port>
			</output>
		</layer>
		<layer id="188" name="Unsqueeze_133/Unsqueeze" type="Unsqueeze" version="opset1">
			<input>
				<port id="0" precision="I64"/>
				<port id="1" precision="I64">
					<dim>1</dim>
				</port>
			</input>
			<output>
				<port id="2" names="496" precision="I64">
					<dim>1</dim>
				</port>
			</output>
		</layer>
		<layer id="189" name="Concat_134" type="Concat" version="opset1">
			<data axis="0"/>
			<input>
				<port id="0" precision="I64">
					<dim>1</dim>
				</port>
				<port id="1" precision="I64">
					<dim>1</dim>
				</port>
				<port id="2" precision="I64">
					<dim>1</dim>
				</port>
				<port id="3" precision="I64">
					<dim>1</dim>
				</port>
			</input>
			<output>
				<port id="4" names="497" precision="I64">
					<dim>4</dim>
				</port>
			</output>
		</layer>
		<layer id="190" name="Reshape_135" type="Reshape" version="opset1">
			<data special_zero="true"/>
			<input>
				<port id="0" precision="FP16">
					<dim>1</dim>
					<dim>58</dim>
					<dim>2</dim>
					<dim>28</dim>
					<dim>28</dim>
				</port>
				<port id="1" precision="I64">
					<dim>4</dim>
				</port>
			</input>
			<output>
				<port id="2" names="498" precision="FP16">
					<dim>1</dim>
					<dim>116</dim>
					<dim>28</dim>
					<dim>28</dim>
				</port>
			</output>
		</layer>
		<layer id="191" name="1284836544" type="Const" version="opset1">
			<data element_type="i64" offset="15324" shape="" size="8"/>
			<output>
				<port id="0" precision="I64"/>
			</output>
		</layer>
		<layer id="192" name="1285035962" type="Const" version="opset1">
			<data element_type="i64" offset="15332" shape="2" size="16"/>
			<output>
				<port id="0" precision="I64">
					<dim>2</dim>
				</port>
			</output>
		</layer>
		<layer id="193" name="Slice_146/Split" type="VariadicSplit" version="opset1">
			<input>
				<port id="0" precision="FP16">
					<dim>1</dim>
					<dim>116</dim>
					<dim>28</dim>
					<dim>28</dim>
				</port>
				<port id="1" precision="I64"/>
				<port id="2" precision="I64">
					<dim>2</dim>
				</port>
			</input>
			<output>
				<port id="3" names="509" precision="FP16">
					<dim>1</dim>
					<dim>58</dim>
					<dim>28</dim>
					<dim>28</dim>
				</port>
				<port id="4" names="512" precision="FP16">
					<dim>1</dim>
					<dim>58</dim>
					<dim>28</dim>
					<dim>28</dim>
				</port>
			</output>
		</layer>
		<layer id="194" name="1238" type="Const" version="opset1">
			<data element_type="f16" offset="44348" shape="58, 58, 1, 1" size="6728"/>
			<output>
				<port id="0" names="1238" precision="FP16">
					<dim>58</dim>
					<dim>58</dim>
					<dim>1</dim>
					<dim>1</dim>
				</port>
			</output>
		</layer>
		<layer id="195" name="Conv_150/WithoutBiases" type="Convolution" version="opset1">
			<data auto_pad="explicit" dilations="1, 1" pads_begin="0, 0" pads_end="0, 0" strides="1, 1"/>
			<input>
				<port id="0" precision="FP16">
					<dim>1</dim>
					<dim>58</dim>
					<dim>28</dim>
					<dim>28</dim>
				</port>
				<port id="1" precision="FP16">
					<dim>58</dim>
					<dim>58</dim>
					<dim>1</dim>
					<dim>1</dim>
				</port>
			</input>
			<output>
				<port id="2" precision="FP16">
					<dim>1</dim>
					<dim>58</dim>
					<dim>28</dim>
					<dim>28</dim>
				</port>
			</output>
		</layer>
		<layer id="196" name="Conv_150/Dims10113" type="Const" version="opset1">
			<data element_type="f16" offset="4572" shape="1, 58, 1, 1" size="116"/>
			<output>
				<port id="0" precision="FP16">
					<dim>1</dim>
					<dim>58</dim>
					<dim>1</dim>
					<dim>1</dim>
				</port>
			</output>
		</layer>
		<layer id="197" name="Conv_150" type="Add" version="opset1">
			<data auto_broadcast="numpy"/>
			<input>
				<port id="0" precision="FP16">
					<dim>1</dim>
					<dim>58</dim>
					<dim>28</dim>
					<dim>28</dim>
				</port>
				<port id="1" precision="FP16">
					<dim>1</dim>
					<dim>58</dim>
					<dim>1</dim>
					<dim>1</dim>
				</port>
			</input>
			<output>
				<port id="2" names="1237" precision="FP16">
					<dim>1</dim>
					<dim>58</dim>
					<dim>28</dim>
					<dim>28</dim>
				</port>
			</output>
		</layer>
		<layer id="198" name="Relu_151" type="ReLU" version="opset1">
			<input>
				<port id="0" precision="FP16">
					<dim>1</dim>
					<dim>58</dim>
					<dim>28</dim>
					<dim>28</dim>
				</port>
			</input>
			<output>
				<port id="1" names="515" precision="FP16">
					<dim>1</dim>
					<dim>58</dim>
					<dim>28</dim>
					<dim>28</dim>
				</port>
			</output>
		</layer>
		<layer id="199" name="1241" type="Const" version="opset1">
			<data element_type="f16" offset="51076" shape="58, 1, 1, 3, 3" size="1044"/>
			<output>
				<port id="0" names="1241" precision="FP16">
					<dim>58</dim>
					<dim>1</dim>
					<dim>1</dim>
					<dim>3</dim>
					<dim>3</dim>
				</port>
			</output>
		</layer>
		<layer id="200" name="Conv_152/WithoutBiases" type="GroupConvolution" version="opset1">
			<data auto_pad="explicit" dilations="1, 1" pads_begin="1, 1" pads_end="1, 1" strides="1, 1"/>
			<input>
				<port id="0" precision="FP16">
					<dim>1</dim>
					<dim>58</dim>
					<dim>28</dim>
					<dim>28</dim>
				</port>
				<port id="1" precision="FP16">
					<dim>58</dim>
					<dim>1</dim>
					<dim>1</dim>
					<dim>3</dim>
					<dim>3</dim>
				</port>
			</input>
			<output>
				<port id="2" precision="FP16">
					<dim>1</dim>
					<dim>58</dim>
					<dim>28</dim>
					<dim>28</dim>
				</port>
			</output>
		</layer>
		<layer id="201" name="Conv_152/Dims10179" type="Const" version="opset1">
			<data element_type="f16" offset="4572" shape="1, 58, 1, 1" size="116"/>
			<output>
				<port id="0" precision="FP16">
					<dim>1</dim>
					<dim>58</dim>
					<dim>1</dim>
					<dim>1</dim>
				</port>
			</output>
		</layer>
		<layer id="202" name="Conv_152" type="Add" version="opset1">
			<data auto_broadcast="numpy"/>
			<input>
				<port id="0" precision="FP16">
					<dim>1</dim>
					<dim>58</dim>
					<dim>28</dim>
					<dim>28</dim>
				</port>
				<port id="1" precision="FP16">
					<dim>1</dim>
					<dim>58</dim>
					<dim>1</dim>
					<dim>1</dim>
				</port>
			</input>
			<output>
				<port id="2" names="1240" precision="FP16">
					<dim>1</dim>
					<dim>58</dim>
					<dim>28</dim>
					<dim>28</dim>
				</port>
			</output>
		</layer>
		<layer id="203" name="1244" type="Const" version="opset1">
			<data element_type="f16" offset="52120" shape="58, 58, 1, 1" size="6728"/>
			<output>
				<port id="0" names="1244" precision="FP16">
					<dim>58</dim>
					<dim>58</dim>
					<dim>1</dim>
					<dim>1</dim>
				</port>
			</output>
		</layer>
		<layer id="204" name="Conv_153/WithoutBiases" type="Convolution" version="opset1">
			<data auto_pad="explicit" dilations="1, 1" pads_begin="0, 0" pads_end="0, 0" strides="1, 1"/>
			<input>
				<port id="0" precision="FP16">
					<dim>1</dim>
					<dim>58</dim>
					<dim>28</dim>
					<dim>28</dim>
				</port>
				<port id="1" precision="FP16">
					<dim>58</dim>
					<dim>58</dim>
					<dim>1</dim>
					<dim>1</dim>
				</port>
			</input>
			<output>
				<port id="2" precision="FP16">
					<dim>1</dim>
					<dim>58</dim>
					<dim>28</dim>
					<dim>28</dim>
				</port>
			</output>
		</layer>
		<layer id="205" name="Conv_153/Dims9957" type="Const" version="opset1">
			<data element_type="f16" offset="4572" shape="1, 58, 1, 1" size="116"/>
			<output>
				<port id="0" precision="FP16">
					<dim>1</dim>
					<dim>58</dim>
					<dim>1</dim>
					<dim>1</dim>
				</port>
			</output>
		</layer>
		<layer id="206" name="Conv_153" type="Add" version="opset1">
			<data auto_broadcast="numpy"/>
			<input>
				<port id="0" precision="FP16">
					<dim>1</dim>
					<dim>58</dim>
					<dim>28</dim>
					<dim>28</dim>
				</port>
				<port id="1" precision="FP16">
					<dim>1</dim>
					<dim>58</dim>
					<dim>1</dim>
					<dim>1</dim>
				</port>
			</input>
			<output>
				<port id="2" names="1243" precision="FP16">
					<dim>1</dim>
					<dim>58</dim>
					<dim>28</dim>
					<dim>28</dim>
				</port>
			</output>
		</layer>
		<layer id="207" name="Relu_154" type="ReLU" version="opset1">
			<input>
				<port id="0" precision="FP16">
					<dim>1</dim>
					<dim>58</dim>
					<dim>28</dim>
					<dim>28</dim>
				</port>
			</input>
			<output>
				<port id="1" names="520" precision="FP16">
					<dim>1</dim>
					<dim>58</dim>
					<dim>28</dim>
					<dim>28</dim>
				</port>
			</output>
		</layer>
		<layer id="208" name="Concat_155" type="Concat" version="opset1">
			<data axis="1"/>
			<input>
				<port id="0" precision="FP16">
					<dim>1</dim>
					<dim>58</dim>
					<dim>28</dim>
					<dim>28</dim>
				</port>
				<port id="1" precision="FP16">
					<dim>1</dim>
					<dim>58</dim>
					<dim>28</dim>
					<dim>28</dim>
				</port>
			</input>
			<output>
				<port id="2" names="521" precision="FP16">
					<dim>1</dim>
					<dim>116</dim>
					<dim>28</dim>
					<dim>28</dim>
				</port>
			</output>
		</layer>
		<layer id="209" name="Shape_156" type="ShapeOf" version="opset3">
			<data output_type="i64"/>
			<input>
				<port id="0" precision="FP16">
					<dim>1</dim>
					<dim>116</dim>
					<dim>28</dim>
					<dim>28</dim>
				</port>
			</input>
			<output>
				<port id="1" names="522" precision="I64">
					<dim>4</dim>
				</port>
			</output>
		</layer>
		<layer id="210" name="Constant_157" type="Const" version="opset1">
			<data element_type="i32" offset="15244" shape="" size="4"/>
			<output>
				<port id="0" names="523" precision="I32"/>
			</output>
		</layer>
		<layer id="211" name="Gather_158/axis" type="Const" version="opset1">
			<data element_type="i64" offset="15248" shape="" size="8"/>
			<output>
				<port id="0" precision="I64"/>
			</output>
		</layer>
		<layer id="212" name="Gather_1581207" type="Gather" version="opset7">
			<data batch_dims="0"/>
			<input>
				<port id="0" precision="I64">
					<dim>4</dim>
				</port>
				<port id="1" precision="I32"/>
				<port id="2" precision="I64"/>
			</input>
			<output>
				<port id="3" names="524" precision="I64"/>
			</output>
		</layer>
		<layer id="213" name="Unsqueeze_172/Dims" type="Const" version="opset1">
			<data element_type="i64" offset="15248" shape="1" size="8"/>
			<output>
				<port id="0" precision="I64">
					<dim>1</dim>
				</port>
			</output>
		</layer>
		<layer id="214" name="Unsqueeze_172/Unsqueeze" type="Unsqueeze" version="opset1">
			<input>
				<port id="0" precision="I64"/>
				<port id="1" precision="I64">
					<dim>1</dim>
				</port>
			</input>
			<output>
				<port id="2" names="539" precision="I64">
					<dim>1</dim>
				</port>
			</output>
		</layer>
		<layer id="215" name="1375" type="Const" version="opset1">
			<data element_type="i64" offset="15256" shape="1" size="8"/>
			<output>
				<port id="0" names="1375" precision="I64">
					<dim>1</dim>
				</port>
			</output>
		</layer>
		<layer id="216" name="Shape_159" type="ShapeOf" version="opset3">
			<data output_type="i64"/>
			<input>
				<port id="0" precision="FP16">
					<dim>1</dim>
					<dim>116</dim>
					<dim>28</dim>
					<dim>28</dim>
				</port>
			</input>
			<output>
				<port id="1" names="525" precision="I64">
					<dim>4</dim>
				</port>
			</output>
		</layer>
		<layer id="217" name="Constant_160" type="Const" version="opset1">
			<data element_type="i32" offset="15264" shape="" size="4"/>
			<output>
				<port id="0" names="526" precision="I32"/>
			</output>
		</layer>
		<layer id="218" name="Gather_161/axis" type="Const" version="opset1">
			<data element_type="i64" offset="15248" shape="" size="8"/>
			<output>
				<port id="0" precision="I64"/>
			</output>
		</layer>
		<layer id="219" name="Gather_1611177" type="Gather" version="opset7">
			<data batch_dims="0"/>
			<input>
				<port id="0" precision="I64">
					<dim>4</dim>
				</port>
				<port id="1" precision="I32"/>
				<port id="2" precision="I64"/>
			</input>
			<output>
				<port id="3" names="527" precision="I64"/>
			</output>
		</layer>
		<layer id="220" name="Constant_168" type="Const" version="opset1">
			<data element_type="i64" offset="15256" shape="" size="8"/>
			<output>
				<port id="0" names="534" precision="I64"/>
			</output>
		</layer>
		<layer id="221" name="Div_169" type="Divide" version="opset1">
			<data auto_broadcast="numpy" m_pythondiv="true"/>
			<input>
				<port id="0" precision="I64"/>
				<port id="1" precision="I64"/>
			</input>
			<output>
				<port id="2" names="535,536,537" precision="I64"/>
			</output>
		</layer>
		<layer id="222" name="Unsqueeze_173/Dims" type="Const" version="opset1">
			<data element_type="i64" offset="15248" shape="1" size="8"/>
			<output>
				<port id="0" precision="I64">
					<dim>1</dim>
				</port>
			</output>
		</layer>
		<layer id="223" name="Unsqueeze_173/Unsqueeze" type="Unsqueeze" version="opset1">
			<input>
				<port id="0" precision="I64"/>
				<port id="1" precision="I64">
					<dim>1</dim>
				</port>
			</input>
			<output>
				<port id="2" names="541" precision="I64">
					<dim>1</dim>
				</port>
			</output>
		</layer>
		<layer id="224" name="Shape_162" type="ShapeOf" version="opset3">
			<data output_type="i64"/>
			<input>
				<port id="0" precision="FP16">
					<dim>1</dim>
					<dim>116</dim>
					<dim>28</dim>
					<dim>28</dim>
				</port>
			</input>
			<output>
				<port id="1" names="528" precision="I64">
					<dim>4</dim>
				</port>
			</output>
		</layer>
		<layer id="225" name="Constant_163" type="Const" version="opset1">
			<data element_type="i32" offset="15268" shape="" size="4"/>
			<output>
				<port id="0" names="529" precision="I32"/>
			</output>
		</layer>
		<layer id="226" name="Gather_164/axis" type="Const" version="opset1">
			<data element_type="i64" offset="15248" shape="" size="8"/>
			<output>
				<port id="0" precision="I64"/>
			</output>
		</layer>
		<layer id="227" name="Gather_1641219" type="Gather" version="opset7">
			<data batch_dims="0"/>
			<input>
				<port id="0" precision="I64">
					<dim>4</dim>
				</port>
				<port id="1" precision="I32"/>
				<port id="2" precision="I64"/>
			</input>
			<output>
				<port id="3" names="530" precision="I64"/>
			</output>
		</layer>
		<layer id="228" name="Unsqueeze_174/Dims" type="Const" version="opset1">
			<data element_type="i64" offset="15248" shape="1" size="8"/>
			<output>
				<port id="0" precision="I64">
					<dim>1</dim>
				</port>
			</output>
		</layer>
		<layer id="229" name="Unsqueeze_174/Unsqueeze" type="Unsqueeze" version="opset1">
			<input>
				<port id="0" precision="I64"/>
				<port id="1" precision="I64">
					<dim>1</dim>
				</port>
			</input>
			<output>
				<port id="2" names="542" precision="I64">
					<dim>1</dim>
				</port>
			</output>
		</layer>
		<layer id="230" name="Shape_165" type="ShapeOf" version="opset3">
			<data output_type="i64"/>
			<input>
				<port id="0" precision="FP16">
					<dim>1</dim>
					<dim>116</dim>
					<dim>28</dim>
					<dim>28</dim>
				</port>
			</input>
			<output>
				<port id="1" names="531" precision="I64">
					<dim>4</dim>
				</port>
			</output>
		</layer>
		<layer id="231" name="Constant_166" type="Const" version="opset1">
			<data element_type="i32" offset="15272" shape="" size="4"/>
			<output>
				<port id="0" names="532" precision="I32"/>
			</output>
		</layer>
		<layer id="232" name="Gather_167/axis" type="Const" version="opset1">
			<data element_type="i64" offset="15248" shape="" size="8"/>
			<output>
				<port id="0" precision="I64"/>
			</output>
		</layer>
		<layer id="233" name="Gather_1671245" type="Gather" version="opset7">
			<data batch_dims="0"/>
			<input>
				<port id="0" precision="I64">
					<dim>4</dim>
				</port>
				<port id="1" precision="I32"/>
				<port id="2" precision="I64"/>
			</input>
			<output>
				<port id="3" names="533" precision="I64"/>
			</output>
		</layer>
		<layer id="234" name="Unsqueeze_175/Dims" type="Const" version="opset1">
			<data element_type="i64" offset="15248" shape="1" size="8"/>
			<output>
				<port id="0" precision="I64">
					<dim>1</dim>
				</port>
			</output>
		</layer>
		<layer id="235" name="Unsqueeze_175/Unsqueeze" type="Unsqueeze" version="opset1">
			<input>
				<port id="0" precision="I64"/>
				<port id="1" precision="I64">
					<dim>1</dim>
				</port>
			</input>
			<output>
				<port id="2" names="543" precision="I64">
					<dim>1</dim>
				</port>
			</output>
		</layer>
		<layer id="236" name="Concat_176" type="Concat" version="opset1">
			<data axis="0"/>
			<input>
				<port id="0" precision="I64">
					<dim>1</dim>
				</port>
				<port id="1" precision="I64">
					<dim>1</dim>
				</port>
				<port id="2" precision="I64">
					<dim>1</dim>
				</port>
				<port id="3" precision="I64">
					<dim>1</dim>
				</port>
				<port id="4" precision="I64">
					<dim>1</dim>
				</port>
			</input>
			<output>
				<port id="5" names="544" precision="I64">
					<dim>5</dim>
				</port>
			</output>
		</layer>
		<layer id="237" name="Reshape_177" type="Reshape" version="opset1">
			<data special_zero="true"/>
			<input>
				<port id="0" precision="FP16">
					<dim>1</dim>
					<dim>116</dim>
					<dim>28</dim>
					<dim>28</dim>
				</port>
				<port id="1" precision="I64">
					<dim>5</dim>
				</port>
			</input>
			<output>
				<port id="2" names="545" precision="FP16">
					<dim>1</dim>
					<dim>2</dim>
					<dim>58</dim>
					<dim>28</dim>
					<dim>28</dim>
				</port>
			</output>
		</layer>
		<layer id="238" name="900" type="Const" version="opset1">
			<data element_type="i64" offset="15276" shape="5" size="40"/>
			<output>
				<port id="0" precision="I64">
					<dim>5</dim>
				</port>
			</output>
		</layer>
		<layer id="239" name="Transpose_178" type="Transpose" version="opset1">
			<input>
				<port id="0" precision="FP16">
					<dim>1</dim>
					<dim>2</dim>
					<dim>58</dim>
					<dim>28</dim>
					<dim>28</dim>
				</port>
				<port id="1" precision="I64">
					<dim>5</dim>
				</port>
			</input>
			<output>
				<port id="2" names="546" precision="FP16">
					<dim>1</dim>
					<dim>58</dim>
					<dim>2</dim>
					<dim>28</dim>
					<dim>28</dim>
				</port>
			</output>
		</layer>
		<layer id="240" name="Unsqueeze_179/Dims" type="Const" version="opset1">
			<data element_type="i64" offset="15248" shape="1" size="8"/>
			<output>
				<port id="0" precision="I64">
					<dim>1</dim>
				</port>
			</output>
		</layer>
		<layer id="241" name="Unsqueeze_179/Unsqueeze" type="Unsqueeze" version="opset1">
			<input>
				<port id="0" precision="I64"/>
				<port id="1" precision="I64">
					<dim>1</dim>
				</port>
			</input>
			<output>
				<port id="2" names="548" precision="I64">
					<dim>1</dim>
				</port>
			</output>
		</layer>
		<layer id="242" name="1376" type="Const" version="opset1">
			<data element_type="i64" offset="15316" shape="1" size="8"/>
			<output>
				<port id="0" names="1376" precision="I64">
					<dim>1</dim>
				</port>
			</output>
		</layer>
		<layer id="243" name="Unsqueeze_180/Dims" type="Const" version="opset1">
			<data element_type="i64" offset="15248" shape="1" size="8"/>
			<output>
				<port id="0" precision="I64">
					<dim>1</dim>
				</port>
			</output>
		</layer>
		<layer id="244" name="Unsqueeze_180/Unsqueeze" type="Unsqueeze" version="opset1">
			<input>
				<port id="0" precision="I64"/>
				<port id="1" precision="I64">
					<dim>1</dim>
				</port>
			</input>
			<output>
				<port id="2" names="550" precision="I64">
					<dim>1</dim>
				</port>
			</output>
		</layer>
		<layer id="245" name="Unsqueeze_181/Dims" type="Const" version="opset1">
			<data element_type="i64" offset="15248" shape="1" size="8"/>
			<output>
				<port id="0" precision="I64">
					<dim>1</dim>
				</port>
			</output>
		</layer>
		<layer id="246" name="Unsqueeze_181/Unsqueeze" type="Unsqueeze" version="opset1">
			<input>
				<port id="0" precision="I64"/>
				<port id="1" precision="I64">
					<dim>1</dim>
				</port>
			</input>
			<output>
				<port id="2" names="551" precision="I64">
					<dim>1</dim>
				</port>
			</output>
		</layer>
		<layer id="247" name="Concat_182" type="Concat" version="opset1">
			<data axis="0"/>
			<input>
				<port id="0" precision="I64">
					<dim>1</dim>
				</port>
				<port id="1" precision="I64">
					<dim>1</dim>
				</port>
				<port id="2" precision="I64">
					<dim>1</dim>
				</port>
				<port id="3" precision="I64">
					<dim>1</dim>
				</port>
			</input>
			<output>
				<port id="4" names="552" precision="I64">
					<dim>4</dim>
				</port>
			</output>
		</layer>
		<layer id="248" name="Reshape_183" type="Reshape" version="opset1">
			<data special_zero="true"/>
			<input>
				<port id="0" precision="FP16">
					<dim>1</dim>
					<dim>58</dim>
					<dim>2</dim>
					<dim>28</dim>
					<dim>28</dim>
				</port>
				<port id="1" precision="I64">
					<dim>4</dim>
				</port>
			</input>
			<output>
				<port id="2" names="553" precision="FP16">
					<dim>1</dim>
					<dim>116</dim>
					<dim>28</dim>
					<dim>28</dim>
				</port>
			</output>
		</layer>
		<layer id="249" name="1247" type="Const" version="opset1">
			<data element_type="f16" offset="58848" shape="116, 1, 1, 3, 3" size="2088"/>
			<output>
				<port id="0" names="1247" precision="FP16">
					<dim>116</dim>
					<dim>1</dim>
					<dim>1</dim>
					<dim>3</dim>
					<dim>3</dim>
				</port>
			</output>
		</layer>
		<layer id="250" name="Conv_184/WithoutBiases" type="GroupConvolution" version="opset1">
			<data auto_pad="explicit" dilations="1, 1" pads_begin="1, 1" pads_end="1, 1" strides="2, 2"/>
			<input>
				<port id="0" precision="FP16">
					<dim>1</dim>
					<dim>116</dim>
					<dim>28</dim>
					<dim>28</dim>
				</port>
				<port id="1" precision="FP16">
					<dim>116</dim>
					<dim>1</dim>
					<dim>1</dim>
					<dim>3</dim>
					<dim>3</dim>
				</port>
			</input>
			<output>
				<port id="2" precision="FP16">
					<dim>1</dim>
					<dim>116</dim>
					<dim>14</dim>
					<dim>14</dim>
				</port>
			</output>
		</layer>
		<layer id="251" name="Conv_184/Dims10083" type="Const" version="opset1">
			<data element_type="f16" offset="60936" shape="1, 116, 1, 1" size="232"/>
			<output>
				<port id="0" precision="FP16">
					<dim>1</dim>
					<dim>116</dim>
					<dim>1</dim>
					<dim>1</dim>
				</port>
			</output>
		</layer>
		<layer id="252" name="Conv_184" type="Add" version="opset1">
			<data auto_broadcast="numpy"/>
			<input>
				<port id="0" precision="FP16">
					<dim>1</dim>
					<dim>116</dim>
					<dim>14</dim>
					<dim>14</dim>
				</port>
				<port id="1" precision="FP16">
					<dim>1</dim>
					<dim>116</dim>
					<dim>1</dim>
					<dim>1</dim>
				</port>
			</input>
			<output>
				<port id="2" names="1246" precision="FP16">
					<dim>1</dim>
					<dim>116</dim>
					<dim>14</dim>
					<dim>14</dim>
				</port>
			</output>
		</layer>
		<layer id="253" name="1250" type="Const" version="opset1">
			<data element_type="f16" offset="61168" shape="116, 116, 1, 1" size="26912"/>
			<output>
				<port id="0" names="1250" precision="FP16">
					<dim>116</dim>
					<dim>116</dim>
					<dim>1</dim>
					<dim>1</dim>
				</port>
			</output>
		</layer>
		<layer id="254" name="Conv_185/WithoutBiases" type="Convolution" version="opset1">
			<data auto_pad="explicit" dilations="1, 1" pads_begin="0, 0" pads_end="0, 0" strides="1, 1"/>
			<input>
				<port id="0" precision="FP16">
					<dim>1</dim>
					<dim>116</dim>
					<dim>14</dim>
					<dim>14</dim>
				</port>
				<port id="1" precision="FP16">
					<dim>116</dim>
					<dim>116</dim>
					<dim>1</dim>
					<dim>1</dim>
				</port>
			</input>
			<output>
				<port id="2" precision="FP16">
					<dim>1</dim>
					<dim>116</dim>
					<dim>14</dim>
					<dim>14</dim>
				</port>
			</output>
		</layer>
		<layer id="255" name="Conv_185/Dims10077" type="Const" version="opset1">
			<data element_type="f16" offset="60936" shape="1, 116, 1, 1" size="232"/>
			<output>
				<port id="0" precision="FP16">
					<dim>1</dim>
					<dim>116</dim>
					<dim>1</dim>
					<dim>1</dim>
				</port>
			</output>
		</layer>
		<layer id="256" name="Conv_185" type="Add" version="opset1">
			<data auto_broadcast="numpy"/>
			<input>
				<port id="0" precision="FP16">
					<dim>1</dim>
					<dim>116</dim>
					<dim>14</dim>
					<dim>14</dim>
				</port>
				<port id="1" precision="FP16">
					<dim>1</dim>
					<dim>116</dim>
					<dim>1</dim>
					<dim>1</dim>
				</port>
			</input>
			<output>
				<port id="2" names="1249" precision="FP16">
					<dim>1</dim>
					<dim>116</dim>
					<dim>14</dim>
					<dim>14</dim>
				</port>
			</output>
		</layer>
		<layer id="257" name="Relu_186" type="ReLU" version="opset1">
			<input>
				<port id="0" precision="FP16">
					<dim>1</dim>
					<dim>116</dim>
					<dim>14</dim>
					<dim>14</dim>
				</port>
			</input>
			<output>
				<port id="1" names="558" precision="FP16">
					<dim>1</dim>
					<dim>116</dim>
					<dim>14</dim>
					<dim>14</dim>
				</port>
			</output>
		</layer>
		<layer id="258" name="1253" type="Const" version="opset1">
			<data element_type="f16" offset="88080" shape="116, 116, 1, 1" size="26912"/>
			<output>
				<port id="0" names="1253" precision="FP16">
					<dim>116</dim>
					<dim>116</dim>
					<dim>1</dim>
					<dim>1</dim>
				</port>
			</output>
		</layer>
		<layer id="259" name="Conv_187/WithoutBiases" type="Convolution" version="opset1">
			<data auto_pad="explicit" dilations="1, 1" pads_begin="0, 0" pads_end="0, 0" strides="1, 1"/>
			<input>
				<port id="0" precision="FP16">
					<dim>1</dim>
					<dim>116</dim>
					<dim>28</dim>
					<dim>28</dim>
				</port>
				<port id="1" precision="FP16">
					<dim>116</dim>
					<dim>116</dim>
					<dim>1</dim>
					<dim>1</dim>
				</port>
			</input>
			<output>
				<port id="2" precision="FP16">
					<dim>1</dim>
					<dim>116</dim>
					<dim>28</dim>
					<dim>28</dim>
				</port>
			</output>
		</layer>
		<layer id="260" name="Conv_187/Dims10023" type="Const" version="opset1">
			<data element_type="f16" offset="60936" shape="1, 116, 1, 1" size="232"/>
			<output>
				<port id="0" precision="FP16">
					<dim>1</dim>
					<dim>116</dim>
					<dim>1</dim>
					<dim>1</dim>
				</port>
			</output>
		</layer>
		<layer id="261" name="Conv_187" type="Add" version="opset1">
			<data auto_broadcast="numpy"/>
			<input>
				<port id="0" precision="FP16">
					<dim>1</dim>
					<dim>116</dim>
					<dim>28</dim>
					<dim>28</dim>
				</port>
				<port id="1" precision="FP16">
					<dim>1</dim>
					<dim>116</dim>
					<dim>1</dim>
					<dim>1</dim>
				</port>
			</input>
			<output>
				<port id="2" names="1252" precision="FP16">
					<dim>1</dim>
					<dim>116</dim>
					<dim>28</dim>
					<dim>28</dim>
				</port>
			</output>
		</layer>
		<layer id="262" name="Relu_188" type="ReLU" version="opset1">
			<input>
				<port id="0" precision="FP16">
					<dim>1</dim>
					<dim>116</dim>
					<dim>28</dim>
					<dim>28</dim>
				</port>
			</input>
			<output>
				<port id="1" names="561" precision="FP16">
					<dim>1</dim>
					<dim>116</dim>
					<dim>28</dim>
					<dim>28</dim>
				</port>
			</output>
		</layer>
		<layer id="263" name="1256" type="Const" version="opset1">
			<data element_type="f16" offset="114992" shape="116, 1, 1, 3, 3" size="2088"/>
			<output>
				<port id="0" names="1256" precision="FP16">
					<dim>116</dim>
					<dim>1</dim>
					<dim>1</dim>
					<dim>3</dim>
					<dim>3</dim>
				</port>
			</output>
		</layer>
		<layer id="264" name="Conv_189/WithoutBiases" type="GroupConvolution" version="opset1">
			<data auto_pad="explicit" dilations="1, 1" pads_begin="1, 1" pads_end="1, 1" strides="2, 2"/>
			<input>
				<port id="0" precision="FP16">
					<dim>1</dim>
					<dim>116</dim>
					<dim>28</dim>
					<dim>28</dim>
				</port>
				<port id="1" precision="FP16">
					<dim>116</dim>
					<dim>1</dim>
					<dim>1</dim>
					<dim>3</dim>
					<dim>3</dim>
				</port>
			</input>
			<output>
				<port id="2" precision="FP16">
					<dim>1</dim>
					<dim>116</dim>
					<dim>14</dim>
					<dim>14</dim>
				</port>
			</output>
		</layer>
		<layer id="265" name="Conv_189/Dims9963" type="Const" version="opset1">
			<data element_type="f16" offset="60936" shape="1, 116, 1, 1" size="232"/>
			<output>
				<port id="0" precision="FP16">
					<dim>1</dim>
					<dim>116</dim>
					<dim>1</dim>
					<dim>1</dim>
				</port>
			</output>
		</layer>
		<layer id="266" name="Conv_189" type="Add" version="opset1">
			<data auto_broadcast="numpy"/>
			<input>
				<port id="0" precision="FP16">
					<dim>1</dim>
					<dim>116</dim>
					<dim>14</dim>
					<dim>14</dim>
				</port>
				<port id="1" precision="FP16">
					<dim>1</dim>
					<dim>116</dim>
					<dim>1</dim>
					<dim>1</dim>
				</port>
			</input>
			<output>
				<port id="2" names="1255" precision="FP16">
					<dim>1</dim>
					<dim>116</dim>
					<dim>14</dim>
					<dim>14</dim>
				</port>
			</output>
		</layer>
		<layer id="267" name="1259" type="Const" version="opset1">
			<data element_type="f16" offset="117080" shape="116, 116, 1, 1" size="26912"/>
			<output>
				<port id="0" names="1259" precision="FP16">
					<dim>116</dim>
					<dim>116</dim>
					<dim>1</dim>
					<dim>1</dim>
				</port>
			</output>
		</layer>
		<layer id="268" name="Conv_190/WithoutBiases" type="Convolution" version="opset1">
			<data auto_pad="explicit" dilations="1, 1" pads_begin="0, 0" pads_end="0, 0" strides="1, 1"/>
			<input>
				<port id="0" precision="FP16">
					<dim>1</dim>
					<dim>116</dim>
					<dim>14</dim>
					<dim>14</dim>
				</port>
				<port id="1" precision="FP16">
					<dim>116</dim>
					<dim>116</dim>
					<dim>1</dim>
					<dim>1</dim>
				</port>
			</input>
			<output>
				<port id="2" precision="FP16">
					<dim>1</dim>
					<dim>116</dim>
					<dim>14</dim>
					<dim>14</dim>
				</port>
			</output>
		</layer>
		<layer id="269" name="Conv_190/Dims9915" type="Const" version="opset1">
			<data element_type="f16" offset="60936" shape="1, 116, 1, 1" size="232"/>
			<output>
				<port id="0" precision="FP16">
					<dim>1</dim>
					<dim>116</dim>
					<dim>1</dim>
					<dim>1</dim>
				</port>
			</output>
		</layer>
		<layer id="270" name="Conv_190" type="Add" version="opset1">
			<data auto_broadcast="numpy"/>
			<input>
				<port id="0" precision="FP16">
					<dim>1</dim>
					<dim>116</dim>
					<dim>14</dim>
					<dim>14</dim>
				</port>
				<port id="1" precision="FP16">
					<dim>1</dim>
					<dim>116</dim>
					<dim>1</dim>
					<dim>1</dim>
				</port>
			</input>
			<output>
				<port id="2" names="1258" precision="FP16">
					<dim>1</dim>
					<dim>116</dim>
					<dim>14</dim>
					<dim>14</dim>
				</port>
			</output>
		</layer>
		<layer id="271" name="Relu_191" type="ReLU" version="opset1">
			<input>
				<port id="0" precision="FP16">
					<dim>1</dim>
					<dim>116</dim>
					<dim>14</dim>
					<dim>14</dim>
				</port>
			</input>
			<output>
				<port id="1" names="566" precision="FP16">
					<dim>1</dim>
					<dim>116</dim>
					<dim>14</dim>
					<dim>14</dim>
				</port>
			</output>
		</layer>
		<layer id="272" name="Concat_192" type="Concat" version="opset1">
			<data axis="1"/>
			<input>
				<port id="0" precision="FP16">
					<dim>1</dim>
					<dim>116</dim>
					<dim>14</dim>
					<dim>14</dim>
				</port>
				<port id="1" precision="FP16">
					<dim>1</dim>
					<dim>116</dim>
					<dim>14</dim>
					<dim>14</dim>
				</port>
			</input>
			<output>
				<port id="2" names="567" precision="FP16">
					<dim>1</dim>
					<dim>232</dim>
					<dim>14</dim>
					<dim>14</dim>
				</port>
			</output>
		</layer>
		<layer id="273" name="Shape_193" type="ShapeOf" version="opset3">
			<data output_type="i64"/>
			<input>
				<port id="0" precision="FP16">
					<dim>1</dim>
					<dim>232</dim>
					<dim>14</dim>
					<dim>14</dim>
				</port>
			</input>
			<output>
				<port id="1" names="568" precision="I64">
					<dim>4</dim>
				</port>
			</output>
		</layer>
		<layer id="274" name="Constant_194" type="Const" version="opset1">
			<data element_type="i32" offset="15244" shape="" size="4"/>
			<output>
				<port id="0" names="569" precision="I32"/>
			</output>
		</layer>
		<layer id="275" name="Gather_195/axis" type="Const" version="opset1">
			<data element_type="i64" offset="15248" shape="" size="8"/>
			<output>
				<port id="0" precision="I64"/>
			</output>
		</layer>
		<layer id="276" name="Gather_1951199" type="Gather" version="opset7">
			<data batch_dims="0"/>
			<input>
				<port id="0" precision="I64">
					<dim>4</dim>
				</port>
				<port id="1" precision="I32"/>
				<port id="2" precision="I64"/>
			</input>
			<output>
				<port id="3" names="570" precision="I64"/>
			</output>
		</layer>
		<layer id="277" name="Unsqueeze_209/Dims" type="Const" version="opset1">
			<data element_type="i64" offset="15248" shape="1" size="8"/>
			<output>
				<port id="0" precision="I64">
					<dim>1</dim>
				</port>
			</output>
		</layer>
		<layer id="278" name="Unsqueeze_209/Unsqueeze" type="Unsqueeze" version="opset1">
			<input>
				<port id="0" precision="I64"/>
				<port id="1" precision="I64">
					<dim>1</dim>
				</port>
			</input>
			<output>
				<port id="2" names="585" precision="I64">
					<dim>1</dim>
				</port>
			</output>
		</layer>
		<layer id="279" name="1377" type="Const" version="opset1">
			<data element_type="i64" offset="15256" shape="1" size="8"/>
			<output>
				<port id="0" names="1377" precision="I64">
					<dim>1</dim>
				</port>
			</output>
		</layer>
		<layer id="280" name="Shape_196" type="ShapeOf" version="opset3">
			<data output_type="i64"/>
			<input>
				<port id="0" precision="FP16">
					<dim>1</dim>
					<dim>232</dim>
					<dim>14</dim>
					<dim>14</dim>
				</port>
			</input>
			<output>
				<port id="1" names="571" precision="I64">
					<dim>4</dim>
				</port>
			</output>
		</layer>
		<layer id="281" name="Constant_197" type="Const" version="opset1">
			<data element_type="i32" offset="15264" shape="" size="4"/>
			<output>
				<port id="0" names="572" precision="I32"/>
			</output>
		</layer>
		<layer id="282" name="Gather_198/axis" type="Const" version="opset1">
			<data element_type="i64" offset="15248" shape="" size="8"/>
			<output>
				<port id="0" precision="I64"/>
			</output>
		</layer>
		<layer id="283" name="Gather_1981181" type="Gather" version="opset7">
			<data batch_dims="0"/>
			<input>
				<port id="0" precision="I64">
					<dim>4</dim>
				</port>
				<port id="1" precision="I32"/>
				<port id="2" precision="I64"/>
			</input>
			<output>
				<port id="3" names="573" precision="I64"/>
			</output>
		</layer>
		<layer id="284" name="Constant_205" type="Const" version="opset1">
			<data element_type="i64" offset="15256" shape="" size="8"/>
			<output>
				<port id="0" names="580" precision="I64"/>
			</output>
		</layer>
		<layer id="285" name="Div_206" type="Divide" version="opset1">
			<data auto_broadcast="numpy" m_pythondiv="true"/>
			<input>
				<port id="0" precision="I64"/>
				<port id="1" precision="I64"/>
			</input>
			<output>
				<port id="2" names="581,582,583" precision="I64"/>
			</output>
		</layer>
		<layer id="286" name="Unsqueeze_210/Dims" type="Const" version="opset1">
			<data element_type="i64" offset="15248" shape="1" size="8"/>
			<output>
				<port id="0" precision="I64">
					<dim>1</dim>
				</port>
			</output>
		</layer>
		<layer id="287" name="Unsqueeze_210/Unsqueeze" type="Unsqueeze" version="opset1">
			<input>
				<port id="0" precision="I64"/>
				<port id="1" precision="I64">
					<dim>1</dim>
				</port>
			</input>
			<output>
				<port id="2" names="587" precision="I64">
					<dim>1</dim>
				</port>
			</output>
		</layer>
		<layer id="288" name="Shape_199" type="ShapeOf" version="opset3">
			<data output_type="i64"/>
			<input>
				<port id="0" precision="FP16">
					<dim>1</dim>
					<dim>232</dim>
					<dim>14</dim>
					<dim>14</dim>
				</port>
			</input>
			<output>
				<port id="1" names="574" precision="I64">
					<dim>4</dim>
				</port>
			</output>
		</layer>
		<layer id="289" name="Constant_200" type="Const" version="opset1">
			<data element_type="i32" offset="15268" shape="" size="4"/>
			<output>
				<port id="0" names="575" precision="I32"/>
			</output>
		</layer>
		<layer id="290" name="Gather_201/axis" type="Const" version="opset1">
			<data element_type="i64" offset="15248" shape="" size="8"/>
			<output>
				<port id="0" precision="I64"/>
			</output>
		</layer>
		<layer id="291" name="Gather_2011283" type="Gather" version="opset7">
			<data batch_dims="0"/>
			<input>
				<port id="0" precision="I64">
					<dim>4</dim>
				</port>
				<port id="1" precision="I32"/>
				<port id="2" precision="I64"/>
			</input>
			<output>
				<port id="3" names="576" precision="I64"/>
			</output>
		</layer>
		<layer id="292" name="Unsqueeze_211/Dims" type="Const" version="opset1">
			<data element_type="i64" offset="15248" shape="1" size="8"/>
			<output>
				<port id="0" precision="I64">
					<dim>1</dim>
				</port>
			</output>
		</layer>
		<layer id="293" name="Unsqueeze_211/Unsqueeze" type="Unsqueeze" version="opset1">
			<input>
				<port id="0" precision="I64"/>
				<port id="1" precision="I64">
					<dim>1</dim>
				</port>
			</input>
			<output>
				<port id="2" names="588" precision="I64">
					<dim>1</dim>
				</port>
			</output>
		</layer>
		<layer id="294" name="Shape_202" type="ShapeOf" version="opset3">
			<data output_type="i64"/>
			<input>
				<port id="0" precision="FP16">
					<dim>1</dim>
					<dim>232</dim>
					<dim>14</dim>
					<dim>14</dim>
				</port>
			</input>
			<output>
				<port id="1" names="577" precision="I64">
					<dim>4</dim>
				</port>
			</output>
		</layer>
		<layer id="295" name="Constant_203" type="Const" version="opset1">
			<data element_type="i32" offset="15272" shape="" size="4"/>
			<output>
				<port id="0" names="578" precision="I32"/>
			</output>
		</layer>
		<layer id="296" name="Gather_204/axis" type="Const" version="opset1">
			<data element_type="i64" offset="15248" shape="" size="8"/>
			<output>
				<port id="0" precision="I64"/>
			</output>
		</layer>
		<layer id="297" name="Gather_2041287" type="Gather" version="opset7">
			<data batch_dims="0"/>
			<input>
				<port id="0" precision="I64">
					<dim>4</dim>
				</port>
				<port id="1" precision="I32"/>
				<port id="2" precision="I64"/>
			</input>
			<output>
				<port id="3" names="579" precision="I64"/>
			</output>
		</layer>
		<layer id="298" name="Unsqueeze_212/Dims" type="Const" version="opset1">
			<data element_type="i64" offset="15248" shape="1" size="8"/>
			<output>
				<port id="0" precision="I64">
					<dim>1</dim>
				</port>
			</output>
		</layer>
		<layer id="299" name="Unsqueeze_212/Unsqueeze" type="Unsqueeze" version="opset1">
			<input>
				<port id="0" precision="I64"/>
				<port id="1" precision="I64">
					<dim>1</dim>
				</port>
			</input>
			<output>
				<port id="2" names="589" precision="I64">
					<dim>1</dim>
				</port>
			</output>
		</layer>
		<layer id="300" name="Concat_213" type="Concat" version="opset1">
			<data axis="0"/>
			<input>
				<port id="0" precision="I64">
					<dim>1</dim>
				</port>
				<port id="1" precision="I64">
					<dim>1</dim>
				</port>
				<port id="2" precision="I64">
					<dim>1</dim>
				</port>
				<port id="3" precision="I64">
					<dim>1</dim>
				</port>
				<port id="4" precision="I64">
					<dim>1</dim>
				</port>
			</input>
			<output>
				<port id="5" names="590" precision="I64">
					<dim>5</dim>
				</port>
			</output>
		</layer>
		<layer id="301" name="Reshape_214" type="Reshape" version="opset1">
			<data special_zero="true"/>
			<input>
				<port id="0" precision="FP16">
					<dim>1</dim>
					<dim>232</dim>
					<dim>14</dim>
					<dim>14</dim>
				</port>
				<port id="1" precision="I64">
					<dim>5</dim>
				</port>
			</input>
			<output>
				<port id="2" names="591" precision="FP16">
					<dim>1</dim>
					<dim>2</dim>
					<dim>116</dim>
					<dim>14</dim>
					<dim>14</dim>
				</port>
			</output>
		</layer>
		<layer id="302" name="896" type="Const" version="opset1">
			<data element_type="i64" offset="15276" shape="5" size="40"/>
			<output>
				<port id="0" precision="I64">
					<dim>5</dim>
				</port>
			</output>
		</layer>
		<layer id="303" name="Transpose_215" type="Transpose" version="opset1">
			<input>
				<port id="0" precision="FP16">
					<dim>1</dim>
					<dim>2</dim>
					<dim>116</dim>
					<dim>14</dim>
					<dim>14</dim>
				</port>
				<port id="1" precision="I64">
					<dim>5</dim>
				</port>
			</input>
			<output>
				<port id="2" names="592" precision="FP16">
					<dim>1</dim>
					<dim>116</dim>
					<dim>2</dim>
					<dim>14</dim>
					<dim>14</dim>
				</port>
			</output>
		</layer>
		<layer id="304" name="Unsqueeze_216/Dims" type="Const" version="opset1">
			<data element_type="i64" offset="15248" shape="1" size="8"/>
			<output>
				<port id="0" precision="I64">
					<dim>1</dim>
				</port>
			</output>
		</layer>
		<layer id="305" name="Unsqueeze_216/Unsqueeze" type="Unsqueeze" version="opset1">
			<input>
				<port id="0" precision="I64"/>
				<port id="1" precision="I64">
					<dim>1</dim>
				</port>
			</input>
			<output>
				<port id="2" names="594" precision="I64">
					<dim>1</dim>
				</port>
			</output>
		</layer>
		<layer id="306" name="1378" type="Const" version="opset1">
			<data element_type="i64" offset="15316" shape="1" size="8"/>
			<output>
				<port id="0" names="1378" precision="I64">
					<dim>1</dim>
				</port>
			</output>
		</layer>
		<layer id="307" name="Unsqueeze_217/Dims" type="Const" version="opset1">
			<data element_type="i64" offset="15248" shape="1" size="8"/>
			<output>
				<port id="0" precision="I64">
					<dim>1</dim>
				</port>
			</output>
		</layer>
		<layer id="308" name="Unsqueeze_217/Unsqueeze" type="Unsqueeze" version="opset1">
			<input>
				<port id="0" precision="I64"/>
				<port id="1" precision="I64">
					<dim>1</dim>
				</port>
			</input>
			<output>
				<port id="2" names="596" precision="I64">
					<dim>1</dim>
				</port>
			</output>
		</layer>
		<layer id="309" name="Unsqueeze_218/Dims" type="Const" version="opset1">
			<data element_type="i64" offset="15248" shape="1" size="8"/>
			<output>
				<port id="0" precision="I64">
					<dim>1</dim>
				</port>
			</output>
		</layer>
		<layer id="310" name="Unsqueeze_218/Unsqueeze" type="Unsqueeze" version="opset1">
			<input>
				<port id="0" precision="I64"/>
				<port id="1" precision="I64">
					<dim>1</dim>
				</port>
			</input>
			<output>
				<port id="2" names="597" precision="I64">
					<dim>1</dim>
				</port>
			</output>
		</layer>
		<layer id="311" name="Concat_219" type="Concat" version="opset1">
			<data axis="0"/>
			<input>
				<port id="0" precision="I64">
					<dim>1</dim>
				</port>
				<port id="1" precision="I64">
					<dim>1</dim>
				</port>
				<port id="2" precision="I64">
					<dim>1</dim>
				</port>
				<port id="3" precision="I64">
					<dim>1</dim>
				</port>
			</input>
			<output>
				<port id="4" names="598" precision="I64">
					<dim>4</dim>
				</port>
			</output>
		</layer>
		<layer id="312" name="Reshape_220" type="Reshape" version="opset1">
			<data special_zero="true"/>
			<input>
				<port id="0" precision="FP16">
					<dim>1</dim>
					<dim>116</dim>
					<dim>2</dim>
					<dim>14</dim>
					<dim>14</dim>
				</port>
				<port id="1" precision="I64">
					<dim>4</dim>
				</port>
			</input>
			<output>
				<port id="2" names="599" precision="FP16">
					<dim>1</dim>
					<dim>232</dim>
					<dim>14</dim>
					<dim>14</dim>
				</port>
			</output>
		</layer>
		<layer id="313" name="1285336013" type="Const" version="opset1">
			<data element_type="i64" offset="15324" shape="" size="8"/>
			<output>
				<port id="0" precision="I64"/>
			</output>
		</layer>
		<layer id="314" name="1285536271" type="Const" version="opset1">
			<data element_type="i64" offset="143992" shape="2" size="16"/>
			<output>
				<port id="0" precision="I64">
					<dim>2</dim>
				</port>
			</output>
		</layer>
		<layer id="315" name="Slice_231/Split" type="VariadicSplit" version="opset1">
			<input>
				<port id="0" precision="FP16">
					<dim>1</dim>
					<dim>232</dim>
					<dim>14</dim>
					<dim>14</dim>
				</port>
				<port id="1" precision="I64"/>
				<port id="2" precision="I64">
					<dim>2</dim>
				</port>
			</input>
			<output>
				<port id="3" names="610" precision="FP16">
					<dim>1</dim>
					<dim>116</dim>
					<dim>14</dim>
					<dim>14</dim>
				</port>
				<port id="4" names="613" precision="FP16">
					<dim>1</dim>
					<dim>116</dim>
					<dim>14</dim>
					<dim>14</dim>
				</port>
			</output>
		</layer>
		<layer id="316" name="1262" type="Const" version="opset1">
			<data element_type="f16" offset="144008" shape="116, 116, 1, 1" size="26912"/>
			<output>
				<port id="0" names="1262" precision="FP16">
					<dim>116</dim>
					<dim>116</dim>
					<dim>1</dim>
					<dim>1</dim>
				</port>
			</output>
		</layer>
		<layer id="317" name="Conv_235/WithoutBiases" type="Convolution" version="opset1">
			<data auto_pad="explicit" dilations="1, 1" pads_begin="0, 0" pads_end="0, 0" strides="1, 1"/>
			<input>
				<port id="0" precision="FP16">
					<dim>1</dim>
					<dim>116</dim>
					<dim>14</dim>
					<dim>14</dim>
				</port>
				<port id="1" precision="FP16">
					<dim>116</dim>
					<dim>116</dim>
					<dim>1</dim>
					<dim>1</dim>
				</port>
			</input>
			<output>
				<port id="2" precision="FP16">
					<dim>1</dim>
					<dim>116</dim>
					<dim>14</dim>
					<dim>14</dim>
				</port>
			</output>
		</layer>
		<layer id="318" name="Conv_235/Dims10125" type="Const" version="opset1">
			<data element_type="f16" offset="60936" shape="1, 116, 1, 1" size="232"/>
			<output>
				<port id="0" precision="FP16">
					<dim>1</dim>
					<dim>116</dim>
					<dim>1</dim>
					<dim>1</dim>
				</port>
			</output>
		</layer>
		<layer id="319" name="Conv_235" type="Add" version="opset1">
			<data auto_broadcast="numpy"/>
			<input>
				<port id="0" precision="FP16">
					<dim>1</dim>
					<dim>116</dim>
					<dim>14</dim>
					<dim>14</dim>
				</port>
				<port id="1" precision="FP16">
					<dim>1</dim>
					<dim>116</dim>
					<dim>1</dim>
					<dim>1</dim>
				</port>
			</input>
			<output>
				<port id="2" names="1261" precision="FP16">
					<dim>1</dim>
					<dim>116</dim>
					<dim>14</dim>
					<dim>14</dim>
				</port>
			</output>
		</layer>
		<layer id="320" name="Relu_236" type="ReLU" version="opset1">
			<input>
				<port id="0" precision="FP16">
					<dim>1</dim>
					<dim>116</dim>
					<dim>14</dim>
					<dim>14</dim>
				</port>
			</input>
			<output>
				<port id="1" names="616" precision="FP16">
					<dim>1</dim>
					<dim>116</dim>
					<dim>14</dim>
					<dim>14</dim>
				</port>
			</output>
		</layer>
		<layer id="321" name="1265" type="Const" version="opset1">
			<data element_type="f16" offset="170920" shape="116, 1, 1, 3, 3" size="2088"/>
			<output>
				<port id="0" names="1265" precision="FP16">
					<dim>116</dim>
					<dim>1</dim>
					<dim>1</dim>
					<dim>3</dim>
					<dim>3</dim>
				</port>
			</output>
		</layer>
		<layer id="322" name="Conv_237/WithoutBiases" type="GroupConvolution" version="opset1">
			<data auto_pad="explicit" dilations="1, 1" pads_begin="1, 1" pads_end="1, 1" strides="1, 1"/>
			<input>
				<port id="0" precision="FP16">
					<dim>1</dim>
					<dim>116</dim>
					<dim>14</dim>
					<dim>14</dim>
				</port>
				<port id="1" precision="FP16">
					<dim>116</dim>
					<dim>1</dim>
					<dim>1</dim>
					<dim>3</dim>
					<dim>3</dim>
				</port>
			</input>
			<output>
				<port id="2" precision="FP16">
					<dim>1</dim>
					<dim>116</dim>
					<dim>14</dim>
					<dim>14</dim>
				</port>
			</output>
		</layer>
		<layer id="323" name="Conv_237/Dims10197" type="Const" version="opset1">
			<data element_type="f16" offset="60936" shape="1, 116, 1, 1" size="232"/>
			<output>
				<port id="0" precision="FP16">
					<dim>1</dim>
					<dim>116</dim>
					<dim>1</dim>
					<dim>1</dim>
				</port>
			</output>
		</layer>
		<layer id="324" name="Conv_237" type="Add" version="opset1">
			<data auto_broadcast="numpy"/>
			<input>
				<port id="0" precision="FP16">
					<dim>1</dim>
					<dim>116</dim>
					<dim>14</dim>
					<dim>14</dim>
				</port>
				<port id="1" precision="FP16">
					<dim>1</dim>
					<dim>116</dim>
					<dim>1</dim>
					<dim>1</dim>
				</port>
			</input>
			<output>
				<port id="2" names="1264" precision="FP16">
					<dim>1</dim>
					<dim>116</dim>
					<dim>14</dim>
					<dim>14</dim>
				</port>
			</output>
		</layer>
		<layer id="325" name="1268" type="Const" version="opset1">
			<data element_type="f16" offset="173008" shape="116, 116, 1, 1" size="26912"/>
			<output>
				<port id="0" names="1268" precision="FP16">
					<dim>116</dim>
					<dim>116</dim>
					<dim>1</dim>
					<dim>1</dim>
				</port>
			</output>
		</layer>
		<layer id="326" name="Conv_238/WithoutBiases" type="Convolution" version="opset1">
			<data auto_pad="explicit" dilations="1, 1" pads_begin="0, 0" pads_end="0, 0" strides="1, 1"/>
			<input>
				<port id="0" precision="FP16">
					<dim>1</dim>
					<dim>116</dim>
					<dim>14</dim>
					<dim>14</dim>
				</port>
				<port id="1" precision="FP16">
					<dim>116</dim>
					<dim>116</dim>
					<dim>1</dim>
					<dim>1</dim>
				</port>
			</input>
			<output>
				<port id="2" precision="FP16">
					<dim>1</dim>
					<dim>116</dim>
					<dim>14</dim>
					<dim>14</dim>
				</port>
			</output>
		</layer>
		<layer id="327" name="Conv_238/Dims10071" type="Const" version="opset1">
			<data element_type="f16" offset="60936" shape="1, 116, 1, 1" size="232"/>
			<output>
				<port id="0" precision="FP16">
					<dim>1</dim>
					<dim>116</dim>
					<dim>1</dim>
					<dim>1</dim>
				</port>
			</output>
		</layer>
		<layer id="328" name="Conv_238" type="Add" version="opset1">
			<data auto_broadcast="numpy"/>
			<input>
				<port id="0" precision="FP16">
					<dim>1</dim>
					<dim>116</dim>
					<dim>14</dim>
					<dim>14</dim>
				</port>
				<port id="1" precision="FP16">
					<dim>1</dim>
					<dim>116</dim>
					<dim>1</dim>
					<dim>1</dim>
				</port>
			</input>
			<output>
				<port id="2" names="1267" precision="FP16">
					<dim>1</dim>
					<dim>116</dim>
					<dim>14</dim>
					<dim>14</dim>
				</port>
			</output>
		</layer>
		<layer id="329" name="Relu_239" type="ReLU" version="opset1">
			<input>
				<port id="0" precision="FP16">
					<dim>1</dim>
					<dim>116</dim>
					<dim>14</dim>
					<dim>14</dim>
				</port>
			</input>
			<output>
				<port id="1" names="621" precision="FP16">
					<dim>1</dim>
					<dim>116</dim>
					<dim>14</dim>
					<dim>14</dim>
				</port>
			</output>
		</layer>
		<layer id="330" name="Concat_240" type="Concat" version="opset1">
			<data axis="1"/>
			<input>
				<port id="0" precision="FP16">
					<dim>1</dim>
					<dim>116</dim>
					<dim>14</dim>
					<dim>14</dim>
				</port>
				<port id="1" precision="FP16">
					<dim>1</dim>
					<dim>116</dim>
					<dim>14</dim>
					<dim>14</dim>
				</port>
			</input>
			<output>
				<port id="2" names="622" precision="FP16">
					<dim>1</dim>
					<dim>232</dim>
					<dim>14</dim>
					<dim>14</dim>
				</port>
			</output>
		</layer>
		<layer id="331" name="Shape_241" type="ShapeOf" version="opset3">
			<data output_type="i64"/>
			<input>
				<port id="0" precision="FP16">
					<dim>1</dim>
					<dim>232</dim>
					<dim>14</dim>
					<dim>14</dim>
				</port>
			</input>
			<output>
				<port id="1" names="623" precision="I64">
					<dim>4</dim>
				</port>
			</output>
		</layer>
		<layer id="332" name="Constant_242" type="Const" version="opset1">
			<data element_type="i32" offset="15244" shape="" size="4"/>
			<output>
				<port id="0" names="624" precision="I32"/>
			</output>
		</layer>
		<layer id="333" name="Gather_243/axis" type="Const" version="opset1">
			<data element_type="i64" offset="15248" shape="" size="8"/>
			<output>
				<port id="0" precision="I64"/>
			</output>
		</layer>
		<layer id="334" name="Gather_2431193" type="Gather" version="opset7">
			<data batch_dims="0"/>
			<input>
				<port id="0" precision="I64">
					<dim>4</dim>
				</port>
				<port id="1" precision="I32"/>
				<port id="2" precision="I64"/>
			</input>
			<output>
				<port id="3" names="625" precision="I64"/>
			</output>
		</layer>
		<layer id="335" name="Unsqueeze_257/Dims" type="Const" version="opset1">
			<data element_type="i64" offset="15248" shape="1" size="8"/>
			<output>
				<port id="0" precision="I64">
					<dim>1</dim>
				</port>
			</output>
		</layer>
		<layer id="336" name="Unsqueeze_257/Unsqueeze" type="Unsqueeze" version="opset1">
			<input>
				<port id="0" precision="I64"/>
				<port id="1" precision="I64">
					<dim>1</dim>
				</port>
			</input>
			<output>
				<port id="2" names="640" precision="I64">
					<dim>1</dim>
				</port>
			</output>
		</layer>
		<layer id="337" name="1379" type="Const" version="opset1">
			<data element_type="i64" offset="15256" shape="1" size="8"/>
			<output>
				<port id="0" names="1379" precision="I64">
					<dim>1</dim>
				</port>
			</output>
		</layer>
		<layer id="338" name="Shape_244" type="ShapeOf" version="opset3">
			<data output_type="i64"/>
			<input>
				<port id="0" precision="FP16">
					<dim>1</dim>
					<dim>232</dim>
					<dim>14</dim>
					<dim>14</dim>
				</port>
			</input>
			<output>
				<port id="1" names="626" precision="I64">
					<dim>4</dim>
				</port>
			</output>
		</layer>
		<layer id="339" name="Constant_245" type="Const" version="opset1">
			<data element_type="i32" offset="15264" shape="" size="4"/>
			<output>
				<port id="0" names="627" precision="I32"/>
			</output>
		</layer>
		<layer id="340" name="Gather_246/axis" type="Const" version="opset1">
			<data element_type="i64" offset="15248" shape="" size="8"/>
			<output>
				<port id="0" precision="I64"/>
			</output>
		</layer>
		<layer id="341" name="Gather_2461235" type="Gather" version="opset7">
			<data batch_dims="0"/>
			<input>
				<port id="0" precision="I64">
					<dim>4</dim>
				</port>
				<port id="1" precision="I32"/>
				<port id="2" precision="I64"/>
			</input>
			<output>
				<port id="3" names="628" precision="I64"/>
			</output>
		</layer>
		<layer id="342" name="Constant_253" type="Const" version="opset1">
			<data element_type="i64" offset="15256" shape="" size="8"/>
			<output>
				<port id="0" names="635" precision="I64"/>
			</output>
		</layer>
		<layer id="343" name="Div_254" type="Divide" version="opset1">
			<data auto_broadcast="numpy" m_pythondiv="true"/>
			<input>
				<port id="0" precision="I64"/>
				<port id="1" precision="I64"/>
			</input>
			<output>
				<port id="2" names="636,637,638" precision="I64"/>
			</output>
		</layer>
		<layer id="344" name="Unsqueeze_258/Dims" type="Const" version="opset1">
			<data element_type="i64" offset="15248" shape="1" size="8"/>
			<output>
				<port id="0" precision="I64">
					<dim>1</dim>
				</port>
			</output>
		</layer>
		<layer id="345" name="Unsqueeze_258/Unsqueeze" type="Unsqueeze" version="opset1">
			<input>
				<port id="0" precision="I64"/>
				<port id="1" precision="I64">
					<dim>1</dim>
				</port>
			</input>
			<output>
				<port id="2" names="642" precision="I64">
					<dim>1</dim>
				</port>
			</output>
		</layer>
		<layer id="346" name="Shape_247" type="ShapeOf" version="opset3">
			<data output_type="i64"/>
			<input>
				<port id="0" precision="FP16">
					<dim>1</dim>
					<dim>232</dim>
					<dim>14</dim>
					<dim>14</dim>
				</port>
			</input>
			<output>
				<port id="1" names="629" precision="I64">
					<dim>4</dim>
				</port>
			</output>
		</layer>
		<layer id="347" name="Constant_248" type="Const" version="opset1">
			<data element_type="i32" offset="15268" shape="" size="4"/>
			<output>
				<port id="0" names="630" precision="I32"/>
			</output>
		</layer>
		<layer id="348" name="Gather_249/axis" type="Const" version="opset1">
			<data element_type="i64" offset="15248" shape="" size="8"/>
			<output>
				<port id="0" precision="I64"/>
			</output>
		</layer>
		<layer id="349" name="Gather_2491271" type="Gather" version="opset7">
			<data batch_dims="0"/>
			<input>
				<port id="0" precision="I64">
					<dim>4</dim>
				</port>
				<port id="1" precision="I32"/>
				<port id="2" precision="I64"/>
			</input>
			<output>
				<port id="3" names="631" precision="I64"/>
			</output>
		</layer>
		<layer id="350" name="Unsqueeze_259/Dims" type="Const" version="opset1">
			<data element_type="i64" offset="15248" shape="1" size="8"/>
			<output>
				<port id="0" precision="I64">
					<dim>1</dim>
				</port>
			</output>
		</layer>
		<layer id="351" name="Unsqueeze_259/Unsqueeze" type="Unsqueeze" version="opset1">
			<input>
				<port id="0" precision="I64"/>
				<port id="1" precision="I64">
					<dim>1</dim>
				</port>
			</input>
			<output>
				<port id="2" names="643" precision="I64">
					<dim>1</dim>
				</port>
			</output>
		</layer>
		<layer id="352" name="Shape_250" type="ShapeOf" version="opset3">
			<data output_type="i64"/>
			<input>
				<port id="0" precision="FP16">
					<dim>1</dim>
					<dim>232</dim>
					<dim>14</dim>
					<dim>14</dim>
				</port>
			</input>
			<output>
				<port id="1" names="632" precision="I64">
					<dim>4</dim>
				</port>
			</output>
		</layer>
		<layer id="353" name="Constant_251" type="Const" version="opset1">
			<data element_type="i32" offset="15272" shape="" size="4"/>
			<output>
				<port id="0" names="633" precision="I32"/>
			</output>
		</layer>
		<layer id="354" name="Gather_252/axis" type="Const" version="opset1">
			<data element_type="i64" offset="15248" shape="" size="8"/>
			<output>
				<port id="0" precision="I64"/>
			</output>
		</layer>
		<layer id="355" name="Gather_2521221" type="Gather" version="opset7">
			<data batch_dims="0"/>
			<input>
				<port id="0" precision="I64">
					<dim>4</dim>
				</port>
				<port id="1" precision="I32"/>
				<port id="2" precision="I64"/>
			</input>
			<output>
				<port id="3" names="634" precision="I64"/>
			</output>
		</layer>
		<layer id="356" name="Unsqueeze_260/Dims" type="Const" version="opset1">
			<data element_type="i64" offset="15248" shape="1" size="8"/>
			<output>
				<port id="0" precision="I64">
					<dim>1</dim>
				</port>
			</output>
		</layer>
		<layer id="357" name="Unsqueeze_260/Unsqueeze" type="Unsqueeze" version="opset1">
			<input>
				<port id="0" precision="I64"/>
				<port id="1" precision="I64">
					<dim>1</dim>
				</port>
			</input>
			<output>
				<port id="2" names="644" precision="I64">
					<dim>1</dim>
				</port>
			</output>
		</layer>
		<layer id="358" name="Concat_261" type="Concat" version="opset1">
			<data axis="0"/>
			<input>
				<port id="0" precision="I64">
					<dim>1</dim>
				</port>
				<port id="1" precision="I64">
					<dim>1</dim>
				</port>
				<port id="2" precision="I64">
					<dim>1</dim>
				</port>
				<port id="3" precision="I64">
					<dim>1</dim>
				</port>
				<port id="4" precision="I64">
					<dim>1</dim>
				</port>
			</input>
			<output>
				<port id="5" names="645" precision="I64">
					<dim>5</dim>
				</port>
			</output>
		</layer>
		<layer id="359" name="Reshape_262" type="Reshape" version="opset1">
			<data special_zero="true"/>
			<input>
				<port id="0" precision="FP16">
					<dim>1</dim>
					<dim>232</dim>
					<dim>14</dim>
					<dim>14</dim>
				</port>
				<port id="1" precision="I64">
					<dim>5</dim>
				</port>
			</input>
			<output>
				<port id="2" names="646" precision="FP16">
					<dim>1</dim>
					<dim>2</dim>
					<dim>116</dim>
					<dim>14</dim>
					<dim>14</dim>
				</port>
			</output>
		</layer>
		<layer id="360" name="895" type="Const" version="opset1">
			<data element_type="i64" offset="15276" shape="5" size="40"/>
			<output>
				<port id="0" precision="I64">
					<dim>5</dim>
				</port>
			</output>
		</layer>
		<layer id="361" name="Transpose_263" type="Transpose" version="opset1">
			<input>
				<port id="0" precision="FP16">
					<dim>1</dim>
					<dim>2</dim>
					<dim>116</dim>
					<dim>14</dim>
					<dim>14</dim>
				</port>
				<port id="1" precision="I64">
					<dim>5</dim>
				</port>
			</input>
			<output>
				<port id="2" names="647" precision="FP16">
					<dim>1</dim>
					<dim>116</dim>
					<dim>2</dim>
					<dim>14</dim>
					<dim>14</dim>
				</port>
			</output>
		</layer>
		<layer id="362" name="Unsqueeze_264/Dims" type="Const" version="opset1">
			<data element_type="i64" offset="15248" shape="1" size="8"/>
			<output>
				<port id="0" precision="I64">
					<dim>1</dim>
				</port>
			</output>
		</layer>
		<layer id="363" name="Unsqueeze_264/Unsqueeze" type="Unsqueeze" version="opset1">
			<input>
				<port id="0" precision="I64"/>
				<port id="1" precision="I64">
					<dim>1</dim>
				</port>
			</input>
			<output>
				<port id="2" names="649" precision="I64">
					<dim>1</dim>
				</port>
			</output>
		</layer>
		<layer id="364" name="1380" type="Const" version="opset1">
			<data element_type="i64" offset="15316" shape="1" size="8"/>
			<output>
				<port id="0" names="1380" precision="I64">
					<dim>1</dim>
				</port>
			</output>
		</layer>
		<layer id="365" name="Unsqueeze_265/Dims" type="Const" version="opset1">
			<data element_type="i64" offset="15248" shape="1" size="8"/>
			<output>
				<port id="0" precision="I64">
					<dim>1</dim>
				</port>
			</output>
		</layer>
		<layer id="366" name="Unsqueeze_265/Unsqueeze" type="Unsqueeze" version="opset1">
			<input>
				<port id="0" precision="I64"/>
				<port id="1" precision="I64">
					<dim>1</dim>
				</port>
			</input>
			<output>
				<port id="2" names="651" precision="I64">
					<dim>1</dim>
				</port>
			</output>
		</layer>
		<layer id="367" name="Unsqueeze_266/Dims" type="Const" version="opset1">
			<data element_type="i64" offset="15248" shape="1" size="8"/>
			<output>
				<port id="0" precision="I64">
					<dim>1</dim>
				</port>
			</output>
		</layer>
		<layer id="368" name="Unsqueeze_266/Unsqueeze" type="Unsqueeze" version="opset1">
			<input>
				<port id="0" precision="I64"/>
				<port id="1" precision="I64">
					<dim>1</dim>
				</port>
			</input>
			<output>
				<port id="2" names="652" precision="I64">
					<dim>1</dim>
				</port>
			</output>
		</layer>
		<layer id="369" name="Concat_267" type="Concat" version="opset1">
			<data axis="0"/>
			<input>
				<port id="0" precision="I64">
					<dim>1</dim>
				</port>
				<port id="1" precision="I64">
					<dim>1</dim>
				</port>
				<port id="2" precision="I64">
					<dim>1</dim>
				</port>
				<port id="3" precision="I64">
					<dim>1</dim>
				</port>
			</input>
			<output>
				<port id="4" names="653" precision="I64">
					<dim>4</dim>
				</port>
			</output>
		</layer>
		<layer id="370" name="Reshape_268" type="Reshape" version="opset1">
			<data special_zero="true"/>
			<input>
				<port id="0" precision="FP16">
					<dim>1</dim>
					<dim>116</dim>
					<dim>2</dim>
					<dim>14</dim>
					<dim>14</dim>
				</port>
				<port id="1" precision="I64">
					<dim>4</dim>
				</port>
			</input>
			<output>
				<port id="2" names="654" precision="FP16">
					<dim>1</dim>
					<dim>232</dim>
					<dim>14</dim>
					<dim>14</dim>
				</port>
			</output>
		</layer>
		<layer id="371" name="1285836562" type="Const" version="opset1">
			<data element_type="i64" offset="15324" shape="" size="8"/>
			<output>
				<port id="0" precision="I64"/>
			</output>
		</layer>
		<layer id="372" name="1286037051" type="Const" version="opset1">
			<data element_type="i64" offset="143992" shape="2" size="16"/>
			<output>
				<port id="0" precision="I64">
					<dim>2</dim>
				</port>
			</output>
		</layer>
		<layer id="373" name="Slice_279/Split" type="VariadicSplit" version="opset1">
			<input>
				<port id="0" precision="FP16">
					<dim>1</dim>
					<dim>232</dim>
					<dim>14</dim>
					<dim>14</dim>
				</port>
				<port id="1" precision="I64"/>
				<port id="2" precision="I64">
					<dim>2</dim>
				</port>
			</input>
			<output>
				<port id="3" names="665" precision="FP16">
					<dim>1</dim>
					<dim>116</dim>
					<dim>14</dim>
					<dim>14</dim>
				</port>
				<port id="4" names="668" precision="FP16">
					<dim>1</dim>
					<dim>116</dim>
					<dim>14</dim>
					<dim>14</dim>
				</port>
			</output>
		</layer>
		<layer id="374" name="1271" type="Const" version="opset1">
			<data element_type="f16" offset="199920" shape="116, 116, 1, 1" size="26912"/>
			<output>
				<port id="0" names="1271" precision="FP16">
					<dim>116</dim>
					<dim>116</dim>
					<dim>1</dim>
					<dim>1</dim>
				</port>
			</output>
		</layer>
		<layer id="375" name="Conv_283/WithoutBiases" type="Convolution" version="opset1">
			<data auto_pad="explicit" dilations="1, 1" pads_begin="0, 0" pads_end="0, 0" strides="1, 1"/>
			<input>
				<port id="0" precision="FP16">
					<dim>1</dim>
					<dim>116</dim>
					<dim>14</dim>
					<dim>14</dim>
				</port>
				<port id="1" precision="FP16">
					<dim>116</dim>
					<dim>116</dim>
					<dim>1</dim>
					<dim>1</dim>
				</port>
			</input>
			<output>
				<port id="2" precision="FP16">
					<dim>1</dim>
					<dim>116</dim>
					<dim>14</dim>
					<dim>14</dim>
				</port>
			</output>
		</layer>
		<layer id="376" name="Conv_283/Dims10029" type="Const" version="opset1">
			<data element_type="f16" offset="60936" shape="1, 116, 1, 1" size="232"/>
			<output>
				<port id="0" precision="FP16">
					<dim>1</dim>
					<dim>116</dim>
					<dim>1</dim>
					<dim>1</dim>
				</port>
			</output>
		</layer>
		<layer id="377" name="Conv_283" type="Add" version="opset1">
			<data auto_broadcast="numpy"/>
			<input>
				<port id="0" precision="FP16">
					<dim>1</dim>
					<dim>116</dim>
					<dim>14</dim>
					<dim>14</dim>
				</port>
				<port id="1" precision="FP16">
					<dim>1</dim>
					<dim>116</dim>
					<dim>1</dim>
					<dim>1</dim>
				</port>
			</input>
			<output>
				<port id="2" names="1270" precision="FP16">
					<dim>1</dim>
					<dim>116</dim>
					<dim>14</dim>
					<dim>14</dim>
				</port>
			</output>
		</layer>
		<layer id="378" name="Relu_284" type="ReLU" version="opset1">
			<input>
				<port id="0" precision="FP16">
					<dim>1</dim>
					<dim>116</dim>
					<dim>14</dim>
					<dim>14</dim>
				</port>
			</input>
			<output>
				<port id="1" names="671" precision="FP16">
					<dim>1</dim>
					<dim>116</dim>
					<dim>14</dim>
					<dim>14</dim>
				</port>
			</output>
		</layer>
		<layer id="379" name="1274" type="Const" version="opset1">
			<data element_type="f16" offset="226832" shape="116, 1, 1, 3, 3" size="2088"/>
			<output>
				<port id="0" names="1274" precision="FP16">
					<dim>116</dim>
					<dim>1</dim>
					<dim>1</dim>
					<dim>3</dim>
					<dim>3</dim>
				</port>
			</output>
		</layer>
		<layer id="380" name="Conv_285/WithoutBiases" type="GroupConvolution" version="opset1">
			<data auto_pad="explicit" dilations="1, 1" pads_begin="1, 1" pads_end="1, 1" strides="1, 1"/>
			<input>
				<port id="0" precision="FP16">
					<dim>1</dim>
					<dim>116</dim>
					<dim>14</dim>
					<dim>14</dim>
				</port>
				<port id="1" precision="FP16">
					<dim>116</dim>
					<dim>1</dim>
					<dim>1</dim>
					<dim>3</dim>
					<dim>3</dim>
				</port>
			</input>
			<output>
				<port id="2" precision="FP16">
					<dim>1</dim>
					<dim>116</dim>
					<dim>14</dim>
					<dim>14</dim>
				</port>
			</output>
		</layer>
		<layer id="381" name="Conv_285/Dims9987" type="Const" version="opset1">
			<data element_type="f16" offset="60936" shape="1, 116, 1, 1" size="232"/>
			<output>
				<port id="0" precision="FP16">
					<dim>1</dim>
					<dim>116</dim>
					<dim>1</dim>
					<dim>1</dim>
				</port>
			</output>
		</layer>
		<layer id="382" name="Conv_285" type="Add" version="opset1">
			<data auto_broadcast="numpy"/>
			<input>
				<port id="0" precision="FP16">
					<dim>1</dim>
					<dim>116</dim>
					<dim>14</dim>
					<dim>14</dim>
				</port>
				<port id="1" precision="FP16">
					<dim>1</dim>
					<dim>116</dim>
					<dim>1</dim>
					<dim>1</dim>
				</port>
			</input>
			<output>
				<port id="2" names="1273" precision="FP16">
					<dim>1</dim>
					<dim>116</dim>
					<dim>14</dim>
					<dim>14</dim>
				</port>
			</output>
		</layer>
		<layer id="383" name="1277" type="Const" version="opset1">
			<data element_type="f16" offset="228920" shape="116, 116, 1, 1" size="26912"/>
			<output>
				<port id="0" names="1277" precision="FP16">
					<dim>116</dim>
					<dim>116</dim>
					<dim>1</dim>
					<dim>1</dim>
				</port>
			</output>
		</layer>
		<layer id="384" name="Conv_286/WithoutBiases" type="Convolution" version="opset1">
			<data auto_pad="explicit" dilations="1, 1" pads_begin="0, 0" pads_end="0, 0" strides="1, 1"/>
			<input>
				<port id="0" precision="FP16">
					<dim>1</dim>
					<dim>116</dim>
					<dim>14</dim>
					<dim>14</dim>
				</port>
				<port id="1" precision="FP16">
					<dim>116</dim>
					<dim>116</dim>
					<dim>1</dim>
					<dim>1</dim>
				</port>
			</input>
			<output>
				<port id="2" precision="FP16">
					<dim>1</dim>
					<dim>116</dim>
					<dim>14</dim>
					<dim>14</dim>
				</port>
			</output>
		</layer>
		<layer id="385" name="Conv_286/Dims10215" type="Const" version="opset1">
			<data element_type="f16" offset="60936" shape="1, 116, 1, 1" size="232"/>
			<output>
				<port id="0" precision="FP16">
					<dim>1</dim>
					<dim>116</dim>
					<dim>1</dim>
					<dim>1</dim>
				</port>
			</output>
		</layer>
		<layer id="386" name="Conv_286" type="Add" version="opset1">
			<data auto_broadcast="numpy"/>
			<input>
				<port id="0" precision="FP16">
					<dim>1</dim>
					<dim>116</dim>
					<dim>14</dim>
					<dim>14</dim>
				</port>
				<port id="1" precision="FP16">
					<dim>1</dim>
					<dim>116</dim>
					<dim>1</dim>
					<dim>1</dim>
				</port>
			</input>
			<output>
				<port id="2" names="1276" precision="FP16">
					<dim>1</dim>
					<dim>116</dim>
					<dim>14</dim>
					<dim>14</dim>
				</port>
			</output>
		</layer>
		<layer id="387" name="Relu_287" type="ReLU" version="opset1">
			<input>
				<port id="0" precision="FP16">
					<dim>1</dim>
					<dim>116</dim>
					<dim>14</dim>
					<dim>14</dim>
				</port>
			</input>
			<output>
				<port id="1" names="676" precision="FP16">
					<dim>1</dim>
					<dim>116</dim>
					<dim>14</dim>
					<dim>14</dim>
				</port>
			</output>
		</layer>
		<layer id="388" name="Concat_288" type="Concat" version="opset1">
			<data axis="1"/>
			<input>
				<port id="0" precision="FP16">
					<dim>1</dim>
					<dim>116</dim>
					<dim>14</dim>
					<dim>14</dim>
				</port>
				<port id="1" precision="FP16">
					<dim>1</dim>
					<dim>116</dim>
					<dim>14</dim>
					<dim>14</dim>
				</port>
			</input>
			<output>
				<port id="2" names="677" precision="FP16">
					<dim>1</dim>
					<dim>232</dim>
					<dim>14</dim>
					<dim>14</dim>
				</port>
			</output>
		</layer>
		<layer id="389" name="Shape_289" type="ShapeOf" version="opset3">
			<data output_type="i64"/>
			<input>
				<port id="0" precision="FP16">
					<dim>1</dim>
					<dim>232</dim>
					<dim>14</dim>
					<dim>14</dim>
				</port>
			</input>
			<output>
				<port id="1" names="678" precision="I64">
					<dim>4</dim>
				</port>
			</output>
		</layer>
		<layer id="390" name="Constant_290" type="Const" version="opset1">
			<data element_type="i32" offset="15244" shape="" size="4"/>
			<output>
				<port id="0" names="679" precision="I32"/>
			</output>
		</layer>
		<layer id="391" name="Gather_291/axis" type="Const" version="opset1">
			<data element_type="i64" offset="15248" shape="" size="8"/>
			<output>
				<port id="0" precision="I64"/>
			</output>
		</layer>
		<layer id="392" name="Gather_2911251" type="Gather" version="opset7">
			<data batch_dims="0"/>
			<input>
				<port id="0" precision="I64">
					<dim>4</dim>
				</port>
				<port id="1" precision="I32"/>
				<port id="2" precision="I64"/>
			</input>
			<output>
				<port id="3" names="680" precision="I64"/>
			</output>
		</layer>
		<layer id="393" name="Unsqueeze_305/Dims" type="Const" version="opset1">
			<data element_type="i64" offset="15248" shape="1" size="8"/>
			<output>
				<port id="0" precision="I64">
					<dim>1</dim>
				</port>
			</output>
		</layer>
		<layer id="394" name="Unsqueeze_305/Unsqueeze" type="Unsqueeze" version="opset1">
			<input>
				<port id="0" precision="I64"/>
				<port id="1" precision="I64">
					<dim>1</dim>
				</port>
			</input>
			<output>
				<port id="2" names="695" precision="I64">
					<dim>1</dim>
				</port>
			</output>
		</layer>
		<layer id="395" name="1381" type="Const" version="opset1">
			<data element_type="i64" offset="15256" shape="1" size="8"/>
			<output>
				<port id="0" names="1381" precision="I64">
					<dim>1</dim>
				</port>
			</output>
		</layer>
		<layer id="396" name="Shape_292" type="ShapeOf" version="opset3">
			<data output_type="i64"/>
			<input>
				<port id="0" precision="FP16">
					<dim>1</dim>
					<dim>232</dim>
					<dim>14</dim>
					<dim>14</dim>
				</port>
			</input>
			<output>
				<port id="1" names="681" precision="I64">
					<dim>4</dim>
				</port>
			</output>
		</layer>
		<layer id="397" name="Constant_293" type="Const" version="opset1">
			<data element_type="i32" offset="15264" shape="" size="4"/>
			<output>
				<port id="0" names="682" precision="I32"/>
			</output>
		</layer>
		<layer id="398" name="Gather_294/axis" type="Const" version="opset1">
			<data element_type="i64" offset="15248" shape="" size="8"/>
			<output>
				<port id="0" precision="I64"/>
			</output>
		</layer>
		<layer id="399" name="Gather_2941169" type="Gather" version="opset7">
			<data batch_dims="0"/>
			<input>
				<port id="0" precision="I64">
					<dim>4</dim>
				</port>
				<port id="1" precision="I32"/>
				<port id="2" precision="I64"/>
			</input>
			<output>
				<port id="3" names="683" precision="I64"/>
			</output>
		</layer>
		<layer id="400" name="Constant_301" type="Const" version="opset1">
			<data element_type="i64" offset="15256" shape="" size="8"/>
			<output>
				<port id="0" names="690" precision="I64"/>
			</output>
		</layer>
		<layer id="401" name="Div_302" type="Divide" version="opset1">
			<data auto_broadcast="numpy" m_pythondiv="true"/>
			<input>
				<port id="0" precision="I64"/>
				<port id="1" precision="I64"/>
			</input>
			<output>
				<port id="2" names="691,692,693" precision="I64"/>
			</output>
		</layer>
		<layer id="402" name="Unsqueeze_306/Dims" type="Const" version="opset1">
			<data element_type="i64" offset="15248" shape="1" size="8"/>
			<output>
				<port id="0" precision="I64">
					<dim>1</dim>
				</port>
			</output>
		</layer>
		<layer id="403" name="Unsqueeze_306/Unsqueeze" type="Unsqueeze" version="opset1">
			<input>
				<port id="0" precision="I64"/>
				<port id="1" precision="I64">
					<dim>1</dim>
				</port>
			</input>
			<output>
				<port id="2" names="697" precision="I64">
					<dim>1</dim>
				</port>
			</output>
		</layer>
		<layer id="404" name="Shape_295" type="ShapeOf" version="opset3">
			<data output_type="i64"/>
			<input>
				<port id="0" precision="FP16">
					<dim>1</dim>
					<dim>232</dim>
					<dim>14</dim>
					<dim>14</dim>
				</port>
			</input>
			<output>
				<port id="1" names="684" precision="I64">
					<dim>4</dim>
				</port>
			</output>
		</layer>
		<layer id="405" name="Constant_296" type="Const" version="opset1">
			<data element_type="i32" offset="15268" shape="" size="4"/>
			<output>
				<port id="0" names="685" precision="I32"/>
			</output>
		</layer>
		<layer id="406" name="Gather_297/axis" type="Const" version="opset1">
			<data element_type="i64" offset="15248" shape="" size="8"/>
			<output>
				<port id="0" precision="I64"/>
			</output>
		</layer>
		<layer id="407" name="Gather_2971135" type="Gather" version="opset7">
			<data batch_dims="0"/>
			<input>
				<port id="0" precision="I64">
					<dim>4</dim>
				</port>
				<port id="1" precision="I32"/>
				<port id="2" precision="I64"/>
			</input>
			<output>
				<port id="3" names="686" precision="I64"/>
			</output>
		</layer>
		<layer id="408" name="Unsqueeze_307/Dims" type="Const" version="opset1">
			<data element_type="i64" offset="15248" shape="1" size="8"/>
			<output>
				<port id="0" precision="I64">
					<dim>1</dim>
				</port>
			</output>
		</layer>
		<layer id="409" name="Unsqueeze_307/Unsqueeze" type="Unsqueeze" version="opset1">
			<input>
				<port id="0" precision="I64"/>
				<port id="1" precision="I64">
					<dim>1</dim>
				</port>
			</input>
			<output>
				<port id="2" names="698" precision="I64">
					<dim>1</dim>
				</port>
			</output>
		</layer>
		<layer id="410" name="Shape_298" type="ShapeOf" version="opset3">
			<data output_type="i64"/>
			<input>
				<port id="0" precision="FP16">
					<dim>1</dim>
					<dim>232</dim>
					<dim>14</dim>
					<dim>14</dim>
				</port>
			</input>
			<output>
				<port id="1" names="687" precision="I64">
					<dim>4</dim>
				</port>
			</output>
		</layer>
		<layer id="411" name="Constant_299" type="Const" version="opset1">
			<data element_type="i32" offset="15272" shape="" size="4"/>
			<output>
				<port id="0" names="688" precision="I32"/>
			</output>
		</layer>
		<layer id="412" name="Gather_300/axis" type="Const" version="opset1">
			<data element_type="i64" offset="15248" shape="" size="8"/>
			<output>
				<port id="0" precision="I64"/>
			</output>
		</layer>
		<layer id="413" name="Gather_3001255" type="Gather" version="opset7">
			<data batch_dims="0"/>
			<input>
				<port id="0" precision="I64">
					<dim>4</dim>
				</port>
				<port id="1" precision="I32"/>
				<port id="2" precision="I64"/>
			</input>
			<output>
				<port id="3" names="689" precision="I64"/>
			</output>
		</layer>
		<layer id="414" name="Unsqueeze_308/Dims" type="Const" version="opset1">
			<data element_type="i64" offset="15248" shape="1" size="8"/>
			<output>
				<port id="0" precision="I64">
					<dim>1</dim>
				</port>
			</output>
		</layer>
		<layer id="415" name="Unsqueeze_308/Unsqueeze" type="Unsqueeze" version="opset1">
			<input>
				<port id="0" precision="I64"/>
				<port id="1" precision="I64">
					<dim>1</dim>
				</port>
			</input>
			<output>
				<port id="2" names="699" precision="I64">
					<dim>1</dim>
				</port>
			</output>
		</layer>
		<layer id="416" name="Concat_309" type="Concat" version="opset1">
			<data axis="0"/>
			<input>
				<port id="0" precision="I64">
					<dim>1</dim>
				</port>
				<port id="1" precision="I64">
					<dim>1</dim>
				</port>
				<port id="2" precision="I64">
					<dim>1</dim>
				</port>
				<port id="3" precision="I64">
					<dim>1</dim>
				</port>
				<port id="4" precision="I64">
					<dim>1</dim>
				</port>
			</input>
			<output>
				<port id="5" names="700" precision="I64">
					<dim>5</dim>
				</port>
			</output>
		</layer>
		<layer id="417" name="Reshape_310" type="Reshape" version="opset1">
			<data special_zero="true"/>
			<input>
				<port id="0" precision="FP16">
					<dim>1</dim>
					<dim>232</dim>
					<dim>14</dim>
					<dim>14</dim>
				</port>
				<port id="1" precision="I64">
					<dim>5</dim>
				</port>
			</input>
			<output>
				<port id="2" names="701" precision="FP16">
					<dim>1</dim>
					<dim>2</dim>
					<dim>116</dim>
					<dim>14</dim>
					<dim>14</dim>
				</port>
			</output>
		</layer>
		<layer id="418" name="905" type="Const" version="opset1">
			<data element_type="i64" offset="15276" shape="5" size="40"/>
			<output>
				<port id="0" precision="I64">
					<dim>5</dim>
				</port>
			</output>
		</layer>
		<layer id="419" name="Transpose_311" type="Transpose" version="opset1">
			<input>
				<port id="0" precision="FP16">
					<dim>1</dim>
					<dim>2</dim>
					<dim>116</dim>
					<dim>14</dim>
					<dim>14</dim>
				</port>
				<port id="1" precision="I64">
					<dim>5</dim>
				</port>
			</input>
			<output>
				<port id="2" names="702" precision="FP16">
					<dim>1</dim>
					<dim>116</dim>
					<dim>2</dim>
					<dim>14</dim>
					<dim>14</dim>
				</port>
			</output>
		</layer>
		<layer id="420" name="Unsqueeze_312/Dims" type="Const" version="opset1">
			<data element_type="i64" offset="15248" shape="1" size="8"/>
			<output>
				<port id="0" precision="I64">
					<dim>1</dim>
				</port>
			</output>
		</layer>
		<layer id="421" name="Unsqueeze_312/Unsqueeze" type="Unsqueeze" version="opset1">
			<input>
				<port id="0" precision="I64"/>
				<port id="1" precision="I64">
					<dim>1</dim>
				</port>
			</input>
			<output>
				<port id="2" names="704" precision="I64">
					<dim>1</dim>
				</port>
			</output>
		</layer>
		<layer id="422" name="1382" type="Const" version="opset1">
			<data element_type="i64" offset="15316" shape="1" size="8"/>
			<output>
				<port id="0" names="1382" precision="I64">
					<dim>1</dim>
				</port>
			</output>
		</layer>
		<layer id="423" name="Unsqueeze_313/Dims" type="Const" version="opset1">
			<data element_type="i64" offset="15248" shape="1" size="8"/>
			<output>
				<port id="0" precision="I64">
					<dim>1</dim>
				</port>
			</output>
		</layer>
		<layer id="424" name="Unsqueeze_313/Unsqueeze" type="Unsqueeze" version="opset1">
			<input>
				<port id="0" precision="I64"/>
				<port id="1" precision="I64">
					<dim>1</dim>
				</port>
			</input>
			<output>
				<port id="2" names="706" precision="I64">
					<dim>1</dim>
				</port>
			</output>
		</layer>
		<layer id="425" name="Unsqueeze_314/Dims" type="Const" version="opset1">
			<data element_type="i64" offset="15248" shape="1" size="8"/>
			<output>
				<port id="0" precision="I64">
					<dim>1</dim>
				</port>
			</output>
		</layer>
		<layer id="426" name="Unsqueeze_314/Unsqueeze" type="Unsqueeze" version="opset1">
			<input>
				<port id="0" precision="I64"/>
				<port id="1" precision="I64">
					<dim>1</dim>
				</port>
			</input>
			<output>
				<port id="2" names="707" precision="I64">
					<dim>1</dim>
				</port>
			</output>
		</layer>
		<layer id="427" name="Concat_315" type="Concat" version="opset1">
			<data axis="0"/>
			<input>
				<port id="0" precision="I64">
					<dim>1</dim>
				</port>
				<port id="1" precision="I64">
					<dim>1</dim>
				</port>
				<port id="2" precision="I64">
					<dim>1</dim>
				</port>
				<port id="3" precision="I64">
					<dim>1</dim>
				</port>
			</input>
			<output>
				<port id="4" names="708" precision="I64">
					<dim>4</dim>
				</port>
			</output>
		</layer>
		<layer id="428" name="Reshape_316" type="Reshape" version="opset1">
			<data special_zero="true"/>
			<input>
				<port id="0" precision="FP16">
					<dim>1</dim>
					<dim>116</dim>
					<dim>2</dim>
					<dim>14</dim>
					<dim>14</dim>
				</port>
				<port id="1" precision="I64">
					<dim>4</dim>
				</port>
			</input>
			<output>
				<port id="2" names="709" precision="FP16">
					<dim>1</dim>
					<dim>232</dim>
					<dim>14</dim>
					<dim>14</dim>
				</port>
			</output>
		</layer>
		<layer id="429" name="1286336088" type="Const" version="opset1">
			<data element_type="i64" offset="15324" shape="" size="8"/>
			<output>
				<port id="0" precision="I64"/>
			</output>
		</layer>
		<layer id="430" name="1286537246" type="Const" version="opset1">
			<data element_type="i64" offset="143992" shape="2" size="16"/>
			<output>
				<port id="0" precision="I64">
					<dim>2</dim>
				</port>
			</output>
		</layer>
		<layer id="431" name="Slice_327/Split" type="VariadicSplit" version="opset1">
			<input>
				<port id="0" precision="FP16">
					<dim>1</dim>
					<dim>232</dim>
					<dim>14</dim>
					<dim>14</dim>
				</port>
				<port id="1" precision="I64"/>
				<port id="2" precision="I64">
					<dim>2</dim>
				</port>
			</input>
			<output>
				<port id="3" names="720" precision="FP16">
					<dim>1</dim>
					<dim>116</dim>
					<dim>14</dim>
					<dim>14</dim>
				</port>
				<port id="4" names="723" precision="FP16">
					<dim>1</dim>
					<dim>116</dim>
					<dim>14</dim>
					<dim>14</dim>
				</port>
			</output>
		</layer>
		<layer id="432" name="1280" type="Const" version="opset1">
			<data element_type="f16" offset="255832" shape="116, 116, 1, 1" size="26912"/>
			<output>
				<port id="0" names="1280" precision="FP16">
					<dim>116</dim>
					<dim>116</dim>
					<dim>1</dim>
					<dim>1</dim>
				</port>
			</output>
		</layer>
		<layer id="433" name="Conv_331/WithoutBiases" type="Convolution" version="opset1">
…
		<edge from-layer="334" from-port="3" to-layer="363" to-port="0"/>
		<edge from-layer="335" from-port="0" to-layer="336" to-port="1"/>
		<edge from-layer="336" from-port="2" to-layer="358" to-port="0"/>
		<edge from-layer="337" from-port="0" to-layer="358" to-port="1"/>
		<edge from-layer="338" from-port="1" to-layer="341" to-port="0"/>
		<edge from-layer="339" from-port="0" to-layer="341" to-port="1"/>
		<edge from-layer="340" from-port="0" to-layer="341" to-port="2"/>
		<edge from-layer="341" from-port="3" to-layer="343" to-port="0"/>
		<edge from-layer="342" from-port="0" to-layer="343" to-port="1"/>
		<edge from-layer="343" from-port="2" to-layer="345" to-port="0"/>
		<edge from-layer="344" from-port="0" to-layer="345" to-port="1"/>
		<edge from-layer="345" from-port="2" to-layer="358" to-port="2"/>
		<edge from-layer="346" from-port="1" to-layer="349" to-port="0"/>
		<edge from-layer="347" from-port="0" to-layer="349" to-port="1"/>
		<edge from-layer="348" from-port="0" to-layer="349" to-port="2"/>
		<edge from-layer="349" from-port="3" to-layer="351" to-port="0"/>
		<edge from-layer="349" from-port="3" to-layer="366" to-port="0"/>
		<edge from-layer="350" from-port="0" to-layer="351" to-port="1"/>
		<edge from-layer="351" from-port="2" to-layer="358" to-port="3"/>
		<edge from-layer="352" from-port="1" to-layer="355" to-port="0"/>
		<edge from-layer="353" from-port="0" to-layer="355" to-port="1"/>
		<edge from-layer="354" from-port="0" to-layer="355" to-port="2"/>
		<edge from-layer="355" from-port="3" to-layer="357" to-port="0"/>
		<edge from-layer="355" from-port="3" to-layer="368" to-port="0"/>
		<edge from-layer="356" from-port="0" to-layer="357" to-port="1"/>
		<edge from-layer="357" from-port="2" to-layer="358" to-port="4"/>
		<edge from-layer="358" from-port="5" to-layer="359" to-port="1"/>
		<edge from-layer="359" from-port="2" to-layer="361" to-port="0"/>
		<edge from-layer="360" from-port="0" to-layer="361" to-port="1"/>
		<edge from-layer="361" from-port="2" to-layer="370" to-port="0"/>
		<edge from-layer="362" from-port="0" to-layer="363" to-port="1"/>
		<edge from-layer="363" from-port="2" to-layer="369" to-port="0"/>
		<edge from-layer="364" from-port="0" to-layer="369" to-port="1"/>
		<edge from-layer="365" from-port="0" to-layer="366" to-port="1"/>
		<edge from-layer="366" from-port="2" to-layer="369" to-port="2"/>
		<edge from-layer="367" from-port="0" to-layer="368" to-port="1"/>
		<edge from-layer="368" from-port="2" to-layer="369" to-port="3"/>
		<edge from-layer="369" from-port="4" to-layer="370" to-port="1"/>
		<edge from-layer="370" from-port="2" to-layer="373" to-port="0"/>
		<edge from-layer="371" from-port="0" to-layer="373" to-port="1"/>
		<edge from-layer="372" from-port="0" to-layer="373" to-port="2"/>
		<edge from-layer="373" from-port="3" to-layer="388" to-port="0"/>
		<edge from-layer="373" from-port="4" to-layer="375" to-port="0"/>
		<edge from-layer="374" from-port="0" to-layer="375" to-port="1"/>
		<edge from-layer="375" from-port="2" to-layer="377" to-port="0"/>
		<edge from-layer="376" from-port="0" to-layer="377" to-port="1"/>
		<edge from-layer="377" from-port="2" to-layer="378" to-port="0"/>
		<edge from-layer="378" from-port="1" to-layer="380" to-port="0"/>
		<edge from-layer="379" from-port="0" to-layer="380" to-port="1"/>
		<edge from-layer="380" from-port="2" to-layer="382" to-port="0"/>
		<edge from-layer="381" from-port="0" to-layer="382" to-port="1"/>
		<edge from-layer="382" from-port="2" to-layer="384" to-port="0"/>
		<edge from-layer="383" from-port="0" to-layer="384" to-port="1"/>
		<edge from-layer="384" from-port="2" to-layer="386" to-port="0"/>
		<edge from-layer="385" from-port="0" to-layer="386" to-port="1"/>
		<edge from-layer="386" from-port="2" to-layer="387" to-port="0"/>
		<edge from-layer="387" from-port="1" to-layer="388" to-port="1"/>
		<edge from-layer="388" from-port="2" to-layer="404" to-port="0"/>
		<edge from-layer="388" from-port="2" to-layer="417" to-port="0"/>
		<edge from-layer="388" from-port="2" to-layer="410" to-port="0"/>
		<edge from-layer="388" from-port="2" to-layer="396" to-port="0"/>
		<edge from-layer="388" from-port="2" to-layer="389" to-port="0"/>
		<edge from-layer="389" from-port="1" to-layer="392" to-port="0"/>
		<edge from-layer="390" from-port="0" to-layer="392" to-port="1"/>
		<edge from-layer="391" from-port="0" to-layer="392" to-port="2"/>
		<edge from-layer="392" from-port="3" to-layer="394" to-port="0"/>
		<edge from-layer="392" from-port="3" to-layer="421" to-port="0"/>
		<edge from-layer="393" from-port="0" to-layer="394" to-port="1"/>
		<edge from-layer="394" from-port="2" to-layer="416" to-port="0"/>
		<edge from-layer="395" from-port="0" to-layer="416" to-port="1"/>
		<edge from-layer="396" from-port="1" to-layer="399" to-port="0"/>
		<edge from-layer="397" from-port="0" to-layer="399" to-port="1"/>
		<edge from-layer="398" from-port="0" to-layer="399" to-port="2"/>
		<edge from-layer="399" from-port="3" to-layer="401" to-port="0"/>
		<edge from-layer="400" from-port="0" to-layer="401" to-port="1"/>
		<edge from-layer="401" from-port="2" to-layer="403" to-port="0"/>
		<edge from-layer="402" from-port="0" to-layer="403" to-port="1"/>
		<edge from-layer="403" from-port="2" to-layer="416" to-port="2"/>
		<edge from-layer="404" from-port="1" to-layer="407" to-port="0"/>
		<edge from-layer="405" from-port="0" to-layer="407" to-port="1"/>
		<edge from-layer="406" from-port="0" to-layer="407" to-port="2"/>
		<edge from-layer="407" from-port="3" to-layer="409" to-port="0"/>
		<edge from-layer="407" from-port="3" to-layer="424" to-port="0"/>
		<edge from-layer="408" from-port="0" to-layer="409" to-port="1"/>
		<edge from-layer="409" from-port="2" to-layer="416" to-port="3"/>
		<edge from-layer="410" from-port="1" to-layer="413" to-port="0"/>
		<edge from-layer="411" from-port="0" to-layer="413" to-port="1"/>
		<edge from-layer="412" from-port="0" to-layer="413" to-port="2"/>
		<edge from-layer="413" from-port="3" to-layer="415" to-port="0"/>
		<edge from-layer="413" from-port="3" to-layer="426" to-port="0"/>
		<edge from-layer="414" from-port="0" to-layer="415" to-port="1"/>
		<edge from-layer="415" from-port="2" to-layer="416" to-port="4"/>
		<edge from-layer="416" from-port="5" to-layer="417" to-port="1"/>
		<edge from-layer="417" from-port="2" to-layer="419" to-port="0"/>
		<edge from-layer="418" from-port="0" to-layer="419" to-port="1"/>
		<edge from-layer="419" from-port="2" to-layer="428" to-port="0"/>
		<edge from-layer="420" from-port="0" to-layer="421" to-port="1"/>
		<edge from-layer="421" from-port="2" to-layer="427" to-port="0"/>
		<edge from-layer="422" from-port="0" to-layer="427" to-port="1"/>
		<edge from-layer="423" from-port="0" to-layer="424" to-port="1"/>
		<edge from-layer="424" from-port="2" to-layer="427" to-port="2"/>
		<edge from-layer="425" from-port="0" to-layer="426" to-port="1"/>
		<edge from-layer="426" from-port="2" to-layer="427" to-port="3"/>
		<edge from-layer="427" from-port="4" to-layer="428" to-port="1"/>
		<edge from-layer="428" from-port="2" to-layer="431" to-port="0"/>
		<edge from-layer="429" from-port="0" to-layer="431" to-port="1"/>
		<edge from-layer="430" from-port="0" to-layer="431" to-port="2"/>
		<edge from-layer="431" from-port="3" to-layer="446" to-port="0"/>
		<edge from-layer="431" from-port="4" to-layer="433" to-port="0"/>
		<edge from-layer="432" from-port="0" to-layer="433" to-port="1"/>
		<edge from-layer="433" from-port="2" to-layer="435" to-port="0"/>
		<edge from-layer="434" from-port="0" to-layer="435" to-port="1"/>
		<edge from-layer="435" from-port="2" to-layer="436" to-port="0"/>
		<edge from-layer="436" from-port="1" to-layer="438" to-port="0"/>
		<edge from-layer="437" from-port="0" to-layer="438" to-port="1"/>
		<edge from-layer="438" from-port="2" to-layer="440" to-port="0"/>
		<edge from-layer="439" from-port="0" to-layer="440" to-port="1"/>
		<edge from-layer="440" from-port="2" to-layer="442" to-port="0"/>
		<edge from-layer="441" from-port="0" to-layer="442" to-port="1"/>
		<edge from-layer="442" from-port="2" to-layer="444" to-port="0"/>
		<edge from-layer="443" from-port="0" to-layer="444" to-port="1"/>
		<edge from-layer="444" from-port="2" to-layer="445" to-port="0"/>
		<edge from-layer="445" from-port="1" to-layer="446" to-port="1"/>
		<edge from-layer="446" from-port="2" to-layer="462" to-port="0"/>
		<edge from-layer="446" from-port="2" to-layer="468" to-port="0"/>
		<edge from-layer="446" from-port="2" to-layer="475" to-port="0"/>
		<edge from-layer="446" from-port="2" to-layer="454" to-port="0"/>
		<edge from-layer="446" from-port="2" to-layer="447" to-port="0"/>
		<edge from-layer="447" from-port="1" to-layer="450" to-port="0"/>
		<edge from-layer="448" from-port="0" to-layer="450" to-port="1"/>
		<edge from-layer="449" from-port="0" to-layer="450" to-port="2"/>
		<edge from-layer="450" from-port="3" to-layer="452" to-port="0"/>
		<edge from-layer="450" from-port="3" to-layer="479" to-port="0"/>
		<edge from-layer="451" from-port="0" to-layer="452" to-port="1"/>
		<edge from-layer="452" from-port="2" to-layer="474" to-port="0"/>
		<edge from-layer="453" from-port="0" to-layer="474" to-port="1"/>
		<edge from-layer="454" from-port="1" to-layer="457" to-port="0"/>
		<edge from-layer="455" from-port="0" to-layer="457" to-port="1"/>
		<edge from-layer="456" from-port="0" to-layer="457" to-port="2"/>
		<edge from-layer="457" from-port="3" to-layer="459" to-port="0"/>
		<edge from-layer="458" from-port="0" to-layer="459" to-port="1"/>
		<edge from-layer="459" from-port="2" to-layer="461" to-port="0"/>
		<edge from-layer="460" from-port="0" to-layer="461" to-port="1"/>
		<edge from-layer="461" from-port="2" to-layer="474" to-port="2"/>
		<edge from-layer="462" from-port="1" to-layer="465" to-port="0"/>
		<edge from-layer="463" from-port="0" to-layer="465" to-port="1"/>
		<edge from-layer="464" from-port="0" to-layer="465" to-port="2"/>
		<edge from-layer="465" from-port="3" to-layer="482" to-port="0"/>
		<edge from-layer="465" from-port="3" to-layer="467" to-port="0"/>
		<edge from-layer="466" from-port="0" to-layer="467" to-port="1"/>
		<edge from-layer="467" from-port="2" to-layer="474" to-port="3"/>
		<edge from-layer="468" from-port="1" to-layer="471" to-port="0"/>
		<edge from-layer="469" from-port="0" to-layer="471" to-port="1"/>
		<edge from-layer="470" from-port="0" to-layer="471" to-port="2"/>
		<edge from-layer="471" from-port="3" to-layer="484" to-port="0"/>
		<edge from-layer="471" from-port="3" to-layer="473" to-port="0"/>
		<edge from-layer="472" from-port="0" to-layer="473" to-port="1"/>
		<edge from-layer="473" from-port="2" to-layer="474" to-port="4"/>
		<edge from-layer="474" from-port="5" to-layer="475" to-port="1"/>
		<edge from-layer="475" from-port="2" to-layer="477" to-port="0"/>
		<edge from-layer="476" from-port="0" to-layer="477" to-port="1"/>
		<edge from-layer="477" from-port="2" to-layer="486" to-port="0"/>
		<edge from-layer="478" from-port="0" to-layer="479" to-port="1"/>
		<edge from-layer="479" from-port="2" to-layer="485" to-port="0"/>
		<edge from-layer="480" from-port="0" to-layer="485" to-port="1"/>
		<edge from-layer="481" from-port="0" to-layer="482" to-port="1"/>
		<edge from-layer="482" from-port="2" to-layer="485" to-port="2"/>
		<edge from-layer="483" from-port="0" to-layer="484" to-port="1"/>
		<edge from-layer="484" from-port="2" to-layer="485" to-port="3"/>
		<edge from-layer="485" from-port="4" to-layer="486" to-port="1"/>
		<edge from-layer="486" from-port="2" to-layer="489" to-port="0"/>
		<edge from-layer="487" from-port="0" to-layer="489" to-port="1"/>
		<edge from-layer="488" from-port="0" to-layer="489" to-port="2"/>
		<edge from-layer="489" from-port="4" to-layer="491" to-port="0"/>
		<edge from-layer="489" from-port="3" to-layer="504" to-port="0"/>
		<edge from-layer="490" from-port="0" to-layer="491" to-port="1"/>
		<edge from-layer="491" from-port="2" to-layer="493" to-port="0"/>
		<edge from-layer="492" from-port="0" to-layer="493" to-port="1"/>
		<edge from-layer="493" from-port="2" to-layer="494" to-port="0"/>
		<edge from-layer="494" from-port="1" to-layer="496" to-port="0"/>
		<edge from-layer="495" from-port="0" to-layer="496" to-port="1"/>
		<edge from-layer="496" from-port="2" to-layer="498" to-port="0"/>
		<edge from-layer="497" from-port="0" to-layer="498" to-port="1"/>
		<edge from-layer="498" from-port="2" to-layer="500" to-port="0"/>
		<edge from-layer="499" from-port="0" to-layer="500" to-port="1"/>
		<edge from-layer="500" from-port="2" to-layer="502" to-port="0"/>
		<edge from-layer="501" from-port="0" to-layer="502" to-port="1"/>
		<edge from-layer="502" from-port="2" to-layer="503" to-port="0"/>
		<edge from-layer="503" from-port="1" to-layer="504" to-port="1"/>
		<edge from-layer="504" from-port="2" to-layer="533" to-port="0"/>
		<edge from-layer="504" from-port="2" to-layer="526" to-port="0"/>
		<edge from-layer="504" from-port="2" to-layer="520" to-port="0"/>
		<edge from-layer="504" from-port="2" to-layer="512" to-port="0"/>
		<edge from-layer="504" from-port="2" to-layer="505" to-port="0"/>
		<edge from-layer="505" from-port="1" to-layer="508" to-port="0"/>
		<edge from-layer="506" from-port="0" to-layer="508" to-port="1"/>
		<edge from-layer="507" from-port="0" to-layer="508" to-port="2"/>
		<edge from-layer="508" from-port="3" to-layer="537" to-port="0"/>
		<edge from-layer="508" from-port="3" to-layer="510" to-port="0"/>
		<edge from-layer="509" from-port="0" to-layer="510" to-port="1"/>
		<edge from-layer="510" from-port="2" to-layer="532" to-port="0"/>
		<edge from-layer="511" from-port="0" to-layer="532" to-port="1"/>
		<edge from-layer="512" from-port="1" to-layer="515" to-port="0"/>
		<edge from-layer="513" from-port="0" to-layer="515" to-port="1"/>
		<edge from-layer="514" from-port="0" to-layer="515" to-port="2"/>
		<edge from-layer="515" from-port="3" to-layer="517" to-port="0"/>
		<edge from-layer="516" from-port="0" to-layer="517" to-port="1"/>
		<edge from-layer="517" from-port="2" to-layer="519" to-port="0"/>
		<edge from-layer="518" from-port="0" to-layer="519" to-port="1"/>
		<edge from-layer="519" from-port="2" to-layer="532" to-port="2"/>
		<edge from-layer="520" from-port="1" to-layer="523" to-port="0"/>
		<edge from-layer="521" from-port="0" to-layer="523" to-port="1"/>
		<edge from-layer="522" from-port="0" to-layer="523" to-port="2"/>
		<edge from-layer="523" from-port="3" to-layer="525" to-port="0"/>
		<edge from-layer="523" from-port="3" to-layer="540" to-port="0"/>
		<edge from-layer="524" from-port="0" to-layer="525" to-port="1"/>
		<edge from-layer="525" from-port="2" to-layer="532" to-port="3"/>
		<edge from-layer="526" from-port="1" to-layer="529" to-port="0"/>
		<edge from-layer="527" from-port="0" to-layer="529" to-port="1"/>
		<edge from-layer="528" from-port="0" to-layer="529" to-port="2"/>
		<edge from-layer="529" from-port="3" to-layer="542" to-port="0"/>
		<edge from-layer="529" from-port="3" to-layer="531" to-port="0"/>
		<edge from-layer="530" from-port="0" to-layer="531" to-port="1"/>
		<edge from-layer="531" from-port="2" to-layer="532" to-port="4"/>
		<edge from-layer="532" from-port="5" to-layer="533" to-port="1"/>
		<edge from-layer="533" from-port="2" to-layer="535" to-port="0"/>
		<edge from-layer="534" from-port="0" to-layer="535" to-port="1"/>
		<edge from-layer="535" from-port="2" to-layer="544" to-port="0"/>
		<edge from-layer="536" from-port="0" to-layer="537" to-port="1"/>
		<edge from-layer="537" from-port="2" to-layer="543" to-port="0"/>
		<edge from-layer="538" from-port="0" to-layer="543" to-port="1"/>
		<edge from-layer="539" from-port="0" to-layer="540" to-port="1"/>
		<edge from-layer="540" from-port="2" to-layer="543" to-port="2"/>
		<edge from-layer="541" from-port="0" to-layer="542" to-port="1"/>
		<edge from-layer="542" from-port="2" to-layer="543" to-port="3"/>
		<edge from-layer="543" from-port="4" to-layer="544" to-port="1"/>
		<edge from-layer="544" from-port="2" to-layer="547" to-port="0"/>
		<edge from-layer="545" from-port="0" to-layer="547" to-port="1"/>
		<edge from-layer="546" from-port="0" to-layer="547" to-port="2"/>
		<edge from-layer="547" from-port="4" to-layer="549" to-port="0"/>
		<edge from-layer="547" from-port="3" to-layer="562" to-port="0"/>
		<edge from-layer="548" from-port="0" to-layer="549" to-port="1"/>
		<edge from-layer="549" from-port="2" to-layer="551" to-port="0"/>
		<edge from-layer="550" from-port="0" to-layer="551" to-port="1"/>
		<edge from-layer="551" from-port="2" to-layer="552" to-port="0"/>
		<edge from-layer="552" from-port="1" to-layer="554" to-port="0"/>
		<edge from-layer="553" from-port="0" to-layer="554" to-port="1"/>
		<edge from-layer="554" from-port="2" to-layer="556" to-port="0"/>
		<edge from-layer="555" from-port="0" to-layer="556" to-port="1"/>
		<edge from-layer="556" from-port="2" to-layer="558" to-port="0"/>
		<edge from-layer="557" from-port="0" to-layer="558" to-port="1"/>
		<edge from-layer="558" from-port="2" to-layer="560" to-port="0"/>
		<edge from-layer="559" from-port="0" to-layer="560" to-port="1"/>
		<edge from-layer="560" from-port="2" to-layer="561" to-port="0"/>
		<edge from-layer="561" from-port="1" to-layer="562" to-port="1"/>
		<edge from-layer="562" from-port="2" to-layer="591" to-port="0"/>
		<edge from-layer="562" from-port="2" to-layer="584" to-port="0"/>
		<edge from-layer="562" from-port="2" to-layer="578" to-port="0"/>
		<edge from-layer="562" from-port="2" to-layer="570" to-port="0"/>
		<edge from-layer="562" from-port="2" to-layer="563" to-port="0"/>
		<edge from-layer="563" from-port="1" to-layer="566" to-port="0"/>
		<edge from-layer="564" from-port="0" to-layer="566" to-port="1"/>
		<edge from-layer="565" from-port="0" to-layer="566" to-port="2"/>
		<edge from-layer="566" from-port="3" to-layer="595" to-port="0"/>
		<edge from-layer="566" from-port="3" to-layer="568" to-port="0"/>
		<edge from-layer="567" from-port="0" to-layer="568" to-port="1"/>
		<edge from-layer="568" from-port="2" to-layer="590" to-port="0"/>
		<edge from-layer="569" from-port="0" to-layer="590" to-port="1"/>
		<edge from-layer="570" from-port="1" to-layer="573" to-port="0"/>
		<edge from-layer="571" from-port="0" to-layer="573" to-port="1"/>
		<edge from-layer="572" from-port="0" to-layer="573" to-port="2"/>
		<edge from-layer="573" from-port="3" to-layer="575" to-port="0"/>
		<edge from-layer="574" from-port="0" to-layer="575" to-port="1"/>
		<edge from-layer="575" from-port="2" to-layer="577" to-port="0"/>
		<edge from-layer="576" from-port="0" to-layer="577" to-port="1"/>
		<edge from-layer="577" from-port="2" to-layer="590" to-port="2"/>
		<edge from-layer="578" from-port="1" to-layer="581" to-port="0"/>
		<edge from-layer="579" from-port="0" to-layer="581" to-port="1"/>
		<edge from-layer="580" from-port="0" to-layer="581" to-port="2"/>
		<edge from-layer="581" from-port="3" to-layer="583" to-port="0"/>
		<edge from-layer="581" from-port="3" to-layer="598" to-port="0"/>
		<edge from-layer="582" from-port="0" to-layer="583" to-port="1"/>
		<edge from-layer="583" from-port="2" to-layer="590" to-port="3"/>
		<edge from-layer="584" from-port="1" to-layer="587" to-port="0"/>
		<edge from-layer="585" from-port="0" to-layer="587" to-port="1"/>
		<edge from-layer="586" from-port="0" to-layer="587" to-port="2"/>
		<edge from-layer="587" from-port="3" to-layer="600" to-port="0"/>
		<edge from-layer="587" from-port="3" to-layer="589" to-port="0"/>
		<edge from-layer="588" from-port="0" to-layer="589" to-port="1"/>
		<edge from-layer="589" from-port="2" to-layer="590" to-port="4"/>
		<edge from-layer="590" from-port="5" to-layer="591" to-port="1"/>
		<edge from-layer="591" from-port="2" to-layer="593" to-port="0"/>
		<edge from-layer="592" from-port="0" to-layer="593" to-port="1"/>
		<edge from-layer="593" from-port="2" to-layer="602" to-port="0"/>
		<edge from-layer="594" from-port="0" to-layer="595" to-port="1"/>
		<edge from-layer="595" from-port="2" to-layer="601" to-port="0"/>
		<edge from-layer="596" from-port="0" to-layer="601" to-port="1"/>
		<edge from-layer="597" from-port="0" to-layer="598" to-port="1"/>
		<edge from-layer="598" from-port="2" to-layer="601" to-port="2"/>
		<edge from-layer="599" from-port="0" to-layer="600" to-port="1"/>
		<edge from-layer="600" from-port="2" to-layer="601" to-port="3"/>
		<edge from-layer="601" from-port="4" to-layer="602" to-port="1"/>
		<edge from-layer="602" from-port="2" to-layer="605" to-port="0"/>
		<edge from-layer="603" from-port="0" to-layer="605" to-port="1"/>
		<edge from-layer="604" from-port="0" to-layer="605" to-port="2"/>
		<edge from-layer="605" from-port="4" to-layer="607" to-port="0"/>
		<edge from-layer="605" from-port="3" to-layer="620" to-port="0"/>
		<edge from-layer="606" from-port="0" to-layer="607" to-port="1"/>
		<edge from-layer="607" from-port="2" to-layer="609" to-port="0"/>
		<edge from-layer="608" from-port="0" to-layer="609" to-port="1"/>
		<edge from-layer="609" from-port="2" to-layer="610" to-port="0"/>
		<edge from-layer="610" from-port="1" to-layer="612" to-port="0"/>
		<edge from-layer="611" from-port="0" to-layer="612" to-port="1"/>
		<edge from-layer="612" from-port="2" to-layer="614" to-port="0"/>
		<edge from-layer="613" from-port="0" to-layer="614" to-port="1"/>
		<edge from-layer="614" from-port="2" to-layer="616" to-port="0"/>
		<edge from-layer="615" from-port="0" to-layer="616" to-port="1"/>
		<edge from-layer="616" from-port="2" to-layer="618" to-port="0"/>
		<edge from-layer="617" from-port="0" to-layer="618" to-port="1"/>
		<edge from-layer="618" from-port="2" to-layer="619" to-port="0"/>
		<edge from-layer="619" from-port="1" to-layer="620" to-port="1"/>
		<edge from-layer="620" from-port="2" to-layer="621" to-port="0"/>
		<edge from-layer="620" from-port="2" to-layer="642" to-port="0"/>
		<edge from-layer="620" from-port="2" to-layer="649" to-port="0"/>
		<edge from-layer="620" from-port="2" to-layer="636" to-port="0"/>
		<edge from-layer="620" from-port="2" to-layer="628" to-port="0"/>
		<edge from-layer="621" from-port="1" to-layer="624" to-port="0"/>
		<edge from-layer="622" from-port="0" to-layer="624" to-port="1"/>
		<edge from-layer="623" from-port="0" to-layer="624" to-port="2"/>
		<edge from-layer="624" from-port="3" to-layer="626" to-port="0"/>
		<edge from-layer="624" from-port="3" to-layer="653" to-port="0"/>
		<edge from-layer="625" from-port="0" to-layer="626" to-port="1"/>
		<edge from-layer="626" from-port="2" to-layer="648" to-port="0"/>
		<edge from-layer="627" from-port="0" to-layer="648" to-port="1"/>
		<edge from-layer="628" from-port="1" to-layer="631" to-port="0"/>
		<edge from-layer="629" from-port="0" to-layer="631" to-port="1"/>
		<edge from-layer="630" from-port="0" to-layer="631" to-port="2"/>
		<edge from-layer="631" from-port="3" to-layer="633" to-port="0"/>
		<edge from-layer="632" from-port="0" to-layer="633" to-port="1"/>
		<edge from-layer="633" from-port="2" to-layer="635" to-port="0"/>
		<edge from-layer="634" from-port="0" to-layer="635" to-port="1"/>
		<edge from-layer="635" from-port="2" to-layer="648" to-port="2"/>
		<edge from-layer="636" from-port="1" to-layer="639" to-port="0"/>
		<edge from-layer="637" from-port="0" to-layer="639" to-port="1"/>
		<edge from-layer="638" from-port="0" to-layer="639" to-port="2"/>
		<edge from-layer="639" from-port="3" to-layer="656" to-port="0"/>
		<edge from-layer="639" from-port="3" to-layer="641" to-port="0"/>
		<edge from-layer="640" from-port="0" to-layer="641" to-port="1"/>
		<edge from-layer="641" from-port="2" to-layer="648" to-port="3"/>
		<edge from-layer="642" from-port="1" to-layer="645" to-port="0"/>
		<edge from-layer="643" from-port="0" to-layer="645" to-port="1"/>
		<edge from-layer="644" from-port="0" to-layer="645" to-port="2"/>
		<edge from-layer="645" from-port="3" to-layer="647" to-port="0"/>
		<edge from-layer="645" from-port="3" to-layer="658" to-port="0"/>
		<edge from-layer="646" from-port="0" to-layer="647" to-port="1"/>
		<edge from-layer="647" from-port="2" to-layer="648" to-port="4"/>
		<edge from-layer="648" from-port="5" to-layer="649" to-port="1"/>
		<edge from-layer="649" from-port="2" to-layer="651" to-port="0"/>
		<edge from-layer="650" from-port="0" to-layer="651" to-port="1"/>
		<edge from-layer="651" from-port="2" to-layer="660" to-port="0"/>
		<edge from-layer="652" from-port="0" to-layer="653" to-port="1"/>
		<edge from-layer="653" from-port="2" to-layer="659" to-port="0"/>
		<edge from-layer="654" from-port="0" to-layer="659" to-port="1"/>
		<edge from-layer="655" from-port="0" to-layer="656" to-port="1"/>
		<edge from-layer="656" from-port="2" to-layer="659" to-port="2"/>
		<edge from-layer="657" from-port="0" to-layer="658" to-port="1"/>
		<edge from-layer="658" from-port="2" to-layer="659" to-port="3"/>
		<edge from-layer="659" from-port="4" to-layer="660" to-port="1"/>
		<edge from-layer="660" from-port="2" to-layer="663" to-port="0"/>
		<edge from-layer="661" from-port="0" to-layer="663" to-port="1"/>
		<edge from-layer="662" from-port="0" to-layer="663" to-port="2"/>
		<edge from-layer="663" from-port="4" to-layer="665" to-port="0"/>
		<edge from-layer="663" from-port="3" to-layer="678" to-port="0"/>
		<edge from-layer="664" from-port="0" to-layer="665" to-port="1"/>
		<edge from-layer="665" from-port="2" to-layer="667" to-port="0"/>
		<edge from-layer="666" from-port="0" to-layer="667" to-port="1"/>
		<edge from-layer="667" from-port="2" to-layer="668" to-port="0"/>
		<edge from-layer="668" from-port="1" to-layer="670" to-port="0"/>
		<edge from-layer="669" from-port="0" to-layer="670" to-port="1"/>
		<edge from-layer="670" from-port="2" to-layer="672" to-port="0"/>
		<edge from-layer="671" from-port="0" to-layer="672" to-port="1"/>
		<edge from-layer="672" from-port="2" to-layer="674" to-port="0"/>
		<edge from-layer="673" from-port="0" to-layer="674" to-port="1"/>
		<edge from-layer="674" from-port="2" to-layer="676" to-port="0"/>
		<edge from-layer="675" from-port="0" to-layer="676" to-port="1"/>
		<edge from-layer="676" from-port="2" to-layer="677" to-port="0"/>
		<edge from-layer="677" from-port="1" to-layer="678" to-port="1"/>
		<edge from-layer="678" from-port="2" to-layer="707" to-port="0"/>
		<edge from-layer="678" from-port="2" to-layer="700" to-port="0"/>
		<edge from-layer="678" from-port="2" to-layer="694" to-port="0"/>
		<edge from-layer="678" from-port="2" to-layer="686" to-port="0"/>
		<edge from-layer="678" from-port="2" to-layer="679" to-port="0"/>
		<edge from-layer="679" from-port="1" to-layer="682" to-port="0"/>
		<edge from-layer="680" from-port="0" to-layer="682" to-port="1"/>
		<edge from-layer="681" from-port="0" to-layer="682" to-port="2"/>
		<edge from-layer="682" from-port="3" to-layer="684" to-port="0"/>
		<edge from-layer="682" from-port="3" to-layer="711" to-port="0"/>
		<edge from-layer="683" from-port="0" to-layer="684" to-port="1"/>
		<edge from-layer="684" from-port="2" to-layer="706" to-port="0"/>
		<edge from-layer="685" from-port="0" to-layer="706" to-port="1"/>
		<edge from-layer="686" from-port="1" to-layer="689" to-port="0"/>
		<edge from-layer="687" from-port="0" to-layer="689" to-port="1"/>
		<edge from-layer="688" from-port="0" to-layer="689" to-port="2"/>
		<edge from-layer="689" from-port="3" to-layer="691" to-port="0"/>
		<edge from-layer="690" from-port="0" to-layer="691" to-port="1"/>
		<edge from-layer="691" from-port="2" to-layer="693" to-port="0"/>
		<edge from-layer="692" from-port="0" to-layer="693" to-port="1"/>
		<edge from-layer="693" from-port="2" to-layer="706" to-port="2"/>
		<edge from-layer="694" from-port="1" to-layer="697" to-port="0"/>
		<edge from-layer="695" from-port="0" to-layer="697" to-port="1"/>
		<edge from-layer="696" from-port="0" to-layer="697" to-port="2"/>
		<edge from-layer="697" from-port="3" to-layer="699" to-port="0"/>
		<edge from-layer="697" from-port="3" to-layer="714" to-port="0"/>
		<edge from-layer="698" from-port="0" to-layer="699" to-port="1"/>
		<edge from-layer="699" from-port="2" to-layer="706" to-port="3"/>
		<edge from-layer="700" from-port="1" to-layer="703" to-port="0"/>
		<edge from-layer="701" from-port="0" to-layer="703" to-port="1"/>
		<edge from-layer="702" from-port="0" to-layer="703" to-port="2"/>
		<edge from-layer="703" from-port="3" to-layer="705" to-port="0"/>
		<edge from-layer="703" from-port="3" to-layer="716" to-port="0"/>
		<edge from-layer="704" from-port="0" to-layer="705" to-port="1"/>
		<edge from-layer="705" from-port="2" to-layer="706" to-port="4"/>
		<edge from-layer="706" from-port="5" to-layer="707" to-port="1"/>
		<edge from-layer="707" from-port="2" to-layer="709" to-port="0"/>
		<edge from-layer="708" from-port="0" to-layer="709" to-port="1"/>
		<edge from-layer="709" from-port="2" to-layer="718" to-port="0"/>
		<edge from-layer="710" from-port="0" to-layer="711" to-port="1"/>
		<edge from-layer="711" from-port="2" to-layer="717" to-port="0"/>
		<edge from-layer="712" from-port="0" to-layer="717" to-port="1"/>
		<edge from-layer="713" from-port="0" to-layer="714" to-port="1"/>
		<edge from-layer="714" from-port="2" to-layer="717" to-port="2"/>
		<edge from-layer="715" from-port="0" to-layer="716" to-port="1"/>
		<edge from-layer="716" from-port="2" to-layer="717" to-port="3"/>
		<edge from-layer="717" from-port="4" to-layer="718" to-port="1"/>
		<edge from-layer="718" from-port="2" to-layer="720" to-port="0"/>
		<edge from-layer="718" from-port="2" to-layer="729" to-port="0"/>
		<edge from-layer="719" from-port="0" to-layer="720" to-port="1"/>
		<edge from-layer="720" from-port="2" to-layer="722" to-port="0"/>
		<edge from-layer="721" from-port="0" to-layer="722" to-port="1"/>
		<edge from-layer="722" from-port="2" to-layer="724" to-port="0"/>
		<edge from-layer="723" from-port="0" to-layer="724" to-port="1"/>
		<edge from-layer="724" from-port="2" to-layer="726" to-port="0"/>
		<edge from-layer="725" from-port="0" to-layer="726" to-port="1"/>
		<edge from-layer="726" from-port="2" to-layer="727" to-port="0"/>
		<edge from-layer="727" from-port="1" to-layer="742" to-port="0"/>
		<edge from-layer="728" from-port="0" to-layer="729" to-port="1"/>
		<edge from-layer="729" from-port="2" to-layer="731" to-port="0"/>
		<edge from-layer="730" from-port="0" to-layer="731" to-port="1"/>
		<edge from-layer="731" from-port="2" to-layer="732" to-port="0"/>
		<edge from-layer="732" from-port="1" to-layer="734" to-port="0"/>
		<edge from-layer="733" from-port="0" to-layer="734" to-port="1"/>
		<edge from-layer="734" from-port="2" to-layer="736" to-port="0"/>
		<edge from-layer="735" from-port="0" to-layer="736" to-port="1"/>
		<edge from-layer="736" from-port="2" to-layer="738" to-port="0"/>
		<edge from-layer="737" from-port="0" to-layer="738" to-port="1"/>
		<edge from-layer="738" from-port="2" to-layer="740" to-port="0"/>
		<edge from-layer="739" from-port="0" to-layer="740" to-port="1"/>
		<edge from-layer="740" from-port="2" to-layer="741" to-port="0"/>
		<edge from-layer="741" from-port="1" to-layer="742" to-port="1"/>
		<edge from-layer="742" from-port="2" to-layer="743" to-port="0"/>
		<edge from-layer="742" from-port="2" to-layer="764" to-port="0"/>
		<edge from-layer="742" from-port="2" to-layer="771" to-port="0"/>
		<edge from-layer="742" from-port="2" to-layer="750" to-port="0"/>
		<edge from-layer="742" from-port="2" to-layer="758" to-port="0"/>
		<edge from-layer="743" from-port="1" to-layer="746" to-port="0"/>
		<edge from-layer="744" from-port="0" to-layer="746" to-port="1"/>
		<edge from-layer="745" from-port="0" to-layer="746" to-port="2"/>
		<edge from-layer="746" from-port="3" to-layer="775" to-port="0"/>
		<edge from-layer="746" from-port="3" to-layer="748" to-port="0"/>
		<edge from-layer="747" from-port="0" to-layer="748" to-port="1"/>
		<edge from-layer="748" from-port="2" to-layer="770" to-port="0"/>
		<edge from-layer="749" from-port="0" to-layer="770" to-port="1"/>
		<edge from-layer="750" from-port="1" to-layer="753" to-port="0"/>
		<edge from-layer="751" from-port="0" to-layer="753" to-port="1"/>
		<edge from-layer="752" from-port="0" to-layer="753" to-port="2"/>
		<edge from-layer="753" from-port="3" to-layer="755" to-port="0"/>
		<edge from-layer="754" from-port="0" to-layer="755" to-port="1"/>
		<edge from-layer="755" from-port="2" to-layer="757" to-port="0"/>
		<edge from-layer="756" from-port="0" to-layer="757" to-port="1"/>
		<edge from-layer="757" from-port="2" to-layer="770" to-port="2"/>
		<edge from-layer="758" from-port="1" to-layer="761" to-port="0"/>
		<edge from-layer="759" from-port="0" to-layer="761" to-port="1"/>
		<edge from-layer="760" from-port="0" to-layer="761" to-port="2"/>
		<edge from-layer="761" from-port="3" to-layer="763" to-port="0"/>
		<edge from-layer="761" from-port="3" to-layer="778" to-port="0"/>
		<edge from-layer="762" from-port="0" to-layer="763" to-port="1"/>
		<edge from-layer="763" from-port="2" to-layer="770" to-port="3"/>
		<edge from-layer="764" from-port="1" to-layer="767" to-port="0"/>
		<edge from-layer="765" from-port="0" to-layer="767" to-port="1"/>
		<edge from-layer="766" from-port="0" to-layer="767" to-port="2"/>
		<edge from-layer="767" from-port="3" to-layer="780" to-port="0"/>
		<edge from-layer="767" from-port="3" to-layer="769" to-port="0"/>
		<edge from-layer="768" from-port="0" to-layer="769" to-port="1"/>
		<edge from-layer="769" from-port="2" to-layer="770" to-port="4"/>
		<edge from-layer="770" from-port="5" to-layer="771" to-port="1"/>
		<edge from-layer="771" from-port="2" to-layer="773" to-port="0"/>
		<edge from-layer="772" from-port="0" to-layer="773" to-port="1"/>
		<edge from-layer="773" from-port="2" to-layer="782" to-port="0"/>
		<edge from-layer="774" from-port="0" to-layer="775" to-port="1"/>
		<edge from-layer="775" from-port="2" to-layer="781" to-port="0"/>
		<edge from-layer="776" from-port="0" to-layer="781" to-port="1"/>
		<edge from-layer="777" from-port="0" to-layer="778" to-port="1"/>
		<edge from-layer="778" from-port="2" to-layer="781" to-port="2"/>
		<edge from-layer="779" from-port="0" to-layer="780" to-port="1"/>
		<edge from-layer="780" from-port="2" to-layer="781" to-port="3"/>
		<edge from-layer="781" from-port="4" to-layer="782" to-port="1"/>
		<edge from-layer="782" from-port="2" to-layer="785" to-port="0"/>
		<edge from-layer="783" from-port="0" to-layer="785" to-port="1"/>
		<edge from-layer="784" from-port="0" to-layer="785" to-port="2"/>
		<edge from-layer="785" from-port="4" to-layer="787" to-port="0"/>
		<edge from-layer="785" from-port="3" to-layer="800" to-port="0"/>
		<edge from-layer="786" from-port="0" to-layer="787" to-port="1"/>
		<edge from-layer="787" from-port="2" to-layer="789" to-port="0"/>
		<edge from-layer="788" from-port="0" to-layer="789" to-port="1"/>
		<edge from-layer="789" from-port="2" to-layer="790" to-port="0"/>
		<edge from-layer="790" from-port="1" to-layer="792" to-port="0"/>
		<edge from-layer="791" from-port="0" to-layer="792" to-port="1"/>
		<edge from-layer="792" from-port="2" to-layer="794" to-port="0"/>
		<edge from-layer="793" from-port="0" to-layer="794" to-port="1"/>
		<edge from-layer="794" from-port="2" to-layer="796" to-port="0"/>
		<edge from-layer="795" from-port="0" to-layer="796" to-port="1"/>
		<edge from-layer="796" from-port="2" to-layer="798" to-port="0"/>
		<edge from-layer="797" from-port="0" to-layer="798" to-port="1"/>
		<edge from-layer="798" from-port="2" to-layer="799" to-port="0"/>
		<edge from-layer="799" from-port="1" to-layer="800" to-port="1"/>
		<edge from-layer="800" from-port="2" to-layer="822" to-port="0"/>
		<edge from-layer="800" from-port="2" to-layer="816" to-port="0"/>
		<edge from-layer="800" from-port="2" to-layer="829" to-port="0"/>
		<edge from-layer="800" from-port="2" to-layer="808" to-port="0"/>
		<edge from-layer="800" from-port="2" to-layer="801" to-port="0"/>
		<edge from-layer="801" from-port="1" to-layer="804" to-port="0"/>
		<edge from-layer="802" from-port="0" to-layer="804" to-port="1"/>
		<edge from-layer="803" from-port="0" to-layer="804" to-port="2"/>
		<edge from-layer="804" from-port="3" to-layer="806" to-port="0"/>
		<edge from-layer="804" from-port="3" to-layer="833" to-port="0"/>
		<edge from-layer="805" from-port="0" to-layer="806" to-port="1"/>
		<edge from-layer="806" from-port="2" to-layer="828" to-port="0"/>
		<edge from-layer="807" from-port="0" to-layer="828" to-port="1"/>
		<edge from-layer="808" from-port="1" to-layer="811" to-port="0"/>
		<edge from-layer="809" from-port="0" to-layer="811" to-port="1"/>
		<edge from-layer="810" from-port="0" to-layer="811" to-port="2"/>
		<edge from-layer="811" from-port="3" to-layer="813" to-port="0"/>
		<edge from-layer="812" from-port="0" to-layer="813" to-port="1"/>
		<edge from-layer="813" from-port="2" to-layer="815" to-port="0"/>
		<edge from-layer="814" from-port="0" to-layer="815" to-port="1"/>
		<edge from-layer="815" from-port="2" to-layer="828" to-port="2"/>
		<edge from-layer="816" from-port="1" to-layer="819" to-port="0"/>
		<edge from-layer="817" from-port="0" to-layer="819" to-port="1"/>
		<edge from-layer="818" from-port="0" to-layer="819" to-port="2"/>
		<edge from-layer="819" from-port="3" to-layer="821" to-port="0"/>
		<edge from-layer="819" from-port="3" to-layer="836" to-port="0"/>
		<edge from-layer="820" from-port="0" to-layer="821" to-port="1"/>
		<edge from-layer="821" from-port="2" to-layer="828" to-port="3"/>
		<edge from-layer="822" from-port="1" to-layer="825" to-port="0"/>
		<edge from-layer="823" from-port="0" to-layer="825" to-port="1"/>
		<edge from-layer="824" from-port="0" to-layer="825" to-port="2"/>
		<edge from-layer="825" from-port="3" to-layer="827" to-port="0"/>
		<edge from-layer="825" from-port="3" to-layer="838" to-port="0"/>
		<edge from-layer="826" from-port="0" to-layer="827" to-port="1"/>
		<edge from-layer="827" from-port="2" to-layer="828" to-port="4"/>
		<edge from-layer="828" from-port="5" to-layer="829" to-port="1"/>
		<edge from-layer="829" from-port="2" to-layer="831" to-port="0"/>
		<edge from-layer="830" from-port="0" to-layer="831" to-port="1"/>
		<edge from-layer="831" from-port="2" to-layer="840" to-port="0"/>
		<edge from-layer="832" from-port="0" to-layer="833" to-port="1"/>
		<edge from-layer="833" from-port="2" to-layer="839" to-port="0"/>
		<edge from-layer="834" from-port="0" to-layer="839" to-port="1"/>
		<edge from-layer="835" from-port="0" to-layer="836" to-port="1"/>
		<edge from-layer="836" from-port="2" to-layer="839" to-port="2"/>
		<edge from-layer="837" from-port="0" to-layer="838" to-port="1"/>
		<edge from-layer="838" from-port="2" to-layer="839" to-port="3"/>
		<edge from-layer="839" from-port="4" to-layer="840" to-port="1"/>
		<edge from-layer="840" from-port="2" to-layer="843" to-port="0"/>
		<edge from-layer="841" from-port="0" to-layer="843" to-port="1"/>
		<edge from-layer="842" from-port="0" to-layer="843" to-port="2"/>
		<edge from-layer="843" from-port="4" to-layer="845" to-port="0"/>
		<edge from-layer="843" from-port="3" to-layer="858" to-port="0"/>
		<edge from-layer="844" from-port="0" to-layer="845" to-port="1"/>
		<edge from-layer="845" from-port="2" to-layer="847" to-port="0"/>
		<edge from-layer="846" from-port="0" to-layer="847" to-port="1"/>
		<edge from-layer="847" from-port="2" to-layer="848" to-port="0"/>
		<edge from-layer="848" from-port="1" to-layer="850" to-port="0"/>
		<edge from-layer="849" from-port="0" to-layer="850" to-port="1"/>
		<edge from-layer="850" from-port="2" to-layer="852" to-port="0"/>
		<edge from-layer="851" from-port="0" to-layer="852" to-port="1"/>
		<edge from-layer="852" from-port="2" to-layer="854" to-port="0"/>
		<edge from-layer="853" from-port="0" to-layer="854" to-port="1"/>
		<edge from-layer="854" from-port="2" to-layer="856" to-port="0"/>
		<edge from-layer="855" from-port="0" to-layer="856" to-port="1"/>
		<edge from-layer="856" from-port="2" to-layer="857" to-port="0"/>
		<edge from-layer="857" from-port="1" to-layer="858" to-port="1"/>
		<edge from-layer="858" from-port="2" to-layer="859" to-port="0"/>
		<edge from-layer="858" from-port="2" to-layer="887" to-port="0"/>
		<edge from-layer="858" from-port="2" to-layer="866" to-port="0"/>
		<edge from-layer="858" from-port="2" to-layer="880" to-port="0"/>
		<edge from-layer="858" from-port="2" to-layer="874" to-port="0"/>
		<edge from-layer="859" from-port="1" to-layer="862" to-port="0"/>
		<edge from-layer="860" from-port="0" to-layer="862" to-port="1"/>
		<edge from-layer="861" from-port="0" to-layer="862" to-port="2"/>
		<edge from-layer="862" from-port="3" to-layer="891" to-port="0"/>
		<edge from-layer="862" from-port="3" to-layer="864" to-port="0"/>
		<edge from-layer="863" from-port="0" to-layer="864" to-port="1"/>
		<edge from-layer="864" from-port="2" to-layer="886" to-port="0"/>
		<edge from-layer="865" from-port="0" to-layer="886" to-port="1"/>
		<edge from-layer="866" from-port="1" to-layer="869" to-port="0"/>
		<edge from-layer="867" from-port="0" to-layer="869" to-port="1"/>
		<edge from-layer="868" from-port="0" to-layer="869" to-port="2"/>
		<edge from-layer="869" from-port="3" to-layer="871" to-port="0"/>
		<edge from-layer="870" from-port="0" to-layer="871" to-port="1"/>
		<edge from-layer="871" from-port="2" to-layer="873" to-port="0"/>
		<edge from-layer="872" from-port="0" to-layer="873" to-port="1"/>
		<edge from-layer="873" from-port="2" to-layer="886" to-port="2"/>
		<edge from-layer="874" from-port="1" to-layer="877" to-port="0"/>
		<edge from-layer="875" from-port="0" to-layer="877" to-port="1"/>
		<edge from-layer="876" from-port="0" to-layer="877" to-port="2"/>
		<edge from-layer="877" from-port="3" to-layer="879" to-port="0"/>
		<edge from-layer="877" from-port="3" to-layer="894" to-port="0"/>
		<edge from-layer="878" from-port="0" to-layer="879" to-port="1"/>
		<edge from-layer="879" from-port="2" to-layer="886" to-port="3"/>
		<edge from-layer="880" from-port="1" to-layer="883" to-port="0"/>
		<edge from-layer="881" from-port="0" to-layer="883" to-port="1"/>
		<edge from-layer="882" from-port="0" to-layer="883" to-port="2"/>
		<edge from-layer="883" from-port="3" to-layer="896" to-port="0"/>
		<edge from-layer="883" from-port="3" to-layer="885" to-port="0"/>
		<edge from-layer="884" from-port="0" to-layer="885" to-port="1"/>
		<edge from-layer="885" from-port="2" to-layer="886" to-port="4"/>
		<edge from-layer="886" from-port="5" to-layer="887" to-port="1"/>
		<edge from-layer="887" from-port="2" to-layer="889" to-port="0"/>
		<edge from-layer="888" from-port="0" to-layer="889" to-port="1"/>
		<edge from-layer="889" from-port="2" to-layer="898" to-port="0"/>
		<edge from-layer="890" from-port="0" to-layer="891" to-port="1"/>
		<edge from-layer="891" from-port="2" to-layer="897" to-port="0"/>
		<edge from-layer="892" from-port="0" to-layer="897" to-port="1"/>
		<edge from-layer="893" from-port="0" to-layer="894" to-port="1"/>
		<edge from-layer="894" from-port="2" to-layer="897" to-port="2"/>
		<edge from-layer="895" from-port="0" to-layer="896" to-port="1"/>
		<edge from-layer="896" from-port="2" to-layer="897" to-port="3"/>
		<edge from-layer="897" from-port="4" to-layer="898" to-port="1"/>
		<edge from-layer="898" from-port="2" to-layer="901" to-port="0"/>
		<edge from-layer="899" from-port="0" to-layer="901" to-port="1"/>
		<edge from-layer="900" from-port="0" to-layer="901" to-port="2"/>
		<edge from-layer="901" from-port="4" to-layer="903" to-port="0"/>
		<edge from-layer="901" from-port="3" to-layer="916" to-port="0"/>
		<edge from-layer="902" from-port="0" to-layer="903" to-port="1"/>
		<edge from-layer="903" from-port="2" to-layer="905" to-port="0"/>
		<edge from-layer="904" from-port="0" to-layer="905" to-port="1"/>
		<edge from-layer="905" from-port="2" to-layer="906" to-port="0"/>
		<edge from-layer="906" from-port="1" to-layer="908" to-port="0"/>
		<edge from-layer="907" from-port="0" to-layer="908" to-port="1"/>
		<edge from-layer="908" from-port="2" to-layer="910" to-port="0"/>
		<edge from-layer="909" from-port="0" to-layer="910" to-port="1"/>
		<edge from-layer="910" from-port="2" to-layer="912" to-port="0"/>
		<edge from-layer="911" from-port="0" to-layer="912" to-port="1"/>
		<edge from-layer="912" from-port="2" to-layer="914" to-port="0"/>
		<edge from-layer="913" from-port="0" to-layer="914" to-port="1"/>
		<edge from-layer="914" from-port="2" to-layer="915" to-port="0"/>
		<edge from-layer="915" from-port="1" to-layer="916" to-port="1"/>
		<edge from-layer="916" from-port="2" to-layer="932" to-port="0"/>
		<edge from-layer="916" from-port="2" to-layer="938" to-port="0"/>
		<edge from-layer="916" from-port="2" to-layer="945" to-port="0"/>
		<edge from-layer="916" from-port="2" to-layer="924" to-port="0"/>
		<edge from-layer="916" from-port="2" to-layer="917" to-port="0"/>
		<edge from-layer="917" from-port="1" to-layer="920" to-port="0"/>
		<edge from-layer="918" from-port="0" to-layer="920" to-port="1"/>
		<edge from-layer="919" from-port="0" to-layer="920" to-port="2"/>
		<edge from-layer="920" from-port="3" to-layer="922" to-port="0"/>
		<edge from-layer="920" from-port="3" to-layer="949" to-port="0"/>
		<edge from-layer="921" from-port="0" to-layer="922" to-port="1"/>
		<edge from-layer="922" from-port="2" to-layer="944" to-port="0"/>
		<edge from-layer="923" from-port="0" to-layer="944" to-port="1"/>
		<edge from-layer="924" from-port="1" to-layer="927" to-port="0"/>
		<edge from-layer="925" from-port="0" to-layer="927" to-port="1"/>
		<edge from-layer="926" from-port="0" to-layer="927" to-port="2"/>
		<edge from-layer="927" from-port="3" to-layer="929" to-port="0"/>
		<edge from-layer="928" from-port="0" to-layer="929" to-port="1"/>
		<edge from-layer="929" from-port="2" to-layer="931" to-port="0"/>
		<edge from-layer="930" from-port="0" to-layer="931" to-port="1"/>
		<edge from-layer="931" from-port="2" to-layer="944" to-port="2"/>
		<edge from-layer="932" from-port="1" to-layer="935" to-port="0"/>
		<edge from-layer="933" from-port="0" to-layer="935" to-port="1"/>
		<edge from-layer="934" from-port="0" to-layer="935" to-port="2"/>
		<edge from-layer="935" from-port="3" to-layer="952" to-port="0"/>
		<edge from-layer="935" from-port="3" to-layer="937" to-port="0"/>
		<edge from-layer="936" from-port="0" to-layer="937" to-port="1"/>
		<edge from-layer="937" from-port="2" to-layer="944" to-port="3"/>
		<edge from-layer="938" from-port="1" to-layer="941" to-port="0"/>
		<edge from-layer="939" from-port="0" to-layer="941" to-port="1"/>
		<edge from-layer="940" from-port="0" to-layer="941" to-port="2"/>
		<edge from-layer="941" from-port="3" to-layer="954" to-port="0"/>
		<edge from-layer="941" from-port="3" to-layer="943" to-port="0"/>
		<edge from-layer="942" from-port="0" to-layer="943" to-port="1"/>
		<edge from-layer="943" from-port="2" to-layer="944" to-port="4"/>
		<edge from-layer="944" from-port="5" to-layer="945" to-port="1"/>
		<edge from-layer="945" from-port="2" to-layer="947" to-port="0"/>
		<edge from-layer="946" from-port="0" to-layer="947" to-port="1"/>
		<edge from-layer="947" from-port="2" to-layer="956" to-port="0"/>
		<edge from-layer="948" from-port="0" to-layer="949" to-port="1"/>
		<edge from-layer="949" from-port="2" to-layer="955" to-port="0"/>
		<edge from-layer="950" from-port="0" to-layer="955" to-port="1"/>
		<edge from-layer="951" from-port="0" to-layer="952" to-port="1"/>
		<edge from-layer="952" from-port="2" to-layer="955" to-port="2"/>
		<edge from-layer="953" from-port="0" to-layer="954" to-port="1"/>
		<edge from-layer="954" from-port="2" to-layer="955" to-port="3"/>
		<edge from-layer="955" from-port="4" to-layer="956" to-port="1"/>
		<edge from-layer="956" from-port="2" to-layer="958" to-port="0"/>
		<edge from-layer="957" from-port="0" to-layer="958" to-port="1"/>
		<edge from-layer="958" from-port="2" to-layer="960" to-port="0"/>
		<edge from-layer="959" from-port="0" to-layer="960" to-port="1"/>
		<edge from-layer="960" from-port="2" to-layer="961" to-port="0"/>
		<edge from-layer="961" from-port="1" to-layer="963" to-port="0"/>
		<edge from-layer="962" from-port="0" to-layer="963" to-port="1"/>
		<edge from-layer="963" from-port="2" to-layer="965" to-port="0"/>
		<edge from-layer="964" from-port="0" to-layer="965" to-port="1"/>
		<edge from-layer="965" from-port="2" to-layer="967" to-port="0"/>
		<edge from-layer="966" from-port="0" to-layer="967" to-port="1"/>
		<edge from-layer="967" from-port="2" to-layer="968" to-port="0"/>
	</edges>
	<meta_data>
		<MO_version value="2021.4.0-3839-cd81789d294-releases/2021/4"/>
		<cli_parameters>
			<data_type value="FP16"/>
			<disable_resnet_optimization value="False"/>
			<disable_weights_compression value="False"/>
			<enable_concat_optimization value="False"/>
			<extensions value="DIR"/>
			<framework value="onnx"/>
			<freeze_placeholder_with_value value="{}"/>
			<generate_deprecated_IR_V7 value="False"/>
			<input_model value="DIR/model.onnx"/>
			<keep_shape_ops value="True"/>
			<legacy_ir_generation value="False"/>
			<log_level value="ERROR"/>
			<mean_scale_values value="[(array([123.675, 116.28 , 103.53 ]), array([58.395, 57.12 , 57.375]))]"/>
			<mean_values value="[123.675,116.28,103.53]"/>
			<model_name value="shufflenet_v2_x1_0"/>
			<output_dir value="DIR"/>
			<placeholder_data_types value="{}"/>
			<progress value="False"/>
			<reverse_input_channels value="False"/>
			<scale_values value="[58.395,57.12,57.375]"/>
			<silent value="False"/>
			<static_shape value="False"/>
			<stream_output value="False"/>
			<transform value=""/>
			<unset unset_cli_parameters="batch, disable_fusing, disable_gfusing, finegrain_fusing, input, input_shape, move_to_preprocess, output, placeholder_shapes, scale, transformations_config"/>
		</cli_parameters>
	</meta_data>
</net>
