<?xml version="1.0" ?>
<net name="yolov6n" version="10">
	<layers>
		<layer id="0" name="images" type="Parameter" version="opset1">
			<data shape="1, 3, 416, 416" element_type="f16"/>
			<output>
				<port id="0" precision="FP16">
					<dim>1</dim>
					<dim>3</dim>
					<dim>416</dim>
					<dim>416</dim>
				</port>
			</output>
		</layer>
		<layer id="1" name="images/scale_copy" type="Const" version="opset1">
			<data element_type="f16" shape="16, 3, 3, 3" offset="0" size="864"/>
			<output>
				<port id="0" precision="FP16" names="backbone.stem.rbr_reparam.weight">
					<dim>16</dim>
					<dim>3</dim>
					<dim>3</dim>
					<dim>3</dim>
				</port>
			</output>
		</layer>
		<layer id="2" name="Conv_0/WithoutBiases" type="Convolution" version="opset1">
			<data strides="2, 2" dilations="1, 1" pads_begin="1, 1" pads_end="1, 1" auto_pad="explicit"/>
			<input>
				<port id="0" precision="FP16">
					<dim>1</dim>
					<dim>3</dim>
					<dim>416</dim>
					<dim>416</dim>
				</port>
				<port id="1" precision="FP16">
					<dim>16</dim>
					<dim>3</dim>
					<dim>3</dim>
					<dim>3</dim>
				</port>
			</input>
			<output>
				<port id="2" precision="FP16">
					<dim>1</dim>
					<dim>16</dim>
					<dim>208</dim>
					<dim>208</dim>
				</port>
			</output>
		</layer>
		<layer id="3" name="Conv_0/Dims2306" type="Const" version="opset1">
			<data element_type="f16" shape="1, 16, 1, 1" offset="864" size="32"/>
			<output>
				<port id="0" precision="FP16">
					<dim>1</dim>
					<dim>16</dim>
					<dim>1</dim>
					<dim>1</dim>
				</port>
			</output>
		</layer>
		<layer id="4" name="Conv_0" type="Add" version="opset1">
			<data auto_broadcast="numpy"/>
			<input>
				<port id="0" precision="FP16">
					<dim>1</dim>
					<dim>16</dim>
					<dim>208</dim>
					<dim>208</dim>
				</port>
				<port id="1" precision="FP16">
					<dim>1</dim>
					<dim>16</dim>
					<dim>1</dim>
					<dim>1</dim>
				</port>
			</input>
			<output>
				<port id="2" precision="FP16" names="147">
					<dim>1</dim>
					<dim>16</dim>
					<dim>208</dim>
					<dim>208</dim>
				</port>
			</output>
		</layer>
		<layer id="5" name="Relu_1" type="ReLU" version="opset1">
			<input>
				<port id="0" precision="FP16">
					<dim>1</dim>
					<dim>16</dim>
					<dim>208</dim>
					<dim>208</dim>
				</port>
			</input>
			<output>
				<port id="1" precision="FP16" names="148">
					<dim>1</dim>
					<dim>16</dim>
					<dim>208</dim>
					<dim>208</dim>
				</port>
			</output>
		</layer>
		<layer id="6" name="backbone.ERBlock_2.0.rbr_reparam.weight" type="Const" version="opset1">
			<data element_type="f16" shape="32, 16, 3, 3" offset="896" size="9216"/>
			<output>
				<port id="0" precision="FP16" names="backbone.ERBlock_2.0.rbr_reparam.weight">
					<dim>32</dim>
					<dim>16</dim>
					<dim>3</dim>
					<dim>3</dim>
				</port>
			</output>
		</layer>
		<layer id="7" name="Conv_2/WithoutBiases" type="Convolution" version="opset1">
			<data strides="2, 2" dilations="1, 1" pads_begin="1, 1" pads_end="1, 1" auto_pad="explicit"/>
			<input>
				<port id="0" precision="FP16">
					<dim>1</dim>
					<dim>16</dim>
					<dim>208</dim>
					<dim>208</dim>
				</port>
				<port id="1" precision="FP16">
					<dim>32</dim>
					<dim>16</dim>
					<dim>3</dim>
					<dim>3</dim>
				</port>
			</input>
			<output>
				<port id="2" precision="FP16">
					<dim>1</dim>
					<dim>32</dim>
					<dim>104</dim>
					<dim>104</dim>
				</port>
			</output>
		</layer>
		<layer id="8" name="Conv_2/Dims2366" type="Const" version="opset1">
			<data element_type="f16" shape="1, 32, 1, 1" offset="10112" size="64"/>
			<output>
				<port id="0" precision="FP16">
					<dim>1</dim>
					<dim>32</dim>
					<dim>1</dim>
					<dim>1</dim>
				</port>
			</output>
		</layer>
		<layer id="9" name="Conv_2" type="Add" version="opset1">
			<data auto_broadcast="numpy"/>
			<input>
				<port id="0" precision="FP16">
					<dim>1</dim>
					<dim>32</dim>
					<dim>104</dim>
					<dim>104</dim>
				</port>
				<port id="1" precision="FP16">
					<dim>1</dim>
					<dim>32</dim>
					<dim>1</dim>
					<dim>1</dim>
				</port>
			</input>
			<output>
				<port id="2" precision="FP16" names="149">
					<dim>1</dim>
					<dim>32</dim>
					<dim>104</dim>
					<dim>104</dim>
				</port>
			</output>
		</layer>
		<layer id="10" name="Relu_3" type="ReLU" version="opset1">
			<input>
				<port id="0" precision="FP16">
					<dim>1</dim>
					<dim>32</dim>
					<dim>104</dim>
					<dim>104</dim>
				</port>
			</input>
			<output>
				<port id="1" precision="FP16" names="150">
					<dim>1</dim>
					<dim>32</dim>
					<dim>104</dim>
					<dim>104</dim>
				</port>
			</output>
		</layer>
		<layer id="11" name="backbone.ERBlock_2.1.conv1.rbr_reparam.weight" type="Const" version="opset1">
			<data element_type="f16" shape="32, 32, 3, 3" offset="10176" size="18432"/>
			<output>
				<port id="0" precision="FP16" names="backbone.ERBlock_2.1.conv1.rbr_reparam.weight">
					<dim>32</dim>
					<dim>32</dim>
					<dim>3</dim>
					<dim>3</dim>
				</port>
			</output>
		</layer>
		<layer id="12" name="Conv_4/WithoutBiases" type="Convolution" version="opset1">
			<data strides="1, 1" dilations="1, 1" pads_begin="1, 1" pads_end="1, 1" auto_pad="explicit"/>
			<input>
				<port id="0" precision="FP16">
					<dim>1</dim>
					<dim>32</dim>
					<dim>104</dim>
					<dim>104</dim>
				</port>
				<port id="1" precision="FP16">
					<dim>32</dim>
					<dim>32</dim>
					<dim>3</dim>
					<dim>3</dim>
				</port>
			</input>
			<output>
				<port id="2" precision="FP16">
					<dim>1</dim>
					<dim>32</dim>
					<dim>104</dim>
					<dim>104</dim>
				</port>
			</output>
		</layer>
		<layer id="13" name="Conv_4/Dims2504" type="Const" version="opset1">
			<data element_type="f16" shape="1, 32, 1, 1" offset="28608" size="64"/>
			<output>
				<port id="0" precision="FP16">
					<dim>1</dim>
					<dim>32</dim>
					<dim>1</dim>
					<dim>1</dim>
				</port>
			</output>
		</layer>
		<layer id="14" name="Conv_4" type="Add" version="opset1">
			<data auto_broadcast="numpy"/>
			<input>
				<port id="0" precision="FP16">
					<dim>1</dim>
					<dim>32</dim>
					<dim>104</dim>
					<dim>104</dim>
				</port>
				<port id="1" precision="FP16">
					<dim>1</dim>
					<dim>32</dim>
					<dim>1</dim>
					<dim>1</dim>
				</port>
			</input>
			<output>
				<port id="2" precision="FP16" names="151">
					<dim>1</dim>
					<dim>32</dim>
					<dim>104</dim>
					<dim>104</dim>
				</port>
			</output>
		</layer>
		<layer id="15" name="Relu_5" type="ReLU" version="opset1">
			<input>
				<port id="0" precision="FP16">
					<dim>1</dim>
					<dim>32</dim>
					<dim>104</dim>
					<dim>104</dim>
				</port>
			</input>
			<output>
				<port id="1" precision="FP16" names="152">
					<dim>1</dim>
					<dim>32</dim>
					<dim>104</dim>
					<dim>104</dim>
				</port>
			</output>
		</layer>
		<layer id="16" name="backbone.ERBlock_2.1.block.0.rbr_reparam.weight" type="Const" version="opset1">
			<data element_type="f16" shape="32, 32, 3, 3" offset="28672" size="18432"/>
			<output>
				<port id="0" precision="FP16" names="backbone.ERBlock_2.1.block.0.rbr_reparam.weight">
					<dim>32</dim>
					<dim>32</dim>
					<dim>3</dim>
					<dim>3</dim>
				</port>
			</output>
		</layer>
		<layer id="17" name="Conv_6/WithoutBiases" type="Convolution" version="opset1">
			<data strides="1, 1" dilations="1, 1" pads_begin="1, 1" pads_end="1, 1" auto_pad="explicit"/>
			<input>
				<port id="0" precision="FP16">
					<dim>1</dim>
					<dim>32</dim>
					<dim>104</dim>
					<dim>104</dim>
				</port>
				<port id="1" precision="FP16">
					<dim>32</dim>
					<dim>32</dim>
					<dim>3</dim>
					<dim>3</dim>
				</port>
			</input>
			<output>
				<port id="2" precision="FP16">
					<dim>1</dim>
					<dim>32</dim>
					<dim>104</dim>
					<dim>104</dim>
				</port>
			</output>
		</layer>
		<layer id="18" name="Conv_6/Dims2618" type="Const" version="opset1">
			<data element_type="f16" shape="1, 32, 1, 1" offset="47104" size="64"/>
			<output>
				<port id="0" precision="FP16">
					<dim>1</dim>
					<dim>32</dim>
					<dim>1</dim>
					<dim>1</dim>
				</port>
			</output>
		</layer>
		<layer id="19" name="Conv_6" type="Add" version="opset1">
			<data auto_broadcast="numpy"/>
			<input>
				<port id="0" precision="FP16">
					<dim>1</dim>
					<dim>32</dim>
					<dim>104</dim>
					<dim>104</dim>
				</port>
				<port id="1" precision="FP16">
					<dim>1</dim>
					<dim>32</dim>
					<dim>1</dim>
					<dim>1</dim>
				</port>
			</input>
			<output>
				<port id="2" precision="FP16" names="153">
					<dim>1</dim>
					<dim>32</dim>
					<dim>104</dim>
					<dim>104</dim>
				</port>
			</output>
		</layer>
		<layer id="20" name="Relu_7" type="ReLU" version="opset1">
			<input>
				<port id="0" precision="FP16">
					<dim>1</dim>
					<dim>32</dim>
					<dim>104</dim>
					<dim>104</dim>
				</port>
			</input>
			<output>
				<port id="1" precision="FP16" names="154">
					<dim>1</dim>
					<dim>32</dim>
					<dim>104</dim>
					<dim>104</dim>
				</port>
			</output>
		</layer>
		<layer id="21" name="backbone.ERBlock_3.0.rbr_reparam.weight" type="Const" version="opset1">
			<data element_type="f16" shape="64, 32, 3, 3" offset="47168" size="36864"/>
			<output>
				<port id="0" precision="FP16" names="backbone.ERBlock_3.0.rbr_reparam.weight">
					<dim>64</dim>
					<dim>32</dim>
					<dim>3</dim>
					<dim>3</dim>
				</port>
			</output>
		</layer>
		<layer id="22" name="Conv_8/WithoutBiases" type="Convolution" version="opset1">
			<data strides="2, 2" dilations="1, 1" pads_begin="1, 1" pads_end="1, 1" auto_pad="explicit"/>
			<input>
				<port id="0" precision="FP16">
					<dim>1</dim>
					<dim>32</dim>
					<dim>104</dim>
					<dim>104</dim>
				</port>
				<port id="1" precision="FP16">
					<dim>64</dim>
					<dim>32</dim>
					<dim>3</dim>
					<dim>3</dim>
				</port>
			</input>
			<output>
				<port id="2" precision="FP16">
					<dim>1</dim>
					<dim>64</dim>
					<dim>52</dim>
					<dim>52</dim>
				</port>
			</output>
		</layer>
		<layer id="23" name="Conv_8/Dims2534" type="Const" version="opset1">
			<data element_type="f16" shape="1, 64, 1, 1" offset="84032" size="128"/>
			<output>
				<port id="0" precision="FP16">
					<dim>1</dim>
					<dim>64</dim>
					<dim>1</dim>
					<dim>1</dim>
				</port>
			</output>
		</layer>
		<layer id="24" name="Conv_8" type="Add" version="opset1">
			<data auto_broadcast="numpy"/>
			<input>
				<port id="0" precision="FP16">
					<dim>1</dim>
					<dim>64</dim>
					<dim>52</dim>
					<dim>52</dim>
				</port>
				<port id="1" precision="FP16">
					<dim>1</dim>
					<dim>64</dim>
					<dim>1</dim>
					<dim>1</dim>
				</port>
			</input>
			<output>
				<port id="2" precision="FP16" names="155">
					<dim>1</dim>
					<dim>64</dim>
					<dim>52</dim>
					<dim>52</dim>
				</port>
			</output>
		</layer>
		<layer id="25" name="Relu_9" type="ReLU" version="opset1">
			<input>
				<port id="0" precision="FP16">
					<dim>1</dim>
					<dim>64</dim>
					<dim>52</dim>
					<dim>52</dim>
				</port>
			</input>
			<output>
				<port id="1" precision="FP16" names="156">
					<dim>1</dim>
					<dim>64</dim>
					<dim>52</dim>
					<dim>52</dim>
				</port>
			</output>
		</layer>
		<layer id="26" name="backbone.ERBlock_3.1.conv1.rbr_reparam.weight" type="Const" version="opset1">
			<data element_type="f16" shape="64, 64, 3, 3" offset="84160" size="73728"/>
			<output>
				<port id="0" precision="FP16" names="backbone.ERBlock_3.1.conv1.rbr_reparam.weight">
					<dim>64</dim>
					<dim>64</dim>
					<dim>3</dim>
					<dim>3</dim>
				</port>
			</output>
		</layer>
		<layer id="27" name="Conv_10/WithoutBiases" type="Convolution" version="opset1">
			<data strides="1, 1" dilations="1, 1" pads_begin="1, 1" pads_end="1, 1" auto_pad="explicit"/>
			<input>
				<port id="0" precision="FP16">
					<dim>1</dim>
					<dim>64</dim>
					<dim>52</dim>
					<dim>52</dim>
				</port>
				<port id="1" precision="FP16">
					<dim>64</dim>
					<dim>64</dim>
					<dim>3</dim>
					<dim>3</dim>
				</port>
			</input>
			<output>
				<port id="2" precision="FP16">
					<dim>1</dim>
					<dim>64</dim>
					<dim>52</dim>
					<dim>52</dim>
				</port>
			</output>
		</layer>
		<layer id="28" name="Conv_10/Dims2396" type="Const" version="opset1">
			<data element_type="f16" shape="1, 64, 1, 1" offset="157888" size="128"/>
			<output>
				<port id="0" precision="FP16">
					<dim>1</dim>
					<dim>64</dim>
					<dim>1</dim>
					<dim>1</dim>
				</port>
			</output>
		</layer>
		<layer id="29" name="Conv_10" type="Add" version="opset1">
			<data auto_broadcast="numpy"/>
			<input>
				<port id="0" precision="FP16">
					<dim>1</dim>
					<dim>64</dim>
					<dim>52</dim>
					<dim>52</dim>
				</port>
				<port id="1" precision="FP16">
					<dim>1</dim>
					<dim>64</dim>
					<dim>1</dim>
					<dim>1</dim>
				</port>
			</input>
			<output>
				<port id="2" precision="FP16" names="157">
					<dim>1</dim>
					<dim>64</dim>
					<dim>52</dim>
					<dim>52</dim>
				</port>
			</output>
		</layer>
		<layer id="30" name="Relu_11" type="ReLU" version="opset1">
			<input>
				<port id="0" precision="FP16">
					<dim>1</dim>
					<dim>64</dim>
					<dim>52</dim>
					<dim>52</dim>
				</port>
			</input>
			<output>
				<port id="1" precision="FP16" names="158">
					<dim>1</dim>
					<dim>64</dim>
					<dim>52</dim>
					<dim>52</dim>
				</port>
			</output>
		</layer>
		<layer id="31" name="backbone.ERBlock_3.1.block.0.rbr_reparam.weight" type="Const" version="opset1">
			<data element_type="f16" shape="64, 64, 3, 3" offset="158016" size="73728"/>
			<output>
				<port id="0" precision="FP16" names="backbone.ERBlock_3.1.block.0.rbr_reparam.weight">
					<dim>64</dim>
					<dim>64</dim>
					<dim>3</dim>
					<dim>3</dim>
				</port>
			</output>
		</layer>
		<layer id="32" name="Conv_12/WithoutBiases" type="Convolution" version="opset1">
			<data strides="1, 1" dilations="1, 1" pads_begin="1, 1" pads_end="1, 1" auto_pad="explicit"/>
			<input>
				<port id="0" precision="FP16">
					<dim>1</dim>
					<dim>64</dim>
					<dim>52</dim>
					<dim>52</dim>
				</port>
				<port id="1" precision="FP16">
					<dim>64</dim>
					<dim>64</dim>
					<dim>3</dim>
					<dim>3</dim>
				</port>
			</input>
			<output>
				<port id="2" precision="FP16">
					<dim>1</dim>
					<dim>64</dim>
					<dim>52</dim>
					<dim>52</dim>
				</port>
			</output>
		</layer>
		<layer id="33" name="Conv_12/Dims2540" type="Const" version="opset1">
			<data element_type="f16" shape="1, 64, 1, 1" offset="231744" size="128"/>
			<output>
				<port id="0" precision="FP16">
					<dim>1</dim>
					<dim>64</dim>
					<dim>1</dim>
					<dim>1</dim>
				</port>
			</output>
		</layer>
		<layer id="34" name="Conv_12" type="Add" version="opset1">
			<data auto_broadcast="numpy"/>
			<input>
				<port id="0" precision="FP16">
					<dim>1</dim>
					<dim>64</dim>
					<dim>52</dim>
					<dim>52</dim>
				</port>
				<port id="1" precision="FP16">
					<dim>1</dim>
					<dim>64</dim>
					<dim>1</dim>
					<dim>1</dim>
				</port>
			</input>
			<output>
				<port id="2" precision="FP16" names="159">
					<dim>1</dim>
					<dim>64</dim>
					<dim>52</dim>
					<dim>52</dim>
				</port>
			</output>
		</layer>
		<layer id="35" name="Relu_13" type="ReLU" version="opset1">
			<input>
				<port id="0" precision="FP16">
					<dim>1</dim>
					<dim>64</dim>
					<dim>52</dim>
					<dim>52</dim>
				</port>
			</input>
			<output>
				<port id="1" precision="FP16" names="160">
					<dim>1</dim>
					<dim>64</dim>
					<dim>52</dim>
					<dim>52</dim>
				</port>
			</output>
		</layer>
		<layer id="36" name="backbone.ERBlock_3.1.block.1.rbr_reparam.weight" type="Const" version="opset1">
			<data element_type="f16" shape="64, 64, 3, 3" offset="231872" size="73728"/>
			<output>
				<port id="0" precision="FP16" names="backbone.ERBlock_3.1.block.1.rbr_reparam.weight">
					<dim>64</dim>
					<dim>64</dim>
					<dim>3</dim>
					<dim>3</dim>
				</port>
			</output>
		</layer>
		<layer id="37" name="Conv_14/WithoutBiases" type="Convolution" version="opset1">
			<data strides="1, 1" dilations="1, 1" pads_begin="1, 1" pads_end="1, 1" auto_pad="explicit"/>
			<input>
				<port id="0" precision="FP16">
					<dim>1</dim>
					<dim>64</dim>
					<dim>52</dim>
					<dim>52</dim>
				</port>
				<port id="1" precision="FP16">
					<dim>64</dim>
					<dim>64</dim>
					<dim>3</dim>
					<dim>3</dim>
				</port>
			</input>
			<output>
				<port id="2" precision="FP16">
					<dim>1</dim>
					<dim>64</dim>
					<dim>52</dim>
					<dim>52</dim>
				</port>
			</output>
		</layer>
		<layer id="38" name="Conv_14/Dims2552" type="Const" version="opset1">
			<data element_type="f16" shape="1, 64, 1, 1" offset="305600" size="128"/>
			<output>
				<port id="0" precision="FP16">
					<dim>1</dim>
					<dim>64</dim>
					<dim>1</dim>
					<dim>1</dim>
				</port>
			</output>
		</layer>
		<layer id="39" name="Conv_14" type="Add" version="opset1">
			<data auto_broadcast="numpy"/>
			<input>
				<port id="0" precision="FP16">
					<dim>1</dim>
					<dim>64</dim>
					<dim>52</dim>
					<dim>52</dim>
				</port>
				<port id="1" precision="FP16">
					<dim>1</dim>
					<dim>64</dim>
					<dim>1</dim>
					<dim>1</dim>
				</port>
			</input>
			<output>
				<port id="2" precision="FP16" names="161">
					<dim>1</dim>
					<dim>64</dim>
					<dim>52</dim>
					<dim>52</dim>
				</port>
			</output>
		</layer>
		<layer id="40" name="Relu_15" type="ReLU" version="opset1">
			<input>
				<port id="0" precision="FP16">
					<dim>1</dim>
					<dim>64</dim>
					<dim>52</dim>
					<dim>52</dim>
				</port>
			</input>
			<output>
				<port id="1" precision="FP16" names="162">
					<dim>1</dim>
					<dim>64</dim>
					<dim>52</dim>
					<dim>52</dim>
				</port>
			</output>
		</layer>
		<layer id="41" name="backbone.ERBlock_3.1.block.2.rbr_reparam.weight" type="Const" version="opset1">
			<data element_type="f16" shape="64, 64, 3, 3" offset="305728" size="73728"/>
			<output>
				<port id="0" precision="FP16" names="backbone.ERBlock_3.1.block.2.rbr_reparam.weight">
					<dim>64</dim>
					<dim>64</dim>
					<dim>3</dim>
					<dim>3</dim>
				</port>
			</output>
		</layer>
		<layer id="42" name="Conv_16/WithoutBiases" type="Convolution" version="opset1">
			<data strides="1, 1" dilations="1, 1" pads_begin="1, 1" pads_end="1, 1" auto_pad="explicit"/>
			<input>
				<port id="0" precision="FP16">
					<dim>1</dim>
					<dim>64</dim>
					<dim>52</dim>
					<dim>52</dim>
				</port>
				<port id="1" precision="FP16">
					<dim>64</dim>
					<dim>64</dim>
					<dim>3</dim>
					<dim>3</dim>
				</port>
			</input>
			<output>
				<port id="2" precision="FP16">
					<dim>1</dim>
					<dim>64</dim>
					<dim>52</dim>
					<dim>52</dim>
				</port>
			</output>
		</layer>
		<layer id="43" name="Conv_16/Dims2444" type="Const" version="opset1">
			<data element_type="f16" shape="1, 64, 1, 1" offset="379456" size="128"/>
			<output>
				<port id="0" precision="FP16">
					<dim>1</dim>
					<dim>64</dim>
					<dim>1</dim>
					<dim>1</dim>
				</port>
			</output>
		</layer>
		<layer id="44" name="Conv_16" type="Add" version="opset1">
			<data auto_broadcast="numpy"/>
			<input>
				<port id="0" precision="FP16">
					<dim>1</dim>
					<dim>64</dim>
					<dim>52</dim>
					<dim>52</dim>
				</port>
				<port id="1" precision="FP16">
					<dim>1</dim>
					<dim>64</dim>
					<dim>1</dim>
					<dim>1</dim>
				</port>
			</input>
			<output>
				<port id="2" precision="FP16" names="163">
					<dim>1</dim>
					<dim>64</dim>
					<dim>52</dim>
					<dim>52</dim>
				</port>
			</output>
		</layer>
		<layer id="45" name="Relu_17" type="ReLU" version="opset1">
			<input>
				<port id="0" precision="FP16">
					<dim>1</dim>
					<dim>64</dim>
					<dim>52</dim>
					<dim>52</dim>
				</port>
			</input>
			<output>
				<port id="1" precision="FP16" names="164">
					<dim>1</dim>
					<dim>64</dim>
					<dim>52</dim>
					<dim>52</dim>
				</port>
			</output>
		</layer>
		<layer id="46" name="backbone.ERBlock_4.0.rbr_reparam.weight" type="Const" version="opset1">
			<data element_type="f16" shape="128, 64, 3, 3" offset="379584" size="147456"/>
			<output>
				<port id="0" precision="FP16" names="backbone.ERBlock_4.0.rbr_reparam.weight">
					<dim>128</dim>
					<dim>64</dim>
					<dim>3</dim>
					<dim>3</dim>
				</port>
			</output>
		</layer>
		<layer id="47" name="Conv_18/WithoutBiases" type="Convolution" version="opset1">
			<data strides="2, 2" dilations="1, 1" pads_begin="1, 1" pads_end="1, 1" auto_pad="explicit"/>
			<input>
				<port id="0" precision="FP16">
					<dim>1</dim>
					<dim>64</dim>
					<dim>52</dim>
					<dim>52</dim>
				</port>
				<port id="1" precision="FP16">
					<dim>128</dim>
					<dim>64</dim>
					<dim>3</dim>
					<dim>3</dim>
				</port>
			</input>
			<output>
				<port id="2" precision="FP16">
					<dim>1</dim>
					<dim>128</dim>
					<dim>26</dim>
					<dim>26</dim>
				</port>
			</output>
		</layer>
		<layer id="48" name="Conv_18/Dims2648" type="Const" version="opset1">
			<data element_type="f16" shape="1, 128, 1, 1" offset="527040" size="256"/>
			<output>
				<port id="0" precision="FP16">
					<dim>1</dim>
					<dim>128</dim>
					<dim>1</dim>
					<dim>1</dim>
				</port>
			</output>
		</layer>
		<layer id="49" name="Conv_18" type="Add" version="opset1">
			<data auto_broadcast="numpy"/>
			<input>
				<port id="0" precision="FP16">
					<dim>1</dim>
					<dim>128</dim>
					<dim>26</dim>
					<dim>26</dim>
				</port>
				<port id="1" precision="FP16">
					<dim>1</dim>
					<dim>128</dim>
					<dim>1</dim>
					<dim>1</dim>
				</port>
			</input>
			<output>
				<port id="2" precision="FP16" names="165">
					<dim>1</dim>
					<dim>128</dim>
					<dim>26</dim>
					<dim>26</dim>
				</port>
			</output>
		</layer>
		<layer id="50" name="Relu_19" type="ReLU" version="opset1">
			<input>
				<port id="0" precision="FP16">
					<dim>1</dim>
					<dim>128</dim>
					<dim>26</dim>
					<dim>26</dim>
				</port>
			</input>
			<output>
				<port id="1" precision="FP16" names="166">
					<dim>1</dim>
					<dim>128</dim>
					<dim>26</dim>
					<dim>26</dim>
				</port>
			</output>
		</layer>
		<layer id="51" name="backbone.ERBlock_4.1.conv1.rbr_reparam.weight" type="Const" version="opset1">
			<data element_type="f16" shape="128, 128, 3, 3" offset="527296" size="294912"/>
			<output>
				<port id="0" precision="FP16" names="backbone.ERBlock_4.1.conv1.rbr_reparam.weight">
					<dim>128</dim>
					<dim>128</dim>
					<dim>3</dim>
					<dim>3</dim>
				</port>
			</output>
		</layer>
		<layer id="52" name="Conv_20/WithoutBiases" type="Convolution" version="opset1">
			<data strides="1, 1" dilations="1, 1" pads_begin="1, 1" pads_end="1, 1" auto_pad="explicit"/>
			<input>
				<port id="0" precision="FP16">
					<dim>1</dim>
					<dim>128</dim>
					<dim>26</dim>
					<dim>26</dim>
				</port>
				<port id="1" precision="FP16">
					<dim>128</dim>
					<dim>128</dim>
					<dim>3</dim>
					<dim>3</dim>
				</port>
			</input>
			<output>
				<port id="2" precision="FP16">
					<dim>1</dim>
					<dim>128</dim>
					<dim>26</dim>
					<dim>26</dim>
				</port>
			</output>
		</layer>
		<layer id="53" name="Conv_20/Dims2438" type="Const" version="opset1">
			<data element_type="f16" shape="1, 128, 1, 1" offset="822208" size="256"/>
			<output>
				<port id="0" precision="FP16">
					<dim>1</dim>
					<dim>128</dim>
					<dim>1</dim>
					<dim>1</dim>
				</port>
			</output>
		</layer>
		<layer id="54" name="Conv_20" type="Add" version="opset1">
			<data auto_broadcast="numpy"/>
			<input>
				<port id="0" precision="FP16">
					<dim>1</dim>
					<dim>128</dim>
					<dim>26</dim>
					<dim>26</dim>
				</port>
				<port id="1" precision="FP16">
					<dim>1</dim>
					<dim>128</dim>
					<dim>1</dim>
					<dim>1</dim>
				</port>
			</input>
			<output>
				<port id="2" precision="FP16" names="167">
					<dim>1</dim>
					<dim>128</dim>
					<dim>26</dim>
					<dim>26</dim>
				</port>
			</output>
		</layer>
		<layer id="55" name="Relu_21" type="ReLU" version="opset1">
			<input>
				<port id="0" precision="FP16">
					<dim>1</dim>
					<dim>128</dim>
					<dim>26</dim>
					<dim>26</dim>
				</port>
			</input>
			<output>
				<port id="1" precision="FP16" names="168">
					<dim>1</dim>
					<dim>128</dim>
					<dim>26</dim>
					<dim>26</dim>
				</port>
			</output>
		</layer>
		<layer id="56" name="backbone.ERBlock_4.1.block.0.rbr_reparam.weight" type="Const" version="opset1">
			<data element_type="f16" shape="128, 128, 3, 3" offset="822464" size="294912"/>
			<output>
				<port id="0" precision="FP16" names="backbone.ERBlock_4.1.block.0.rbr_reparam.weight">
					<dim>128</dim>
					<dim>128</dim>
					<dim>3</dim>
					<dim>3</dim>
				</port>
			</output>
		</layer>
		<layer id="57" name="Conv_22/WithoutBiases" type="Convolution" version="opset1">
			<data strides="1, 1" dilations="1, 1" pads_begin="1, 1" pads_end="1, 1" auto_pad="explicit"/>
			<input>
				<port id="0" precision="FP16">
					<dim>1</dim>
					<dim>128</dim>
					<dim>26</dim>
					<dim>26</dim>
				</port>
				<port id="1" precision="FP16">
					<dim>128</dim>
					<dim>128</dim>
					<dim>3</dim>
					<dim>3</dim>
				</port>
			</input>
			<output>
				<port id="2" precision="FP16">
					<dim>1</dim>
					<dim>128</dim>
					<dim>26</dim>
					<dim>26</dim>
				</port>
			</output>
		</layer>
		<layer id="58" name="Conv_22/Dims2612" type="Const" version="opset1">
			<data element_type="f16" shape="1, 128, 1, 1" offset="1117376" size="256"/>
			<output>
				<port id="0" precision="FP16">
					<dim>1</dim>
					<dim>128</dim>
					<dim>1</dim>
					<dim>1</dim>
				</port>
			</output>
		</layer>
		<layer id="59" name="Conv_22" type="Add" version="opset1">
			<data auto_broadcast="numpy"/>
			<input>
				<port id="0" precision="FP16">
					<dim>1</dim>
					<dim>128</dim>
					<dim>26</dim>
					<dim>26</dim>
				</port>
				<port id="1" precision="FP16">
					<dim>1</dim>
					<dim>128</dim>
					<dim>1</dim>
					<dim>1</dim>
				</port>
			</input>
			<output>
				<port id="2" precision="FP16" names="169">
					<dim>1</dim>
					<dim>128</dim>
					<dim>26</dim>
					<dim>26</dim>
				</port>
			</output>
		</layer>
		<layer id="60" name="Relu_23" type="ReLU" version="opset1">
			<input>
				<port id="0" precision="FP16">
					<dim>1</dim>
					<dim>128</dim>
					<dim>26</dim>
					<dim>26</dim>
				</port>
			</input>
			<output>
				<port id="1" precision="FP16" names="170">
					<dim>1</dim>
					<dim>128</dim>
					<dim>26</dim>
					<dim>26</dim>
				</port>
			</output>
		</layer>
		<layer id="61" name="backbone.ERBlock_4.1.block.1.rbr_reparam.weight" type="Const" version="opset1">
			<data element_type="f16" shape="128, 128, 3, 3" offset="1117632" size="294912"/>
			<output>
				<port id="0" precision="FP16" names="backbone.ERBlock_4.1.block.1.rbr_reparam.weight">
					<dim>128</dim>
					<dim>128</dim>
					<dim>3</dim>
					<dim>3</dim>
				</port>
			</output>
		</layer>
		<layer id="62" name="Conv_24/WithoutBiases" type="Convolution" version="opset1">
			<data strides="1, 1" dilations="1, 1" pads_begin="1, 1" pads_end="1, 1" auto_pad="explicit"/>
			<input>
				<port id="0" precision="FP16">
					<dim>1</dim>
					<dim>128</dim>
					<dim>26</dim>
					<dim>26</dim>
				</port>
				<port id="1" precision="FP16">
					<dim>128</dim>
					<dim>128</dim>
					<dim>3</dim>
					<dim>3</dim>
				</port>
			</input>
			<output>
				<port id="2" precision="FP16">
					<dim>1</dim>
					<dim>128</dim>
					<dim>26</dim>
					<dim>26</dim>
				</port>
			</output>
		</layer>
		<layer id="63" name="Conv_24/Dims2492" type="Const" version="opset1">
			<data element_type="f16" shape="1, 128, 1, 1" offset="1412544" size="256"/>
			<output>
				<port id="0" precision="FP16">
					<dim>1</dim>
					<dim>128</dim>
					<dim>1</dim>
					<dim>1</dim>
				</port>
			</output>
		</layer>
		<layer id="64" name="Conv_24" type="Add" version="opset1">
			<data auto_broadcast="numpy"/>
			<input>
				<port id="0" precision="FP16">
					<dim>1</dim>
					<dim>128</dim>
					<dim>26</dim>
					<dim>26</dim>
				</port>
				<port id="1" precision="FP16">
					<dim>1</dim>
					<dim>128</dim>
					<dim>1</dim>
					<dim>1</dim>
				</port>
			</input>
			<output>
				<port id="2" precision="FP16" names="171">
					<dim>1</dim>
					<dim>128</dim>
					<dim>26</dim>
					<dim>26</dim>
				</port>
			</output>
		</layer>
		<layer id="65" name="Relu_25" type="ReLU" version="opset1">
			<input>
				<port id="0" precision="FP16">
					<dim>1</dim>
					<dim>128</dim>
					<dim>26</dim>
					<dim>26</dim>
				</port>
			</input>
			<output>
				<port id="1" precision="FP16" names="172">
					<dim>1</dim>
					<dim>128</dim>
					<dim>26</dim>
					<dim>26</dim>
				</port>
			</output>
		</layer>
		<layer id="66" name="backbone.ERBlock_4.1.block.2.rbr_reparam.weight" type="Const" version="opset1">
			<data element_type="f16" shape="128, 128, 3, 3" offset="1412800" size="294912"/>
			<output>
				<port id="0" precision="FP16" names="backbone.ERBlock_4.1.block.2.rbr_reparam.weight">
					<dim>128</dim>
					<dim>128</dim>
					<dim>3</dim>
					<dim>3</dim>
				</port>
			</output>
		</layer>
		<layer id="67" name="Conv_26/WithoutBiases" type="Convolution" version="opset1">
			<data strides="1, 1" dilations="1, 1" pads_begin="1, 1" pads_end="1, 1" auto_pad="explicit"/>
			<input>
				<port id="0" precision="FP16">
					<dim>1</dim>
					<dim>128</dim>
					<dim>26</dim>
					<dim>26</dim>
				</port>
				<port id="1" precision="FP16">
					<dim>128</dim>
					<dim>128</dim>
					<dim>3</dim>
					<dim>3</dim>
				</port>
			</input>
			<output>
				<port id="2" precision="FP16">
					<dim>1</dim>
					<dim>128</dim>
					<dim>26</dim>
					<dim>26</dim>
				</port>
			</output>
		</layer>
		<layer id="68" name="Conv_26/Dims2642" type="Const" version="opset1">
			<data element_type="f16" shape="1, 128, 1, 1" offset="1707712" size="256"/>
			<output>
				<port id="0" precision="FP16">
					<dim>1</dim>
					<dim>128</dim>
					<dim>1</dim>
					<dim>1</dim>
				</port>
			</output>
		</layer>
		<layer id="69" name="Conv_26" type="Add" version="opset1">
			<data auto_broadcast="numpy"/>
			<input>
				<port id="0" precision="FP16">
					<dim>1</dim>
					<dim>128</dim>
					<dim>26</dim>
					<dim>26</dim>
				</port>
				<port id="1" precision="FP16">
					<dim>1</dim>
					<dim>128</dim>
					<dim>1</dim>
					<dim>1</dim>
				</port>
			</input>
			<output>
				<port id="2" precision="FP16" names="173">
					<dim>1</dim>
					<dim>128</dim>
					<dim>26</dim>
					<dim>26</dim>
				</port>
			</output>
		</layer>
		<layer id="70" name="Relu_27" type="ReLU" version="opset1">
			<input>
				<port id="0" precision="FP16">
					<dim>1</dim>
					<dim>128</dim>
					<dim>26</dim>
					<dim>26</dim>
				</port>
			</input>
			<output>
				<port id="1" precision="FP16" names="174">
					<dim>1</dim>
					<dim>128</dim>
					<dim>26</dim>
					<dim>26</dim>
				</port>
			</output>
		</layer>
		<layer id="71" name="backbone.ERBlock_4.1.block.3.rbr_reparam.weight" type="Const" version="opset1">
			<data element_type="f16" shape="128, 128, 3, 3" offset="1707968" size="294912"/>
			<output>
				<port id="0" precision="FP16" names="backbone.ERBlock_4.1.block.3.rbr_reparam.weight">
					<dim>128</dim>
					<dim>128</dim>
					<dim>3</dim>
					<dim>3</dim>
				</port>
			</output>
		</layer>
		<layer id="72" name="Conv_28/WithoutBiases" type="Convolution" version="opset1">
			<data strides="1, 1" dilations="1, 1" pads_begin="1, 1" pads_end="1, 1" auto_pad="explicit"/>
			<input>
				<port id="0" precision="FP16">
					<dim>1</dim>
					<dim>128</dim>
					<dim>26</dim>
					<dim>26</dim>
				</port>
				<port id="1" precision="FP16">
					<dim>128</dim>
					<dim>128</dim>
					<dim>3</dim>
					<dim>3</dim>
				</port>
			</input>
			<output>
				<port id="2" precision="FP16">
					<dim>1</dim>
					<dim>128</dim>
					<dim>26</dim>
					<dim>26</dim>
				</port>
			</output>
		</layer>
		<layer id="73" name="Conv_28/Dims2624" type="Const" version="opset1">
			<data element_type="f16" shape="1, 128, 1, 1" offset="2002880" size="256"/>
			<output>
				<port id="0" precision="FP16">
					<dim>1</dim>
					<dim>128</dim>
					<dim>1</dim>
					<dim>1</dim>
				</port>
			</output>
		</layer>
		<layer id="74" name="Conv_28" type="Add" version="opset1">
			<data auto_broadcast="numpy"/>
			<input>
				<port id="0" precision="FP16">
					<dim>1</dim>
					<dim>128</dim>
					<dim>26</dim>
					<dim>26</dim>
				</port>
				<port id="1" precision="FP16">
					<dim>1</dim>
					<dim>128</dim>
					<dim>1</dim>
					<dim>1</dim>
				</port>
			</input>
			<output>
				<port id="2" precision="FP16" names="175">
					<dim>1</dim>
					<dim>128</dim>
					<dim>26</dim>
					<dim>26</dim>
				</port>
			</output>
		</layer>
		<layer id="75" name="Relu_29" type="ReLU" version="opset1">
			<input>
				<port id="0" precision="FP16">
					<dim>1</dim>
					<dim>128</dim>
					<dim>26</dim>
					<dim>26</dim>
				</port>
			</input>
			<output>
				<port id="1" precision="FP16" names="176">
					<dim>1</dim>
					<dim>128</dim>
					<dim>26</dim>
					<dim>26</dim>
				</port>
			</output>
		</layer>
		<layer id="76" name="backbone.ERBlock_4.1.block.4.rbr_reparam.weight" type="Const" version="opset1">
			<data element_type="f16" shape="128, 128, 3, 3" offset="2003136" size="294912"/>
			<output>
				<port id="0" precision="FP16" names="backbone.ERBlock_4.1.block.4.rbr_reparam.weight">
					<dim>128</dim>
					<dim>128</dim>
					<dim>3</dim>
					<dim>3</dim>
				</port>
			</output>
		</layer>
		<layer id="77" name="Conv_30/WithoutBiases" type="Convolution" version="opset1">
			<data strides="1, 1" dilations="1, 1" pads_begin="1, 1" pads_end="1, 1" auto_pad="explicit"/>
			<input>
				<port id="0" precision="FP16">
					<dim>1</dim>
					<dim>128</dim>
					<dim>26</dim>
					<dim>26</dim>
				</port>
				<port id="1" precision="FP16">
					<dim>128</dim>
					<dim>128</dim>
					<dim>3</dim>
					<dim>3</dim>
				</port>
			</input>
			<output>
				<port id="2" precision="FP16">
					<dim>1</dim>
					<dim>128</dim>
					<dim>26</dim>
					<dim>26</dim>
				</port>
			</output>
		</layer>
		<layer id="78" name="Conv_30/Dims2654" type="Const" version="opset1">
			<data element_type="f16" shape="1, 128, 1, 1" offset="2298048" size="256"/>
			<output>
				<port id="0" precision="FP16">
					<dim>1</dim>
					<dim>128</dim>
					<dim>1</dim>
					<dim>1</dim>
				</port>
			</output>
		</layer>
		<layer id="79" name="Conv_30" type="Add" version="opset1">
			<data auto_broadcast="numpy"/>
			<input>
				<port id="0" precision="FP16">
					<dim>1</dim>
					<dim>128</dim>
					<dim>26</dim>
					<dim>26</dim>
				</port>
				<port id="1" precision="FP16">
					<dim>1</dim>
					<dim>128</dim>
					<dim>1</dim>
					<dim>1</dim>
				</port>
			</input>
			<output>
				<port id="2" precision="FP16" names="177">
					<dim>1</dim>
					<dim>128</dim>
					<dim>26</dim>
					<dim>26</dim>
				</port>
			</output>
		</layer>
		<layer id="80" name="Relu_31" type="ReLU" version="opset1">
			<input>
				<port id="0" precision="FP16">
					<dim>1</dim>
					<dim>128</dim>
					<dim>26</dim>
					<dim>26</dim>
				</port>
			</input>
			<output>
				<port id="1" precision="FP16" names="178">
					<dim>1</dim>
					<dim>128</dim>
					<dim>26</dim>
					<dim>26</dim>
				</port>
			</output>
		</layer>
		<layer id="81" name="backbone.ERBlock_5.0.rbr_reparam.weight" type="Const" version="opset1">
			<data element_type="f16" shape="256, 128, 3, 3" offset="2298304" size="589824"/>
			<output>
				<port id="0" precision="FP16" names="backbone.ERBlock_5.0.rbr_reparam.weight">
					<dim>256</dim>
					<dim>128</dim>
					<dim>3</dim>
					<dim>3</dim>
				</port>
			</output>
		</layer>
		<layer id="82" name="Conv_32/WithoutBiases" type="Convolution" version="opset1">
			<data strides="2, 2" dilations="1, 1" pads_begin="1, 1" pads_end="1, 1" auto_pad="explicit"/>
			<input>
				<port id="0" precision="FP16">
					<dim>1</dim>
					<dim>128</dim>
					<dim>26</dim>
					<dim>26</dim>
				</port>
				<port id="1" precision="FP16">
					<dim>256</dim>
					<dim>128</dim>
					<dim>3</dim>
					<dim>3</dim>
				</port>
			</input>
			<output>
				<port id="2" precision="FP16">
					<dim>1</dim>
					<dim>256</dim>
					<dim>13</dim>
					<dim>13</dim>
				</port>
			</output>
		</layer>
		<layer id="83" name="Conv_32/Dims2384" type="Const" version="opset1">
			<data element_type="f16" shape="1, 256, 1, 1" offset="2888128" size="512"/>
			<output>
				<port id="0" precision="FP16">
					<dim>1</dim>
					<dim>256</dim>
					<dim>1</dim>
					<dim>1</dim>
				</port>
			</output>
		</layer>
		<layer id="84" name="Conv_32" type="Add" version="opset1">
			<data auto_broadcast="numpy"/>
			<input>
				<port id="0" precision="FP16">
					<dim>1</dim>
					<dim>256</dim>
					<dim>13</dim>
					<dim>13</dim>
				</port>
				<port id="1" precision="FP16">
					<dim>1</dim>
					<dim>256</dim>
					<dim>1</dim>
					<dim>1</dim>
				</port>
			</input>
			<output>
				<port id="2" precision="FP16" names="179">
					<dim>1</dim>
					<dim>256</dim>
					<dim>13</dim>
					<dim>13</dim>
				</port>
			</output>
		</layer>
		<layer id="85" name="Relu_33" type="ReLU" version="opset1">
			<input>
				<port id="0" precision="FP16">
					<dim>1</dim>
					<dim>256</dim>
					<dim>13</dim>
					<dim>13</dim>
				</port>
			</input>
			<output>
				<port id="1" precision="FP16" names="180">
					<dim>1</dim>
					<dim>256</dim>
					<dim>13</dim>
					<dim>13</dim>
				</port>
			</output>
		</layer>
		<layer id="86" name="backbone.ERBlock_5.1.conv1.rbr_reparam.weight" type="Const" version="opset1">
			<data element_type="f16" shape="256, 256, 3, 3" offset="2888640" size="1179648"/>
			<output>
				<port id="0" precision="FP16" names="backbone.ERBlock_5.1.conv1.rbr_reparam.weight">
					<dim>256</dim>
					<dim>256</dim>
					<dim>3</dim>
					<dim>3</dim>
				</port>
			</output>
		</layer>
		<layer id="87" name="Conv_34/WithoutBiases" type="Convolution" version="opset1">
			<data strides="1, 1" dilations="1, 1" pads_begin="1, 1" pads_end="1, 1" auto_pad="explicit"/>
			<input>
				<port id="0" precision="FP16">
					<dim>1</dim>
					<dim>256</dim>
					<dim>13</dim>
					<dim>13</dim>
				</port>
				<port id="1" precision="FP16">
					<dim>256</dim>
					<dim>256</dim>
					<dim>3</dim>
					<dim>3</dim>
				</port>
			</input>
			<output>
				<port id="2" precision="FP16">
					<dim>1</dim>
					<dim>256</dim>
					<dim>13</dim>
					<dim>13</dim>
				</port>
			</output>
		</layer>
		<layer id="88" name="Conv_34/Dims2660" type="Const" version="opset1">
			<data element_type="f16" shape="1, 256, 1, 1" offset="4068288" size="512"/>
			<output>
				<port id="0" precision="FP16">
					<dim>1</dim>
					<dim>256</dim>
					<dim>1</dim>
					<dim>1</dim>
				</port>
			</output>
		</layer>
		<layer id="89" name="Conv_34" type="Add" version="opset1">
			<data auto_broadcast="numpy"/>
			<input>
				<port id="0" precision="FP16">
					<dim>1</dim>
					<dim>256</dim>
					<dim>13</dim>
					<dim>13</dim>
				</port>
				<port id="1" precision="FP16">
					<dim>1</dim>
					<dim>256</dim>
					<dim>1</dim>
					<dim>1</dim>
				</port>
			</input>
			<output>
				<port id="2" precision="FP16" names="181">
					<dim>1</dim>
					<dim>256</dim>
					<dim>13</dim>
					<dim>13</dim>
				</port>
			</output>
		</layer>
		<layer id="90" name="Relu_35" type="ReLU" version="opset1">
			<input>
				<port id="0" precision="FP16">
					<dim>1</dim>
					<dim>256</dim>
					<dim>13</dim>
					<dim>13</dim>
				</port>
			</input>
			<output>
				<port id="1" precision="FP16" names="182">
					<dim>1</dim>
					<dim>256</dim>
					<dim>13</dim>
					<dim>13</dim>
				</port>
			</output>
		</layer>
		<layer id="91" name="backbone.ERBlock_5.1.block.0.rbr_reparam.weight" type="Const" version="opset1">
			<data element_type="f16" shape="256, 256, 3, 3" offset="4068800" size="1179648"/>
			<output>
				<port id="0" precision="FP16" names="backbone.ERBlock_5.1.block.0.rbr_reparam.weight">
					<dim>256</dim>
					<dim>256</dim>
					<dim>3</dim>
					<dim>3</dim>
				</port>
			</output>
		</layer>
		<layer id="92" name="Conv_36/WithoutBiases" type="Convolution" version="opset1">
			<data strides="1, 1" dilations="1, 1" pads_begin="1, 1" pads_end="1, 1" auto_pad="explicit"/>
			<input>
				<port id="0" precision="FP16">
					<dim>1</dim>
					<dim>256</dim>
					<dim>13</dim>
					<dim>13</dim>
				</port>
				<port id="1" precision="FP16">
					<dim>256</dim>
					<dim>256</dim>
					<dim>3</dim>
					<dim>3</dim>
				</port>
			</input>
			<output>
				<port id="2" precision="FP16">
					<dim>1</dim>
					<dim>256</dim>
					<dim>13</dim>
					<dim>13</dim>
				</port>
			</output>
		</layer>
		<layer id="93" name="Conv_36/Dims2426" type="Const" version="opset1">
			<data element_type="f16" shape="1, 256, 1, 1" offset="5248448" size="512"/>
			<output>
				<port id="0" precision="FP16">
					<dim>1</dim>
					<dim>256</dim>
					<dim>1</dim>
					<dim>1</dim>
				</port>
			</output>
		</layer>
		<layer id="94" name="Conv_36" type="Add" version="opset1">
			<data auto_broadcast="numpy"/>
			<input>
				<port id="0" precision="FP16">
					<dim>1</dim>
					<dim>256</dim>
					<dim>13</dim>
					<dim>13</dim>
				</port>
				<port id="1" precision="FP16">
					<dim>1</dim>
					<dim>256</dim>
					<dim>1</dim>
					<dim>1</dim>
				</port>
			</input>
			<output>
				<port id="2" precision="FP16" names="183">
					<dim>1</dim>
					<dim>256</dim>
					<dim>13</dim>
					<dim>13</dim>
				</port>
			</output>
		</layer>
		<layer id="95" name="Relu_37" type="ReLU" version="opset1">
			<input>
				<port id="0" precision="FP16">
					<dim>1</dim>
					<dim>256</dim>
					<dim>13</dim>
					<dim>13</dim>
				</port>
			</input>
			<output>
				<port id="1" precision="FP16" names="184">
					<dim>1</dim>
					<dim>256</dim>
					<dim>13</dim>
					<dim>13</dim>
				</port>
			</output>
		</layer>
		<layer id="96" name="919" type="Const" version="opset1">
			<data element_type="f16" shape="128, 256, 1, 1" offset="5248960" size="65536"/>
			<output>
				<port id="0" precision="FP16" names="919">
					<dim>128</dim>
					<dim>256</dim>
					<dim>1</dim>
					<dim>1</dim>
				</port>
			</output>
		</layer>
		<layer id="97" name="Conv_38/WithoutBiases" type="Convolution" version="opset1">
			<data strides="1, 1" dilations="1, 1" pads_begin="0, 0" pads_end="0, 0" auto_pad="explicit"/>
			<input>
				<port id="0" precision="FP16">
					<dim>1</dim>
					<dim>256</dim>
					<dim>13</dim>
					<dim>13</dim>
				</port>
				<port id="1" precision="FP16">
					<dim>128</dim>
					<dim>256</dim>
					<dim>1</dim>
					<dim>1</dim>
				</port>
			</input>
			<output>
				<port id="2" precision="FP16">
					<dim>1</dim>
					<dim>128</dim>
					<dim>13</dim>
					<dim>13</dim>
				</port>
			</output>
		</layer>
		<layer id="98" name="Conv_38/Dims2600" type="Const" version="opset1">
			<data element_type="f16" shape="1, 128, 1, 1" offset="5314496" size="256"/>
			<output>
				<port id="0" precision="FP16">
					<dim>1</dim>
					<dim>128</dim>
					<dim>1</dim>
					<dim>1</dim>
				</port>
			</output>
		</layer>
		<layer id="99" name="Conv_38" type="Add" version="opset1">
			<data auto_broadcast="numpy"/>
			<input>
				<port id="0" precision="FP16">
					<dim>1</dim>
					<dim>128</dim>
					<dim>13</dim>
					<dim>13</dim>
				</port>
				<port id="1" precision="FP16">
					<dim>1</dim>
					<dim>128</dim>
					<dim>1</dim>
					<dim>1</dim>
				</port>
			</input>
			<output>
				<port id="2" precision="FP16" names="918">
					<dim>1</dim>
					<dim>128</dim>
					<dim>13</dim>
					<dim>13</dim>
				</port>
			</output>
		</layer>
		<layer id="100" name="Relu_39" type="ReLU" version="opset1">
			<input>
				<port id="0" precision="FP16">
					<dim>1</dim>
					<dim>128</dim>
					<dim>13</dim>
					<dim>13</dim>
				</port>
			</input>
			<output>
				<port id="1" precision="FP16" names="187">
					<dim>1</dim>
					<dim>128</dim>
					<dim>13</dim>
					<dim>13</dim>
				</port>
			</output>
		</layer>
		<layer id="101" name="MaxPool_40" type="MaxPool" version="opset1">
			<data strides="1, 1" pads_begin="2, 2" pads_end="2, 2" kernel="5, 5" rounding_type="floor" auto_pad="explicit"/>
			<input>
				<port id="0" precision="FP16">
					<dim>1</dim>
					<dim>128</dim>
					<dim>13</dim>
					<dim>13</dim>
				</port>
			</input>
			<output>
				<port id="1" precision="FP16" names="188">
					<dim>1</dim>
					<dim>128</dim>
					<dim>13</dim>
					<dim>13</dim>
				</port>
			</output>
		</layer>
		<layer id="102" name="MaxPool_41" type="MaxPool" version="opset1">
			<data strides="1, 1" pads_begin="2, 2" pads_end="2, 2" kernel="5, 5" rounding_type="floor" auto_pad="explicit"/>
			<input>
				<port id="0" precision="FP16">
					<dim>1</dim>
					<dim>128</dim>
					<dim>13</dim>
					<dim>13</dim>
				</port>
			</input>
			<output>
				<port id="1" precision="FP16" names="189">
					<dim>1</dim>
					<dim>128</dim>
					<dim>13</dim>
					<dim>13</dim>
				</port>
			</output>
		</layer>
		<layer id="103" name="MaxPool_42" type="MaxPool" version="opset1">
			<data strides="1, 1" pads_begin="2, 2" pads_end="2, 2" kernel="5, 5" rounding_type="floor" auto_pad="explicit"/>
			<input>
				<port id="0" precision="FP16">
					<dim>1</dim>
					<dim>128</dim>
					<dim>13</dim>
					<dim>13</dim>
				</port>
			</input>
			<output>
				<port id="1" precision="FP16" names="190">
					<dim>1</dim>
					<dim>128</dim>
					<dim>13</dim>
					<dim>13</dim>
				</port>
			</output>
		</layer>
		<layer id="104" name="Concat_43" type="Concat" version="opset1">
			<data axis="1"/>
			<input>
				<port id="0" precision="FP16">
					<dim>1</dim>
					<dim>128</dim>
					<dim>13</dim>
					<dim>13</dim>
				</port>
				<port id="1" precision="FP16">
					<dim>1</dim>
					<dim>128</dim>
					<dim>13</dim>
					<dim>13</dim>
				</port>
				<port id="2" precision="FP16">
					<dim>1</dim>
					<dim>128</dim>
					<dim>13</dim>
					<dim>13</dim>
				</port>
				<port id="3" precision="FP16">
					<dim>1</dim>
					<dim>128</dim>
					<dim>13</dim>
					<dim>13</dim>
				</port>
			</input>
			<output>
				<port id="4" precision="FP16" names="191">
					<dim>1</dim>
					<dim>512</dim>
					<dim>13</dim>
					<dim>13</dim>
				</port>
			</output>
		</layer>
		<layer id="105" name="922" type="Const" version="opset1">
			<data element_type="f16" shape="256, 512, 1, 1" offset="5314752" size="262144"/>
			<output>
				<port id="0" precision="FP16" names="922">
					<dim>256</dim>
					<dim>512</dim>
					<dim>1</dim>
					<dim>1</dim>
				</port>
			</output>
		</layer>
		<layer id="106" name="Conv_44/WithoutBiases" type="Convolution" version="opset1">
			<data strides="1, 1" dilations="1, 1" pads_begin="0, 0" pads_end="0, 0" auto_pad="explicit"/>
			<input>
				<port id="0" precision="FP16">
					<dim>1</dim>
					<dim>512</dim>
					<dim>13</dim>
					<dim>13</dim>
				</port>
				<port id="1" precision="FP16">
					<dim>256</dim>
					<dim>512</dim>
					<dim>1</dim>
					<dim>1</dim>
				</port>
			</input>
			<output>
				<port id="2" precision="FP16">
					<dim>1</dim>
					<dim>256</dim>
					<dim>13</dim>
					<dim>13</dim>
				</port>
			</output>
		</layer>
		<layer id="107" name="Conv_44/Dims2348" type="Const" version="opset1">
			<data element_type="f16" shape="1, 256, 1, 1" offset="5576896" size="512"/>
			<output>
				<port id="0" precision="FP16">
					<dim>1</dim>
					<dim>256</dim>
					<dim>1</dim>
					<dim>1</dim>
				</port>
			</output>
		</layer>
		<layer id="108" name="Conv_44" type="Add" version="opset1">
			<data auto_broadcast="numpy"/>
			<input>
				<port id="0" precision="FP16">
					<dim>1</dim>
					<dim>256</dim>
					<dim>13</dim>
					<dim>13</dim>
				</port>
				<port id="1" precision="FP16">
					<dim>1</dim>
					<dim>256</dim>
					<dim>1</dim>
					<dim>1</dim>
				</port>
			</input>
			<output>
				<port id="2" precision="FP16" names="921">
					<dim>1</dim>
					<dim>256</dim>
					<dim>13</dim>
					<dim>13</dim>
				</port>
			</output>
		</layer>
		<layer id="109" name="Relu_45" type="ReLU" version="opset1">
			<input>
				<port id="0" precision="FP16">
					<dim>1</dim>
					<dim>256</dim>
					<dim>13</dim>
					<dim>13</dim>
				</port>
			</input>
			<output>
				<port id="1" precision="FP16" names="194">
					<dim>1</dim>
					<dim>256</dim>
					<dim>13</dim>
					<dim>13</dim>
				</port>
			</output>
		</layer>
		<layer id="110" name="925" type="Const" version="opset1">
			<data element_type="f16" shape="64, 256, 1, 1" offset="5577408" size="32768"/>
			<output>
				<port id="0" precision="FP16" names="925">
					<dim>64</dim>
					<dim>256</dim>
					<dim>1</dim>
					<dim>1</dim>
				</port>
			</output>
		</layer>
		<layer id="111" name="Conv_46/WithoutBiases" type="Convolution" version="opset1">
			<data strides="1, 1" dilations="1, 1" pads_begin="0, 0" pads_end="0, 0" auto_pad="explicit"/>
			<input>
				<port id="0" precision="FP16">
					<dim>1</dim>
					<dim>256</dim>
					<dim>13</dim>
					<dim>13</dim>
				</port>
				<port id="1" precision="FP16">
					<dim>64</dim>
					<dim>256</dim>
					<dim>1</dim>
					<dim>1</dim>
				</port>
			</input>
			<output>
				<port id="2" precision="FP16">
					<dim>1</dim>
					<dim>64</dim>
					<dim>13</dim>
					<dim>13</dim>
				</port>
			</output>
		</layer>
		<layer id="112" name="Conv_46/Dims2342" type="Const" version="opset1">
			<data element_type="f16" shape="1, 64, 1, 1" offset="5610176" size="128"/>
			<output>
				<port id="0" precision="FP16">
					<dim>1</dim>
					<dim>64</dim>
					<dim>1</dim>
					<dim>1</dim>
				</port>
			</output>
		</layer>
		<layer id="113" name="Conv_46" type="Add" version="opset1">
			<data auto_broadcast="numpy"/>
			<input>
				<port id="0" precision="FP16">
					<dim>1</dim>
					<dim>64</dim>
					<dim>13</dim>
					<dim>13</dim>
				</port>
				<port id="1" precision="FP16">
					<dim>1</dim>
					<dim>64</dim>
					<dim>1</dim>
					<dim>1</dim>
				</port>
			</input>
			<output>
				<port id="2" precision="FP16" names="924">
					<dim>1</dim>
					<dim>64</dim>
					<dim>13</dim>
					<dim>13</dim>
				</port>
			</output>
		</layer>
		<layer id="114" name="Relu_47" type="ReLU" version="opset1">
			<input>
				<port id="0" precision="FP16">
					<dim>1</dim>
					<dim>64</dim>
					<dim>13</dim>
					<dim>13</dim>
				</port>
			</input>
			<output>
				<port id="1" precision="FP16" names="197">
					<dim>1</dim>
					<dim>64</dim>
					<dim>13</dim>
					<dim>13</dim>
				</port>
			</output>
		</layer>
		<layer id="115" name="neck.upsample0.upsample_transpose.weight" type="Const" version="opset1">
			<data element_type="f16" shape="64, 64, 2, 2" offset="5610304" size="32768"/>
			<output>
				<port id="0" precision="FP16" names="neck.upsample0.upsample_transpose.weight">
					<dim>64</dim>
					<dim>64</dim>
					<dim>2</dim>
					<dim>2</dim>
				</port>
			</output>
		</layer>
		<layer id="116" name="ConvTranspose_48/WithoutBiases" type="ConvolutionBackpropData" version="opset1">
			<data strides="2, 2" dilations="1, 1" pads_begin="0, 0" pads_end="0, 0" auto_pad="explicit" output_padding="0, 0"/>
			<input>
				<port id="0" precision="FP16">
					<dim>1</dim>
					<dim>64</dim>
					<dim>13</dim>
					<dim>13</dim>
				</port>
				<port id="1" precision="FP16">
					<dim>64</dim>
					<dim>64</dim>
					<dim>2</dim>
					<dim>2</dim>
				</port>
			</input>
			<output>
				<port id="2" precision="FP16">
					<dim>1</dim>
					<dim>64</dim>
					<dim>26</dim>
					<dim>26</dim>
				</port>
			</output>
		</layer>
		<layer id="117" name="ConvTranspose_48/Dims2528" type="Const" version="opset1">
			<data element_type="f16" shape="1, 64, 1, 1" offset="5643072" size="128"/>
			<output>
				<port id="0" precision="FP16">
					<dim>1</dim>
					<dim>64</dim>
					<dim>1</dim>
					<dim>1</dim>
				</port>
			</output>
		</layer>
		<layer id="118" name="ConvTranspose_48" type="Add" version="opset1">
			<data auto_broadcast="numpy"/>
			<input>
				<port id="0" precision="FP16">
					<dim>1</dim>
					<dim>64</dim>
					<dim>26</dim>
					<dim>26</dim>
				</port>
				<port id="1" precision="FP16">
					<dim>1</dim>
					<dim>64</dim>
					<dim>1</dim>
					<dim>1</dim>
				</port>
			</input>
			<output>
				<port id="2" precision="FP16" names="198">
					<dim>1</dim>
					<dim>64</dim>
					<dim>26</dim>
					<dim>26</dim>
				</port>
			</output>
		</layer>
		<layer id="119" name="Concat_49" type="Concat" version="opset1">
			<data axis="1"/>
			<input>
				<port id="0" precision="FP16">
					<dim>1</dim>
					<dim>64</dim>
					<dim>26</dim>
					<dim>26</dim>
				</port>
				<port id="1" precision="FP16">
					<dim>1</dim>
					<dim>128</dim>
					<dim>26</dim>
					<dim>26</dim>
				</port>
			</input>
			<output>
				<port id="2" precision="FP16" names="199">
					<dim>1</dim>
					<dim>192</dim>
					<dim>26</dim>
					<dim>26</dim>
				</port>
			</output>
		</layer>
		<layer id="120" name="neck.Rep_p4.conv1.rbr_reparam.weight" type="Const" version="opset1">
			<data element_type="f16" shape="64, 192, 3, 3" offset="5643200" size="221184"/>
			<output>
				<port id="0" precision="FP16" names="neck.Rep_p4.conv1.rbr_reparam.weight">
					<dim>64</dim>
					<dim>192</dim>
					<dim>3</dim>
					<dim>3</dim>
				</port>
			</output>
		</layer>
		<layer id="121" name="Conv_50/WithoutBiases" type="Convolution" version="opset1">
			<data strides="1, 1" dilations="1, 1" pads_begin="1, 1" pads_end="1, 1" auto_pad="explicit"/>
			<input>
				<port id="0" precision="FP16">
					<dim>1</dim>
					<dim>192</dim>
					<dim>26</dim>
					<dim>26</dim>
				</port>
				<port id="1" precision="FP16">
					<dim>64</dim>
					<dim>192</dim>
					<dim>3</dim>
					<dim>3</dim>
				</port>
			</input>
			<output>
				<port id="2" precision="FP16">
					<dim>1</dim>
					<dim>64</dim>
					<dim>26</dim>
					<dim>26</dim>
				</port>
			</output>
		</layer>
		<layer id="122" name="Conv_50/Dims2522" type="Const" version="opset1">
			<data element_type="f16" shape="1, 64, 1, 1" offset="5864384" size="128"/>
			<output>
				<port id="0" precision="FP16">
					<dim>1</dim>
					<dim>64</dim>
					<dim>1</dim>
					<dim>1</dim>
				</port>
			</output>
		</layer>
		<layer id="123" name="Conv_50" type="Add" version="opset1">
			<data auto_broadcast="numpy"/>
			<input>
				<port id="0" precision="FP16">
					<dim>1</dim>
					<dim>64</dim>
					<dim>26</dim>
					<dim>26</dim>
				</port>
				<port id="1" precision="FP16">
					<dim>1</dim>
					<dim>64</dim>
					<dim>1</dim>
					<dim>1</dim>
				</port>
			</input>
			<output>
				<port id="2" precision="FP16" names="200">
					<dim>1</dim>
					<dim>64</dim>
					<dim>26</dim>
					<dim>26</dim>
				</port>
			</output>
		</layer>
		<layer id="124" name="Relu_51" type="ReLU" version="opset1">
			<input>
				<port id="0" precision="FP16">
					<dim>1</dim>
					<dim>64</dim>
					<dim>26</dim>
					<dim>26</dim>
				</port>
			</input>
			<output>
				<port id="1" precision="FP16" names="201">
					<dim>1</dim>
					<dim>64</dim>
					<dim>26</dim>
					<dim>26</dim>
				</port>
			</output>
		</layer>
		<layer id="125" name="neck.Rep_p4.block.0.rbr_reparam.weight" type="Const" version="opset1">
			<data element_type="f16" shape="64, 64, 3, 3" offset="5864512" size="73728"/>
			<output>
				<port id="0" precision="FP16" names="neck.Rep_p4.block.0.rbr_reparam.weight">
					<dim>64</dim>
					<dim>64</dim>
					<dim>3</dim>
					<dim>3</dim>
				</port>
			</output>
		</layer>
		<layer id="126" name="Conv_52/WithoutBiases" type="Convolution" version="opset1">
			<data strides="1, 1" dilations="1, 1" pads_begin="1, 1" pads_end="1, 1" auto_pad="explicit"/>
			<input>
				<port id="0" precision="FP16">
					<dim>1</dim>
					<dim>64</dim>
					<dim>26</dim>
					<dim>26</dim>
				</port>
				<port id="1" precision="FP16">
					<dim>64</dim>
					<dim>64</dim>
					<dim>3</dim>
					<dim>3</dim>
				</port>
			</input>
			<output>
				<port id="2" precision="FP16">
					<dim>1</dim>
					<dim>64</dim>
					<dim>26</dim>
					<dim>26</dim>
				</port>
			</output>
		</layer>
		<layer id="127" name="Conv_52/Dims2402" type="Const" version="opset1">
			<data element_type="f16" shape="1, 64, 1, 1" offset="5938240" size="128"/>
			<output>
				<port id="0" precision="FP16">
					<dim>1</dim>
					<dim>64</dim>
					<dim>1</dim>
					<dim>1</dim>
				</port>
			</output>
		</layer>
		<layer id="128" name="Conv_52" type="Add" version="opset1">
			<data auto_broadcast="numpy"/>
			<input>
				<port id="0" precision="FP16">
					<dim>1</dim>
					<dim>64</dim>
					<dim>26</dim>
					<dim>26</dim>
				</port>
				<port id="1" precision="FP16">
					<dim>1</dim>
					<dim>64</dim>
					<dim>1</dim>
					<dim>1</dim>
				</port>
			</input>
			<output>
				<port id="2" precision="FP16" names="202">
					<dim>1</dim>
					<dim>64</dim>
					<dim>26</dim>
					<dim>26</dim>
				</port>
			</output>
		</layer>
		<layer id="129" name="Relu_53" type="ReLU" version="opset1">
			<input>
				<port id="0" precision="FP16">
					<dim>1</dim>
					<dim>64</dim>
					<dim>26</dim>
					<dim>26</dim>
				</port>
			</input>
			<output>
				<port id="1" precision="FP16" names="203">
					<dim>1</dim>
					<dim>64</dim>
					<dim>26</dim>
					<dim>26</dim>
				</port>
			</output>
		</layer>
		<layer id="130" name="neck.Rep_p4.block.1.rbr_reparam.weight" type="Const" version="opset1">
			<data element_type="f16" shape="64, 64, 3, 3" offset="5938368" size="73728"/>
			<output>
				<port id="0" precision="FP16" names="neck.Rep_p4.block.1.rbr_reparam.weight">
					<dim>64</dim>
					<dim>64</dim>
					<dim>3</dim>
					<dim>3</dim>
				</port>
			</output>
		</layer>
		<layer id="131" name="Conv_54/WithoutBiases" type="Convolution" version="opset1">
			<data strides="1, 1" dilations="1, 1" pads_begin="1, 1" pads_end="1, 1" auto_pad="explicit"/>
			<input>
				<port id="0" precision="FP16">
					<dim>1</dim>
					<dim>64</dim>
					<dim>26</dim>
					<dim>26</dim>
				</port>
				<port id="1" precision="FP16">
					<dim>64</dim>
					<dim>64</dim>
					<dim>3</dim>
					<dim>3</dim>
				</port>
			</input>
			<output>
				<port id="2" precision="FP16">
					<dim>1</dim>
					<dim>64</dim>
					<dim>26</dim>
					<dim>26</dim>
				</port>
			</output>
		</layer>
		<layer id="132" name="Conv_54/Dims2450" type="Const" version="opset1">
			<data element_type="f16" shape="1, 64, 1, 1" offset="6012096" size="128"/>
			<output>
				<port id="0" precision="FP16">
					<dim>1</dim>
					<dim>64</dim>
					<dim>1</dim>
					<dim>1</dim>
				</port>
			</output>
		</layer>
		<layer id="133" name="Conv_54" type="Add" version="opset1">
			<data auto_broadcast="numpy"/>
			<input>
				<port id="0" precision="FP16">
					<dim>1</dim>
					<dim>64</dim>
					<dim>26</dim>
					<dim>26</dim>
				</port>
				<port id="1" precision="FP16">
					<dim>1</dim>
					<dim>64</dim>
					<dim>1</dim>
					<dim>1</dim>
				</port>
			</input>
			<output>
				<port id="2" precision="FP16" names="204">
					<dim>1</dim>
					<dim>64</dim>
					<dim>26</dim>
					<dim>26</dim>
				</port>
			</output>
		</layer>
		<layer id="134" name="Relu_55" type="ReLU" version="opset1">
			<input>
				<port id="0" precision="FP16">
					<dim>1</dim>
					<dim>64</dim>
					<dim>26</dim>
					<dim>26</dim>
				</port>
			</input>
			<output>
				<port id="1" precision="FP16" names="205">
					<dim>1</dim>
					<dim>64</dim>
					<dim>26</dim>
					<dim>26</dim>
				</port>
			</output>
		</layer>
		<layer id="135" name="neck.Rep_p4.block.2.rbr_reparam.weight" type="Const" version="opset1">
			<data element_type="f16" shape="64, 64, 3, 3" offset="6012224" size="73728"/>
			<output>
				<port id="0" precision="FP16" names="neck.Rep_p4.block.2.rbr_reparam.weight">
					<dim>64</dim>
					<dim>64</dim>
					<dim>3</dim>
					<dim>3</dim>
				</port>
			</output>
		</layer>
		<layer id="136" name="Conv_56/WithoutBiases" type="Convolution" version="opset1">
			<data strides="1, 1" dilations="1, 1" pads_begin="1, 1" pads_end="1, 1" auto_pad="explicit"/>
			<input>
				<port id="0" precision="FP16">
					<dim>1</dim>
					<dim>64</dim>
					<dim>26</dim>
					<dim>26</dim>
				</port>
				<port id="1" precision="FP16">
					<dim>64</dim>
					<dim>64</dim>
					<dim>3</dim>
					<dim>3</dim>
				</port>
			</input>
			<output>
				<port id="2" precision="FP16">
					<dim>1</dim>
					<dim>64</dim>
					<dim>26</dim>
					<dim>26</dim>
				</port>
			</output>
		</layer>
		<layer id="137" name="Conv_56/Dims2588" type="Const" version="opset1">
			<data element_type="f16" shape="1, 64, 1, 1" offset="6085952" size="128"/>
			<output>
				<port id="0" precision="FP16">
					<dim>1</dim>
					<dim>64</dim>
					<dim>1</dim>
					<dim>1</dim>
				</port>
			</output>
		</layer>
		<layer id="138" name="Conv_56" type="Add" version="opset1">
			<data auto_broadcast="numpy"/>
			<input>
				<port id="0" precision="FP16">
					<dim>1</dim>
					<dim>64</dim>
					<dim>26</dim>
					<dim>26</dim>
				</port>
				<port id="1" precision="FP16">
					<dim>1</dim>
					<dim>64</dim>
					<dim>1</dim>
					<dim>1</dim>
				</port>
			</input>
			<output>
				<port id="2" precision="FP16" names="206">
					<dim>1</dim>
					<dim>64</dim>
					<dim>26</dim>
					<dim>26</dim>
				</port>
			</output>
		</layer>
		<layer id="139" name="Relu_57" type="ReLU" version="opset1">
			<input>
				<port id="0" precision="FP16">
					<dim>1</dim>
					<dim>64</dim>
					<dim>26</dim>
					<dim>26</dim>
				</port>
			</input>
			<output>
				<port id="1" precision="FP16" names="207">
					<dim>1</dim>
					<dim>64</dim>
					<dim>26</dim>
					<dim>26</dim>
				</port>
			</output>
		</layer>
		<layer id="140" name="928" type="Const" version="opset1">
			<data element_type="f16" shape="32, 64, 1, 1" offset="6086080" size="4096"/>
			<output>
				<port id="0" precision="FP16" names="928">
					<dim>32</dim>
					<dim>64</dim>
					<dim>1</dim>
					<dim>1</dim>
				</port>
			</output>
		</layer>
		<layer id="141" name="Conv_58/WithoutBiases" type="Convolution" version="opset1">
			<data strides="1, 1" dilations="1, 1" pads_begin="0, 0" pads_end="0, 0" auto_pad="explicit"/>
			<input>
				<port id="0" precision="FP16">
					<dim>1</dim>
					<dim>64</dim>
					<dim>26</dim>
					<dim>26</dim>
				</port>
				<port id="1" precision="FP16">
					<dim>32</dim>
					<dim>64</dim>
					<dim>1</dim>
					<dim>1</dim>
				</port>
			</input>
			<output>
				<port id="2" precision="FP16">
					<dim>1</dim>
					<dim>32</dim>
					<dim>26</dim>
					<dim>26</dim>
				</port>
			</output>
		</layer>
		<layer id="142" name="Conv_58/Dims2312" type="Const" version="opset1">
			<data element_type="f16" shape="1, 32, 1, 1" offset="6090176" size="64"/>
			<output>
				<port id="0" precision="FP16">
					<dim>1</dim>
					<dim>32</dim>
					<dim>1</dim>
					<dim>1</dim>
				</port>
			</output>
		</layer>
		<layer id="143" name="Conv_58" type="Add" version="opset1">
			<data auto_broadcast="numpy"/>
			<input>
				<port id="0" precision="FP16">
					<dim>1</dim>
					<dim>32</dim>
					<dim>26</dim>
					<dim>26</dim>
				</port>
				<port id="1" precision="FP16">
					<dim>1</dim>
					<dim>32</dim>
					<dim>1</dim>
					<dim>1</dim>
				</port>
			</input>
			<output>
				<port id="2" precision="FP16" names="927">
					<dim>1</dim>
					<dim>32</dim>
					<dim>26</dim>
					<dim>26</dim>
				</port>
			</output>
		</layer>
		<layer id="144" name="Relu_59" type="ReLU" version="opset1">
			<input>
				<port id="0" precision="FP16">
					<dim>1</dim>
					<dim>32</dim>
					<dim>26</dim>
					<dim>26</dim>
				</port>
			</input>
			<output>
				<port id="1" precision="FP16" names="210">
					<dim>1</dim>
					<dim>32</dim>
					<dim>26</dim>
					<dim>26</dim>
				</port>
			</output>
		</layer>
		<layer id="145" name="neck.upsample1.upsample_transpose.weight" type="Const" version="opset1">
			<data element_type="f16" shape="32, 32, 2, 2" offset="6090240" size="8192"/>
			<output>
				<port id="0" precision="FP16" names="neck.upsample1.upsample_transpose.weight">
					<dim>32</dim>
					<dim>32</dim>
					<dim>2</dim>
					<dim>2</dim>
				</port>
			</output>
		</layer>
		<layer id="146" name="ConvTranspose_60/WithoutBiases" type="ConvolutionBackpropData" version="opset1">
			<data strides="2, 2" dilations="1, 1" pads_begin="0, 0" pads_end="0, 0" auto_pad="explicit" output_padding="0, 0"/>
			<input>
				<port id="0" precision="FP16">
					<dim>1</dim>
					<dim>32</dim>
					<dim>26</dim>
					<dim>26</dim>
				</port>
				<port id="1" precision="FP16">
					<dim>32</dim>
					<dim>32</dim>
					<dim>2</dim>
					<dim>2</dim>
				</port>
			</input>
			<output>
				<port id="2" precision="FP16">
					<dim>1</dim>
					<dim>32</dim>
					<dim>52</dim>
					<dim>52</dim>
				</port>
			</output>
		</layer>
		<layer id="147" name="ConvTranspose_60/Dims2630" type="Const" version="opset1">
			<data element_type="f16" shape="1, 32, 1, 1" offset="6098432" size="64"/>
			<output>
				<port id="0" precision="FP16">
					<dim>1</dim>
					<dim>32</dim>
					<dim>1</dim>
					<dim>1</dim>
				</port>
			</output>
		</layer>
		<layer id="148" name="ConvTranspose_60" type="Add" version="opset1">
			<data auto_broadcast="numpy"/>
			<input>
				<port id="0" precision="FP16">
					<dim>1</dim>
					<dim>32</dim>
					<dim>52</dim>
					<dim>52</dim>
				</port>
				<port id="1" precision="FP16">
					<dim>1</dim>
					<dim>32</dim>
					<dim>1</dim>
					<dim>1</dim>
				</port>
			</input>
			<output>
				<port id="2" precision="FP16" names="211">
					<dim>1</dim>
					<dim>32</dim>
					<dim>52</dim>
					<dim>52</dim>
				</port>
			</output>
		</layer>
		<layer id="149" name="Concat_61" type="Concat" version="opset1">
			<data axis="1"/>
			<input>
				<port id="0" precision="FP16">
					<dim>1</dim>
					<dim>32</dim>
					<dim>52</dim>
					<dim>52</dim>
				</port>
				<port id="1" precision="FP16">
					<dim>1</dim>
					<dim>64</dim>
					<dim>52</dim>
					<dim>52</dim>
				</port>
			</input>
			<output>
				<port id="2" precision="FP16" names="212">
					<dim>1</dim>
					<dim>96</dim>
					<dim>52</dim>
					<dim>52</dim>
				</port>
			</output>
		</layer>
		<layer id="150" name="neck.Rep_p3.conv1.rbr_reparam.weight" type="Const" version="opset1">
			<data element_type="f16" shape="32, 96, 3, 3" offset="6098496" size="55296"/>
			<output>
				<port id="0" precision="FP16" names="neck.Rep_p3.conv1.rbr_reparam.weight">
					<dim>32</dim>
					<dim>96</dim>
					<dim>3</dim>
					<dim>3</dim>
				</port>
			</output>
		</layer>
		<layer id="151" name="Conv_62/WithoutBiases" type="Convolution" version="opset1">
			<data strides="1, 1" dilations="1, 1" pads_begin="1, 1" pads_end="1, 1" auto_pad="explicit"/>
			<input>
				<port id="0" precision="FP16">
					<dim>1</dim>
					<dim>96</dim>
					<dim>52</dim>
					<dim>52</dim>
				</port>
				<port id="1" precision="FP16">
					<dim>32</dim>
					<dim>96</dim>
					<dim>3</dim>
					<dim>3</dim>
				</port>
			</input>
			<output>
				<port id="2" precision="FP16">
					<dim>1</dim>
					<dim>32</dim>
					<dim>52</dim>
					<dim>52</dim>
				</port>
			</output>
		</layer>
		<layer id="152" name="Conv_62/Dims2390" type="Const" version="opset1">
			<data element_type="f16" shape="1, 32, 1, 1" offset="6153792" size="64"/>
			<output>
				<port id="0" precision="FP16">
					<dim>1</dim>
					<dim>32</dim>
					<dim>1</dim>
					<dim>1</dim>
				</port>
			</output>
		</layer>
		<layer id="153" name="Conv_62" type="Add" version="opset1">
			<data auto_broadcast="numpy"/>
			<input>
				<port id="0" precision="FP16">
					<dim>1</dim>
					<dim>32</dim>
					<dim>52</dim>
					<dim>52</dim>
				</port>
				<port id="1" precision="FP16">
					<dim>1</dim>
					<dim>32</dim>
					<dim>1</dim>
					<dim>1</dim>
				</port>
			</input>
			<output>
				<port id="2" precision="FP16" names="213">
					<dim>1</dim>
					<dim>32</dim>
					<dim>52</dim>
					<dim>52</dim>
				</port>
			</output>
		</layer>
		<layer id="154" name="Relu_63" type="ReLU" version="opset1">
			<input>
				<port id="0" precision="FP16">
					<dim>1</dim>
					<dim>32</dim>
					<dim>52</dim>
					<dim>52</dim>
				</port>
			</input>
			<output>
				<port id="1" precision="FP16" names="214">
					<dim>1</dim>
					<dim>32</dim>
					<dim>52</dim>
					<dim>52</dim>
				</port>
			</output>
		</layer>
		<layer id="155" name="neck.Rep_p3.block.0.rbr_reparam.weight" type="Const" version="opset1">
			<data element_type="f16" shape="32, 32, 3, 3" offset="6153856" size="18432"/>
			<output>
				<port id="0" precision="FP16" names="neck.Rep_p3.block.0.rbr_reparam.weight">
					<dim>32</dim>
					<dim>32</dim>
					<dim>3</dim>
					<dim>3</dim>
				</port>
			</output>
		</layer>
		<layer id="156" name="Conv_64/WithoutBiases" type="Convolution" version="opset1">
			<data strides="1, 1" dilations="1, 1" pads_begin="1, 1" pads_end="1, 1" auto_pad="explicit"/>
			<input>
				<port id="0" precision="FP16">
					<dim>1</dim>
					<dim>32</dim>
					<dim>52</dim>
					<dim>52</dim>
				</port>
				<port id="1" precision="FP16">
					<dim>32</dim>
					<dim>32</dim>
					<dim>3</dim>
					<dim>3</dim>
				</port>
			</input>
			<output>
				<port id="2" precision="FP16">
					<dim>1</dim>
					<dim>32</dim>
					<dim>52</dim>
					<dim>52</dim>
				</port>
			</output>
		</layer>
		<layer id="157" name="Conv_64/Dims2480" type="Const" version="opset1">
			<data element_type="f16" shape="1, 32, 1, 1" offset="6172288" size="64"/>
			<output>
				<port id="0" precision="FP16">
					<dim>1</dim>
					<dim>32</dim>
					<dim>1</dim>
					<dim>1</dim>
				</port>
			</output>
		</layer>
		<layer id="158" name="Conv_64" type="Add" version="opset1">
			<data auto_broadcast="numpy"/>
			<input>
				<port id="0" precision="FP16">
					<dim>1</dim>
					<dim>32</dim>
					<dim>52</dim>
					<dim>52</dim>
				</port>
				<port id="1" precision="FP16">
					<dim>1</dim>
					<dim>32</dim>
					<dim>1</dim>
					<dim>1</dim>
				</port>
			</input>
			<output>
				<port id="2" precision="FP16" names="215">
					<dim>1</dim>
					<dim>32</dim>
					<dim>52</dim>
					<dim>52</dim>
				</port>
			</output>
		</layer>
		<layer id="159" name="Relu_65" type="ReLU" version="opset1">
			<input>
				<port id="0" precision="FP16">
					<dim>1</dim>
					<dim>32</dim>
					<dim>52</dim>
					<dim>52</dim>
				</port>
			</input>
			<output>
				<port id="1" precision="FP16" names="216">
					<dim>1</dim>
					<dim>32</dim>
					<dim>52</dim>
					<dim>52</dim>
				</port>
			</output>
		</layer>
		<layer id="160" name="neck.Rep_p3.block.1.rbr_reparam.weight" type="Const" version="opset1">
			<data element_type="f16" shape="32, 32, 3, 3" offset="6172352" size="18432"/>
			<output>
				<port id="0" precision="FP16" names="neck.Rep_p3.block.1.rbr_reparam.weight">
					<dim>32</dim>
					<dim>32</dim>
					<dim>3</dim>
					<dim>3</dim>
				</port>
			</output>
		</layer>
		<layer id="161" name="Conv_66/WithoutBiases" type="Convolution" version="opset1">
			<data strides="1, 1" dilations="1, 1" pads_begin="1, 1" pads_end="1, 1" auto_pad="explicit"/>
			<input>
				<port id="0" precision="FP16">
					<dim>1</dim>
					<dim>32</dim>
					<dim>52</dim>
					<dim>52</dim>
				</port>
				<port id="1" precision="FP16">
					<dim>32</dim>
					<dim>32</dim>
					<dim>3</dim>
					<dim>3</dim>
				</port>
			</input>
			<output>
				<port id="2" precision="FP16">
					<dim>1</dim>
					<dim>32</dim>
					<dim>52</dim>
					<dim>52</dim>
				</port>
			</output>
		</layer>
		<layer id="162" name="Conv_66/Dims2474" type="Const" version="opset1">
			<data element_type="f16" shape="1, 32, 1, 1" offset="6190784" size="64"/>
			<output>
				<port id="0" precision="FP16">
					<dim>1</dim>
					<dim>32</dim>
					<dim>1</dim>
					<dim>1</dim>
				</port>
			</output>
		</layer>
		<layer id="163" name="Conv_66" type="Add" version="opset1">
			<data auto_broadcast="numpy"/>
			<input>
				<port id="0" precision="FP16">
					<dim>1</dim>
					<dim>32</dim>
					<dim>52</dim>
					<dim>52</dim>
				</port>
				<port id="1" precision="FP16">
					<dim>1</dim>
					<dim>32</dim>
					<dim>1</dim>
					<dim>1</dim>
				</port>
			</input>
			<output>
				<port id="2" precision="FP16" names="217">
					<dim>1</dim>
					<dim>32</dim>
					<dim>52</dim>
					<dim>52</dim>
				</port>
			</output>
		</layer>
		<layer id="164" name="Relu_67" type="ReLU" version="opset1">
			<input>
				<port id="0" precision="FP16">
					<dim>1</dim>
					<dim>32</dim>
					<dim>52</dim>
					<dim>52</dim>
				</port>
			</input>
			<output>
				<port id="1" precision="FP16" names="218">
					<dim>1</dim>
					<dim>32</dim>
					<dim>52</dim>
					<dim>52</dim>
				</port>
			</output>
		</layer>
		<layer id="165" name="neck.Rep_p3.block.2.rbr_reparam.weight" type="Const" version="opset1">
			<data element_type="f16" shape="32, 32, 3, 3" offset="6190848" size="18432"/>
			<output>
				<port id="0" precision="FP16" names="neck.Rep_p3.block.2.rbr_reparam.weight">
					<dim>32</dim>
					<dim>32</dim>
					<dim>3</dim>
					<dim>3</dim>
				</port>
			</output>
		</layer>
		<layer id="166" name="Conv_68/WithoutBiases" type="Convolution" version="opset1">
			<data strides="1, 1" dilations="1, 1" pads_begin="1, 1" pads_end="1, 1" auto_pad="explicit"/>
			<input>
				<port id="0" precision="FP16">
					<dim>1</dim>
					<dim>32</dim>
					<dim>52</dim>
					<dim>52</dim>
				</port>
				<port id="1" precision="FP16">
					<dim>32</dim>
					<dim>32</dim>
					<dim>3</dim>
					<dim>3</dim>
				</port>
			</input>
			<output>
				<port id="2" precision="FP16">
					<dim>1</dim>
					<dim>32</dim>
					<dim>52</dim>
					<dim>52</dim>
				</port>
			</output>
		</layer>
		<layer id="167" name="Conv_68/Dims2564" type="Const" version="opset1">
			<data element_type="f16" shape="1, 32, 1, 1" offset="6209280" size="64"/>
			<output>
				<port id="0" precision="FP16">
					<dim>1</dim>
					<dim>32</dim>
					<dim>1</dim>
					<dim>1</dim>
				</port>
			</output>
		</layer>
		<layer id="168" name="Conv_68" type="Add" version="opset1">
			<data auto_broadcast="numpy"/>
			<input>
				<port id="0" precision="FP16">
					<dim>1</dim>
					<dim>32</dim>
					<dim>52</dim>
					<dim>52</dim>
				</port>
				<port id="1" precision="FP16">
					<dim>1</dim>
					<dim>32</dim>
					<dim>1</dim>
					<dim>1</dim>
				</port>
			</input>
			<output>
				<port id="2" precision="FP16" names="219">
					<dim>1</dim>
					<dim>32</dim>
					<dim>52</dim>
					<dim>52</dim>
				</port>
			</output>
		</layer>
		<layer id="169" name="Relu_69" type="ReLU" version="opset1">
			<input>
				<port id="0" precision="FP16">
					<dim>1</dim>
					<dim>32</dim>
					<dim>52</dim>
					<dim>52</dim>
				</port>
			</input>
			<output>
				<port id="1" precision="FP16" names="220">
					<dim>1</dim>
					<dim>32</dim>
					<dim>52</dim>
					<dim>52</dim>
				</port>
			</output>
		</layer>
		<layer id="170" name="931" type="Const" version="opset1">
			<data element_type="f16" shape="32, 32, 3, 3" offset="6209344" size="18432"/>
			<output>
				<port id="0" precision="FP16" names="931">
					<dim>32</dim>
					<dim>32</dim>
					<dim>3</dim>
					<dim>3</dim>
				</port>
			</output>
		</layer>
		<layer id="171" name="Conv_70/WithoutBiases" type="Convolution" version="opset1">
			<data strides="2, 2" dilations="1, 1" pads_begin="1, 1" pads_end="1, 1" auto_pad="explicit"/>
			<input>
				<port id="0" precision="FP16">
					<dim>1</dim>
					<dim>32</dim>
					<dim>52</dim>
					<dim>52</dim>
				</port>
				<port id="1" precision="FP16">
					<dim>32</dim>
					<dim>32</dim>
					<dim>3</dim>
					<dim>3</dim>
				</port>
			</input>
			<output>
				<port id="2" precision="FP16">
					<dim>1</dim>
					<dim>32</dim>
					<dim>26</dim>
					<dim>26</dim>
				</port>
			</output>
		</layer>
		<layer id="172" name="Conv_70/Dims2372" type="Const" version="opset1">
			<data element_type="f16" shape="1, 32, 1, 1" offset="6227776" size="64"/>
			<output>
				<port id="0" precision="FP16">
					<dim>1</dim>
					<dim>32</dim>
					<dim>1</dim>
					<dim>1</dim>
				</port>
			</output>
		</layer>
		<layer id="173" name="Conv_70" type="Add" version="opset1">
			<data auto_broadcast="numpy"/>
			<input>
				<port id="0" precision="FP16">
					<dim>1</dim>
					<dim>32</dim>
					<dim>26</dim>
					<dim>26</dim>
				</port>
				<port id="1" precision="FP16">
					<dim>1</dim>
					<dim>32</dim>
					<dim>1</dim>
					<dim>1</dim>
				</port>
			</input>
			<output>
				<port id="2" precision="FP16" names="930">
					<dim>1</dim>
					<dim>32</dim>
					<dim>26</dim>
					<dim>26</dim>
				</port>
			</output>
		</layer>
		<layer id="174" name="Relu_71" type="ReLU" version="opset1">
			<input>
				<port id="0" precision="FP16">
					<dim>1</dim>
					<dim>32</dim>
					<dim>26</dim>
					<dim>26</dim>
				</port>
			</input>
			<output>
				<port id="1" precision="FP16" names="223">
					<dim>1</dim>
					<dim>32</dim>
					<dim>26</dim>
					<dim>26</dim>
				</port>
			</output>
		</layer>
		<layer id="175" name="Concat_72" type="Concat" version="opset1">
			<data axis="1"/>
			<input>
				<port id="0" precision="FP16">
					<dim>1</dim>
					<dim>32</dim>
					<dim>26</dim>
					<dim>26</dim>
				</port>
				<port id="1" precision="FP16">
					<dim>1</dim>
					<dim>32</dim>
					<dim>26</dim>
					<dim>26</dim>
				</port>
			</input>
			<output>
				<port id="2" precision="FP16" names="224">
					<dim>1</dim>
					<dim>64</dim>
					<dim>26</dim>
					<dim>26</dim>
				</port>
			</output>
		</layer>
		<layer id="176" name="neck.Rep_n3.conv1.rbr_reparam.weight" type="Const" version="opset1">
			<data element_type="f16" shape="64, 64, 3, 3" offset="6227840" size="73728"/>
			<output>
				<port id="0" precision="FP16" names="neck.Rep_n3.conv1.rbr_reparam.weight">
					<dim>64</dim>
					<dim>64</dim>
					<dim>3</dim>
					<dim>3</dim>
				</port>
			</output>
		</layer>
		<layer id="177" name="Conv_73/WithoutBiases" type="Convolution" version="opset1">
			<data strides="1, 1" dilations="1, 1" pads_begin="1, 1" pads_end="1, 1" auto_pad="explicit"/>
			<input>
				<port id="0" precision="FP16">
					<dim>1</dim>
					<dim>64</dim>
					<dim>26</dim>
					<dim>26</dim>
				</port>
				<port id="1" precision="FP16">
					<dim>64</dim>
					<dim>64</dim>
					<dim>3</dim>
					<dim>3</dim>
				</port>
			</input>
			<output>
				<port id="2" precision="FP16">
					<dim>1</dim>
					<dim>64</dim>
					<dim>26</dim>
					<dim>26</dim>
				</port>
			</output>
		</layer>
		<layer id="178" name="Conv_73/Dims2486" type="Const" version="opset1">
			<data element_type="f16" shape="1, 64, 1, 1" offset="6301568" size="128"/>
			<output>
				<port id="0" precision="FP16">
					<dim>1</dim>
					<dim>64</dim>
					<dim>1</dim>
					<dim>1</dim>
				</port>
			</output>
		</layer>
		<layer id="179" name="Conv_73" type="Add" version="opset1">
			<data auto_broadcast="numpy"/>
			<input>
				<port id="0" precision="FP16">
					<dim>1</dim>
					<dim>64</dim>
					<dim>26</dim>
					<dim>26</dim>
				</port>
				<port id="1" precision="FP16">
					<dim>1</dim>
					<dim>64</dim>
					<dim>1</dim>
					<dim>1</dim>
				</port>
			</input>
			<output>
				<port id="2" precision="FP16" names="225">
					<dim>1</dim>
					<dim>64</dim>
					<dim>26</dim>
					<dim>26</dim>
				</port>
			</output>
		</layer>
		<layer id="180" name="Relu_74" type="ReLU" version="opset1">
			<input>
				<port id="0" precision="FP16">
					<dim>1</dim>
					<dim>64</dim>
					<dim>26</dim>
					<dim>26</dim>
				</port>
			</input>
			<output>
				<port id="1" precision="FP16" names="226">
					<dim>1</dim>
					<dim>64</dim>
					<dim>26</dim>
					<dim>26</dim>
				</port>
			</output>
		</layer>
		<layer id="181" name="neck.Rep_n3.block.0.rbr_reparam.weight" type="Const" version="opset1">
			<data element_type="f16" shape="64, 64, 3, 3" offset="6301696" size="73728"/>
			<output>
				<port id="0" precision="FP16" names="neck.Rep_n3.block.0.rbr_reparam.weight">
					<dim>64</dim>
					<dim>64</dim>
					<dim>3</dim>
					<dim>3</dim>
				</port>
			</output>
		</layer>
		<layer id="182" name="Conv_75/WithoutBiases" type="Convolution" version="opset1">
			<data strides="1, 1" dilations="1, 1" pads_begin="1, 1" pads_end="1, 1" auto_pad="explicit"/>
			<input>
				<port id="0" precision="FP16">
					<dim>1</dim>
					<dim>64</dim>
					<dim>26</dim>
					<dim>26</dim>
				</port>
				<port id="1" precision="FP16">
					<dim>64</dim>
					<dim>64</dim>
					<dim>3</dim>
					<dim>3</dim>
				</port>
			</input>
			<output>
				<port id="2" precision="FP16">
					<dim>1</dim>
					<dim>64</dim>
					<dim>26</dim>
					<dim>26</dim>
				</port>
			</output>
		</layer>
		<layer id="183" name="Conv_75/Dims2462" type="Const" version="opset1">
			<data element_type="f16" shape="1, 64, 1, 1" offset="6375424" size="128"/>
			<output>
				<port id="0" precision="FP16">
					<dim>1</dim>
					<dim>64</dim>
					<dim>1</dim>
					<dim>1</dim>
				</port>
			</output>
		</layer>
		<layer id="184" name="Conv_75" type="Add" version="opset1">
			<data auto_broadcast="numpy"/>
			<input>
				<port id="0" precision="FP16">
					<dim>1</dim>
					<dim>64</dim>
					<dim>26</dim>
					<dim>26</dim>
				</port>
				<port id="1" precision="FP16">
					<dim>1</dim>
					<dim>64</dim>
					<dim>1</dim>
					<dim>1</dim>
				</port>
			</input>
			<output>
				<port id="2" precision="FP16" names="227">
					<dim>1</dim>
					<dim>64</dim>
					<dim>26</dim>
					<dim>26</dim>
				</port>
			</output>
		</layer>
		<layer id="185" name="Relu_76" type="ReLU" version="opset1">
			<input>
				<port id="0" precision="FP16">
					<dim>1</dim>
					<dim>64</dim>
					<dim>26</dim>
					<dim>26</dim>
				</port>
			</input>
			<output>
				<port id="1" precision="FP16" names="228">
					<dim>1</dim>
					<dim>64</dim>
					<dim>26</dim>
					<dim>26</dim>
				</port>
			</output>
		</layer>
		<layer id="186" name="neck.Rep_n3.block.1.rbr_reparam.weight" type="Const" version="opset1">
			<data element_type="f16" shape="64, 64, 3, 3" offset="6375552" size="73728"/>
			<output>
				<port id="0" precision="FP16" names="neck.Rep_n3.block.1.rbr_reparam.weight">
					<dim>64</dim>
					<dim>64</dim>
					<dim>3</dim>
					<dim>3</dim>
				</port>
			</output>
		</layer>
		<layer id="187" name="Conv_77/WithoutBiases" type="Convolution" version="opset1">
			<data strides="1, 1" dilations="1, 1" pads_begin="1, 1" pads_end="1, 1" auto_pad="explicit"/>
			<input>
				<port id="0" precision="FP16">
					<dim>1</dim>
					<dim>64</dim>
					<dim>26</dim>
					<dim>26</dim>
				</port>
				<port id="1" precision="FP16">
					<dim>64</dim>
					<dim>64</dim>
					<dim>3</dim>
					<dim>3</dim>
				</port>
			</input>
			<output>
				<port id="2" precision="FP16">
					<dim>1</dim>
					<dim>64</dim>
					<dim>26</dim>
					<dim>26</dim>
				</port>
			</output>
		</layer>
		<layer id="188" name="Conv_77/Dims2594" type="Const" version="opset1">
			<data element_type="f16" shape="1, 64, 1, 1" offset="6449280" size="128"/>
			<output>
				<port id="0" precision="FP16">
					<dim>1</dim>
					<dim>64</dim>
					<dim>1</dim>
					<dim>1</dim>
				</port>
			</output>
		</layer>
		<layer id="189" name="Conv_77" type="Add" version="opset1">
			<data auto_broadcast="numpy"/>
			<input>
				<port id="0" precision="FP16">
					<dim>1</dim>
					<dim>64</dim>
					<dim>26</dim>
					<dim>26</dim>
				</port>
				<port id="1" precision="FP16">
					<dim>1</dim>
					<dim>64</dim>
					<dim>1</dim>
					<dim>1</dim>
				</port>
			</input>
			<output>
				<port id="2" precision="FP16" names="229">
					<dim>1</dim>
					<dim>64</dim>
					<dim>26</dim>
					<dim>26</dim>
				</port>
			</output>
		</layer>
		<layer id="190" name="Relu_78" type="ReLU" version="opset1">
			<input>
				<port id="0" precision="FP16">
					<dim>1</dim>
					<dim>64</dim>
					<dim>26</dim>
					<dim>26</dim>
				</port>
			</input>
			<output>
				<port id="1" precision="FP16" names="230">
					<dim>1</dim>
					<dim>64</dim>
					<dim>26</dim>
					<dim>26</dim>
				</port>
			</output>
		</layer>
		<layer id="191" name="neck.Rep_n3.block.2.rbr_reparam.weight" type="Const" version="opset1">
			<data element_type="f16" shape="64, 64, 3, 3" offset="6449408" size="73728"/>
			<output>
				<port id="0" precision="FP16" names="neck.Rep_n3.block.2.rbr_reparam.weight">
					<dim>64</dim>
					<dim>64</dim>
					<dim>3</dim>
					<dim>3</dim>
				</port>
			</output>
		</layer>
		<layer id="192" name="Conv_79/WithoutBiases" type="Convolution" version="opset1">
			<data strides="1, 1" dilations="1, 1" pads_begin="1, 1" pads_end="1, 1" auto_pad="explicit"/>
			<input>
				<port id="0" precision="FP16">
					<dim>1</dim>
					<dim>64</dim>
					<dim>26</dim>
					<dim>26</dim>
				</port>
				<port id="1" precision="FP16">
					<dim>64</dim>
					<dim>64</dim>
					<dim>3</dim>
					<dim>3</dim>
				</port>
			</input>
			<output>
				<port id="2" precision="FP16">
					<dim>1</dim>
					<dim>64</dim>
					<dim>26</dim>
					<dim>26</dim>
				</port>
			</output>
		</layer>
		<layer id="193" name="Conv_79/Dims2414" type="Const" version="opset1">
			<data element_type="f16" shape="1, 64, 1, 1" offset="6523136" size="128"/>
			<output>
				<port id="0" precision="FP16">
					<dim>1</dim>
					<dim>64</dim>
					<dim>1</dim>
					<dim>1</dim>
				</port>
			</output>
		</layer>
		<layer id="194" name="Conv_79" type="Add" version="opset1">
			<data auto_broadcast="numpy"/>
			<input>
				<port id="0" precision="FP16">
					<dim>1</dim>
					<dim>64</dim>
					<dim>26</dim>
					<dim>26</dim>
				</port>
				<port id="1" precision="FP16">
					<dim>1</dim>
					<dim>64</dim>
					<dim>1</dim>
					<dim>1</dim>
				</port>
			</input>
			<output>
				<port id="2" precision="FP16" names="231">
					<dim>1</dim>
					<dim>64</dim>
					<dim>26</dim>
					<dim>26</dim>
				</port>
			</output>
		</layer>
		<layer id="195" name="Relu_80" type="ReLU" version="opset1">
			<input>
				<port id="0" precision="FP16">
					<dim>1</dim>
					<dim>64</dim>
					<dim>26</dim>
					<dim>26</dim>
				</port>
			</input>
			<output>
				<port id="1" precision="FP16" names="232">
					<dim>1</dim>
					<dim>64</dim>
					<dim>26</dim>
					<dim>26</dim>
				</port>
			</output>
		</layer>
		<layer id="196" name="934" type="Const" version="opset1">
			<data element_type="f16" shape="64, 64, 3, 3" offset="6523264" size="73728"/>
			<output>
				<port id="0" precision="FP16" names="934">
					<dim>64</dim>
					<dim>64</dim>
					<dim>3</dim>
					<dim>3</dim>
				</port>
			</output>
		</layer>
		<layer id="197" name="Conv_81/WithoutBiases" type="Convolution" version="opset1">
			<data strides="2, 2" dilations="1, 1" pads_begin="1, 1" pads_end="1, 1" auto_pad="explicit"/>
			<input>
				<port id="0" precision="FP16">
					<dim>1</dim>
					<dim>64</dim>
					<dim>26</dim>
					<dim>26</dim>
				</port>
				<port id="1" precision="FP16">
					<dim>64</dim>
					<dim>64</dim>
					<dim>3</dim>
					<dim>3</dim>
				</port>
			</input>
			<output>
				<port id="2" precision="FP16">
					<dim>1</dim>
					<dim>64</dim>
					<dim>13</dim>
					<dim>13</dim>
				</port>
			</output>
		</layer>
		<layer id="198" name="Conv_81/Dims2516" type="Const" version="opset1">
			<data element_type="f16" shape="1, 64, 1, 1" offset="6596992" size="128"/>
			<output>
				<port id="0" precision="FP16">
					<dim>1</dim>
					<dim>64</dim>
					<dim>1</dim>
					<dim>1</dim>
				</port>
			</output>
		</layer>
		<layer id="199" name="Conv_81" type="Add" version="opset1">
			<data auto_broadcast="numpy"/>
			<input>
				<port id="0" precision="FP16">
					<dim>1</dim>
					<dim>64</dim>
					<dim>13</dim>
					<dim>13</dim>
				</port>
				<port id="1" precision="FP16">
					<dim>1</dim>
					<dim>64</dim>
					<dim>1</dim>
					<dim>1</dim>
				</port>
			</input>
			<output>
				<port id="2" precision="FP16" names="933">
					<dim>1</dim>
					<dim>64</dim>
					<dim>13</dim>
					<dim>13</dim>
				</port>
			</output>
		</layer>
		<layer id="200" name="Relu_82" type="ReLU" version="opset1">
			<input>
				<port id="0" precision="FP16">
					<dim>1</dim>
					<dim>64</dim>
					<dim>13</dim>
					<dim>13</dim>
				</port>
			</input>
			<output>
				<port id="1" precision="FP16" names="235">
					<dim>1</dim>
					<dim>64</dim>
					<dim>13</dim>
					<dim>13</dim>
				</port>
			</output>
		</layer>
		<layer id="201" name="Concat_83" type="Concat" version="opset1">
			<data axis="1"/>
			<input>
				<port id="0" precision="FP16">
					<dim>1</dim>
					<dim>64</dim>
					<dim>13</dim>
					<dim>13</dim>
				</port>
				<port id="1" precision="FP16">
					<dim>1</dim>
					<dim>64</dim>
					<dim>13</dim>
					<dim>13</dim>
				</port>
			</input>
			<output>
				<port id="2" precision="FP16" names="236">
					<dim>1</dim>
					<dim>128</dim>
					<dim>13</dim>
					<dim>13</dim>
				</port>
			</output>
		</layer>
		<layer id="202" name="neck.Rep_n4.conv1.rbr_reparam.weight" type="Const" version="opset1">
			<data element_type="f16" shape="128, 128, 3, 3" offset="6597120" size="294912"/>
			<output>
				<port id="0" precision="FP16" names="neck.Rep_n4.conv1.rbr_reparam.weight">
					<dim>128</dim>
					<dim>128</dim>
					<dim>3</dim>
					<dim>3</dim>
				</port>
			</output>
		</layer>
		<layer id="203" name="Conv_84/WithoutBiases" type="Convolution" version="opset1">
			<data strides="1, 1" dilations="1, 1" pads_begin="1, 1" pads_end="1, 1" auto_pad="explicit"/>
			<input>
				<port id="0" precision="FP16">
					<dim>1</dim>
					<dim>128</dim>
					<dim>13</dim>
					<dim>13</dim>
				</port>
				<port id="1" precision="FP16">
					<dim>128</dim>
					<dim>128</dim>
					<dim>3</dim>
					<dim>3</dim>
				</port>
			</input>
			<output>
				<port id="2" precision="FP16">
					<dim>1</dim>
					<dim>128</dim>
					<dim>13</dim>
					<dim>13</dim>
				</port>
			</output>
		</layer>
		<layer id="204" name="Conv_84/Dims2324" type="Const" version="opset1">
			<data element_type="f16" shape="1, 128, 1, 1" offset="6892032" size="256"/>
			<output>
				<port id="0" precision="FP16">
					<dim>1</dim>
					<dim>128</dim>
					<dim>1</dim>
					<dim>1</dim>
				</port>
			</output>
		</layer>
		<layer id="205" name="Conv_84" type="Add" version="opset1">
			<data auto_broadcast="numpy"/>
			<input>
				<port id="0" precision="FP16">
					<dim>1</dim>
					<dim>128</dim>
					<dim>13</dim>
					<dim>13</dim>
				</port>
				<port id="1" precision="FP16">
					<dim>1</dim>
					<dim>128</dim>
					<dim>1</dim>
					<dim>1</dim>
				</port>
			</input>
			<output>
				<port id="2" precision="FP16" names="237">
					<dim>1</dim>
					<dim>128</dim>
					<dim>13</dim>
					<dim>13</dim>
				</port>
			</output>
		</layer>
		<layer id="206" name="Relu_85" type="ReLU" version="opset1">
			<input>
				<port id="0" precision="FP16">
					<dim>1</dim>
					<dim>128</dim>
					<dim>13</dim>
					<dim>13</dim>
				</port>
			</input>
			<output>
				<port id="1" precision="FP16" names="238">
					<dim>1</dim>
					<dim>128</dim>
					<dim>13</dim>
					<dim>13</dim>
				</port>
			</output>
		</layer>
		<layer id="207" name="neck.Rep_n4.block.0.rbr_reparam.weight" type="Const" version="opset1">
			<data element_type="f16" shape="128, 128, 3, 3" offset="6892288" size="294912"/>
			<output>
				<port id="0" precision="FP16" names="neck.Rep_n4.block.0.rbr_reparam.weight">
					<dim>128</dim>
					<dim>128</dim>
					<dim>3</dim>
					<dim>3</dim>
				</port>
			</output>
		</layer>
		<layer id="208" name="Conv_86/WithoutBiases" type="Convolution" version="opset1">
			<data strides="1, 1" dilations="1, 1" pads_begin="1, 1" pads_end="1, 1" auto_pad="explicit"/>
			<input>
				<port id="0" precision="FP16">
					<dim>1</dim>
					<dim>128</dim>
					<dim>13</dim>
					<dim>13</dim>
				</port>
				<port id="1" precision="FP16">
					<dim>128</dim>
					<dim>128</dim>
					<dim>3</dim>
					<dim>3</dim>
				</port>
			</input>
			<output>
				<port id="2" precision="FP16">
					<dim>1</dim>
					<dim>128</dim>
					<dim>13</dim>
					<dim>13</dim>
				</port>
			</output>
		</layer>
		<layer id="209" name="Conv_86/Dims2636" type="Const" version="opset1">
			<data element_type="f16" shape="1, 128, 1, 1" offset="7187200" size="256"/>
			<output>
				<port id="0" precision="FP16">
					<dim>1</dim>
					<dim>128</dim>
					<dim>1</dim>
					<dim>1</dim>
				</port>
			</output>
		</layer>
		<layer id="210" name="Conv_86" type="Add" version="opset1">
			<data auto_broadcast="numpy"/>
			<input>
				<port id="0" precision="FP16">
					<dim>1</dim>
					<dim>128</dim>
					<dim>13</dim>
					<dim>13</dim>
				</port>
				<port id="1" precision="FP16">
					<dim>1</dim>
					<dim>128</dim>
					<dim>1</dim>
					<dim>1</dim>
				</port>
			</input>
			<output>
				<port id="2" precision="FP16" names="239">
					<dim>1</dim>
					<dim>128</dim>
					<dim>13</dim>
					<dim>13</dim>
				</port>
			</output>
		</layer>
		<layer id="211" name="Relu_87" type="ReLU" version="opset1">
			<input>
				<port id="0" precision="FP16">
					<dim>1</dim>
					<dim>128</dim>
					<dim>13</dim>
					<dim>13</dim>
				</port>
			</input>
			<output>
				<port id="1" precision="FP16" names="240">
					<dim>1</dim>
					<dim>128</dim>
					<dim>13</dim>
					<dim>13</dim>
				</port>
			</output>
		</layer>
		<layer id="212" name="neck.Rep_n4.block.1.rbr_reparam.weight" type="Const" version="opset1">
			<data element_type="f16" shape="128, 128, 3, 3" offset="7187456" size="294912"/>
			<output>
				<port id="0" precision="FP16" names="neck.Rep_n4.block.1.rbr_reparam.weight">
					<dim>128</dim>
					<dim>128</dim>
					<dim>3</dim>
					<dim>3</dim>
				</port>
			</output>
		</layer>
		<layer id="213" name="Conv_88/WithoutBiases" type="Convolution" version="opset1">
			<data strides="1, 1" dilations="1, 1" pads_begin="1, 1" pads_end="1, 1" auto_pad="explicit"/>
			<input>
				<port id="0" precision="FP16">
					<dim>1</dim>
					<dim>128</dim>
					<dim>13</dim>
					<dim>13</dim>
				</port>
				<port id="1" precision="FP16">
					<dim>128</dim>
					<dim>128</dim>
					<dim>3</dim>
					<dim>3</dim>
				</port>
			</input>
			<output>
				<port id="2" precision="FP16">
					<dim>1</dim>
					<dim>128</dim>
					<dim>13</dim>
					<dim>13</dim>
				</port>
			</output>
		</layer>
		<layer id="214" name="Conv_88/Dims2378" type="Const" version="opset1">
			<data element_type="f16" shape="1, 128, 1, 1" offset="7482368" size="256"/>
			<output>
				<port id="0" precision="FP16">
					<dim>1</dim>
					<dim>128</dim>
					<dim>1</dim>
					<dim>1</dim>
				</port>
			</output>
		</layer>
		<layer id="215" name="Conv_88" type="Add" version="opset1">
			<data auto_broadcast="numpy"/>
			<input>
				<port id="0" precision="FP16">
					<dim>1</dim>
					<dim>128</dim>
					<dim>13</dim>
					<dim>13</dim>
				</port>
				<port id="1" precision="FP16">
					<dim>1</dim>
					<dim>128</dim>
					<dim>1</dim>
					<dim>1</dim>
				</port>
			</input>
			<output>
				<port id="2" precision="FP16" names="241">
					<dim>1</dim>
					<dim>128</dim>
					<dim>13</dim>
					<dim>13</dim>
				</port>
			</output>
		</layer>
		<layer id="216" name="Relu_89" type="ReLU" version="opset1">
			<input>
				<port id="0" precision="FP16">
					<dim>1</dim>
					<dim>128</dim>
					<dim>13</dim>
					<dim>13</dim>
				</port>
			</input>
			<output>
				<port id="1" precision="FP16" names="242">
					<dim>1</dim>
					<dim>128</dim>
					<dim>13</dim>
					<dim>13</dim>
				</port>
			</output>
		</layer>
		<layer id="217" name="neck.Rep_n4.block.2.rbr_reparam.weight" type="Const" version="opset1">
			<data element_type="f16" shape="128, 128, 3, 3" offset="7482624" size="294912"/>
			<output>
				<port id="0" precision="FP16" names="neck.Rep_n4.block.2.rbr_reparam.weight">
					<dim>128</dim>
					<dim>128</dim>
					<dim>3</dim>
					<dim>3</dim>
				</port>
			</output>
		</layer>
		<layer id="218" name="Conv_90/WithoutBiases" type="Convolution" version="opset1">
			<data strides="1, 1" dilations="1, 1" pads_begin="1, 1" pads_end="1, 1" auto_pad="explicit"/>
			<input>
				<port id="0" precision="FP16">
					<dim>1</dim>
					<dim>128</dim>
					<dim>13</dim>
					<dim>13</dim>
				</port>
				<port id="1" precision="FP16">
					<dim>128</dim>
					<dim>128</dim>
					<dim>3</dim>
					<dim>3</dim>
				</port>
			</input>
			<output>
				<port id="2" precision="FP16">
					<dim>1</dim>
					<dim>128</dim>
					<dim>13</dim>
					<dim>13</dim>
				</port>
			</output>
		</layer>
		<layer id="219" name="Conv_90/Dims2666" type="Const" version="opset1">
			<data element_type="f16" shape="1, 128, 1, 1" offset="7777536" size="256"/>
			<output>
				<port id="0" precision="FP16">
					<dim>1</dim>
					<dim>128</dim>
					<dim>1</dim>
					<dim>1</dim>
				</port>
			</output>
		</layer>
		<layer id="220" name="Conv_90" type="Add" version="opset1">
			<data auto_broadcast="numpy"/>
			<input>
				<port id="0" precision="FP16">
					<dim>1</dim>
					<dim>128</dim>
					<dim>13</dim>
					<dim>13</dim>
				</port>
				<port id="1" precision="FP16">
					<dim>1</dim>
					<dim>128</dim>
					<dim>1</dim>
					<dim>1</dim>
				</port>
			</input>
			<output>
				<port id="2" precision="FP16" names="243">
					<dim>1</dim>
					<dim>128</dim>
					<dim>13</dim>
					<dim>13</dim>
				</port>
			</output>
		</layer>
		<layer id="221" name="Relu_91" type="ReLU" version="opset1">
			<input>
				<port id="0" precision="FP16">
					<dim>1</dim>
					<dim>128</dim>
					<dim>13</dim>
					<dim>13</dim>
				</port>
			</input>
			<output>
				<port id="1" precision="FP16" names="244">
					<dim>1</dim>
					<dim>128</dim>
					<dim>13</dim>
					<dim>13</dim>
				</port>
			</output>
		</layer>
		<layer id="222" name="detect.stems.2.conv.weight" type="Const" version="opset1">
			<data element_type="f16" shape="128, 128, 1, 1" offset="7777792" size="32768"/>
			<output>
				<port id="0" precision="FP16" names="detect.stems.2.conv.weight">
					<dim>128</dim>
					<dim>128</dim>
					<dim>1</dim>
					<dim>1</dim>
				</port>
			</output>
		</layer>
		<layer id="223" name="Conv_398/WithoutBiases" type="Convolution" version="opset1">
			<data strides="1, 1" dilations="1, 1" pads_begin="0, 0" pads_end="0, 0" auto_pad="explicit"/>
			<input>
				<port id="0" precision="FP16">
					<dim>1</dim>
					<dim>128</dim>
					<dim>13</dim>
					<dim>13</dim>
				</port>
				<port id="1" precision="FP16">
					<dim>128</dim>
					<dim>128</dim>
					<dim>1</dim>
					<dim>1</dim>
				</port>
			</input>
			<output>
				<port id="2" precision="FP16">
					<dim>1</dim>
					<dim>128</dim>
					<dim>13</dim>
					<dim>13</dim>
				</port>
			</output>
		</layer>
		<layer id="224" name="Conv_398/Dims2354" type="Const" version="opset1">
			<data element_type="f16" shape="1, 128, 1, 1" offset="7810560" size="256"/>
			<output>
				<port id="0" precision="FP16">
					<dim>1</dim>
					<dim>128</dim>
					<dim>1</dim>
					<dim>1</dim>
				</port>
			</output>
		</layer>
		<layer id="225" name="Conv_398" type="Add" version="opset1">
			<data auto_broadcast="numpy"/>
			<input>
				<port id="0" precision="FP16">
					<dim>1</dim>
					<dim>128</dim>
					<dim>13</dim>
					<dim>13</dim>
				</port>
				<port id="1" precision="FP16">
					<dim>1</dim>
					<dim>128</dim>
					<dim>1</dim>
					<dim>1</dim>
				</port>
			</input>
			<output>
				<port id="2" precision="FP16" names="693">
					<dim>1</dim>
					<dim>128</dim>
					<dim>13</dim>
					<dim>13</dim>
				</port>
			</output>
		</layer>
		<layer id="226" name="Mul_400" type="Swish" version="opset4">
			<input>
				<port id="0" precision="FP16">
					<dim>1</dim>
					<dim>128</dim>
					<dim>13</dim>
					<dim>13</dim>
				</port>
			</input>
			<output>
				<port id="1" precision="FP16" names="695">
					<dim>1</dim>
					<dim>128</dim>
					<dim>13</dim>
					<dim>13</dim>
				</port>
			</output>
		</layer>
		<layer id="227" name="detect.reg_convs.2.conv.weight" type="Const" version="opset1">
			<data element_type="f16" shape="128, 128, 3, 3" offset="7810816" size="294912"/>
			<output>
				<port id="0" precision="FP16" names="detect.reg_convs.2.conv.weight">
					<dim>128</dim>
					<dim>128</dim>
					<dim>3</dim>
					<dim>3</dim>
				</port>
			</output>
		</layer>
		<layer id="228" name="Conv_405/WithoutBiases" type="Convolution" version="opset1">
			<data strides="1, 1" dilations="1, 1" pads_begin="1, 1" pads_end="1, 1" auto_pad="explicit"/>
			<input>
				<port id="0" precision="FP16">
					<dim>1</dim>
					<dim>128</dim>
					<dim>13</dim>
					<dim>13</dim>
				</port>
				<port id="1" precision="FP16">
					<dim>128</dim>
					<dim>128</dim>
					<dim>3</dim>
					<dim>3</dim>
				</port>
			</input>
			<output>
				<port id="2" precision="FP16">
					<dim>1</dim>
					<dim>128</dim>
					<dim>13</dim>
					<dim>13</dim>
				</port>
			</output>
		</layer>
		<layer id="229" name="Conv_405/Dims2330" type="Const" version="opset1">
			<data element_type="f16" shape="1, 128, 1, 1" offset="8105728" size="256"/>
			<output>
				<port id="0" precision="FP16">
					<dim>1</dim>
					<dim>128</dim>
					<dim>1</dim>
					<dim>1</dim>
				</port>
			</output>
		</layer>
		<layer id="230" name="Conv_405" type="Add" version="opset1">
			<data auto_broadcast="numpy"/>
			<input>
				<port id="0" precision="FP16">
					<dim>1</dim>
					<dim>128</dim>
					<dim>13</dim>
					<dim>13</dim>
				</port>
				<port id="1" precision="FP16">
					<dim>1</dim>
					<dim>128</dim>
					<dim>1</dim>
					<dim>1</dim>
				</port>
			</input>
			<output>
				<port id="2" precision="FP16" names="700">
					<dim>1</dim>
					<dim>128</dim>
					<dim>13</dim>
					<dim>13</dim>
				</port>
			</output>
		</layer>
		<layer id="231" name="Mul_407" type="Swish" version="opset4">
			<input>
				<port id="0" precision="FP16">
					<dim>1</dim>
					<dim>128</dim>
					<dim>13</dim>
					<dim>13</dim>
				</port>
			</input>
			<output>
				<port id="1" precision="FP16" names="702">
					<dim>1</dim>
					<dim>128</dim>
					<dim>13</dim>
					<dim>13</dim>
				</port>
			</output>
		</layer>
		<layer id="232" name="detect.reg_preds.2.weight" type="Const" version="opset1">
			<data element_type="f16" shape="4, 128, 1, 1" offset="8105984" size="1024"/>
			<output>
				<port id="0" precision="FP16" names="detect.reg_preds.2.weight">
					<dim>4</dim>
					<dim>128</dim>
					<dim>1</dim>
					<dim>1</dim>
				</port>
			</output>
		</layer>
		<layer id="233" name="Conv_408/WithoutBiases" type="Convolution" version="opset1">
			<data strides="1, 1" dilations="1, 1" pads_begin="0, 0" pads_end="0, 0" auto_pad="explicit"/>
			<input>
				<port id="0" precision="FP16">
					<dim>1</dim>
					<dim>128</dim>
					<dim>13</dim>
					<dim>13</dim>
				</port>
				<port id="1" precision="FP16">
					<dim>4</dim>
					<dim>128</dim>
					<dim>1</dim>
					<dim>1</dim>
				</port>
			</input>
			<output>
				<port id="2" precision="FP16">
					<dim>1</dim>
					<dim>4</dim>
					<dim>13</dim>
					<dim>13</dim>
				</port>
			</output>
		</layer>
		<layer id="234" name="Conv_408/Dims2420" type="Const" version="opset1">
			<data element_type="f16" shape="1, 4, 1, 1" offset="8107008" size="8"/>
			<output>
				<port id="0" precision="FP16">
					<dim>1</dim>
					<dim>4</dim>
					<dim>1</dim>
					<dim>1</dim>
				</port>
			</output>
		</layer>
		<layer id="235" name="Conv_408" type="Add" version="opset1">
			<data auto_broadcast="numpy"/>
			<input>
				<port id="0" precision="FP16">
					<dim>1</dim>
					<dim>4</dim>
					<dim>13</dim>
					<dim>13</dim>
				</port>
				<port id="1" precision="FP16">
					<dim>1</dim>
					<dim>4</dim>
					<dim>1</dim>
					<dim>1</dim>
				</port>
			</input>
			<output>
				<port id="2" precision="FP16" names="703">
					<dim>1</dim>
					<dim>4</dim>
					<dim>13</dim>
					<dim>13</dim>
				</port>
			</output>
		</layer>
		<layer id="236" name="detect.obj_preds.2.weight" type="Const" version="opset1">
			<data element_type="f16" shape="1, 128, 1, 1" offset="8107016" size="256"/>
			<output>
				<port id="0" precision="FP16" names="detect.obj_preds.2.weight">
					<dim>1</dim>
					<dim>128</dim>
					<dim>1</dim>
					<dim>1</dim>
				</port>
			</output>
		</layer>
		<layer id="237" name="Conv_409/WithoutBiases" type="Convolution" version="opset1">
			<data strides="1, 1" dilations="1, 1" pads_begin="0, 0" pads_end="0, 0" auto_pad="explicit"/>
			<input>
				<port id="0" precision="FP16">
					<dim>1</dim>
					<dim>128</dim>
					<dim>13</dim>
					<dim>13</dim>
				</port>
				<port id="1" precision="FP16">
					<dim>1</dim>
					<dim>128</dim>
					<dim>1</dim>
					<dim>1</dim>
				</port>
			</input>
			<output>
				<port id="2" precision="FP16">
					<dim>1</dim>
					<dim>1</dim>
					<dim>13</dim>
					<dim>13</dim>
				</port>
			</output>
		</layer>
		<layer id="238" name="Conv_409/Dims2558" type="Const" version="opset1">
			<data element_type="f16" shape="1, 1, 1, 1" offset="8107272" size="2"/>
			<output>
				<port id="0" precision="FP16">
					<dim>1</dim>
					<dim>1</dim>
					<dim>1</dim>
					<dim>1</dim>
				</port>
			</output>
		</layer>
		<layer id="239" name="Conv_409" type="Add" version="opset1">
			<data auto_broadcast="numpy"/>
			<input>
				<port id="0" precision="FP16">
					<dim>1</dim>
					<dim>1</dim>
					<dim>13</dim>
					<dim>13</dim>
				</port>
				<port id="1" precision="FP16">
					<dim>1</dim>
					<dim>1</dim>
					<dim>1</dim>
					<dim>1</dim>
				</port>
			</input>
			<output>
				<port id="2" precision="FP16" names="704">
					<dim>1</dim>
					<dim>1</dim>
					<dim>13</dim>
					<dim>13</dim>
				</port>
			</output>
		</layer>
		<layer id="240" name="Sigmoid_410" type="Sigmoid" version="opset1">
			<input>
				<port id="0" precision="FP16">
					<dim>1</dim>
					<dim>1</dim>
					<dim>13</dim>
					<dim>13</dim>
				</port>
			</input>
			<output>
				<port id="1" precision="FP16" names="705">
					<dim>1</dim>
					<dim>1</dim>
					<dim>13</dim>
					<dim>13</dim>
				</port>
			</output>
		</layer>
		<layer id="241" name="detect.cls_convs.2.conv.weight" type="Const" version="opset1">
			<data element_type="f16" shape="128, 128, 3, 3" offset="8107274" size="294912"/>
			<output>
				<port id="0" precision="FP16" names="detect.cls_convs.2.conv.weight">
					<dim>128</dim>
					<dim>128</dim>
					<dim>3</dim>
					<dim>3</dim>
				</port>
			</output>
		</layer>
		<layer id="242" name="Conv_401/WithoutBiases" type="Convolution" version="opset1">
			<data strides="1, 1" dilations="1, 1" pads_begin="1, 1" pads_end="1, 1" auto_pad="explicit"/>
			<input>
				<port id="0" precision="FP16">
					<dim>1</dim>
					<dim>128</dim>
					<dim>13</dim>
					<dim>13</dim>
				</port>
				<port id="1" precision="FP16">
					<dim>128</dim>
					<dim>128</dim>
					<dim>3</dim>
					<dim>3</dim>
				</port>
			</input>
			<output>
				<port id="2" precision="FP16">
					<dim>1</dim>
					<dim>128</dim>
					<dim>13</dim>
					<dim>13</dim>
				</port>
			</output>
		</layer>
		<layer id="243" name="Conv_401/Dims2582" type="Const" version="opset1">
			<data element_type="f16" shape="1, 128, 1, 1" offset="8402186" size="256"/>
			<output>
				<port id="0" precision="FP16">
					<dim>1</dim>
					<dim>128</dim>
					<dim>1</dim>
					<dim>1</dim>
				</port>
			</output>
		</layer>
		<layer id="244" name="Conv_401" type="Add" version="opset1">
			<data auto_broadcast="numpy"/>
			<input>
				<port id="0" precision="FP16">
					<dim>1</dim>
					<dim>128</dim>
					<dim>13</dim>
					<dim>13</dim>
				</port>
				<port id="1" precision="FP16">
					<dim>1</dim>
					<dim>128</dim>
					<dim>1</dim>
					<dim>1</dim>
				</port>
			</input>
			<output>
				<port id="2" precision="FP16" names="696">
					<dim>1</dim>
					<dim>128</dim>
					<dim>13</dim>
					<dim>13</dim>
				</port>
			</output>
		</layer>
		<layer id="245" name="Mul_403" type="Swish" version="opset4">
			<input>
				<port id="0" precision="FP16">
					<dim>1</dim>
					<dim>128</dim>
					<dim>13</dim>
					<dim>13</dim>
				</port>
			</input>
			<output>
				<port id="1" precision="FP16" names="698">
					<dim>1</dim>
					<dim>128</dim>
					<dim>13</dim>
					<dim>13</dim>
				</port>
			</output>
		</layer>
		<layer id="246" name="detect.cls_preds.2.weight" type="Const" version="opset1">
			<data element_type="f16" shape="80, 128, 1, 1" offset="8402442" size="20480"/>
			<output>
				<port id="0" precision="FP16" names="detect.cls_preds.2.weight">
					<dim>80</dim>
					<dim>128</dim>
					<dim>1</dim>
					<dim>1</dim>
				</port>
			</output>
		</layer>
		<layer id="247" name="Conv_404/WithoutBiases" type="Convolution" version="opset1">
			<data strides="1, 1" dilations="1, 1" pads_begin="0, 0" pads_end="0, 0" auto_pad="explicit"/>
			<input>
				<port id="0" precision="FP16">
					<dim>1</dim>
					<dim>128</dim>
					<dim>13</dim>
					<dim>13</dim>
				</port>
				<port id="1" precision="FP16">
					<dim>80</dim>
					<dim>128</dim>
					<dim>1</dim>
					<dim>1</dim>
				</port>
			</input>
			<output>
				<port id="2" precision="FP16">
					<dim>1</dim>
					<dim>80</dim>
					<dim>13</dim>
					<dim>13</dim>
				</port>
			</output>
		</layer>
		<layer id="248" name="Conv_404/Dims2456" type="Const" version="opset1">
			<data element_type="f16" shape="1, 80, 1, 1" offset="8422922" size="160"/>
			<output>
				<port id="0" precision="FP16">
					<dim>1</dim>
					<dim>80</dim>
					<dim>1</dim>
					<dim>1</dim>
				</port>
			</output>
		</layer>
		<layer id="249" name="Conv_404" type="Add" version="opset1">
			<data auto_broadcast="numpy"/>
			<input>
				<port id="0" precision="FP16">
					<dim>1</dim>
					<dim>80</dim>
					<dim>13</dim>
					<dim>13</dim>
				</port>
				<port id="1" precision="FP16">
					<dim>1</dim>
					<dim>80</dim>
					<dim>1</dim>
					<dim>1</dim>
				</port>
			</input>
			<output>
				<port id="2" precision="FP16" names="699">
					<dim>1</dim>
					<dim>80</dim>
					<dim>13</dim>
					<dim>13</dim>
				</port>
			</output>
		</layer>
		<layer id="250" name="Sigmoid_411" type="Sigmoid" version="opset1">
			<input>
				<port id="0" precision="FP16">
					<dim>1</dim>
					<dim>80</dim>
					<dim>13</dim>
					<dim>13</dim>
				</port>
			</input>
			<output>
				<port id="1" precision="FP16" names="706">
					<dim>1</dim>
					<dim>80</dim>
					<dim>13</dim>
					<dim>13</dim>
				</port>
			</output>
		</layer>
		<layer id="251" name="output3_yolov6" type="Concat" version="opset1">
			<data axis="1"/>
			<input>
				<port id="0" precision="FP16">
					<dim>1</dim>
					<dim>4</dim>
					<dim>13</dim>
					<dim>13</dim>
				</port>
				<port id="1" precision="FP16">
					<dim>1</dim>
					<dim>1</dim>
					<dim>13</dim>
					<dim>13</dim>
				</port>
				<port id="2" precision="FP16">
					<dim>1</dim>
					<dim>80</dim>
					<dim>13</dim>
					<dim>13</dim>
				</port>
			</input>
			<output>
				<port id="3" precision="FP16" names="707">
					<dim>1</dim>
					<dim>85</dim>
					<dim>13</dim>
					<dim>13</dim>
				</port>
			</output>
		</layer>
		<layer id="252" name="707" type="Result" version="opset1">
			<input>
				<port id="0" precision="FP16">
					<dim>1</dim>
					<dim>85</dim>
					<dim>13</dim>
					<dim>13</dim>
				</port>
			</input>
		</layer>
		<layer id="253" name="detect.stems.1.conv.weight" type="Const" version="opset1">
			<data element_type="f16" shape="64, 64, 1, 1" offset="8423082" size="8192"/>
			<output>
				<port id="0" precision="FP16" names="detect.stems.1.conv.weight">
					<dim>64</dim>
					<dim>64</dim>
					<dim>1</dim>
					<dim>1</dim>
				</port>
			</output>
		</layer>
		<layer id="254" name="Conv_245/WithoutBiases" type="Convolution" version="opset1">
			<data strides="1, 1" dilations="1, 1" pads_begin="0, 0" pads_end="0, 0" auto_pad="explicit"/>
			<input>
				<port id="0" precision="FP16">
					<dim>1</dim>
					<dim>64</dim>
					<dim>26</dim>
					<dim>26</dim>
				</port>
				<port id="1" precision="FP16">
					<dim>64</dim>
					<dim>64</dim>
					<dim>1</dim>
					<dim>1</dim>
				</port>
			</input>
			<output>
				<port id="2" precision="FP16">
					<dim>1</dim>
					<dim>64</dim>
					<dim>26</dim>
					<dim>26</dim>
				</port>
			</output>
		</layer>
		<layer id="255" name="Conv_245/Dims2432" type="Const" version="opset1">
			<data element_type="f16" shape="1, 64, 1, 1" offset="8431274" size="128"/>
			<output>
				<port id="0" precision="FP16">
					<dim>1</dim>
					<dim>64</dim>
					<dim>1</dim>
					<dim>1</dim>
				</port>
			</output>
		</layer>
		<layer id="256" name="Conv_245" type="Add" version="opset1">
			<data auto_broadcast="numpy"/>
			<input>
				<port id="0" precision="FP16">
					<dim>1</dim>
					<dim>64</dim>
					<dim>26</dim>
					<dim>26</dim>
				</port>
				<port id="1" precision="FP16">
					<dim>1</dim>
					<dim>64</dim>
					<dim>1</dim>
					<dim>1</dim>
				</port>
			</input>
			<output>
				<port id="2" precision="FP16" names="469">
					<dim>1</dim>
					<dim>64</dim>
					<dim>26</dim>
					<dim>26</dim>
				</port>
			</output>
		</layer>
		<layer id="257" name="Mul_247" type="Swish" version="opset4">
			<input>
				<port id="0" precision="FP16">
					<dim>1</dim>
					<dim>64</dim>
					<dim>26</dim>
					<dim>26</dim>
				</port>
			</input>
			<output>
				<port id="1" precision="FP16" names="471">
					<dim>1</dim>
					<dim>64</dim>
					<dim>26</dim>
					<dim>26</dim>
				</port>
			</output>
		</layer>
		<layer id="258" name="detect.reg_convs.1.conv.weight" type="Const" version="opset1">
			<data element_type="f16" shape="64, 64, 3, 3" offset="8431402" size="73728"/>
			<output>
				<port id="0" precision="FP16" names="detect.reg_convs.1.conv.weight">
					<dim>64</dim>
					<dim>64</dim>
					<dim>3</dim>
					<dim>3</dim>
				</port>
			</output>
		</layer>
		<layer id="259" name="Conv_252/WithoutBiases" type="Convolution" version="opset1">
			<data strides="1, 1" dilations="1, 1" pads_begin="1, 1" pads_end="1, 1" auto_pad="explicit"/>
			<input>
				<port id="0" precision="FP16">
					<dim>1</dim>
					<dim>64</dim>
					<dim>26</dim>
					<dim>26</dim>
				</port>
				<port id="1" precision="FP16">
					<dim>64</dim>
					<dim>64</dim>
					<dim>3</dim>
					<dim>3</dim>
				</port>
			</input>
			<output>
				<port id="2" precision="FP16">
					<dim>1</dim>
					<dim>64</dim>
					<dim>26</dim>
					<dim>26</dim>
				</port>
			</output>
		</layer>
		<layer id="260" name="Conv_252/Dims2498" type="Const" version="opset1">
			<data element_type="f16" shape="1, 64, 1, 1" offset="8505130" size="128"/>
			<output>
				<port id="0" precision="FP16">
					<dim>1</dim>
					<dim>64</dim>
					<dim>1</dim>
					<dim>1</dim>
				</port>
			</output>
		</layer>
		<layer id="261" name="Conv_252" type="Add" version="opset1">
			<data auto_broadcast="numpy"/>
			<input>
				<port id="0" precision="FP16">
					<dim>1</dim>
					<dim>64</dim>
					<dim>26</dim>
					<dim>26</dim>
				</port>
				<port id="1" precision="FP16">
					<dim>1</dim>
					<dim>64</dim>
					<dim>1</dim>
					<dim>1</dim>
				</port>
			</input>
			<output>
				<port id="2" precision="FP16" names="476">
					<dim>1</dim>
					<dim>64</dim>
					<dim>26</dim>
					<dim>26</dim>
				</port>
			</output>
		</layer>
		<layer id="262" name="Mul_254" type="Swish" version="opset4">
			<input>
				<port id="0" precision="FP16">
					<dim>1</dim>
					<dim>64</dim>
					<dim>26</dim>
					<dim>26</dim>
				</port>
			</input>
			<output>
				<port id="1" precision="FP16" names="478">
					<dim>1</dim>
					<dim>64</dim>
					<dim>26</dim>
					<dim>26</dim>
				</port>
			</output>
		</layer>
		<layer id="263" name="detect.reg_preds.1.weight" type="Const" version="opset1">
			<data element_type="f16" shape="4, 64, 1, 1" offset="8505258" size="512"/>
			<output>
				<port id="0" precision="FP16" names="detect.reg_preds.1.weight">
					<dim>4</dim>
					<dim>64</dim>
					<dim>1</dim>
					<dim>1</dim>
				</port>
			</output>
		</layer>
		<layer id="264" name="Conv_255/WithoutBiases" type="Convolution" version="opset1">
			<data strides="1, 1" dilations="1, 1" pads_begin="0, 0" pads_end="0, 0" auto_pad="explicit"/>
			<input>
				<port id="0" precision="FP16">
					<dim>1</dim>
					<dim>64</dim>
					<dim>26</dim>
					<dim>26</dim>
				</port>
				<port id="1" precision="FP16">
					<dim>4</dim>
					<dim>64</dim>
					<dim>1</dim>
					<dim>1</dim>
				</port>
			</input>
			<output>
				<port id="2" precision="FP16">
					<dim>1</dim>
					<dim>4</dim>
					<dim>26</dim>
					<dim>26</dim>
				</port>
			</output>
		</layer>
		<layer id="265" name="Conv_255/Dims2408" type="Const" version="opset1">
			<data element_type="f16" shape="1, 4, 1, 1" offset="8505770" size="8"/>
			<output>
				<port id="0" precision="FP16">
					<dim>1</dim>
					<dim>4</dim>
					<dim>1</dim>
					<dim>1</dim>
				</port>
			</output>
		</layer>
		<layer id="266" name="Conv_255" type="Add" version="opset1">
			<data auto_broadcast="numpy"/>
			<input>
				<port id="0" precision="FP16">
					<dim>1</dim>
					<dim>4</dim>
					<dim>26</dim>
					<dim>26</dim>
				</port>
				<port id="1" precision="FP16">
					<dim>1</dim>
					<dim>4</dim>
					<dim>1</dim>
					<dim>1</dim>
				</port>
			</input>
			<output>
				<port id="2" precision="FP16" names="479">
					<dim>1</dim>
					<dim>4</dim>
					<dim>26</dim>
					<dim>26</dim>
				</port>
			</output>
		</layer>
		<layer id="267" name="detect.obj_preds.1.weight" type="Const" version="opset1">
			<data element_type="f16" shape="1, 64, 1, 1" offset="8505778" size="128"/>
			<output>
				<port id="0" precision="FP16" names="detect.obj_preds.1.weight">
					<dim>1</dim>
					<dim>64</dim>
					<dim>1</dim>
					<dim>1</dim>
				</port>
			</output>
		</layer>
		<layer id="268" name="Conv_256/WithoutBiases" type="Convolution" version="opset1">
			<data strides="1, 1" dilations="1, 1" pads_begin="0, 0" pads_end="0, 0" auto_pad="explicit"/>
			<input>
				<port id="0" precision="FP16">
					<dim>1</dim>
					<dim>64</dim>
					<dim>26</dim>
					<dim>26</dim>
				</port>
				<port id="1" precision="FP16">
					<dim>1</dim>
					<dim>64</dim>
					<dim>1</dim>
					<dim>1</dim>
				</port>
			</input>
			<output>
				<port id="2" precision="FP16">
					<dim>1</dim>
					<dim>1</dim>
					<dim>26</dim>
					<dim>26</dim>
				</port>
			</output>
		</layer>
		<layer id="269" name="Conv_256/Dims2606" type="Const" version="opset1">
			<data element_type="f16" shape="1, 1, 1, 1" offset="8505906" size="2"/>
			<output>
				<port id="0" precision="FP16">
					<dim>1</dim>
					<dim>1</dim>
					<dim>1</dim>
					<dim>1</dim>
				</port>
			</output>
		</layer>
		<layer id="270" name="Conv_256" type="Add" version="opset1">
			<data auto_broadcast="numpy"/>
			<input>
				<port id="0" precision="FP16">
					<dim>1</dim>
					<dim>1</dim>
					<dim>26</dim>
					<dim>26</dim>
				</port>
				<port id="1" precision="FP16">
					<dim>1</dim>
					<dim>1</dim>
					<dim>1</dim>
					<dim>1</dim>
				</port>
			</input>
			<output>
				<port id="2" precision="FP16" names="480">
					<dim>1</dim>
					<dim>1</dim>
					<dim>26</dim>
					<dim>26</dim>
				</port>
			</output>
		</layer>
		<layer id="271" name="Sigmoid_257" type="Sigmoid" version="opset1">
			<input>
				<port id="0" precision="FP16">
					<dim>1</dim>
					<dim>1</dim>
					<dim>26</dim>
					<dim>26</dim>
				</port>
			</input>
			<output>
				<port id="1" precision="FP16" names="481">
					<dim>1</dim>
					<dim>1</dim>
					<dim>26</dim>
					<dim>26</dim>
				</port>
			</output>
		</layer>
		<layer id="272" name="detect.cls_convs.1.conv.weight" type="Const" version="opset1">
			<data element_type="f16" shape="64, 64, 3, 3" offset="8505908" size="73728"/>
			<output>
				<port id="0" precision="FP16" names="detect.cls_convs.1.conv.weight">
					<dim>64</dim>
					<dim>64</dim>
					<dim>3</dim>
					<dim>3</dim>
				</port>
			</output>
		</layer>
		<layer id="273" name="Conv_248/WithoutBiases" type="Convolution" version="opset1">
			<data strides="1, 1" dilations="1, 1" pads_begin="1, 1" pads_end="1, 1" auto_pad="explicit"/>
			<input>
				<port id="0" precision="FP16">
					<dim>1</dim>
					<dim>64</dim>
					<dim>26</dim>
					<dim>26</dim>
				</port>
				<port id="1" precision="FP16">
					<dim>64</dim>
					<dim>64</dim>
					<dim>3</dim>
					<dim>3</dim>
				</port>
			</input>
			<output>
				<port id="2" precision="FP16">
					<dim>1</dim>
					<dim>64</dim>
					<dim>26</dim>
					<dim>26</dim>
				</port>
			</output>
		</layer>
		<layer id="274" name="Conv_248/Dims2546" type="Const" version="opset1">
			<data element_type="f16" shape="1, 64, 1, 1" offset="8579636" size="128"/>
			<output>
				<port id="0" precision="FP16">
					<dim>1</dim>
					<dim>64</dim>
					<dim>1</dim>
					<dim>1</dim>
				</port>
			</output>
		</layer>
		<layer id="275" name="Conv_248" type="Add" version="opset1">
			<data auto_broadcast="numpy"/>
			<input>
				<port id="0" precision="FP16">
					<dim>1</dim>
					<dim>64</dim>
					<dim>26</dim>
					<dim>26</dim>
				</port>
				<port id="1" precision="FP16">
					<dim>1</dim>
					<dim>64</dim>
					<dim>1</dim>
					<dim>1</dim>
				</port>
			</input>
			<output>
				<port id="2" precision="FP16" names="472">
					<dim>1</dim>
					<dim>64</dim>
					<dim>26</dim>
					<dim>26</dim>
				</port>
			</output>
		</layer>
		<layer id="276" name="Mul_250" type="Swish" version="opset4">
			<input>
				<port id="0" precision="FP16">
					<dim>1</dim>
					<dim>64</dim>
					<dim>26</dim>
					<dim>26</dim>
				</port>
			</input>
			<output>
				<port id="1" precision="FP16" names="474">
					<dim>1</dim>
					<dim>64</dim>
					<dim>26</dim>
					<dim>26</dim>
				</port>
			</output>
		</layer>
		<layer id="277" name="detect.cls_preds.1.weight" type="Const" version="opset1">
			<data element_type="f16" shape="80, 64, 1, 1" offset="8579764" size="10240"/>
			<output>
				<port id="0" precision="FP16" names="detect.cls_preds.1.weight">
					<dim>80</dim>
					<dim>64</dim>
					<dim>1</dim>
					<dim>1</dim>
				</port>
			</output>
		</layer>
		<layer id="278" name="Conv_251/WithoutBiases" type="Convolution" version="opset1">
			<data strides="1, 1" dilations="1, 1" pads_begin="0, 0" pads_end="0, 0" auto_pad="explicit"/>
			<input>
				<port id="0" precision="FP16">
					<dim>1</dim>
					<dim>64</dim>
					<dim>26</dim>
					<dim>26</dim>
				</port>
				<port id="1" precision="FP16">
					<dim>80</dim>
					<dim>64</dim>
					<dim>1</dim>
					<dim>1</dim>
				</port>
			</input>
			<output>
				<port id="2" precision="FP16">
					<dim>1</dim>
					<dim>80</dim>
					<dim>26</dim>
					<dim>26</dim>
				</port>
			</output>
		</layer>
		<layer id="279" name="Conv_251/Dims2468" type="Const" version="opset1">
			<data element_type="f16" shape="1, 80, 1, 1" offset="8590004" size="160"/>
			<output>
				<port id="0" precision="FP16">
					<dim>1</dim>
					<dim>80</dim>
					<dim>1</dim>
					<dim>1</dim>
				</port>
			</output>
		</layer>
		<layer id="280" name="Conv_251" type="Add" version="opset1">
			<data auto_broadcast="numpy"/>
			<input>
				<port id="0" precision="FP16">
					<dim>1</dim>
					<dim>80</dim>
					<dim>26</dim>
					<dim>26</dim>
				</port>
				<port id="1" precision="FP16">
					<dim>1</dim>
					<dim>80</dim>
					<dim>1</dim>
					<dim>1</dim>
				</port>
			</input>
			<output>
				<port id="2" precision="FP16" names="475">
					<dim>1</dim>
					<dim>80</dim>
					<dim>26</dim>
					<dim>26</dim>
				</port>
			</output>
		</layer>
		<layer id="281" name="Sigmoid_258" type="Sigmoid" version="opset1">
			<input>
				<port id="0" precision="FP16">
					<dim>1</dim>
					<dim>80</dim>
					<dim>26</dim>
					<dim>26</dim>
				</port>
			</input>
			<output>
				<port id="1" precision="FP16" names="482">
					<dim>1</dim>
					<dim>80</dim>
					<dim>26</dim>
					<dim>26</dim>
				</port>
			</output>
		</layer>
		<layer id="282" name="output2_yolov6" type="Concat" version="opset1">
			<data axis="1"/>
			<input>
				<port id="0" precision="FP16">
					<dim>1</dim>
					<dim>4</dim>
					<dim>26</dim>
					<dim>26</dim>
				</port>
				<port id="1" precision="FP16">
					<dim>1</dim>
					<dim>1</dim>
					<dim>26</dim>
					<dim>26</dim>
				</port>
				<port id="2" precision="FP16">
					<dim>1</dim>
					<dim>80</dim>
					<dim>26</dim>
					<dim>26</dim>
				</port>
			</input>
			<output>
				<port id="3" precision="FP16" names="483">
					<dim>1</dim>
					<dim>85</dim>
					<dim>26</dim>
					<dim>26</dim>
				</port>
			</output>
		</layer>
		<layer id="283" name="483" type="Result" version="opset1">
			<input>
				<port id="0" precision="FP16">
					<dim>1</dim>
					<dim>85</dim>
					<dim>26</dim>
					<dim>26</dim>
				</port>
			</input>
		</layer>
		<layer id="284" name="detect.stems.0.conv.weight" type="Const" version="opset1">
			<data element_type="f16" shape="32, 32, 1, 1" offset="8590164" size="2048"/>
			<output>
				<port id="0" precision="FP16" names="detect.stems.0.conv.weight">
					<dim>32</dim>
					<dim>32</dim>
					<dim>1</dim>
					<dim>1</dim>
				</port>
			</output>
		</layer>
		<layer id="285" name="Conv_92/WithoutBiases" type="Convolution" version="opset1">
			<data strides="1, 1" dilations="1, 1" pads_begin="0, 0" pads_end="0, 0" auto_pad="explicit"/>
			<input>
				<port id="0" precision="FP16">
					<dim>1</dim>
					<dim>32</dim>
					<dim>52</dim>
					<dim>52</dim>
				</port>
				<port id="1" precision="FP16">
					<dim>32</dim>
					<dim>32</dim>
					<dim>1</dim>
					<dim>1</dim>
				</port>
			</input>
			<output>
				<port id="2" precision="FP16">
					<dim>1</dim>
					<dim>32</dim>
					<dim>52</dim>
					<dim>52</dim>
				</port>
			</output>
		</layer>
		<layer id="286" name="Conv_92/Dims2360" type="Const" version="opset1">
			<data element_type="f16" shape="1, 32, 1, 1" offset="8592212" size="64"/>
			<output>
				<port id="0" precision="FP16">
					<dim>1</dim>
					<dim>32</dim>
					<dim>1</dim>
					<dim>1</dim>
				</port>
			</output>
		</layer>
		<layer id="287" name="Conv_92" type="Add" version="opset1">
			<data auto_broadcast="numpy"/>
			<input>
				<port id="0" precision="FP16">
					<dim>1</dim>
					<dim>32</dim>
					<dim>52</dim>
					<dim>52</dim>
				</port>
				<port id="1" precision="FP16">
					<dim>1</dim>
					<dim>32</dim>
					<dim>1</dim>
					<dim>1</dim>
				</port>
			</input>
			<output>
				<port id="2" precision="FP16" names="245">
					<dim>1</dim>
					<dim>32</dim>
					<dim>52</dim>
					<dim>52</dim>
				</port>
			</output>
		</layer>
		<layer id="288" name="Mul_94" type="Swish" version="opset4">
			<input>
				<port id="0" precision="FP16">
					<dim>1</dim>
					<dim>32</dim>
					<dim>52</dim>
					<dim>52</dim>
				</port>
			</input>
			<output>
				<port id="1" precision="FP16" names="247">
					<dim>1</dim>
					<dim>32</dim>
					<dim>52</dim>
					<dim>52</dim>
				</port>
			</output>
		</layer>
		<layer id="289" name="detect.reg_convs.0.conv.weight" type="Const" version="opset1">
			<data element_type="f16" shape="32, 32, 3, 3" offset="8592276" size="18432"/>
			<output>
				<port id="0" precision="FP16" names="detect.reg_convs.0.conv.weight">
					<dim>32</dim>
					<dim>32</dim>
					<dim>3</dim>
					<dim>3</dim>
				</port>
			</output>
		</layer>
		<layer id="290" name="Conv_99/WithoutBiases" type="Convolution" version="opset1">
			<data strides="1, 1" dilations="1, 1" pads_begin="1, 1" pads_end="1, 1" auto_pad="explicit"/>
			<input>
				<port id="0" precision="FP16">
					<dim>1</dim>
					<dim>32</dim>
					<dim>52</dim>
					<dim>52</dim>
				</port>
				<port id="1" precision="FP16">
					<dim>32</dim>
					<dim>32</dim>
					<dim>3</dim>
					<dim>3</dim>
				</port>
			</input>
			<output>
				<port id="2" precision="FP16">
					<dim>1</dim>
					<dim>32</dim>
					<dim>52</dim>
					<dim>52</dim>
				</port>
			</output>
		</layer>
		<layer id="291" name="Conv_99/Dims2570" type="Const" version="opset1">
			<data element_type="f16" shape="1, 32, 1, 1" offset="8610708" size="64"/>
			<output>
				<port id="0" precision="FP16">
					<dim>1</dim>
					<dim>32</dim>
					<dim>1</dim>
					<dim>1</dim>
				</port>
			</output>
		</layer>
		<layer id="292" name="Conv_99" type="Add" version="opset1">
			<data auto_broadcast="numpy"/>
			<input>
				<port id="0" precision="FP16">
					<dim>1</dim>
					<dim>32</dim>
					<dim>52</dim>
					<dim>52</dim>
				</port>
				<port id="1" precision="FP16">
					<dim>1</dim>
					<dim>32</dim>
					<dim>1</dim>
					<dim>1</dim>
				</port>
			</input>
			<output>
				<port id="2" precision="FP16" names="252">
					<dim>1</dim>
					<dim>32</dim>
					<dim>52</dim>
					<dim>52</dim>
				</port>
			</output>
		</layer>
		<layer id="293" name="Mul_101" type="Swish" version="opset4">
			<input>
				<port id="0" precision="FP16">
					<dim>1</dim>
					<dim>32</dim>
					<dim>52</dim>
					<dim>52</dim>
				</port>
			</input>
			<output>
				<port id="1" precision="FP16" names="254">
					<dim>1</dim>
					<dim>32</dim>
					<dim>52</dim>
					<dim>52</dim>
				</port>
			</output>
		</layer>
		<layer id="294" name="detect.reg_preds.0.weight" type="Const" version="opset1">
			<data element_type="f16" shape="4, 32, 1, 1" offset="8610772" size="256"/>
			<output>
				<port id="0" precision="FP16" names="detect.reg_preds.0.weight">
					<dim>4</dim>
					<dim>32</dim>
					<dim>1</dim>
					<dim>1</dim>
				</port>
			</output>
		</layer>
		<layer id="295" name="Conv_102/WithoutBiases" type="Convolution" version="opset1">
			<data strides="1, 1" dilations="1, 1" pads_begin="0, 0" pads_end="0, 0" auto_pad="explicit"/>
			<input>
				<port id="0" precision="FP16">
					<dim>1</dim>
					<dim>32</dim>
					<dim>52</dim>
					<dim>52</dim>
				</port>
				<port id="1" precision="FP16">
					<dim>4</dim>
					<dim>32</dim>
					<dim>1</dim>
					<dim>1</dim>
				</port>
			</input>
			<output>
				<port id="2" precision="FP16">
					<dim>1</dim>
					<dim>4</dim>
					<dim>52</dim>
					<dim>52</dim>
				</port>
			</output>
		</layer>
		<layer id="296" name="Conv_102/Dims2318" type="Const" version="opset1">
			<data element_type="f16" shape="1, 4, 1, 1" offset="8611028" size="8"/>
			<output>
				<port id="0" precision="FP16">
					<dim>1</dim>
					<dim>4</dim>
					<dim>1</dim>
					<dim>1</dim>
				</port>
			</output>
		</layer>
		<layer id="297" name="Conv_102" type="Add" version="opset1">
			<data auto_broadcast="numpy"/>
			<input>
				<port id="0" precision="FP16">
					<dim>1</dim>
					<dim>4</dim>
					<dim>52</dim>
					<dim>52</dim>
				</port>
				<port id="1" precision="FP16">
					<dim>1</dim>
					<dim>4</dim>
					<dim>1</dim>
					<dim>1</dim>
				</port>
			</input>
			<output>
				<port id="2" precision="FP16" names="255">
					<dim>1</dim>
					<dim>4</dim>
					<dim>52</dim>
					<dim>52</dim>
				</port>
			</output>
		</layer>
		<layer id="298" name="detect.obj_preds.0.weight" type="Const" version="opset1">
			<data element_type="f16" shape="1, 32, 1, 1" offset="8611036" size="64"/>
			<output>
				<port id="0" precision="FP16" names="detect.obj_preds.0.weight">
					<dim>1</dim>
					<dim>32</dim>
					<dim>1</dim>
					<dim>1</dim>
				</port>
			</output>
		</layer>
		<layer id="299" name="Conv_103/WithoutBiases" type="Convolution" version="opset1">
			<data strides="1, 1" dilations="1, 1" pads_begin="0, 0" pads_end="0, 0" auto_pad="explicit"/>
			<input>
				<port id="0" precision="FP16">
					<dim>1</dim>
					<dim>32</dim>
					<dim>52</dim>
					<dim>52</dim>
				</port>
				<port id="1" precision="FP16">
					<dim>1</dim>
					<dim>32</dim>
					<dim>1</dim>
					<dim>1</dim>
				</port>
			</input>
			<output>
				<port id="2" precision="FP16">
					<dim>1</dim>
					<dim>1</dim>
					<dim>52</dim>
					<dim>52</dim>
				</port>
			</output>
		</layer>
		<layer id="300" name="Conv_103/Dims2336" type="Const" version="opset1">
			<data element_type="f16" shape="1, 1, 1, 1" offset="8611100" size="2"/>
			<output>
				<port id="0" precision="FP16">
					<dim>1</dim>
					<dim>1</dim>
					<dim>1</dim>
					<dim>1</dim>
				</port>
			</output>
		</layer>
		<layer id="301" name="Conv_103" type="Add" version="opset1">
			<data auto_broadcast="numpy"/>
			<input>
				<port id="0" precision="FP16">
					<dim>1</dim>
					<dim>1</dim>
					<dim>52</dim>
					<dim>52</dim>
				</port>
				<port id="1" precision="FP16">
					<dim>1</dim>
					<dim>1</dim>
					<dim>1</dim>
					<dim>1</dim>
				</port>
			</input>
			<output>
				<port id="2" precision="FP16" names="256">
					<dim>1</dim>
					<dim>1</dim>
					<dim>52</dim>
					<dim>52</dim>
				</port>
			</output>
		</layer>
		<layer id="302" name="Sigmoid_104" type="Sigmoid" version="opset1">
			<input>
				<port id="0" precision="FP16">
					<dim>1</dim>
					<dim>1</dim>
					<dim>52</dim>
					<dim>52</dim>
				</port>
			</input>
			<output>
				<port id="1" precision="FP16" names="257">
					<dim>1</dim>
					<dim>1</dim>
					<dim>52</dim>
					<dim>52</dim>
				</port>
			</output>
		</layer>
		<layer id="303" name="detect.cls_convs.0.conv.weight" type="Const" version="opset1">
			<data element_type="f16" shape="32, 32, 3, 3" offset="8611102" size="18432"/>
			<output>
				<port id="0" precision="FP16" names="detect.cls_convs.0.conv.weight">
					<dim>32</dim>
					<dim>32</dim>
					<dim>3</dim>
					<dim>3</dim>
				</port>
			</output>
		</layer>
		<layer id="304" name="Conv_95/WithoutBiases" type="Convolution" version="opset1">
			<data strides="1, 1" dilations="1, 1" pads_begin="1, 1" pads_end="1, 1" auto_pad="explicit"/>
			<input>
				<port id="0" precision="FP16">
					<dim>1</dim>
					<dim>32</dim>
					<dim>52</dim>
					<dim>52</dim>
				</port>
				<port id="1" precision="FP16">
					<dim>32</dim>
					<dim>32</dim>
					<dim>3</dim>
					<dim>3</dim>
				</port>
			</input>
			<output>
				<port id="2" precision="FP16">
					<dim>1</dim>
					<dim>32</dim>
					<dim>52</dim>
					<dim>52</dim>
				</port>
			</output>
		</layer>
		<layer id="305" name="Conv_95/Dims2510" type="Const" version="opset1">
			<data element_type="f16" shape="1, 32, 1, 1" offset="8629534" size="64"/>
			<output>
				<port id="0" precision="FP16">
					<dim>1</dim>
					<dim>32</dim>
					<dim>1</dim>
					<dim>1</dim>
				</port>
			</output>
		</layer>
		<layer id="306" name="Conv_95" type="Add" version="opset1">
			<data auto_broadcast="numpy"/>
			<input>
				<port id="0" precision="FP16">
					<dim>1</dim>
					<dim>32</dim>
					<dim>52</dim>
					<dim>52</dim>
				</port>
				<port id="1" precision="FP16">
					<dim>1</dim>
					<dim>32</dim>
					<dim>1</dim>
					<dim>1</dim>
				</port>
			</input>
			<output>
				<port id="2" precision="FP16" names="248">
					<dim>1</dim>
					<dim>32</dim>
					<dim>52</dim>
					<dim>52</dim>
				</port>
			</output>
		</layer>
		<layer id="307" name="Mul_97" type="Swish" version="opset4">
			<input>
				<port id="0" precision="FP16">
					<dim>1</dim>
					<dim>32</dim>
					<dim>52</dim>
					<dim>52</dim>
				</port>
			</input>
			<output>
				<port id="1" precision="FP16" names="250">
					<dim>1</dim>
					<dim>32</dim>
					<dim>52</dim>
					<dim>52</dim>
				</port>
			</output>
		</layer>
		<layer id="308" name="detect.cls_preds.0.weight" type="Const" version="opset1">
			<data element_type="f16" shape="80, 32, 1, 1" offset="8629598" size="5120"/>
			<output>
				<port id="0" precision="FP16" names="detect.cls_preds.0.weight">
					<dim>80</dim>
					<dim>32</dim>
					<dim>1</dim>
					<dim>1</dim>
				</port>
			</output>
		</layer>
		<layer id="309" name="Conv_98/WithoutBiases" type="Convolution" version="opset1">
			<data strides="1, 1" dilations="1, 1" pads_begin="0, 0" pads_end="0, 0" auto_pad="explicit"/>
			<input>
				<port id="0" precision="FP16">
					<dim>1</dim>
					<dim>32</dim>
					<dim>52</dim>
					<dim>52</dim>
				</port>
				<port id="1" precision="FP16">
					<dim>80</dim>
					<dim>32</dim>
					<dim>1</dim>
					<dim>1</dim>
				</port>
			</input>
			<output>
				<port id="2" precision="FP16">
					<dim>1</dim>
					<dim>80</dim>
					<dim>52</dim>
					<dim>52</dim>
				</port>
			</output>
		</layer>
		<layer id="310" name="Conv_98/Dims2576" type="Const" version="opset1">
			<data element_type="f16" shape="1, 80, 1, 1" offset="8634718" size="160"/>
			<output>
				<port id="0" precision="FP16">
					<dim>1</dim>
					<dim>80</dim>
					<dim>1</dim>
					<dim>1</dim>
				</port>
			</output>
		</layer>
		<layer id="311" name="Conv_98" type="Add" version="opset1">
			<data auto_broadcast="numpy"/>
			<input>
				<port id="0" precision="FP16">
					<dim>1</dim>
					<dim>80</dim>
					<dim>52</dim>
					<dim>52</dim>
				</port>
				<port id="1" precision="FP16">
					<dim>1</dim>
					<dim>80</dim>
					<dim>1</dim>
					<dim>1</dim>
				</port>
			</input>
			<output>
				<port id="2" precision="FP16" names="251">
					<dim>1</dim>
					<dim>80</dim>
					<dim>52</dim>
					<dim>52</dim>
				</port>
			</output>
		</layer>
		<layer id="312" name="Sigmoid_105" type="Sigmoid" version="opset1">
			<input>
				<port id="0" precision="FP16">
					<dim>1</dim>
					<dim>80</dim>
					<dim>52</dim>
					<dim>52</dim>
				</port>
			</input>
			<output>
				<port id="1" precision="FP16" names="258">
					<dim>1</dim>
					<dim>80</dim>
					<dim>52</dim>
					<dim>52</dim>
				</port>
			</output>
		</layer>
		<layer id="313" name="output1_yolov6" type="Concat" version="opset1">
			<data axis="1"/>
			<input>
				<port id="0" precision="FP16">
					<dim>1</dim>
					<dim>4</dim>
					<dim>52</dim>
					<dim>52</dim>
				</port>
				<port id="1" precision="FP16">
					<dim>1</dim>
					<dim>1</dim>
					<dim>52</dim>
					<dim>52</dim>
				</port>
				<port id="2" precision="FP16">
					<dim>1</dim>
					<dim>80</dim>
					<dim>52</dim>
					<dim>52</dim>
				</port>
			</input>
			<output>
				<port id="3" precision="FP16" names="259">
					<dim>1</dim>
					<dim>85</dim>
					<dim>52</dim>
					<dim>52</dim>
				</port>
			</output>
		</layer>
		<layer id="314" name="259" type="Result" version="opset1">
			<input>
				<port id="0" precision="FP16">
					<dim>1</dim>
					<dim>85</dim>
					<dim>52</dim>
					<dim>52</dim>
				</port>
			</input>
		</layer>
	</layers>
	<edges>
		<edge from-layer="0" from-port="0" to-layer="2" to-port="0"/>
		<edge from-layer="1" from-port="0" to-layer="2" to-port="1"/>
		<edge from-layer="2" from-port="2" to-layer="4" to-port="0"/>
		<edge from-layer="3" from-port="0" to-layer="4" to-port="1"/>
		<edge from-layer="4" from-port="2" to-layer="5" to-port="0"/>
		<edge from-layer="5" from-port="1" to-layer="7" to-port="0"/>
		<edge from-layer="6" from-port="0" to-layer="7" to-port="1"/>
		<edge from-layer="7" from-port="2" to-layer="9" to-port="0"/>
		<edge from-layer="8" from-port="0" to-layer="9" to-port="1"/>
		<edge from-layer="9" from-port="2" to-layer="10" to-port="0"/>
		<edge from-layer="10" from-port="1" to-layer="12" to-port="0"/>
		<edge from-layer="11" from-port="0" to-layer="12" to-port="1"/>
		<edge from-layer="12" from-port="2" to-layer="14" to-port="0"/>
		<edge from-layer="13" from-port="0" to-layer="14" to-port="1"/>
		<edge from-layer="14" from-port="2" to-layer="15" to-port="0"/>
		<edge from-layer="15" from-port="1" to-layer="17" to-port="0"/>
		<edge from-layer="16" from-port="0" to-layer="17" to-port="1"/>
		<edge from-layer="17" from-port="2" to-layer="19" to-port="0"/>
		<edge from-layer="18" from-port="0" to-layer="19" to-port="1"/>
		<edge from-layer="19" from-port="2" to-layer="20" to-port="0"/>
		<edge from-layer="20" from-port="1" to-layer="22" to-port="0"/>
		<edge from-layer="21" from-port="0" to-layer="22" to-port="1"/>
		<edge from-layer="22" from-port="2" to-layer="24" to-port="0"/>
		<edge from-layer="23" from-port="0" to-layer="24" to-port="1"/>
		<edge from-layer="24" from-port="2" to-layer="25" to-port="0"/>
		<edge from-layer="25" from-port="1" to-layer="27" to-port="0"/>
		<edge from-layer="26" from-port="0" to-layer="27" to-port="1"/>
		<edge from-layer="27" from-port="2" to-layer="29" to-port="0"/>
		<edge from-layer="28" from-port="0" to-layer="29" to-port="1"/>
		<edge from-layer="29" from-port="2" to-layer="30" to-port="0"/>
		<edge from-layer="30" from-port="1" to-layer="32" to-port="0"/>
		<edge from-layer="31" from-port="0" to-layer="32" to-port="1"/>
		<edge from-layer="32" from-port="2" to-layer="34" to-port="0"/>
		<edge from-layer="33" from-port="0" to-layer="34" to-port="1"/>
		<edge from-layer="34" from-port="2" to-layer="35" to-port="0"/>
		<edge from-layer="35" from-port="1" to-layer="37" to-port="0"/>
		<edge from-layer="36" from-port="0" to-layer="37" to-port="1"/>
		<edge from-layer="37" from-port="2" to-layer="39" to-port="0"/>
		<edge from-layer="38" from-port="0" to-layer="39" to-port="1"/>
		<edge from-layer="39" from-port="2" to-layer="40" to-port="0"/>
		<edge from-layer="40" from-port="1" to-layer="42" to-port="0"/>
		<edge from-layer="41" from-port="0" to-layer="42" to-port="1"/>
		<edge from-layer="42" from-port="2" to-layer="44" to-port="0"/>
		<edge from-layer="43" from-port="0" to-layer="44" to-port="1"/>
		<edge from-layer="44" from-port="2" to-layer="45" to-port="0"/>
		<edge from-layer="45" from-port="1" to-layer="47" to-port="0"/>
		<edge from-layer="45" from-port="1" to-layer="149" to-port="1"/>
		<edge from-layer="46" from-port="0" to-layer="47" to-port="1"/>
		<edge from-layer="47" from-port="2" to-layer="49" to-port="0"/>
		<edge from-layer="48" from-port="0" to-layer="49" to-port="1"/>
		<edge from-layer="49" from-port="2" to-layer="50" to-port="0"/>
		<edge from-layer="50" from-port="1" to-layer="52" to-port="0"/>
		<edge from-layer="51" from-port="0" to-layer="52" to-port="1"/>
		<edge from-layer="52" from-port="2" to-layer="54" to-port="0"/>
		<edge from-layer="53" from-port="0" to-layer="54" to-port="1"/>
		<edge from-layer="54" from-port="2" to-layer="55" to-port="0"/>
		<edge from-layer="55" from-port="1" to-layer="57" to-port="0"/>
		<edge from-layer="56" from-port="0" to-layer="57" to-port="1"/>
		<edge from-layer="57" from-port="2" to-layer="59" to-port="0"/>
		<edge from-layer="58" from-port="0" to-layer="59" to-port="1"/>
		<edge from-layer="59" from-port="2" to-layer="60" to-port="0"/>
		<edge from-layer="60" from-port="1" to-layer="62" to-port="0"/>
		<edge from-layer="61" from-port="0" to-layer="62" to-port="1"/>
		<edge from-layer="62" from-port="2" to-layer="64" to-port="0"/>
		<edge from-layer="63" from-port="0" to-layer="64" to-port="1"/>
		<edge from-layer="64" from-port="2" to-layer="65" to-port="0"/>
		<edge from-layer="65" from-port="1" to-layer="67" to-port="0"/>
		<edge from-layer="66" from-port="0" to-layer="67" to-port="1"/>
		<edge from-layer="67" from-port="2" to-layer="69" to-port="0"/>
		<edge from-layer="68" from-port="0" to-layer="69" to-port="1"/>
		<edge from-layer="69" from-port="2" to-layer="70" to-port="0"/>
		<edge from-layer="70" from-port="1" to-layer="72" to-port="0"/>
		<edge from-layer="71" from-port="0" to-layer="72" to-port="1"/>
		<edge from-layer="72" from-port="2" to-layer="74" to-port="0"/>
		<edge from-layer="73" from-port="0" to-layer="74" to-port="1"/>
		<edge from-layer="74" from-port="2" to-layer="75" to-port="0"/>
		<edge from-layer="75" from-port="1" to-layer="77" to-port="0"/>
		<edge from-layer="76" from-port="0" to-layer="77" to-port="1"/>
		<edge from-layer="77" from-port="2" to-layer="79" to-port="0"/>
		<edge from-layer="78" from-port="0" to-layer="79" to-port="1"/>
		<edge from-layer="79" from-port="2" to-layer="80" to-port="0"/>
		<edge from-layer="80" from-port="1" to-layer="82" to-port="0"/>
		<edge from-layer="80" from-port="1" to-layer="119" to-port="1"/>
		<edge from-layer="81" from-port="0" to-layer="82" to-port="1"/>
		<edge from-layer="82" from-port="2" to-layer="84" to-port="0"/>
		<edge from-layer="83" from-port="0" to-layer="84" to-port="1"/>
		<edge from-layer="84" from-port="2" to-layer="85" to-port="0"/>
		<edge from-layer="85" from-port="1" to-layer="87" to-port="0"/>
		<edge from-layer="86" from-port="0" to-layer="87" to-port="1"/>
		<edge from-layer="87" from-port="2" to-layer="89" to-port="0"/>
		<edge from-layer="88" from-port="0" to-layer="89" to-port="1"/>
		<edge from-layer="89" from-port="2" to-layer="90" to-port="0"/>
		<edge from-layer="90" from-port="1" to-layer="92" to-port="0"/>
		<edge from-layer="91" from-port="0" to-layer="92" to-port="1"/>
		<edge from-layer="92" from-port="2" to-layer="94" to-port="0"/>
		<edge from-layer="93" from-port="0" to-layer="94" to-port="1"/>
		<edge from-layer="94" from-port="2" to-layer="95" to-port="0"/>
		<edge from-layer="95" from-port="1" to-layer="97" to-port="0"/>
		<edge from-layer="96" from-port="0" to-layer="97" to-port="1"/>
		<edge from-layer="97" from-port="2" to-layer="99" to-port="0"/>
		<edge from-layer="98" from-port="0" to-layer="99" to-port="1"/>
		<edge from-layer="99" from-port="2" to-layer="100" to-port="0"/>
		<edge from-layer="100" from-port="1" to-layer="104" to-port="0"/>
		<edge from-layer="100" from-port="1" to-layer="101" to-port="0"/>
		<edge from-layer="101" from-port="1" to-layer="104" to-port="1"/>
		<edge from-layer="101" from-port="1" to-layer="102" to-port="0"/>
		<edge from-layer="102" from-port="1" to-layer="103" to-port="0"/>
		<edge from-layer="102" from-port="1" to-layer="104" to-port="2"/>
		<edge from-layer="103" from-port="1" to-layer="104" to-port="3"/>
		<edge from-layer="104" from-port="4" to-layer="106" to-port="0"/>
		<edge from-layer="105" from-port="0" to-layer="106" to-port="1"/>
		<edge from-layer="106" from-port="2" to-layer="108" to-port="0"/>
		<edge from-layer="107" from-port="0" to-layer="108" to-port="1"/>
		<edge from-layer="108" from-port="2" to-layer="109" to-port="0"/>
		<edge from-layer="109" from-port="1" to-layer="111" to-port="0"/>
		<edge from-layer="110" from-port="0" to-layer="111" to-port="1"/>
		<edge from-layer="111" from-port="2" to-layer="113" to-port="0"/>
		<edge from-layer="112" from-port="0" to-layer="113" to-port="1"/>
		<edge from-layer="113" from-port="2" to-layer="114" to-port="0"/>
		<edge from-layer="114" from-port="1" to-layer="116" to-port="0"/>
		<edge from-layer="114" from-port="1" to-layer="201" to-port="1"/>
		<edge from-layer="115" from-port="0" to-layer="116" to-port="1"/>
		<edge from-layer="116" from-port="2" to-layer="118" to-port="0"/>
		<edge from-layer="117" from-port="0" to-layer="118" to-port="1"/>
		<edge from-layer="118" from-port="2" to-layer="119" to-port="0"/>
		<edge from-layer="119" from-port="2" to-layer="121" to-port="0"/>
		<edge from-layer="120" from-port="0" to-layer="121" to-port="1"/>
		<edge from-layer="121" from-port="2" to-layer="123" to-port="0"/>
		<edge from-layer="122" from-port="0" to-layer="123" to-port="1"/>
		<edge from-layer="123" from-port="2" to-layer="124" to-port="0"/>
		<edge from-layer="124" from-port="1" to-layer="126" to-port="0"/>
		<edge from-layer="125" from-port="0" to-layer="126" to-port="1"/>
		<edge from-layer="126" from-port="2" to-layer="128" to-port="0"/>
		<edge from-layer="127" from-port="0" to-layer="128" to-port="1"/>
		<edge from-layer="128" from-port="2" to-layer="129" to-port="0"/>
		<edge from-layer="129" from-port="1" to-layer="131" to-port="0"/>
		<edge from-layer="130" from-port="0" to-layer="131" to-port="1"/>
		<edge from-layer="131" from-port="2" to-layer="133" to-port="0"/>
		<edge from-layer="132" from-port="0" to-layer="133" to-port="1"/>
		<edge from-layer="133" from-port="2" to-layer="134" to-port="0"/>
		<edge from-layer="134" from-port="1" to-layer="136" to-port="0"/>
		<edge from-layer="135" from-port="0" to-layer="136" to-port="1"/>
		<edge from-layer="136" from-port="2" to-layer="138" to-port="0"/>
		<edge from-layer="137" from-port="0" to-layer="138" to-port="1"/>
		<edge from-layer="138" from-port="2" to-layer="139" to-port="0"/>
		<edge from-layer="139" from-port="1" to-layer="141" to-port="0"/>
		<edge from-layer="140" from-port="0" to-layer="141" to-port="1"/>
		<edge from-layer="141" from-port="2" to-layer="143" to-port="0"/>
		<edge from-layer="142" from-port="0" to-layer="143" to-port="1"/>
		<edge from-layer="143" from-port="2" to-layer="144" to-port="0"/>
		<edge from-layer="144" from-port="1" to-layer="146" to-port="0"/>
		<edge from-layer="144" from-port="1" to-layer="175" to-port="1"/>
		<edge from-layer="145" from-port="0" to-layer="146" to-port="1"/>
		<edge from-layer="146" from-port="2" to-layer="148" to-port="0"/>
		<edge from-layer="147" from-port="0" to-layer="148" to-port="1"/>
		<edge from-layer="148" from-port="2" to-layer="149" to-port="0"/>
		<edge from-layer="149" from-port="2" to-layer="151" to-port="0"/>
		<edge from-layer="150" from-port="0" to-layer="151" to-port="1"/>
		<edge from-layer="151" from-port="2" to-layer="153" to-port="0"/>
		<edge from-layer="152" from-port="0" to-layer="153" to-port="1"/>
		<edge from-layer="153" from-port="2" to-layer="154" to-port="0"/>
		<edge from-layer="154" from-port="1" to-layer="156" to-port="0"/>
		<edge from-layer="155" from-port="0" to-layer="156" to-port="1"/>
		<edge from-layer="156" from-port="2" to-layer="158" to-port="0"/>
		<edge from-layer="157" from-port="0" to-layer="158" to-port="1"/>
		<edge from-layer="158" from-port="2" to-layer="159" to-port="0"/>
		<edge from-layer="159" from-port="1" to-layer="161" to-port="0"/>
		<edge from-layer="160" from-port="0" to-layer="161" to-port="1"/>
		<edge from-layer="161" from-port="2" to-layer="163" to-port="0"/>
		<edge from-layer="162" from-port="0" to-layer="163" to-port="1"/>
		<edge from-layer="163" from-port="2" to-layer="164" to-port="0"/>
		<edge from-layer="164" from-port="1" to-layer="166" to-port="0"/>
		<edge from-layer="165" from-port="0" to-layer="166" to-port="1"/>
		<edge from-layer="166" from-port="2" to-layer="168" to-port="0"/>
		<edge from-layer="167" from-port="0" to-layer="168" to-port="1"/>
		<edge from-layer="168" from-port="2" to-layer="169" to-port="0"/>
		<edge from-layer="169" from-port="1" to-layer="171" to-port="0"/>
		<edge from-layer="169" from-port="1" to-layer="285" to-port="0"/>
		<edge from-layer="170" from-port="0" to-layer="171" to-port="1"/>
		<edge from-layer="171" from-port="2" to-layer="173" to-port="0"/>
		<edge from-layer="172" from-port="0" to-layer="173" to-port="1"/>
		<edge from-layer="173" from-port="2" to-layer="174" to-port="0"/>
		<edge from-layer="174" from-port="1" to-layer="175" to-port="0"/>
		<edge from-layer="175" from-port="2" to-layer="177" to-port="0"/>
		<edge from-layer="176" from-port="0" to-layer="177" to-port="1"/>
		<edge from-layer="177" from-port="2" to-layer="179" to-port="0"/>
		<edge from-layer="178" from-port="0" to-layer="179" to-port="1"/>
		<edge from-layer="179" from-port="2" to-layer="180" to-port="0"/>
		<edge from-layer="180" from-port="1" to-layer="182" to-port="0"/>
		<edge from-layer="181" from-port="0" to-layer="182" to-port="1"/>
		<edge from-layer="182" from-port="2" to-layer="184" to-port="0"/>
		<edge from-layer="183" from-port="0" to-layer="184" to-port="1"/>
		<edge from-layer="184" from-port="2" to-layer="185" to-port="0"/>
		<edge from-layer="185" from-port="1" to-layer="187" to-port="0"/>
		<edge from-layer="186" from-port="0" to-layer="187" to-port="1"/>
		<edge from-layer="187" from-port="2" to-layer="189" to-port="0"/>
		<edge from-layer="188" from-port="0" to-layer="189" to-port="1"/>
		<edge from-layer="189" from-port="2" to-layer="190" to-port="0"/>
		<edge from-layer="190" from-port="1" to-layer="192" to-port="0"/>
		<edge from-layer="191" from-port="0" to-layer="192" to-port="1"/>
		<edge from-layer="192" from-port="2" to-layer="194" to-port="0"/>
		<edge from-layer="193" from-port="0" to-layer="194" to-port="1"/>
		<edge from-layer="194" from-port="2" to-layer="195" to-port="0"/>
		<edge from-layer="195" from-port="1" to-layer="197" to-port="0"/>
		<edge from-layer="195" from-port="1" to-layer="254" to-port="0"/>
		<edge from-layer="196" from-port="0" to-layer="197" to-port="1"/>
		<edge from-layer="197" from-port="2" to-layer="199" to-port="0"/>
		<edge from-layer="198" from-port="0" to-layer="199" to-port="1"/>
		<edge from-layer="199" from-port="2" to-layer="200" to-port="0"/>
		<edge from-layer="200" from-port="1" to-layer="201" to-port="0"/>
		<edge from-layer="201" from-port="2" to-layer="203" to-port="0"/>
		<edge from-layer="202" from-port="0" to-layer="203" to-port="1"/>
		<edge from-layer="203" from-port="2" to-layer="205" to-port="0"/>
		<edge from-layer="204" from-port="0" to-layer="205" to-port="1"/>
		<edge from-layer="205" from-port="2" to-layer="206" to-port="0"/>
		<edge from-layer="206" from-port="1" to-layer="208" to-port="0"/>
		<edge from-layer="207" from-port="0" to-layer="208" to-port="1"/>
		<edge from-layer="208" from-port="2" to-layer="210" to-port="0"/>
		<edge from-layer="209" from-port="0" to-layer="210" to-port="1"/>
		<edge from-layer="210" from-port="2" to-layer="211" to-port="0"/>
		<edge from-layer="211" from-port="1" to-layer="213" to-port="0"/>
		<edge from-layer="212" from-port="0" to-layer="213" to-port="1"/>
		<edge from-layer="213" from-port="2" to-layer="215" to-port="0"/>
		<edge from-layer="214" from-port="0" to-layer="215" to-port="1"/>
		<edge from-layer="215" from-port="2" to-layer="216" to-port="0"/>
		<edge from-layer="216" from-port="1" to-layer="218" to-port="0"/>
		<edge from-layer="217" from-port="0" to-layer="218" to-port="1"/>
		<edge from-layer="218" from-port="2" to-layer="220" to-port="0"/>
		<edge from-layer="219" from-port="0" to-layer="220" to-port="1"/>
		<edge from-layer="220" from-port="2" to-layer="221" to-port="0"/>
		<edge from-layer="221" from-port="1" to-layer="223" to-port="0"/>
		<edge from-layer="222" from-port="0" to-layer="223" to-port="1"/>
		<edge from-layer="223" from-port="2" to-layer="225" to-port="0"/>
		<edge from-layer="224" from-port="0" to-layer="225" to-port="1"/>
		<edge from-layer="225" from-port="2" to-layer="226" to-port="0"/>
		<edge from-layer="226" from-port="1" to-layer="242" to-port="0"/>
		<edge from-layer="226" from-port="1" to-layer="228" to-port="0"/>
		<edge from-layer="227" from-port="0" to-layer="228" to-port="1"/>
		<edge from-layer="228" from-port="2" to-layer="230" to-port="0"/>
		<edge from-layer="229" from-port="0" to-layer="230" to-port="1"/>
		<edge from-layer="230" from-port="2" to-layer="231" to-port="0"/>
		<edge from-layer="231" from-port="1" to-layer="237" to-port="0"/>
		<edge from-layer="231" from-port="1" to-layer="233" to-port="0"/>
		<edge from-layer="232" from-port="0" to-layer="233" to-port="1"/>
		<edge from-layer="233" from-port="2" to-layer="235" to-port="0"/>
		<edge from-layer="234" from-port="0" to-layer="235" to-port="1"/>
		<edge from-layer="235" from-port="2" to-layer="251" to-port="0"/>
		<edge from-layer="236" from-port="0" to-layer="237" to-port="1"/>
		<edge from-layer="237" from-port="2" to-layer="239" to-port="0"/>
		<edge from-layer="238" from-port="0" to-layer="239" to-port="1"/>
		<edge from-layer="239" from-port="2" to-layer="240" to-port="0"/>
		<edge from-layer="240" from-port="1" to-layer="251" to-port="1"/>
		<edge from-layer="241" from-port="0" to-layer="242" to-port="1"/>
		<edge from-layer="242" from-port="2" to-layer="244" to-port="0"/>
		<edge from-layer="243" from-port="0" to-layer="244" to-port="1"/>
		<edge from-layer="244" from-port="2" to-layer="245" to-port="0"/>
		<edge from-layer="245" from-port="1" to-layer="247" to-port="0"/>
		<edge from-layer="246" from-port="0" to-layer="247" to-port="1"/>
		<edge from-layer="247" from-port="2" to-layer="249" to-port="0"/>
		<edge from-layer="248" from-port="0" to-layer="249" to-port="1"/>
		<edge from-layer="249" from-port="2" to-layer="250" to-port="0"/>
		<edge from-layer="250" from-port="1" to-layer="251" to-port="2"/>
		<edge from-layer="251" from-port="3" to-layer="252" to-port="0"/>
		<edge from-layer="253" from-port="0" to-layer="254" to-port="1"/>
		<edge from-layer="254" from-port="2" to-layer="256" to-port="0"/>
		<edge from-layer="255" from-port="0" to-layer="256" to-port="1"/>
		<edge from-layer="256" from-port="2" to-layer="257" to-port="0"/>
		<edge from-layer="257" from-port="1" to-layer="259" to-port="0"/>
		<edge from-layer="257" from-port="1" to-layer="273" to-port="0"/>
		<edge from-layer="258" from-port="0" to-layer="259" to-port="1"/>
		<edge from-layer="259" from-port="2" to-layer="261" to-port="0"/>
		<edge from-layer="260" from-port="0" to-layer="261" to-port="1"/>
		<edge from-layer="261" from-port="2" to-layer="262" to-port="0"/>
		<edge from-layer="262" from-port="1" to-layer="268" to-port="0"/>
		<edge from-layer="262" from-port="1" to-layer="264" to-port="0"/>
		<edge from-layer="263" from-port="0" to-layer="264" to-port="1"/>
		<edge from-layer="264" from-port="2" to-layer="266" to-port="0"/>
		<edge from-layer="265" from-port="0" to-layer="266" to-port="1"/>
		<edge from-layer="266" from-port="2" to-layer="282" to-port="0"/>
		<edge from-layer="267" from-port="0" to-layer="268" to-port="1"/>
		<edge from-layer="268" from-port="2" to-layer="270" to-port="0"/>
		<edge from-layer="269" from-port="0" to-layer="270" to-port="1"/>
		<edge from-layer="270" from-port="2" to-layer="271" to-port="0"/>
		<edge from-layer="271" from-port="1" to-layer="282" to-port="1"/>
		<edge from-layer="272" from-port="0" to-layer="273" to-port="1"/>
		<edge from-layer="273" from-port="2" to-layer="275" to-port="0"/>
		<edge from-layer="274" from-port="0" to-layer="275" to-port="1"/>
		<edge from-layer="275" from-port="2" to-layer="276" to-port="0"/>
		<edge from-layer="276" from-port="1" to-layer="278" to-port="0"/>
		<edge from-layer="277" from-port="0" to-layer="278" to-port="1"/>
		<edge from-layer="278" from-port="2" to-layer="280" to-port="0"/>
		<edge from-layer="279" from-port="0" to-layer="280" to-port="1"/>
		<edge from-layer="280" from-port="2" to-layer="281" to-port="0"/>
		<edge from-layer="281" from-port="1" to-layer="282" to-port="2"/>
		<edge from-layer="282" from-port="3" to-layer="283" to-port="0"/>
		<edge from-layer="284" from-port="0" to-layer="285" to-port="1"/>
		<edge from-layer="285" from-port="2" to-layer="287" to-port="0"/>
		<edge from-layer="286" from-port="0" to-layer="287" to-port="1"/>
		<edge from-layer="287" from-port="2" to-layer="288" to-port="0"/>
		<edge from-layer="288" from-port="1" to-layer="304" to-port="0"/>
		<edge from-layer="288" from-port="1" to-layer="290" to-port="0"/>
		<edge from-layer="289" from-port="0" to-layer="290" to-port="1"/>
		<edge from-layer="290" from-port="2" to-layer="292" to-port="0"/>
		<edge from-layer="291" from-port="0" to-layer="292" to-port="1"/>
		<edge from-layer="292" from-port="2" to-layer="293" to-port="0"/>
		<edge from-layer="293" from-port="1" to-layer="295" to-port="0"/>
		<edge from-layer="293" from-port="1" to-layer="299" to-port="0"/>
		<edge from-layer="294" from-port="0" to-layer="295" to-port="1"/>
		<edge from-layer="295" from-port="2" to-layer="297" to-port="0"/>
		<edge from-layer="296" from-port="0" to-layer="297" to-port="1"/>
		<edge from-layer="297" from-port="2" to-layer="313" to-port="0"/>
		<edge from-layer="298" from-port="0" to-layer="299" to-port="1"/>
		<edge from-layer="299" from-port="2" to-layer="301" to-port="0"/>
		<edge from-layer="300" from-port="0" to-layer="301" to-port="1"/>
		<edge from-layer="301" from-port="2" to-layer="302" to-port="0"/>
		<edge from-layer="302" from-port="1" to-layer="313" to-port="1"/>
		<edge from-layer="303" from-port="0" to-layer="304" to-port="1"/>
		<edge from-layer="304" from-port="2" to-layer="306" to-port="0"/>
		<edge from-layer="305" from-port="0" to-layer="306" to-port="1"/>
		<edge from-layer="306" from-port="2" to-layer="307" to-port="0"/>
		<edge from-layer="307" from-port="1" to-layer="309" to-port="0"/>
		<edge from-layer="308" from-port="0" to-layer="309" to-port="1"/>
		<edge from-layer="309" from-port="2" to-layer="311" to-port="0"/>
		<edge from-layer="310" from-port="0" to-layer="311" to-port="1"/>
		<edge from-layer="311" from-port="2" to-layer="312" to-port="0"/>
		<edge from-layer="312" from-port="1" to-layer="313" to-port="2"/>
		<edge from-layer="313" from-port="3" to-layer="314" to-port="0"/>
	</edges>
	<meta_data>
		<MO_version value="2021.4.2-3976-0943ed67223-refs/pull/539/head"/>
		<cli_parameters>
			<caffe_parser_path value="DIR"/>
			<data_type value="FP16"/>
			<disable_nhwc_to_nchw value="False"/>
			<disable_omitting_optional value="False"/>
			<disable_resnet_optimization value="False"/>
			<disable_weights_compression value="False"/>
			<enable_concat_optimization value="False"/>
			<enable_flattening_nested_params value="False"/>
			<enable_ssd_gluoncv value="False"/>
			<extensions value="DIR"/>
			<framework value="onnx"/>
			<freeze_placeholder_with_value value="{}"/>
			<generate_deprecated_IR_V7 value="False"/>
			<input_model value="DIR/yolov6n-simplified.onnx"/>
			<input_model_is_text value="False"/>
			<k value="DIR/CustomLayersMapping.xml"/>
			<keep_shape_ops value="True"/>
			<legacy_ir_generation value="False"/>
			<legacy_mxnet_model value="False"/>
			<log_level value="ERROR"/>
			<mean_scale_values value="{}"/>
			<mean_values value="()"/>
			<model_name value="yolov6n"/>
			<output value="['output1_yolov6', 'output2_yolov6', 'output3_yolov6']"/>
			<output_dir value="DIR"/>
			<placeholder_data_types value="{}"/>
			<progress value="False"/>
			<remove_memory value="False"/>
			<remove_output_softmax value="False"/>
			<reverse_input_channels value="True"/>
			<save_params_from_nd value="False"/>
			<scale value="255.0"/>
			<scale_values value="()"/>
			<silent value="False"/>
			<static_shape value="False"/>
			<stream_output value="False"/>
			<transform value=""/>
			<unset unset_cli_parameters="batch, counts, disable_fusing, disable_gfusing, finegrain_fusing, input, input_checkpoint, input_meta_graph, input_proto, input_shape, input_symbol, mean_file, mean_file_offsets, move_to_preprocess, nd_prefix_name, placeholder_shapes, pretrained_model_name, saved_model_dir, saved_model_tags, tensorboard_logdir, tensorflow_custom_layer_libraries, tensorflow_custom_operations_config_update, tensorflow_object_detection_api_pipeline_config, tensorflow_use_custom_operations_config, transformations_config"/>
		</cli_parameters>
	</meta_data>
</net>
