<?xml version="1.0" ?>
<net name="palm_detection_192x192" version="11">
	<layers>
		<layer id="429" name="input_1" type="Parameter" version="opset1">
			<data shape="1,3,192,192" element_type="f32"/>
			<rt_info>
				<attribute name="fused_names" version="0" value="input_1, input_1/Transpose([0 3 1 2])"/>
				<attribute name="old_api_map_element_type" version="0" value="f16"/>
				<attribute name="old_api_map_order" version="0" value="0,2,3,1"/>
			</rt_info>
			<output>
				<port id="0" precision="FP32" names="input_1:0">
					<dim>1</dim>
					<dim>3</dim>
					<dim>192</dim>
					<dim>192</dim>
					<rt_info>
						<attribute name="layout" version="0" layout="[N,C,H,W]"/>
					</rt_info>
				</port>
			</output>
		</layer>
		<layer id="0" name="2470247423600" type="Const" version="opset1">
			<data offset="0" size="4" shape="" element_type="f32"/>
			<output>
				<port id="0" precision="FP32"/>
			</output>
		</layer>
		<layer id="1" name="2471247523519" type="Const" version="opset1">
			<data offset="4" size="4" shape="" element_type="f32"/>
			<output>
				<port id="0" precision="FP32"/>
			</output>
		</layer>
		<layer id="2" name="2472247623603" type="Const" version="opset1">
			<data offset="0" size="4" shape="" element_type="f32"/>
			<output>
				<port id="0" precision="FP32"/>
			</output>
		</layer>
		<layer id="3" name="2473247724734" type="Const" version="opset1">
			<data offset="4" size="4" shape="" element_type="f32"/>
			<output>
				<port id="0" precision="FP32"/>
			</output>
		</layer>
		<layer id="4" name="3280328424227" type="Const" version="opset1">
			<data offset="8" size="4" shape="" element_type="f32"/>
			<output>
				<port id="0" precision="FP32"/>
			</output>
		</layer>
		<layer id="5" name="3281328522031" type="Const" version="opset1">
			<data offset="4" size="4" shape="" element_type="f32"/>
			<output>
				<port id="0" precision="FP32"/>
			</output>
		</layer>
		<layer id="6" name="3282328623333" type="Const" version="opset1">
			<data offset="8" size="4" shape="" element_type="f32"/>
			<output>
				<port id="0" precision="FP32"/>
			</output>
		</layer>
		<layer id="7" name="3283328724101" type="Const" version="opset1">
			<data offset="4" size="4" shape="" element_type="f32"/>
			<output>
				<port id="0" precision="FP32"/>
			</output>
		</layer>
		<layer id="8" name="4130413423087" type="Const" version="opset1">
			<data offset="12" size="4" shape="" element_type="f32"/>
			<output>
				<port id="0" precision="FP32"/>
			</output>
		</layer>
		<layer id="9" name="4131413523015" type="Const" version="opset1">
			<data offset="16" size="4" shape="" element_type="f32"/>
			<output>
				<port id="0" precision="FP32"/>
			</output>
		</layer>
		<layer id="10" name="4132413624725" type="Const" version="opset1">
			<data offset="12" size="4" shape="" element_type="f32"/>
			<output>
				<port id="0" precision="FP32"/>
			</output>
		</layer>
		<layer id="11" name="4133413722517" type="Const" version="opset1">
			<data offset="16" size="4" shape="" element_type="f32"/>
			<output>
				<port id="0" precision="FP32"/>
			</output>
		</layer>
		<layer id="12" name="3760376423726" type="Const" version="opset1">
			<data offset="20" size="4" shape="" element_type="f32"/>
			<output>
				<port id="0" precision="FP32"/>
			</output>
		</layer>
		<layer id="13" name="3761376523330" type="Const" version="opset1">
			<data offset="24" size="4" shape="" element_type="f32"/>
			<output>
				<port id="0" precision="FP32"/>
			</output>
		</layer>
		<layer id="14" name="3762376622559" type="Const" version="opset1">
			<data offset="20" size="4" shape="" element_type="f32"/>
			<output>
				<port id="0" precision="FP32"/>
			</output>
		</layer>
		<layer id="15" name="3763376722298" type="Const" version="opset1">
			<data offset="24" size="4" shape="" element_type="f32"/>
			<output>
				<port id="0" precision="FP32"/>
			</output>
		</layer>
		<layer id="16" name="1583158521965" type="Const" version="opset1">
			<data offset="28" size="512" shape="1,128,1,1" element_type="f32"/>
			<output>
				<port id="0" precision="FP32">
					<dim>1</dim>
					<dim>128</dim>
					<dim>1</dim>
					<dim>1</dim>
				</port>
			</output>
		</layer>
		<layer id="17" name="3110311424206" type="Const" version="opset1">
			<data offset="540" size="4" shape="" element_type="f32"/>
			<output>
				<port id="0" precision="FP32"/>
			</output>
		</layer>
		<layer id="18" name="3111311521905" type="Const" version="opset1">
			<data offset="544" size="4" shape="" element_type="f32"/>
			<output>
				<port id="0" precision="FP32"/>
			</output>
		</layer>
		<layer id="19" name="3112311623729" type="Const" version="opset1">
			<data offset="540" size="4" shape="" element_type="f32"/>
			<output>
				<port id="0" precision="FP32"/>
			</output>
		</layer>
		<layer id="20" name="3113311721533" type="Const" version="opset1">
			<data offset="544" size="4" shape="" element_type="f32"/>
			<output>
				<port id="0" precision="FP32"/>
			</output>
		</layer>
		<layer id="21" name="4870487423798" type="Const" version="opset1">
			<data offset="8" size="4" shape="" element_type="f32"/>
			<output>
				<port id="0" precision="FP32"/>
			</output>
		</layer>
		<layer id="22" name="4871487523927" type="Const" version="opset1">
			<data offset="544" size="4" shape="" element_type="f32"/>
			<output>
				<port id="0" precision="FP32"/>
			</output>
		</layer>
		<layer id="23" name="4872487622394" type="Const" version="opset1">
			<data offset="8" size="4" shape="" element_type="f32"/>
			<output>
				<port id="0" precision="FP32"/>
			</output>
		</layer>
		<layer id="24" name="4873487721644" type="Const" version="opset1">
			<data offset="544" size="4" shape="" element_type="f32"/>
			<output>
				<port id="0" precision="FP32"/>
			</output>
		</layer>
		<layer id="25" name="2760276421788" type="Const" version="opset1">
			<data offset="548" size="4" shape="" element_type="f32"/>
			<output>
				<port id="0" precision="FP32"/>
			</output>
		</layer>
		<layer id="26" name="2761276523573" type="Const" version="opset1">
			<data offset="552" size="4" shape="" element_type="f32"/>
			<output>
				<port id="0" precision="FP32"/>
			</output>
		</layer>
		<layer id="27" name="2762276624815" type="Const" version="opset1">
			<data offset="548" size="4" shape="" element_type="f32"/>
			<output>
				<port id="0" precision="FP32"/>
			</output>
		</layer>
		<layer id="28" name="2763276724917" type="Const" version="opset1">
			<data offset="552" size="4" shape="" element_type="f32"/>
			<output>
				<port id="0" precision="FP32"/>
			</output>
		</layer>
		<layer id="29" name="4530453423513" type="Const" version="opset1">
			<data offset="556" size="4" shape="" element_type="f32"/>
			<output>
				<port id="0" precision="FP32"/>
			</output>
		</layer>
		<layer id="30" name="4531453521656" type="Const" version="opset1">
			<data offset="560" size="4" shape="" element_type="f32"/>
			<output>
				<port id="0" precision="FP32"/>
			</output>
		</layer>
		<layer id="31" name="4532453622355" type="Const" version="opset1">
			<data offset="556" size="4" shape="" element_type="f32"/>
			<output>
				<port id="0" precision="FP32"/>
			</output>
		</layer>
		<layer id="32" name="4533453721536" type="Const" version="opset1">
			<data offset="560" size="4" shape="" element_type="f32"/>
			<output>
				<port id="0" precision="FP32"/>
			</output>
		</layer>
		<layer id="33" name="1579158123648" type="Const" version="opset1">
			<data offset="564" size="512" shape="1,128,1,1" element_type="f32"/>
			<output>
				<port id="0" precision="FP32">
					<dim>1</dim>
					<dim>128</dim>
					<dim>1</dim>
					<dim>1</dim>
				</port>
			</output>
		</layer>
		<layer id="34" name="5070507422112" type="Const" version="opset1">
			<data offset="1076" size="4" shape="" element_type="f32"/>
			<output>
				<port id="0" precision="FP32"/>
			</output>
		</layer>
		<layer id="35" name="5071507523147" type="Const" version="opset1">
			<data offset="1080" size="4" shape="" element_type="f32"/>
			<output>
				<port id="0" precision="FP32"/>
			</output>
		</layer>
		<layer id="36" name="5072507621740" type="Const" version="opset1">
			<data offset="1076" size="4" shape="" element_type="f32"/>
			<output>
				<port id="0" precision="FP32"/>
			</output>
		</layer>
		<layer id="37" name="5073507721722" type="Const" version="opset1">
			<data offset="1080" size="4" shape="" element_type="f32"/>
			<output>
				<port id="0" precision="FP32"/>
			</output>
		</layer>
		<layer id="38" name="2000200423936" type="Const" version="opset1">
			<data offset="1084" size="4" shape="" element_type="f32"/>
			<output>
				<port id="0" precision="FP32"/>
			</output>
		</layer>
		<layer id="39" name="2001200524380" type="Const" version="opset1">
			<data offset="1088" size="4" shape="" element_type="f32"/>
			<output>
				<port id="0" precision="FP32"/>
			</output>
		</layer>
		<layer id="40" name="2002200624059" type="Const" version="opset1">
			<data offset="1084" size="4" shape="" element_type="f32"/>
			<output>
				<port id="0" precision="FP32"/>
			</output>
		</layer>
		<layer id="41" name="2003200722367" type="Const" version="opset1">
			<data offset="1088" size="4" shape="" element_type="f32"/>
			<output>
				<port id="0" precision="FP32"/>
			</output>
		</layer>
		<layer id="42" name="2490249422814" type="Const" version="opset1">
			<data offset="8" size="4" shape="" element_type="f32"/>
			<output>
				<port id="0" precision="FP32"/>
			</output>
		</layer>
		<layer id="43" name="2491249523609" type="Const" version="opset1">
			<data offset="1092" size="4" shape="" element_type="f32"/>
			<output>
				<port id="0" precision="FP32"/>
			</output>
		</layer>
		<layer id="44" name="2492249624419" type="Const" version="opset1">
			<data offset="8" size="4" shape="" element_type="f32"/>
			<output>
				<port id="0" precision="FP32"/>
			</output>
		</layer>
		<layer id="45" name="2493249722094" type="Const" version="opset1">
			<data offset="1092" size="4" shape="" element_type="f32"/>
			<output>
				<port id="0" precision="FP32"/>
			</output>
		</layer>
		<layer id="46" name="4610461422541" type="Const" version="opset1">
			<data offset="1096" size="4" shape="" element_type="f32"/>
			<output>
				<port id="0" precision="FP32"/>
			</output>
		</layer>
		<layer id="47" name="4611461523627" type="Const" version="opset1">
			<data offset="1100" size="4" shape="" element_type="f32"/>
			<output>
				<port id="0" precision="FP32"/>
			</output>
		</layer>
		<layer id="48" name="4612461622907" type="Const" version="opset1">
			<data offset="1096" size="4" shape="" element_type="f32"/>
			<output>
				<port id="0" precision="FP32"/>
			</output>
		</layer>
		<layer id="49" name="4613461721962" type="Const" version="opset1">
			<data offset="1100" size="4" shape="" element_type="f32"/>
			<output>
				<port id="0" precision="FP32"/>
			</output>
		</layer>
		<layer id="50" name="626104223660" type="Const" version="opset1">
			<data offset="1104" size="8" shape="2" element_type="f32"/>
			<rt_info>
				<attribute name="fused_names" version="0" value="626"/>
			</rt_info>
			<output>
				<port id="0" precision="FP32">
					<dim>2</dim>
				</port>
			</output>
		</layer>
		<layer id="51" name="4850485424083" type="Const" version="opset1">
			<data offset="8" size="4" shape="" element_type="f32"/>
			<output>
				<port id="0" precision="FP32"/>
			</output>
		</layer>
		<layer id="52" name="4851485524413" type="Const" version="opset1">
			<data offset="1112" size="4" shape="" element_type="f32"/>
			<output>
				<port id="0" precision="FP32"/>
			</output>
		</layer>
		<layer id="53" name="4852485621983" type="Const" version="opset1">
			<data offset="8" size="4" shape="" element_type="f32"/>
			<output>
				<port id="0" precision="FP32"/>
			</output>
		</layer>
		<layer id="54" name="4853485721563" type="Const" version="opset1">
			<data offset="1112" size="4" shape="" element_type="f32"/>
			<output>
				<port id="0" precision="FP32"/>
			</output>
		</layer>
		<layer id="55" name="3450345424575" type="Const" version="opset1">
			<data offset="1116" size="4" shape="" element_type="f32"/>
			<output>
				<port id="0" precision="FP32"/>
			</output>
		</layer>
		<layer id="56" name="3451345523414" type="Const" version="opset1">
			<data offset="1120" size="4" shape="" element_type="f32"/>
			<output>
				<port id="0" precision="FP32"/>
			</output>
		</layer>
		<layer id="57" name="3452345622445" type="Const" version="opset1">
			<data offset="1116" size="4" shape="" element_type="f32"/>
			<output>
				<port id="0" precision="FP32"/>
			</output>
		</layer>
		<layer id="58" name="3453345724443" type="Const" version="opset1">
			<data offset="1120" size="4" shape="" element_type="f32"/>
			<output>
				<port id="0" precision="FP32"/>
			</output>
		</layer>
		<layer id="59" name="4810481423471" type="Const" version="opset1">
			<data offset="1124" size="4" shape="" element_type="f32"/>
			<output>
				<port id="0" precision="FP32"/>
			</output>
		</layer>
		<layer id="60" name="4811481522589" type="Const" version="opset1">
			<data offset="1128" size="4" shape="" element_type="f32"/>
			<output>
				<port id="0" precision="FP32"/>
			</output>
		</layer>
		<layer id="61" name="4812481622214" type="Const" version="opset1">
			<data offset="1124" size="4" shape="" element_type="f32"/>
			<output>
				<port id="0" precision="FP32"/>
			</output>
		</layer>
		<layer id="62" name="4813481723705" type="Const" version="opset1">
			<data offset="1128" size="4" shape="" element_type="f32"/>
			<output>
				<port id="0" precision="FP32"/>
			</output>
		</layer>
		<layer id="63" name="1575157723534" type="Const" version="opset1">
			<data offset="1132" size="1024" shape="1,256,1,1" element_type="f32"/>
			<output>
				<port id="0" precision="FP32">
					<dim>1</dim>
					<dim>256</dim>
					<dim>1</dim>
					<dim>1</dim>
				</port>
			</output>
		</layer>
		<layer id="64" name="3780378424728" type="Const" version="opset1">
			<data offset="2156" size="4" shape="" element_type="f32"/>
			<output>
				<port id="0" precision="FP32"/>
			</output>
		</layer>
		<layer id="65" name="3781378523255" type="Const" version="opset1">
			<data offset="2160" size="4" shape="" element_type="f32"/>
			<output>
				<port id="0" precision="FP32"/>
			</output>
		</layer>
		<layer id="66" name="3782378623987" type="Const" version="opset1">
			<data offset="2156" size="4" shape="" element_type="f32"/>
			<output>
				<port id="0" precision="FP32"/>
			</output>
		</layer>
		<layer id="67" name="3783378722970" type="Const" version="opset1">
			<data offset="2160" size="4" shape="" element_type="f32"/>
			<output>
				<port id="0" precision="FP32"/>
			</output>
		</layer>
		<layer id="68" name="4300430422319" type="Const" version="opset1">
			<data offset="8" size="4" shape="" element_type="f32"/>
			<output>
				<port id="0" precision="FP32"/>
			</output>
		</layer>
		<layer id="69" name="4301430521803" type="Const" version="opset1">
			<data offset="2160" size="4" shape="" element_type="f32"/>
			<output>
				<port id="0" precision="FP32"/>
			</output>
		</layer>
		<layer id="70" name="4302430622583" type="Const" version="opset1">
			<data offset="8" size="4" shape="" element_type="f32"/>
			<output>
				<port id="0" precision="FP32"/>
			</output>
		</layer>
		<layer id="71" name="4303430723360" type="Const" version="opset1">
			<data offset="2160" size="4" shape="" element_type="f32"/>
			<output>
				<port id="0" precision="FP32"/>
			</output>
		</layer>
		<layer id="72" name="4210421424140" type="Const" version="opset1">
			<data offset="2164" size="4" shape="" element_type="f32"/>
			<output>
				<port id="0" precision="FP32"/>
			</output>
		</layer>
		<layer id="73" name="4211421523624" type="Const" version="opset1">
			<data offset="2168" size="4" shape="" element_type="f32"/>
			<output>
				<port id="0" precision="FP32"/>
			</output>
		</layer>
		<layer id="74" name="4212421623654" type="Const" version="opset1">
			<data offset="2164" size="4" shape="" element_type="f32"/>
			<output>
				<port id="0" precision="FP32"/>
			</output>
		</layer>
		<layer id="75" name="4213421724809" type="Const" version="opset1">
			<data offset="2168" size="4" shape="" element_type="f32"/>
			<output>
				<port id="0" precision="FP32"/>
			</output>
		</layer>
		<layer id="76" name="5010501421944" type="Const" version="opset1">
			<data offset="2172" size="4" shape="" element_type="f32"/>
			<output>
				<port id="0" precision="FP32"/>
			</output>
		</layer>
		<layer id="77" name="5011501524224" type="Const" version="opset1">
			<data offset="2176" size="4" shape="" element_type="f32"/>
			<output>
				<port id="0" precision="FP32"/>
			</output>
		</layer>
		<layer id="78" name="5012501621926" type="Const" version="opset1">
			<data offset="2172" size="4" shape="" element_type="f32"/>
			<output>
				<port id="0" precision="FP32"/>
			</output>
		</layer>
		<layer id="79" name="5013501723456" type="Const" version="opset1">
			<data offset="2176" size="4" shape="" element_type="f32"/>
			<output>
				<port id="0" precision="FP32"/>
			</output>
		</layer>
		<layer id="80" name="1571157322262" type="Const" version="opset1">
			<data offset="2180" size="1024" shape="1,256,1,1" element_type="f32"/>
			<output>
				<port id="0" precision="FP32">
					<dim>1</dim>
					<dim>256</dim>
					<dim>1</dim>
					<dim>1</dim>
				</port>
			</output>
		</layer>
		<layer id="81" name="4040404422349" type="Const" version="opset1">
			<data offset="3204" size="4" shape="" element_type="f32"/>
			<output>
				<port id="0" precision="FP32"/>
			</output>
		</layer>
		<layer id="82" name="4041404522433" type="Const" version="opset1">
			<data offset="3208" size="4" shape="" element_type="f32"/>
			<output>
				<port id="0" precision="FP32"/>
			</output>
		</layer>
		<layer id="83" name="4042404623096" type="Const" version="opset1">
			<data offset="3204" size="4" shape="" element_type="f32"/>
			<output>
				<port id="0" precision="FP32"/>
			</output>
		</layer>
		<layer id="84" name="4043404724071" type="Const" version="opset1">
			<data offset="3208" size="4" shape="" element_type="f32"/>
			<output>
				<port id="0" precision="FP32"/>
			</output>
		</layer>
		<layer id="85" name="4230423422763" type="Const" version="opset1">
			<data offset="3212" size="4" shape="" element_type="f32"/>
			<output>
				<port id="0" precision="FP32"/>
			</output>
		</layer>
		<layer id="86" name="4231423523555" type="Const" version="opset1">
			<data offset="3216" size="4" shape="" element_type="f32"/>
			<output>
				<port id="0" precision="FP32"/>
			</output>
		</layer>
		<layer id="87" name="4232423621641" type="Const" version="opset1">
			<data offset="3212" size="4" shape="" element_type="f32"/>
			<output>
				<port id="0" precision="FP32"/>
			</output>
		</layer>
		<layer id="88" name="4233423723213" type="Const" version="opset1">
			<data offset="3216" size="4" shape="" element_type="f32"/>
			<output>
				<port id="0" precision="FP32"/>
			</output>
		</layer>
		<layer id="89" name="2390239423507" type="Const" version="opset1">
			<data offset="8" size="4" shape="" element_type="f32"/>
			<output>
				<port id="0" precision="FP32"/>
			</output>
		</layer>
		<layer id="90" name="2391239523453" type="Const" version="opset1">
			<data offset="3220" size="4" shape="" element_type="f32"/>
			<output>
				<port id="0" precision="FP32"/>
			</output>
		</layer>
		<layer id="91" name="2392239624428" type="Const" version="opset1">
			<data offset="8" size="4" shape="" element_type="f32"/>
			<output>
				<port id="0" precision="FP32"/>
			</output>
		</layer>
		<layer id="92" name="2393239721959" type="Const" version="opset1">
			<data offset="3220" size="4" shape="" element_type="f32"/>
			<output>
				<port id="0" precision="FP32"/>
			</output>
		</layer>
		<layer id="93" name="2870287423399" type="Const" version="opset1">
			<data offset="3224" size="4" shape="" element_type="f32"/>
			<output>
				<port id="0" precision="FP32"/>
			</output>
		</layer>
		<layer id="94" name="2871287524200" type="Const" version="opset1">
			<data offset="3228" size="4" shape="" element_type="f32"/>
			<output>
				<port id="0" precision="FP32"/>
			</output>
		</layer>
		<layer id="95" name="2872287622151" type="Const" version="opset1">
			<data offset="3224" size="4" shape="" element_type="f32"/>
			<output>
				<port id="0" precision="FP32"/>
			</output>
		</layer>
		<layer id="96" name="2873287722160" type="Const" version="opset1">
			<data offset="3228" size="4" shape="" element_type="f32"/>
			<output>
				<port id="0" precision="FP32"/>
			</output>
		</layer>
		<layer id="97" name="61697423711" type="Const" version="opset1">
			<data offset="3232" size="8" shape="2" element_type="f32"/>
			<rt_info>
				<attribute name="fused_names" version="0" value="616"/>
			</rt_info>
			<output>
				<port id="0" precision="FP32">
					<dim>2</dim>
				</port>
			</output>
		</layer>
		<layer id="98" name="4140414421989" type="Const" version="opset1">
			<data offset="8" size="4" shape="" element_type="f32"/>
			<output>
				<port id="0" precision="FP32"/>
			</output>
		</layer>
		<layer id="99" name="4141414524107" type="Const" version="opset1">
			<data offset="3240" size="4" shape="" element_type="f32"/>
			<output>
				<port id="0" precision="FP32"/>
			</output>
		</layer>
		<layer id="100" name="4142414624590" type="Const" version="opset1">
			<data offset="8" size="4" shape="" element_type="f32"/>
			<output>
				<port id="0" precision="FP32"/>
			</output>
		</layer>
		<layer id="101" name="4143414721668" type="Const" version="opset1">
			<data offset="3240" size="4" shape="" element_type="f32"/>
			<output>
				<port id="0" precision="FP32"/>
			</output>
		</layer>
		<layer id="102" name="4290429424065" type="Const" version="opset1">
			<data offset="3244" size="4" shape="" element_type="f32"/>
			<output>
				<port id="0" precision="FP32"/>
			</output>
		</layer>
		<layer id="103" name="4291429524701" type="Const" version="opset1">
			<data offset="3248" size="4" shape="" element_type="f32"/>
			<output>
				<port id="0" precision="FP32"/>
			</output>
		</layer>
		<layer id="104" name="4292429622007" type="Const" version="opset1">
			<data offset="3244" size="4" shape="" element_type="f32"/>
			<output>
				<port id="0" precision="FP32"/>
			</output>
		</layer>
		<layer id="105" name="4293429724911" type="Const" version="opset1">
			<data offset="3248" size="4" shape="" element_type="f32"/>
			<output>
				<port id="0" precision="FP32"/>
			</output>
		</layer>
		<layer id="106" name="4670467422130" type="Const" version="opset1">
			<data offset="3252" size="4" shape="" element_type="f32"/>
			<output>
				<port id="0" precision="FP32"/>
			</output>
		</layer>
		<layer id="107" name="4671467522139" type="Const" version="opset1">
			<data offset="3256" size="4" shape="" element_type="f32"/>
			<output>
				<port id="0" precision="FP32"/>
			</output>
		</layer>
		<layer id="108" name="4672467624323" type="Const" version="opset1">
			<data offset="3252" size="4" shape="" element_type="f32"/>
			<output>
				<port id="0" precision="FP32"/>
			</output>
		</layer>
		<layer id="109" name="4673467721881" type="Const" version="opset1">
			<data offset="3256" size="4" shape="" element_type="f32"/>
			<output>
				<port id="0" precision="FP32"/>
			</output>
		</layer>
		<layer id="110" name="1567156923318" type="Const" version="opset1">
			<data offset="3260" size="1024" shape="1,256,1,1" element_type="f32"/>
			<output>
				<port id="0" precision="FP32">
					<dim>1</dim>
					<dim>256</dim>
					<dim>1</dim>
					<dim>1</dim>
				</port>
			</output>
		</layer>
		<layer id="111" name="2770277424614" type="Const" version="opset1">
			<data offset="4284" size="4" shape="" element_type="f32"/>
			<output>
				<port id="0" precision="FP32"/>
			</output>
		</layer>
		<layer id="112" name="2771277522430" type="Const" version="opset1">
			<data offset="4288" size="4" shape="" element_type="f32"/>
			<output>
				<port id="0" precision="FP32"/>
			</output>
		</layer>
		<layer id="113" name="2772277623900" type="Const" version="opset1">
			<data offset="4284" size="4" shape="" element_type="f32"/>
			<output>
				<port id="0" precision="FP32"/>
			</output>
		</layer>
		<layer id="114" name="2773277723699" type="Const" version="opset1">
			<data offset="4288" size="4" shape="" element_type="f32"/>
			<output>
				<port id="0" precision="FP32"/>
			</output>
		</layer>
		<layer id="115" name="3240324423066" type="Const" version="opset1">
			<data offset="8" size="4" shape="" element_type="f32"/>
			<output>
				<port id="0" precision="FP32"/>
			</output>
		</layer>
		<layer id="116" name="3241324522682" type="Const" version="opset1">
			<data offset="4292" size="4" shape="" element_type="f32"/>
			<output>
				<port id="0" precision="FP32"/>
			</output>
		</layer>
		<layer id="117" name="3242324622208" type="Const" version="opset1">
			<data offset="8" size="4" shape="" element_type="f32"/>
			<output>
				<port id="0" precision="FP32"/>
			</output>
		</layer>
		<layer id="118" name="3243324722784" type="Const" version="opset1">
			<data offset="4292" size="4" shape="" element_type="f32"/>
			<output>
				<port id="0" precision="FP32"/>
			</output>
		</layer>
		<layer id="119" name="2360236422742" type="Const" version="opset1">
			<data offset="4296" size="4" shape="" element_type="f32"/>
			<output>
				<port id="0" precision="FP32"/>
			</output>
		</layer>
		<layer id="120" name="2361236524347" type="Const" version="opset1">
			<data offset="4300" size="4" shape="" element_type="f32"/>
			<output>
				<port id="0" precision="FP32"/>
			</output>
		</layer>
		<layer id="121" name="2362236623846" type="Const" version="opset1">
			<data offset="4296" size="4" shape="" element_type="f32"/>
			<output>
				<port id="0" precision="FP32"/>
			</output>
		</layer>
		<layer id="122" name="2363236724125" type="Const" version="opset1">
			<data offset="4300" size="4" shape="" element_type="f32"/>
			<output>
				<port id="0" precision="FP32"/>
			</output>
		</layer>
		<layer id="123" name="2990299422838" type="Const" version="opset1">
			<data offset="4304" size="4" shape="" element_type="f32"/>
			<output>
				<port id="0" precision="FP32"/>
			</output>
		</layer>
		<layer id="124" name="2991299524440" type="Const" version="opset1">
			<data offset="4308" size="4" shape="" element_type="f32"/>
			<output>
				<port id="0" precision="FP32"/>
			</output>
		</layer>
		<layer id="125" name="2992299622166" type="Const" version="opset1">
			<data offset="4304" size="4" shape="" element_type="f32"/>
			<output>
				<port id="0" precision="FP32"/>
			</output>
		</layer>
		<layer id="126" name="2993299722427" type="Const" version="opset1">
			<data offset="4308" size="4" shape="" element_type="f32"/>
			<output>
				<port id="0" precision="FP32"/>
			</output>
		</layer>
		<layer id="127" name="1563156521530" type="Const" version="opset1">
			<data offset="4312" size="1024" shape="1,256,1,1" element_type="f32"/>
			<output>
				<port id="0" precision="FP32">
					<dim>1</dim>
					<dim>256</dim>
					<dim>1</dim>
					<dim>1</dim>
				</port>
			</output>
		</layer>
		<layer id="128" name="4060406422190" type="Const" version="opset1">
			<data offset="5336" size="4" shape="" element_type="f32"/>
			<output>
				<port id="0" precision="FP32"/>
			</output>
		</layer>
		<layer id="129" name="4061406523222" type="Const" version="opset1">
			<data offset="5340" size="4" shape="" element_type="f32"/>
			<output>
				<port id="0" precision="FP32"/>
			</output>
		</layer>
		<layer id="130" name="4062406624029" type="Const" version="opset1">
			<data offset="5336" size="4" shape="" element_type="f32"/>
			<output>
				<port id="0" precision="FP32"/>
			</output>
		</layer>
		<layer id="131" name="4063406722265" type="Const" version="opset1">
			<data offset="5340" size="4" shape="" element_type="f32"/>
			<output>
				<port id="0" precision="FP32"/>
			</output>
		</layer>
		<layer id="132" name="4450445422622" type="Const" version="opset1">
			<data offset="8" size="4" shape="" element_type="f32"/>
			<output>
				<port id="0" precision="FP32"/>
			</output>
		</layer>
		<layer id="133" name="4451445522211" type="Const" version="opset1">
			<data offset="5344" size="4" shape="" element_type="f32"/>
			<output>
				<port id="0" precision="FP32"/>
			</output>
		</layer>
		<layer id="134" name="4452445624695" type="Const" version="opset1">
			<data offset="8" size="4" shape="" element_type="f32"/>
			<output>
				<port id="0" precision="FP32"/>
			</output>
		</layer>
		<layer id="135" name="4453445722247" type="Const" version="opset1">
			<data offset="5344" size="4" shape="" element_type="f32"/>
			<output>
				<port id="0" precision="FP32"/>
			</output>
		</layer>
		<layer id="136" name="3390339423216" type="Const" version="opset1">
			<data offset="5348" size="4" shape="" element_type="f32"/>
			<output>
				<port id="0" precision="FP32"/>
			</output>
		</layer>
		<layer id="137" name="3391339522670" type="Const" version="opset1">
			<data offset="5352" size="4" shape="" element_type="f32"/>
			<output>
				<port id="0" precision="FP32"/>
			</output>
		</layer>
		<layer id="138" name="3392339624398" type="Const" version="opset1">
			<data offset="5348" size="4" shape="" element_type="f32"/>
			<output>
				<port id="0" precision="FP32"/>
			</output>
		</layer>
		<layer id="139" name="3393339722748" type="Const" version="opset1">
			<data offset="5352" size="4" shape="" element_type="f32"/>
			<output>
				<port id="0" precision="FP32"/>
			</output>
		</layer>
		<layer id="140" name="3460346421542" type="Const" version="opset1">
			<data offset="5356" size="4" shape="" element_type="f32"/>
			<output>
				<port id="0" precision="FP32"/>
			</output>
		</layer>
		<layer id="141" name="3461346522715" type="Const" version="opset1">
			<data offset="5360" size="4" shape="" element_type="f32"/>
			<output>
				<port id="0" precision="FP32"/>
			</output>
		</layer>
		<layer id="142" name="3462346623276" type="Const" version="opset1">
			<data offset="5356" size="4" shape="" element_type="f32"/>
			<output>
				<port id="0" precision="FP32"/>
			</output>
		</layer>
		<layer id="143" name="3463346722016" type="Const" version="opset1">
			<data offset="5360" size="4" shape="" element_type="f32"/>
			<output>
				<port id="0" precision="FP32"/>
			</output>
		</layer>
		<layer id="144" name="1559156122145" type="Const" version="opset1">
			<data offset="5364" size="1024" shape="1,256,1,1" element_type="f32"/>
			<output>
				<port id="0" precision="FP32">
					<dim>1</dim>
					<dim>256</dim>
					<dim>1</dim>
					<dim>1</dim>
				</port>
			</output>
		</layer>
		<layer id="145" name="3090309421923" type="Const" version="opset1">
			<data offset="6388" size="4" shape="" element_type="f32"/>
			<output>
				<port id="0" precision="FP32"/>
			</output>
		</layer>
		<layer id="146" name="3091309522154" type="Const" version="opset1">
			<data offset="6392" size="4" shape="" element_type="f32"/>
			<output>
				<port id="0" precision="FP32"/>
			</output>
		</layer>
		<layer id="147" name="3092309624404" type="Const" version="opset1">
			<data offset="6388" size="4" shape="" element_type="f32"/>
			<output>
				<port id="0" precision="FP32"/>
			</output>
		</layer>
		<layer id="148" name="3093309723012" type="Const" version="opset1">
			<data offset="6392" size="4" shape="" element_type="f32"/>
			<output>
				<port id="0" precision="FP32"/>
			</output>
		</layer>
		<layer id="149" name="2690269424866" type="Const" version="opset1">
			<data offset="8" size="4" shape="" element_type="f32"/>
			<output>
				<port id="0" precision="FP32"/>
			</output>
		</layer>
		<layer id="150" name="2691269523615" type="Const" version="opset1">
			<data offset="6396" size="4" shape="" element_type="f32"/>
			<output>
				<port id="0" precision="FP32"/>
			</output>
		</layer>
		<layer id="151" name="2692269622283" type="Const" version="opset1">
			<data offset="8" size="4" shape="" element_type="f32"/>
			<output>
				<port id="0" precision="FP32"/>
			</output>
		</layer>
		<layer id="152" name="2693269721581" type="Const" version="opset1">
			<data offset="6396" size="4" shape="" element_type="f32"/>
			<output>
				<port id="0" precision="FP32"/>
			</output>
		</layer>
		<layer id="153" name="3410341423693" type="Const" version="opset1">
			<data offset="6400" size="4" shape="" element_type="f32"/>
			<output>
				<port id="0" precision="FP32"/>
			</output>
		</layer>
		<layer id="154" name="3411341522142" type="Const" version="opset1">
			<data offset="6404" size="4" shape="" element_type="f32"/>
			<output>
				<port id="0" precision="FP32"/>
			</output>
		</layer>
		<layer id="155" name="3412341623150" type="Const" version="opset1">
			<data offset="6400" size="4" shape="" element_type="f32"/>
			<output>
				<port id="0" precision="FP32"/>
			</output>
		</layer>
		<layer id="156" name="3413341724362" type="Const" version="opset1">
			<data offset="6404" size="4" shape="" element_type="f32"/>
			<output>
				<port id="0" precision="FP32"/>
			</output>
		</layer>
		<layer id="157" name="2790279423891" type="Const" version="opset1">
			<data offset="6408" size="4" shape="" element_type="f32"/>
			<output>
				<port id="0" precision="FP32"/>
			</output>
		</layer>
		<layer id="158" name="2791279522865" type="Const" version="opset1">
			<data offset="6412" size="4" shape="" element_type="f32"/>
			<output>
				<port id="0" precision="FP32"/>
			</output>
		</layer>
		<layer id="159" name="2792279623918" type="Const" version="opset1">
			<data offset="6408" size="4" shape="" element_type="f32"/>
			<output>
				<port id="0" precision="FP32"/>
			</output>
		</layer>
		<layer id="160" name="2793279724782" type="Const" version="opset1">
			<data offset="6412" size="4" shape="" element_type="f32"/>
			<output>
				<port id="0" precision="FP32"/>
			</output>
		</layer>
		<layer id="161" name="1555155723915" type="Const" version="opset1">
			<data offset="6416" size="1024" shape="1,256,1,1" element_type="f32"/>
			<output>
				<port id="0" precision="FP32">
					<dim>1</dim>
					<dim>256</dim>
					<dim>1</dim>
					<dim>1</dim>
				</port>
			</output>
		</layer>
		<layer id="162" name="3580358424560" type="Const" version="opset1">
			<data offset="7440" size="4" shape="" element_type="f32"/>
			<output>
				<port id="0" precision="FP32"/>
			</output>
		</layer>
		<layer id="163" name="3581358524713" type="Const" version="opset1">
			<data offset="7444" size="4" shape="" element_type="f32"/>
			<output>
				<port id="0" precision="FP32"/>
			</output>
		</layer>
		<layer id="164" name="3582358621587" type="Const" version="opset1">
			<data offset="7440" size="4" shape="" element_type="f32"/>
			<output>
				<port id="0" precision="FP32"/>
			</output>
		</layer>
		<layer id="165" name="3583358722556" type="Const" version="opset1">
			<data offset="7444" size="4" shape="" element_type="f32"/>
			<output>
				<port id="0" precision="FP32"/>
			</output>
		</layer>
		<layer id="166" name="2630263424884" type="Const" version="opset1">
			<data offset="8" size="4" shape="" element_type="f32"/>
			<output>
				<port id="0" precision="FP32"/>
			</output>
		</layer>
		<layer id="167" name="2631263524320" type="Const" version="opset1">
			<data offset="7444" size="4" shape="" element_type="f32"/>
			<output>
				<port id="0" precision="FP32"/>
			</output>
		</layer>
		<layer id="168" name="2632263624566" type="Const" version="opset1">
			<data offset="8" size="4" shape="" element_type="f32"/>
			<output>
				<port id="0" precision="FP32"/>
			</output>
		</layer>
		<layer id="169" name="2633263724500" type="Const" version="opset1">
			<data offset="7444" size="4" shape="" element_type="f32"/>
			<output>
				<port id="0" precision="FP32"/>
			</output>
		</layer>
		<layer id="170" name="2860286424932" type="Const" version="opset1">
			<data offset="7448" size="4" shape="" element_type="f32"/>
			<output>
				<port id="0" precision="FP32"/>
			</output>
		</layer>
		<layer id="171" name="2861286521998" type="Const" version="opset1">
			<data offset="7452" size="4" shape="" element_type="f32"/>
			<output>
				<port id="0" precision="FP32"/>
			</output>
		</layer>
		<layer id="172" name="2862286624776" type="Const" version="opset1">
			<data offset="7448" size="4" shape="" element_type="f32"/>
			<output>
				<port id="0" precision="FP32"/>
			</output>
		</layer>
		<layer id="173" name="2863286722448" type="Const" version="opset1">
			<data offset="7452" size="4" shape="" element_type="f32"/>
			<output>
				<port id="0" precision="FP32"/>
			</output>
		</layer>
		<layer id="174" name="3820382422892" type="Const" version="opset1">
			<data offset="7456" size="4" shape="" element_type="f32"/>
			<output>
				<port id="0" precision="FP32"/>
			</output>
		</layer>
		<layer id="175" name="3821382523504" type="Const" version="opset1">
			<data offset="7460" size="4" shape="" element_type="f32"/>
			<output>
				<port id="0" precision="FP32"/>
			</output>
		</layer>
		<layer id="176" name="3822382623741" type="Const" version="opset1">
			<data offset="7456" size="4" shape="" element_type="f32"/>
			<output>
				<port id="0" precision="FP32"/>
			</output>
		</layer>
		<layer id="177" name="3823382721539" type="Const" version="opset1">
			<data offset="7460" size="4" shape="" element_type="f32"/>
			<output>
				<port id="0" precision="FP32"/>
			</output>
		</layer>
		<layer id="178" name="1551155323438" type="Const" version="opset1">
			<data offset="7464" size="1024" shape="1,256,1,1" element_type="f32"/>
			<output>
				<port id="0" precision="FP32">
					<dim>1</dim>
					<dim>256</dim>
					<dim>1</dim>
					<dim>1</dim>
				</port>
			</output>
		</layer>
		<layer id="179" name="3070307422979" type="Const" version="opset1">
			<data offset="8488" size="4" shape="" element_type="f32"/>
			<output>
				<port id="0" precision="FP32"/>
			</output>
		</layer>
		<layer id="180" name="3071307524275" type="Const" version="opset1">
			<data offset="8492" size="4" shape="" element_type="f32"/>
			<output>
				<port id="0" precision="FP32"/>
			</output>
		</layer>
		<layer id="181" name="3072307621653" type="Const" version="opset1">
			<data offset="8488" size="4" shape="" element_type="f32"/>
			<output>
				<port id="0" precision="FP32"/>
			</output>
		</layer>
		<layer id="182" name="3073307721758" type="Const" version="opset1">
			<data offset="8492" size="4" shape="" element_type="f32"/>
			<output>
				<port id="0" precision="FP32"/>
			</output>
		</layer>
		<layer id="183" name="4020402422157" type="Const" version="opset1">
			<data offset="8" size="4" shape="" element_type="f32"/>
			<output>
				<port id="0" precision="FP32"/>
			</output>
		</layer>
		<layer id="184" name="4021402522547" type="Const" version="opset1">
			<data offset="8496" size="4" shape="" element_type="f32"/>
			<output>
				<port id="0" precision="FP32"/>
			</output>
		</layer>
		<layer id="185" name="4022402623990" type="Const" version="opset1">
			<data offset="8" size="4" shape="" element_type="f32"/>
			<output>
				<port id="0" precision="FP32"/>
			</output>
		</layer>
		<layer id="186" name="4023402724239" type="Const" version="opset1">
			<data offset="8496" size="4" shape="" element_type="f32"/>
			<output>
				<port id="0" precision="FP32"/>
			</output>
		</layer>
		<layer id="187" name="4270427422697" type="Const" version="opset1">
			<data offset="8500" size="4" shape="" element_type="f32"/>
			<output>
				<port id="0" precision="FP32"/>
			</output>
		</layer>
		<layer id="188" name="4271427523561" type="Const" version="opset1">
			<data offset="8504" size="4" shape="" element_type="f32"/>
			<output>
				<port id="0" precision="FP32"/>
			</output>
		</layer>
		<layer id="189" name="4272427621887" type="Const" version="opset1">
			<data offset="8500" size="4" shape="" element_type="f32"/>
			<output>
				<port id="0" precision="FP32"/>
			</output>
		</layer>
		<layer id="190" name="4273427724806" type="Const" version="opset1">
			<data offset="8504" size="4" shape="" element_type="f32"/>
			<output>
				<port id="0" precision="FP32"/>
			</output>
		</layer>
		<layer id="191" name="2410241423153" type="Const" version="opset1">
			<data offset="8508" size="4" shape="" element_type="f32"/>
			<output>
				<port id="0" precision="FP32"/>
			</output>
		</layer>
		<layer id="192" name="2411241523345" type="Const" version="opset1">
			<data offset="8512" size="4" shape="" element_type="f32"/>
			<output>
				<port id="0" precision="FP32"/>
			</output>
		</layer>
		<layer id="193" name="2412241624581" type="Const" version="opset1">
			<data offset="8508" size="4" shape="" element_type="f32"/>
			<output>
				<port id="0" precision="FP32"/>
			</output>
		</layer>
		<layer id="194" name="2413241721716" type="Const" version="opset1">
			<data offset="8512" size="4" shape="" element_type="f32"/>
			<output>
				<port id="0" precision="FP32"/>
			</output>
		</layer>
		<layer id="195" name="1547154922175" type="Const" version="opset1">
			<data offset="8516" size="1024" shape="1,256,1,1" element_type="f32"/>
			<output>
				<port id="0" precision="FP32">
					<dim>1</dim>
					<dim>256</dim>
					<dim>1</dim>
					<dim>1</dim>
				</port>
			</output>
		</layer>
		<layer id="196" name="3600360422706" type="Const" version="opset1">
			<data offset="9540" size="4" shape="" element_type="f32"/>
			<output>
				<port id="0" precision="FP32"/>
			</output>
		</layer>
		<layer id="197" name="3601360524881" type="Const" version="opset1">
			<data offset="9544" size="4" shape="" element_type="f32"/>
			<output>
				<port id="0" precision="FP32"/>
			</output>
		</layer>
		<layer id="198" name="3602360623825" type="Const" version="opset1">
			<data offset="9540" size="4" shape="" element_type="f32"/>
			<output>
				<port id="0" precision="FP32"/>
			</output>
		</layer>
		<layer id="199" name="3603360723309" type="Const" version="opset1">
			<data offset="9544" size="4" shape="" element_type="f32"/>
			<output>
				<port id="0" precision="FP32"/>
			</output>
		</layer>
		<layer id="200" name="4890489424437" type="Const" version="opset1">
			<data offset="8" size="4" shape="" element_type="f32"/>
			<output>
				<port id="0" precision="FP32"/>
			</output>
		</layer>
		<layer id="201" name="4891489522127" type="Const" version="opset1">
			<data offset="9544" size="4" shape="" element_type="f32"/>
			<output>
				<port id="0" precision="FP32"/>
			</output>
		</layer>
		<layer id="202" name="4892489622118" type="Const" version="opset1">
			<data offset="8" size="4" shape="" element_type="f32"/>
			<output>
				<port id="0" precision="FP32"/>
			</output>
		</layer>
		<layer id="203" name="4893489722562" type="Const" version="opset1">
			<data offset="9544" size="4" shape="" element_type="f32"/>
			<output>
				<port id="0" precision="FP32"/>
			</output>
		</layer>
		<layer id="204" name="2200220423303" type="Const" version="opset1">
			<data offset="9548" size="4" shape="" element_type="f32"/>
			<output>
				<port id="0" precision="FP32"/>
			</output>
		</layer>
		<layer id="205" name="2201220522472" type="Const" version="opset1">
			<data offset="9552" size="4" shape="" element_type="f32"/>
			<output>
				<port id="0" precision="FP32"/>
			</output>
		</layer>
		<layer id="206" name="2202220622997" type="Const" version="opset1">
			<data offset="9548" size="4" shape="" element_type="f32"/>
			<output>
				<port id="0" precision="FP32"/>
			</output>
		</layer>
		<layer id="207" name="2203220724089" type="Const" version="opset1">
			<data offset="9552" size="4" shape="" element_type="f32"/>
			<output>
				<port id="0" precision="FP32"/>
			</output>
		</layer>
		<layer id="208" name="4100410422304" type="Const" version="opset1">
			<data offset="9556" size="4" shape="" element_type="f32"/>
			<output>
				<port id="0" precision="FP32"/>
			</output>
		</layer>
		<layer id="209" name="4101410523156" type="Const" version="opset1">
			<data offset="9560" size="4" shape="" element_type="f32"/>
			<output>
				<port id="0" precision="FP32"/>
			</output>
		</layer>
		<layer id="210" name="4102410622223" type="Const" version="opset1">
			<data offset="9556" size="4" shape="" element_type="f32"/>
			<output>
				<port id="0" precision="FP32"/>
			</output>
		</layer>
		<layer id="211" name="4103410724899" type="Const" version="opset1">
			<data offset="9560" size="4" shape="" element_type="f32"/>
			<output>
				<port id="0" precision="FP32"/>
			</output>
		</layer>
		<layer id="212" name="1543154522382" type="Const" version="opset1">
			<data offset="9564" size="1024" shape="1,256,1,1" element_type="f32"/>
			<output>
				<port id="0" precision="FP32">
					<dim>1</dim>
					<dim>256</dim>
					<dim>1</dim>
					<dim>1</dim>
				</port>
			</output>
		</layer>
		<layer id="213" name="2230223423732" type="Const" version="opset1">
			<data offset="10588" size="4" shape="" element_type="f32"/>
			<output>
				<port id="0" precision="FP32"/>
			</output>
		</layer>
		<layer id="214" name="2231223522772" type="Const" version="opset1">
			<data offset="10592" size="4" shape="" element_type="f32"/>
			<output>
				<port id="0" precision="FP32"/>
			</output>
		</layer>
		<layer id="215" name="2232223623522" type="Const" version="opset1">
			<data offset="10588" size="4" shape="" element_type="f32"/>
			<output>
				<port id="0" precision="FP32"/>
			</output>
		</layer>
		<layer id="216" name="2233223723288" type="Const" version="opset1">
			<data offset="10592" size="4" shape="" element_type="f32"/>
			<output>
				<port id="0" precision="FP32"/>
			</output>
		</layer>
		<layer id="217" name="4490449421872" type="Const" version="opset1">
			<data offset="8" size="4" shape="" element_type="f32"/>
			<output>
				<port id="0" precision="FP32"/>
			</output>
		</layer>
		<layer id="218" name="4491449522115" type="Const" version="opset1">
			<data offset="10592" size="4" shape="" element_type="f32"/>
			<output>
				<port id="0" precision="FP32"/>
			</output>
		</layer>
		<layer id="219" name="4492449621737" type="Const" version="opset1">
			<data offset="8" size="4" shape="" element_type="f32"/>
			<output>
				<port id="0" precision="FP32"/>
			</output>
		</layer>
		<layer id="220" name="4493449723051" type="Const" version="opset1">
			<data offset="10592" size="4" shape="" element_type="f32"/>
			<output>
				<port id="0" precision="FP32"/>
			</output>
		</layer>
		<layer id="221" name="3020302422766" type="Const" version="opset1">
			<data offset="10596" size="4" shape="" element_type="f32"/>
			<output>
				<port id="0" precision="FP32"/>
			</output>
		</layer>
		<layer id="222" name="3021302521638" type="Const" version="opset1">
			<data offset="10600" size="4" shape="" element_type="f32"/>
			<output>
				<port id="0" precision="FP32"/>
			</output>
		</layer>
		<layer id="223" name="3022302622316" type="Const" version="opset1">
			<data offset="10596" size="4" shape="" element_type="f32"/>
			<output>
				<port id="0" precision="FP32"/>
			</output>
		</layer>
		<layer id="224" name="3023302722976" type="Const" version="opset1">
			<data offset="10600" size="4" shape="" element_type="f32"/>
			<output>
				<port id="0" precision="FP32"/>
			</output>
		</layer>
		<layer id="225" name="3960396423402" type="Const" version="opset1">
			<data offset="10604" size="4" shape="" element_type="f32"/>
			<output>
				<port id="0" precision="FP32"/>
			</output>
		</layer>
		<layer id="226" name="3961396522070" type="Const" version="opset1">
			<data offset="10608" size="4" shape="" element_type="f32"/>
			<output>
				<port id="0" precision="FP32"/>
			</output>
		</layer>
		<layer id="227" name="3962396621704" type="Const" version="opset1">
			<data offset="10604" size="4" shape="" element_type="f32"/>
			<output>
				<port id="0" precision="FP32"/>
			</output>
		</layer>
		<layer id="228" name="3963396724737" type="Const" version="opset1">
			<data offset="10608" size="4" shape="" element_type="f32"/>
			<output>
				<port id="0" precision="FP32"/>
			</output>
		</layer>
		<layer id="229" name="1539154123837" type="Const" version="opset1">
			<data offset="10612" size="512" shape="1,128,1,1" element_type="f32"/>
			<output>
				<port id="0" precision="FP32">
					<dim>1</dim>
					<dim>128</dim>
					<dim>1</dim>
					<dim>1</dim>
				</port>
			</output>
		</layer>
		<layer id="230" name="2730273423786" type="Const" version="opset1">
			<data offset="11124" size="4" shape="" element_type="f32"/>
			<output>
				<port id="0" precision="FP32"/>
			</output>
		</layer>
		<layer id="231" name="2731273524944" type="Const" version="opset1">
			<data offset="11128" size="4" shape="" element_type="f32"/>
			<output>
				<port id="0" precision="FP32"/>
			</output>
		</layer>
		<layer id="232" name="2732273623195" type="Const" version="opset1">
			<data offset="11124" size="4" shape="" element_type="f32"/>
			<output>
				<port id="0" precision="FP32"/>
			</output>
		</layer>
		<layer id="233" name="2733273722769" type="Const" version="opset1">
			<data offset="11128" size="4" shape="" element_type="f32"/>
			<output>
				<port id="0" precision="FP32"/>
			</output>
		</layer>
		<layer id="234" name="4000400422964" type="Const" version="opset1">
			<data offset="8" size="4" shape="" element_type="f32"/>
			<output>
				<port id="0" precision="FP32"/>
			</output>
		</layer>
		<layer id="235" name="4001400523141" type="Const" version="opset1">
			<data offset="11128" size="4" shape="" element_type="f32"/>
			<output>
				<port id="0" precision="FP32"/>
			</output>
		</layer>
		<layer id="236" name="4002400624752" type="Const" version="opset1">
			<data offset="8" size="4" shape="" element_type="f32"/>
			<output>
				<port id="0" precision="FP32"/>
			</output>
		</layer>
		<layer id="237" name="4003400724011" type="Const" version="opset1">
			<data offset="11128" size="4" shape="" element_type="f32"/>
			<output>
				<port id="0" precision="FP32"/>
			</output>
		</layer>
		<layer id="238" name="2920292423873" type="Const" version="opset1">
			<data offset="11132" size="4" shape="" element_type="f32"/>
			<output>
				<port id="0" precision="FP32"/>
			</output>
		</layer>
		<layer id="239" name="2921292524350" type="Const" version="opset1">
			<data offset="11136" size="4" shape="" element_type="f32"/>
			<output>
				<port id="0" precision="FP32"/>
			</output>
		</layer>
		<layer id="240" name="2922292624044" type="Const" version="opset1">
			<data offset="11132" size="4" shape="" element_type="f32"/>
			<output>
				<port id="0" precision="FP32"/>
			</output>
		</layer>
		<layer id="241" name="2923292722724" type="Const" version="opset1">
			<data offset="11136" size="4" shape="" element_type="f32"/>
			<output>
				<port id="0" precision="FP32"/>
			</output>
		</layer>
		<layer id="242" name="2450245424620" type="Const" version="opset1">
			<data offset="11140" size="4" shape="" element_type="f32"/>
			<output>
				<port id="0" precision="FP32"/>
			</output>
		</layer>
		<layer id="243" name="2451245522790" type="Const" version="opset1">
			<data offset="11144" size="4" shape="" element_type="f32"/>
			<output>
				<port id="0" precision="FP32"/>
			</output>
		</layer>
		<layer id="244" name="2452245622256" type="Const" version="opset1">
			<data offset="11140" size="4" shape="" element_type="f32"/>
			<output>
				<port id="0" precision="FP32"/>
			</output>
		</layer>
		<layer id="245" name="2453245722658" type="Const" version="opset1">
			<data offset="11144" size="4" shape="" element_type="f32"/>
			<output>
				<port id="0" precision="FP32"/>
			</output>
		</layer>
		<layer id="246" name="1535153722379" type="Const" version="opset1">
			<data offset="11148" size="512" shape="1,128,1,1" element_type="f32"/>
			<output>
				<port id="0" precision="FP32">
					<dim>1</dim>
					<dim>128</dim>
					<dim>1</dim>
					<dim>1</dim>
				</port>
			</output>
		</layer>
		<layer id="247" name="2810281422619" type="Const" version="opset1">
			<data offset="11660" size="4" shape="" element_type="f32"/>
			<output>
				<port id="0" precision="FP32"/>
			</output>
		</layer>
		<layer id="248" name="2811281524704" type="Const" version="opset1">
			<data offset="11664" size="4" shape="" element_type="f32"/>
			<output>
				<port id="0" precision="FP32"/>
			</output>
		</layer>
		<layer id="249" name="2812281624110" type="Const" version="opset1">
			<data offset="11660" size="4" shape="" element_type="f32"/>
			<output>
				<port id="0" precision="FP32"/>
			</output>
		</layer>
		<layer id="250" name="2813281722385" type="Const" version="opset1">
			<data offset="11664" size="4" shape="" element_type="f32"/>
			<output>
				<port id="0" precision="FP32"/>
			</output>
		</layer>
		<layer id="251" name="4510451421902" type="Const" version="opset1">
			<data offset="8" size="4" shape="" element_type="f32"/>
			<output>
				<port id="0" precision="FP32"/>
			</output>
		</layer>
		<layer id="252" name="4511451523432" type="Const" version="opset1">
			<data offset="11664" size="4" shape="" element_type="f32"/>
			<output>
				<port id="0" precision="FP32"/>
			</output>
		</layer>
		<layer id="253" name="4512451621830" type="Const" version="opset1">
			<data offset="8" size="4" shape="" element_type="f32"/>
			<output>
				<port id="0" precision="FP32"/>
			</output>
		</layer>
		<layer id="254" name="4513451722205" type="Const" version="opset1">
			<data offset="11664" size="4" shape="" element_type="f32"/>
			<output>
				<port id="0" precision="FP32"/>
			</output>
		</layer>
		<layer id="255" name="3430343422928" type="Const" version="opset1">
			<data offset="11668" size="4" shape="" element_type="f32"/>
			<output>
				<port id="0" precision="FP32"/>
			</output>
		</layer>
		<layer id="256" name="3431343524935" type="Const" version="opset1">
			<data offset="11672" size="4" shape="" element_type="f32"/>
			<output>
				<port id="0" precision="FP32"/>
			</output>
		</layer>
		<layer id="257" name="3432343624134" type="Const" version="opset1">
			<data offset="11668" size="4" shape="" element_type="f32"/>
			<output>
				<port id="0" precision="FP32"/>
			</output>
		</layer>
		<layer id="258" name="3433343721917" type="Const" version="opset1">
			<data offset="11672" size="4" shape="" element_type="f32"/>
			<output>
				<port id="0" precision="FP32"/>
			</output>
		</layer>
		<layer id="259" name="3360336422352" type="Const" version="opset1">
			<data offset="11676" size="4" shape="" element_type="f32"/>
			<output>
				<port id="0" precision="FP32"/>
			</output>
		</layer>
		<layer id="260" name="3361336523801" type="Const" version="opset1">
			<data offset="11680" size="4" shape="" element_type="f32"/>
			<output>
				<port id="0" precision="FP32"/>
			</output>
		</layer>
		<layer id="261" name="3362336622046" type="Const" version="opset1">
			<data offset="11676" size="4" shape="" element_type="f32"/>
			<output>
				<port id="0" precision="FP32"/>
			</output>
		</layer>
		<layer id="262" name="3363336722877" type="Const" version="opset1">
			<data offset="11680" size="4" shape="" element_type="f32"/>
			<output>
				<port id="0" precision="FP32"/>
			</output>
		</layer>
		<layer id="263" name="1531153322025" type="Const" version="opset1">
			<data offset="11684" size="512" shape="1,128,1,1" element_type="f32"/>
			<output>
				<port id="0" precision="FP32">
					<dim>1</dim>
					<dim>128</dim>
					<dim>1</dim>
					<dim>1</dim>
				</port>
			</output>
		</layer>
		<layer id="264" name="4930493421584" type="Const" version="opset1">
			<data offset="12196" size="4" shape="" element_type="f32"/>
			<output>
				<port id="0" precision="FP32"/>
			</output>
		</layer>
		<layer id="265" name="4931493522334" type="Const" version="opset1">
			<data offset="12200" size="4" shape="" element_type="f32"/>
			<output>
				<port id="0" precision="FP32"/>
			</output>
		</layer>
		<layer id="266" name="4932493624401" type="Const" version="opset1">
			<data offset="12196" size="4" shape="" element_type="f32"/>
			<output>
				<port id="0" precision="FP32"/>
			</output>
		</layer>
		<layer id="267" name="4933493724788" type="Const" version="opset1">
			<data offset="12200" size="4" shape="" element_type="f32"/>
			<output>
				<port id="0" precision="FP32"/>
			</output>
		</layer>
		<layer id="268" name="3660366422634" type="Const" version="opset1">
			<data offset="8" size="4" shape="" element_type="f32"/>
			<output>
				<port id="0" precision="FP32"/>
			</output>
		</layer>
		<layer id="269" name="3661366524023" type="Const" version="opset1">
			<data offset="12200" size="4" shape="" element_type="f32"/>
			<output>
				<port id="0" precision="FP32"/>
			</output>
		</layer>
		<layer id="270" name="3662366624260" type="Const" version="opset1">
			<data offset="8" size="4" shape="" element_type="f32"/>
			<output>
				<port id="0" precision="FP32"/>
			</output>
		</layer>
		<layer id="271" name="3663366723354" type="Const" version="opset1">
			<data offset="12200" size="4" shape="" element_type="f32"/>
			<output>
				<port id="0" precision="FP32"/>
			</output>
		</layer>
		<layer id="272" name="3990399422163" type="Const" version="opset1">
			<data offset="12204" size="4" shape="" element_type="f32"/>
			<output>
				<port id="0" precision="FP32"/>
			</output>
		</layer>
		<layer id="273" name="3991399521599" type="Const" version="opset1">
			<data offset="12208" size="4" shape="" element_type="f32"/>
			<output>
				<port id="0" precision="FP32"/>
			</output>
		</layer>
		<layer id="274" name="3992399624425" type="Const" version="opset1">
			<data offset="12204" size="4" shape="" element_type="f32"/>
			<output>
				<port id="0" precision="FP32"/>
			</output>
		</layer>
		<layer id="275" name="3993399722217" type="Const" version="opset1">
			<data offset="12208" size="4" shape="" element_type="f32"/>
			<output>
				<port id="0" precision="FP32"/>
			</output>
		</layer>
		<layer id="276" name="5050505423675" type="Const" version="opset1">
			<data offset="12212" size="4" shape="" element_type="f32"/>
			<output>
				<port id="0" precision="FP32"/>
			</output>
		</layer>
		<layer id="277" name="5051505524374" type="Const" version="opset1">
			<data offset="12216" size="4" shape="" element_type="f32"/>
			<output>
				<port id="0" precision="FP32"/>
			</output>
		</layer>
		<layer id="278" name="5052505623585" type="Const" version="opset1">
			<data offset="12212" size="4" shape="" element_type="f32"/>
			<output>
				<port id="0" precision="FP32"/>
			</output>
		</layer>
		<layer id="279" name="5053505723093" type="Const" version="opset1">
			<data offset="12216" size="4" shape="" element_type="f32"/>
			<output>
				<port id="0" precision="FP32"/>
			</output>
		</layer>
		<layer id="280" name="1527152922610" type="Const" version="opset1">
			<data offset="12220" size="512" shape="1,128,1,1" element_type="f32"/>
			<output>
				<port id="0" precision="FP32">
					<dim>1</dim>
					<dim>128</dim>
					<dim>1</dim>
					<dim>1</dim>
				</port>
			</output>
		</layer>
		<layer id="281" name="3130313424278" type="Const" version="opset1">
			<data offset="12732" size="4" shape="" element_type="f32"/>
			<output>
				<port id="0" precision="FP32"/>
			</output>
		</layer>
		<layer id="282" name="3131313521527" type="Const" version="opset1">
			<data offset="12736" size="4" shape="" element_type="f32"/>
			<output>
				<port id="0" precision="FP32"/>
			</output>
		</layer>
		<layer id="283" name="3132313621938" type="Const" version="opset1">
			<data offset="12732" size="4" shape="" element_type="f32"/>
			<output>
				<port id="0" precision="FP32"/>
			</output>
		</layer>
		<layer id="284" name="3133313723237" type="Const" version="opset1">
			<data offset="12736" size="4" shape="" element_type="f32"/>
			<output>
				<port id="0" precision="FP32"/>
			</output>
		</layer>
		<layer id="285" name="2650265421878" type="Const" version="opset1">
			<data offset="8" size="4" shape="" element_type="f32"/>
			<output>
				<port id="0" precision="FP32"/>
			</output>
		</layer>
		<layer id="286" name="2651265523189" type="Const" version="opset1">
			<data offset="12740" size="4" shape="" element_type="f32"/>
			<output>
				<port id="0" precision="FP32"/>
			</output>
		</layer>
		<layer id="287" name="2652265623744" type="Const" version="opset1">
			<data offset="8" size="4" shape="" element_type="f32"/>
			<output>
				<port id="0" precision="FP32"/>
			</output>
		</layer>
		<layer id="288" name="2653265723165" type="Const" version="opset1">
			<data offset="12740" size="4" shape="" element_type="f32"/>
			<output>
				<port id="0" precision="FP32"/>
			</output>
		</layer>
		<layer id="289" name="2980298423996" type="Const" version="opset1">
			<data offset="12744" size="4" shape="" element_type="f32"/>
			<output>
				<port id="0" precision="FP32"/>
			</output>
		</layer>
		<layer id="290" name="2981298522313" type="Const" version="opset1">
			<data offset="12748" size="4" shape="" element_type="f32"/>
			<output>
				<port id="0" precision="FP32"/>
			</output>
		</layer>
		<layer id="291" name="2982298621815" type="Const" version="opset1">
			<data offset="12744" size="4" shape="" element_type="f32"/>
			<output>
				<port id="0" precision="FP32"/>
			</output>
		</layer>
		<layer id="292" name="2983298722409" type="Const" version="opset1">
			<data offset="12748" size="4" shape="" element_type="f32"/>
			<output>
				<port id="0" precision="FP32"/>
			</output>
		</layer>
		<layer id="293" name="4550455422340" type="Const" version="opset1">
			<data offset="12752" size="4" shape="" element_type="f32"/>
			<output>
				<port id="0" precision="FP32"/>
			</output>
		</layer>
		<layer id="294" name="4551455521899" type="Const" version="opset1">
			<data offset="12756" size="4" shape="" element_type="f32"/>
			<output>
				<port id="0" precision="FP32"/>
			</output>
		</layer>
		<layer id="295" name="4552455623942" type="Const" version="opset1">
			<data offset="12752" size="4" shape="" element_type="f32"/>
			<output>
				<port id="0" precision="FP32"/>
			</output>
		</layer>
		<layer id="296" name="4553455724674" type="Const" version="opset1">
			<data offset="12756" size="4" shape="" element_type="f32"/>
			<output>
				<port id="0" precision="FP32"/>
			</output>
		</layer>
		<layer id="297" name="1523152523183" type="Const" version="opset1">
			<data offset="12760" size="256" shape="1,64,1,1" element_type="f32"/>
			<output>
				<port id="0" precision="FP32">
					<dim>1</dim>
					<dim>64</dim>
					<dim>1</dim>
					<dim>1</dim>
				</port>
			</output>
		</layer>
		<layer id="298" name="3520352422037" type="Const" version="opset1">
			<data offset="13016" size="4" shape="" element_type="f32"/>
			<output>
				<port id="0" precision="FP32"/>
			</output>
		</layer>
		<layer id="299" name="3521352521914" type="Const" version="opset1">
			<data offset="13020" size="4" shape="" element_type="f32"/>
			<output>
				<port id="0" precision="FP32"/>
			</output>
		</layer>
		<layer id="300" name="3522352623930" type="Const" version="opset1">
			<data offset="13016" size="4" shape="" element_type="f32"/>
			<output>
				<port id="0" precision="FP32"/>
			</output>
		</layer>
		<layer id="301" name="3523352723423" type="Const" version="opset1">
			<data offset="13020" size="4" shape="" element_type="f32"/>
			<output>
				<port id="0" precision="FP32"/>
			</output>
		</layer>
		<layer id="302" name="3800380423720" type="Const" version="opset1">
			<data offset="8" size="4" shape="" element_type="f32"/>
			<output>
				<port id="0" precision="FP32"/>
			</output>
		</layer>
		<layer id="303" name="3801380522823" type="Const" version="opset1">
			<data offset="13020" size="4" shape="" element_type="f32"/>
			<output>
				<port id="0" precision="FP32"/>
			</output>
		</layer>
		<layer id="304" name="3802380623450" type="Const" version="opset1">
			<data offset="8" size="4" shape="" element_type="f32"/>
			<output>
				<port id="0" precision="FP32"/>
			</output>
		</layer>
		<layer id="305" name="3803380724491" type="Const" version="opset1">
			<data offset="13020" size="4" shape="" element_type="f32"/>
			<output>
				<port id="0" precision="FP32"/>
			</output>
		</layer>
		<layer id="306" name="3270327421824" type="Const" version="opset1">
			<data offset="13024" size="4" shape="" element_type="f32"/>
			<output>
				<port id="0" precision="FP32"/>
			</output>
		</layer>
		<layer id="307" name="3271327522229" type="Const" version="opset1">
			<data offset="13028" size="4" shape="" element_type="f32"/>
			<output>
				<port id="0" precision="FP32"/>
			</output>
		</layer>
		<layer id="308" name="3272327624092" type="Const" version="opset1">
			<data offset="13024" size="4" shape="" element_type="f32"/>
			<output>
				<port id="0" precision="FP32"/>
			</output>
		</layer>
		<layer id="309" name="3273327722880" type="Const" version="opset1">
			<data offset="13028" size="4" shape="" element_type="f32"/>
			<output>
				<port id="0" precision="FP32"/>
			</output>
		</layer>
		<layer id="310" name="4180418424203" type="Const" version="opset1">
			<data offset="13032" size="4" shape="" element_type="f32"/>
			<output>
				<port id="0" precision="FP32"/>
			</output>
		</layer>
		<layer id="311" name="4181418524926" type="Const" version="opset1">
			<data offset="13036" size="4" shape="" element_type="f32"/>
			<output>
				<port id="0" precision="FP32"/>
			</output>
		</layer>
		<layer id="312" name="4182418623564" type="Const" version="opset1">
			<data offset="13032" size="4" shape="" element_type="f32"/>
			<output>
				<port id="0" precision="FP32"/>
			</output>
		</layer>
		<layer id="313" name="4183418722574" type="Const" version="opset1">
			<data offset="13036" size="4" shape="" element_type="f32"/>
			<output>
				<port id="0" precision="FP32"/>
			</output>
		</layer>
		<layer id="314" name="1519152123078" type="Const" version="opset1">
			<data offset="13040" size="256" shape="1,64,1,1" element_type="f32"/>
			<output>
				<port id="0" precision="FP32">
					<dim>1</dim>
					<dim>64</dim>
					<dim>1</dim>
					<dim>1</dim>
				</port>
			</output>
		</layer>
		<layer id="315" name="2550255422994" type="Const" version="opset1">
			<data offset="13296" size="4" shape="" element_type="f32"/>
			<output>
				<port id="0" precision="FP32"/>
			</output>
		</layer>
		<layer id="316" name="2551255522931" type="Const" version="opset1">
			<data offset="13300" size="4" shape="" element_type="f32"/>
			<output>
				<port id="0" precision="FP32"/>
			</output>
		</layer>
		<layer id="317" name="2552255624176" type="Const" version="opset1">
			<data offset="13296" size="4" shape="" element_type="f32"/>
			<output>
				<port id="0" precision="FP32"/>
			</output>
		</layer>
		<layer id="318" name="2553255722757" type="Const" version="opset1">
			<data offset="13300" size="4" shape="" element_type="f32"/>
			<output>
				<port id="0" precision="FP32"/>
			</output>
		</layer>
		<layer id="319" name="2210221423552" type="Const" version="opset1">
			<data offset="8" size="4" shape="" element_type="f32"/>
			<output>
				<port id="0" precision="FP32"/>
			</output>
		</layer>
		<layer id="320" name="2211221524698" type="Const" version="opset1">
			<data offset="13300" size="4" shape="" element_type="f32"/>
			<output>
				<port id="0" precision="FP32"/>
			</output>
		</layer>
		<layer id="321" name="2212221624248" type="Const" version="opset1">
			<data offset="8" size="4" shape="" element_type="f32"/>
			<output>
				<port id="0" precision="FP32"/>
			</output>
		</layer>
		<layer id="322" name="2213221724062" type="Const" version="opset1">
			<data offset="13300" size="4" shape="" element_type="f32"/>
			<output>
				<port id="0" precision="FP32"/>
			</output>
		</layer>
		<layer id="323" name="4250425421602" type="Const" version="opset1">
			<data offset="13304" size="4" shape="" element_type="f32"/>
			<output>
				<port id="0" precision="FP32"/>
			</output>
		</layer>
		<layer id="324" name="4251425524527" type="Const" version="opset1">
			<data offset="13308" size="4" shape="" element_type="f32"/>
			<output>
				<port id="0" precision="FP32"/>
			</output>
		</layer>
		<layer id="325" name="4252425623582" type="Const" version="opset1">
			<data offset="13304" size="4" shape="" element_type="f32"/>
			<output>
				<port id="0" precision="FP32"/>
			</output>
		</layer>
		<layer id="326" name="4253425724677" type="Const" version="opset1">
			<data offset="13308" size="4" shape="" element_type="f32"/>
			<output>
				<port id="0" precision="FP32"/>
			</output>
		</layer>
		<layer id="327" name="2330233424308" type="Const" version="opset1">
			<data offset="13312" size="4" shape="" element_type="f32"/>
			<output>
				<port id="0" precision="FP32"/>
			</output>
		</layer>
		<layer id="328" name="2331233523612" type="Const" version="opset1">
			<data offset="13316" size="4" shape="" element_type="f32"/>
			<output>
				<port id="0" precision="FP32"/>
			</output>
		</layer>
		<layer id="329" name="2332233623621" type="Const" version="opset1">
			<data offset="13312" size="4" shape="" element_type="f32"/>
			<output>
				<port id="0" precision="FP32"/>
			</output>
		</layer>
		<layer id="330" name="2333233721707" type="Const" version="opset1">
			<data offset="13316" size="4" shape="" element_type="f32"/>
			<output>
				<port id="0" precision="FP32"/>
			</output>
		</layer>
		<layer id="331" name="1515151721680" type="Const" version="opset1">
			<data offset="13320" size="256" shape="1,64,1,1" element_type="f32"/>
			<output>
				<port id="0" precision="FP32">
					<dim>1</dim>
					<dim>64</dim>
					<dim>1</dim>
					<dim>1</dim>
				</port>
			</output>
		</layer>
		<layer id="332" name="4970497424254" type="Const" version="opset1">
			<data offset="13576" size="4" shape="" element_type="f32"/>
			<output>
				<port id="0" precision="FP32"/>
			</output>
		</layer>
		<layer id="333" name="4971497521980" type="Const" version="opset1">
			<data offset="13580" size="4" shape="" element_type="f32"/>
			<output>
				<port id="0" precision="FP32"/>
			</output>
		</layer>
		<layer id="334" name="4972497624368" type="Const" version="opset1">
			<data offset="13576" size="4" shape="" element_type="f32"/>
			<output>
				<port id="0" precision="FP32"/>
			</output>
		</layer>
		<layer id="335" name="4973497722271" type="Const" version="opset1">
			<data offset="13580" size="4" shape="" element_type="f32"/>
			<output>
				<port id="0" precision="FP32"/>
			</output>
		</layer>
		<layer id="336" name="4400440422436" type="Const" version="opset1">
			<data offset="8" size="4" shape="" element_type="f32"/>
			<output>
				<port id="0" precision="FP32"/>
			</output>
		</layer>
		<layer id="337" name="4401440521836" type="Const" version="opset1">
			<data offset="13580" size="4" shape="" element_type="f32"/>
			<output>
				<port id="0" precision="FP32"/>
			</output>
		</layer>
		<layer id="338" name="4402440623828" type="Const" version="opset1">
			<data offset="8" size="4" shape="" element_type="f32"/>
			<output>
				<port id="0" precision="FP32"/>
			</output>
		</layer>
		<layer id="339" name="4403440721818" type="Const" version="opset1">
			<data offset="13580" size="4" shape="" element_type="f32"/>
			<output>
				<port id="0" precision="FP32"/>
			</output>
		</layer>
		<layer id="340" name="2900290423447" type="Const" version="opset1">
			<data offset="13584" size="4" shape="" element_type="f32"/>
			<output>
				<port id="0" precision="FP32"/>
			</output>
		</layer>
		<layer id="341" name="2901290523411" type="Const" version="opset1">
			<data offset="13588" size="4" shape="" element_type="f32"/>
			<output>
				<port id="0" precision="FP32"/>
			</output>
		</layer>
		<layer id="342" name="2902290623570" type="Const" version="opset1">
			<data offset="13584" size="4" shape="" element_type="f32"/>
			<output>
				<port id="0" precision="FP32"/>
			</output>
		</layer>
		<layer id="343" name="2903290723819" type="Const" version="opset1">
			<data offset="13588" size="4" shape="" element_type="f32"/>
			<output>
				<port id="0" precision="FP32"/>
			</output>
		</layer>
		<layer id="344" name="3720372423252" type="Const" version="opset1">
			<data offset="13592" size="4" shape="" element_type="f32"/>
			<output>
				<port id="0" precision="FP32"/>
			</output>
		</layer>
		<layer id="345" name="3721372524050" type="Const" version="opset1">
			<data offset="13596" size="4" shape="" element_type="f32"/>
			<output>
				<port id="0" precision="FP32"/>
			</output>
		</layer>
		<layer id="346" name="3722372624221" type="Const" version="opset1">
			<data offset="13592" size="4" shape="" element_type="f32"/>
			<output>
				<port id="0" precision="FP32"/>
			</output>
		</layer>
		<layer id="347" name="3723372724641" type="Const" version="opset1">
			<data offset="13596" size="4" shape="" element_type="f32"/>
			<output>
				<port id="0" precision="FP32"/>
			</output>
		</layer>
		<layer id="348" name="1511151322940" type="Const" version="opset1">
			<data offset="13600" size="256" shape="1,64,1,1" element_type="f32"/>
			<output>
				<port id="0" precision="FP32">
					<dim>1</dim>
					<dim>64</dim>
					<dim>1</dim>
					<dim>1</dim>
				</port>
			</output>
		</layer>
		<layer id="349" name="3920392423072" type="Const" version="opset1">
			<data offset="13856" size="4" shape="" element_type="f32"/>
			<output>
				<port id="0" precision="FP32"/>
			</output>
		</layer>
		<layer id="350" name="3921392522883" type="Const" version="opset1">
			<data offset="13860" size="4" shape="" element_type="f32"/>
			<output>
				<port id="0" precision="FP32"/>
			</output>
		</layer>
		<layer id="351" name="3922392623240" type="Const" version="opset1">
			<data offset="13856" size="4" shape="" element_type="f32"/>
			<output>
				<port id="0" precision="FP32"/>
			</output>
		</layer>
		<layer id="352" name="3923392722505" type="Const" version="opset1">
			<data offset="13860" size="4" shape="" element_type="f32"/>
			<output>
				<port id="0" precision="FP32"/>
			</output>
		</layer>
		<layer id="353" name="3340334423735" type="Const" version="opset1">
			<data offset="8" size="4" shape="" element_type="f32"/>
			<output>
				<port id="0" precision="FP32"/>
			</output>
		</layer>
		<layer id="354" name="3341334521701" type="Const" version="opset1">
			<data offset="13864" size="4" shape="" element_type="f32"/>
			<output>
				<port id="0" precision="FP32"/>
			</output>
		</layer>
		<layer id="355" name="3342334623465" type="Const" version="opset1">
			<data offset="8" size="4" shape="" element_type="f32"/>
			<output>
				<port id="0" precision="FP32"/>
			</output>
		</layer>
		<layer id="356" name="3343334724644" type="Const" version="opset1">
			<data offset="13864" size="4" shape="" element_type="f32"/>
			<output>
				<port id="0" precision="FP32"/>
			</output>
		</layer>
		<layer id="357" name="3570357421749" type="Const" version="opset1">
			<data offset="13868" size="4" shape="" element_type="f32"/>
			<output>
				<port id="0" precision="FP32"/>
			</output>
		</layer>
		<layer id="358" name="3571357523234" type="Const" version="opset1">
			<data offset="13872" size="4" shape="" element_type="f32"/>
			<output>
				<port id="0" precision="FP32"/>
			</output>
		</layer>
		<layer id="359" name="3572357624005" type="Const" version="opset1">
			<data offset="13868" size="4" shape="" element_type="f32"/>
			<output>
				<port id="0" precision="FP32"/>
			</output>
		</layer>
		<layer id="360" name="3573357723852" type="Const" version="opset1">
			<data offset="13872" size="4" shape="" element_type="f32"/>
			<output>
				<port id="0" precision="FP32"/>
			</output>
		</layer>
		<layer id="361" name="3700370424299" type="Const" version="opset1">
			<data offset="13876" size="4" shape="" element_type="f32"/>
			<output>
				<port id="0" precision="FP32"/>
			</output>
		</layer>
		<layer id="362" name="3701370522196" type="Const" version="opset1">
			<data offset="13880" size="4" shape="" element_type="f32"/>
			<output>
				<port id="0" precision="FP32"/>
			</output>
		</layer>
		<layer id="363" name="3702370624449" type="Const" version="opset1">
			<data offset="13876" size="4" shape="" element_type="f32"/>
			<output>
				<port id="0" precision="FP32"/>
			</output>
		</layer>
		<layer id="364" name="3703370723855" type="Const" version="opset1">
			<data offset="13880" size="4" shape="" element_type="f32"/>
			<output>
				<port id="0" precision="FP32"/>
			</output>
		</layer>
		<layer id="365" name="1507150924602" type="Const" version="opset1">
			<data offset="13884" size="128" shape="1,32,1,1" element_type="f32"/>
			<output>
				<port id="0" precision="FP32">
					<dim>1</dim>
					<dim>32</dim>
					<dim>1</dim>
					<dim>1</dim>
				</port>
			</output>
		</layer>
		<layer id="366" name="3220322424185" type="Const" version="opset1">
			<data offset="14012" size="4" shape="" element_type="f32"/>
			<output>
				<port id="0" precision="FP32"/>
			</output>
		</layer>
		<layer id="367" name="3221322524167" type="Const" version="opset1">
			<data offset="14016" size="4" shape="" element_type="f32"/>
			<output>
				<port id="0" precision="FP32"/>
			</output>
		</layer>
		<layer id="368" name="3222322623723" type="Const" version="opset1">
			<data offset="14012" size="4" shape="" element_type="f32"/>
			<output>
				<port id="0" precision="FP32"/>
			</output>
		</layer>
		<layer id="369" name="3223322722982" type="Const" version="opset1">
			<data offset="14016" size="4" shape="" element_type="f32"/>
			<output>
				<port id="0" precision="FP32"/>
			</output>
		</layer>
		<layer id="370" name="2250225422061" type="Const" version="opset1">
			<data offset="8" size="4" shape="" element_type="f32"/>
			<output>
				<port id="0" precision="FP32"/>
			</output>
		</layer>
		<layer id="371" name="2251225522958" type="Const" version="opset1">
			<data offset="14020" size="4" shape="" element_type="f32"/>
			<output>
				<port id="0" precision="FP32"/>
			</output>
		</layer>
		<layer id="372" name="2252225623999" type="Const" version="opset1">
			<data offset="8" size="4" shape="" element_type="f32"/>
			<output>
				<port id="0" precision="FP32"/>
			</output>
		</layer>
		<layer id="373" name="2253225723717" type="Const" version="opset1">
			<data offset="14020" size="4" shape="" element_type="f32"/>
			<output>
				<port id="0" precision="FP32"/>
			</output>
		</layer>
		<layer id="374" name="2020202422871" type="Const" version="opset1">
			<data offset="14024" size="4" shape="" element_type="f32"/>
			<output>
				<port id="0" precision="FP32"/>
			</output>
		</layer>
		<layer id="375" name="2021202524827" type="Const" version="opset1">
			<data offset="14028" size="4" shape="" element_type="f32"/>
			<output>
				<port id="0" precision="FP32"/>
			</output>
		</layer>
		<layer id="376" name="2022202622910" type="Const" version="opset1">
			<data offset="14024" size="4" shape="" element_type="f32"/>
			<output>
				<port id="0" precision="FP32"/>
			</output>
		</layer>
		<layer id="377" name="2023202721548" type="Const" version="opset1">
			<data offset="14028" size="4" shape="" element_type="f32"/>
			<output>
				<port id="0" precision="FP32"/>
			</output>
		</layer>
		<layer id="378" name="2150215422925" type="Const" version="opset1">
			<data offset="14032" size="4" shape="" element_type="f32"/>
			<output>
				<port id="0" precision="FP32"/>
			</output>
		</layer>
		<layer id="379" name="2151215523576" type="Const" version="opset1">
			<data offset="14036" size="4" shape="" element_type="f32"/>
			<output>
				<port id="0" precision="FP32"/>
			</output>
		</layer>
		<layer id="380" name="2152215622301" type="Const" version="opset1">
			<data offset="14032" size="4" shape="" element_type="f32"/>
			<output>
				<port id="0" precision="FP32"/>
			</output>
		</layer>
		<layer id="381" name="2153215724563" type="Const" version="opset1">
			<data offset="14036" size="4" shape="" element_type="f32"/>
			<output>
				<port id="0" precision="FP32"/>
			</output>
		</layer>
		<layer id="382" name="1503150523651" type="Const" version="opset1">
			<data offset="14040" size="128" shape="1,32,1,1" element_type="f32"/>
			<output>
				<port id="0" precision="FP32">
					<dim>1</dim>
					<dim>32</dim>
					<dim>1</dim>
					<dim>1</dim>
				</port>
			</output>
		</layer>
		<layer id="383" name="4420442423282" type="Const" version="opset1">
			<data offset="14168" size="4" shape="" element_type="f32"/>
			<output>
				<port id="0" precision="FP32"/>
			</output>
		</layer>
		<layer id="384" name="4421442523129" type="Const" version="opset1">
			<data offset="14172" size="4" shape="" element_type="f32"/>
			<output>
				<port id="0" precision="FP32"/>
			</output>
		</layer>
		<layer id="385" name="4422442621875" type="Const" version="opset1">
			<data offset="14168" size="4" shape="" element_type="f32"/>
			<output>
				<port id="0" precision="FP32"/>
			</output>
		</layer>
		<layer id="386" name="4423442723858" type="Const" version="opset1">
			<data offset="14172" size="4" shape="" element_type="f32"/>
			<output>
				<port id="0" precision="FP32"/>
			</output>
		</layer>
		<layer id="387" name="2430243423864" type="Const" version="opset1">
			<data offset="8" size="4" shape="" element_type="f32"/>
			<output>
				<port id="0" precision="FP32"/>
			</output>
		</layer>
		<layer id="388" name="2431243524533" type="Const" version="opset1">
			<data offset="14172" size="4" shape="" element_type="f32"/>
			<output>
				<port id="0" precision="FP32"/>
			</output>
		</layer>
		<layer id="389" name="2432243624053" type="Const" version="opset1">
			<data offset="8" size="4" shape="" element_type="f32"/>
			<output>
				<port id="0" precision="FP32"/>
			</output>
		</layer>
		<layer id="390" name="2433243723579" type="Const" version="opset1">
			<data offset="14172" size="4" shape="" element_type="f32"/>
			<output>
				<port id="0" precision="FP32"/>
			</output>
		</layer>
		<layer id="391" name="4960496424740" type="Const" version="opset1">
			<data offset="14176" size="4" shape="" element_type="f32"/>
			<output>
				<port id="0" precision="FP32"/>
			</output>
		</layer>
		<layer id="392" name="4961496524743" type="Const" version="opset1">
			<data offset="14180" size="4" shape="" element_type="f32"/>
			<output>
				<port id="0" precision="FP32"/>
			</output>
		</layer>
		<layer id="393" name="4962496622949" type="Const" version="opset1">
			<data offset="14176" size="4" shape="" element_type="f32"/>
			<output>
				<port id="0" precision="FP32"/>
			</output>
		</layer>
		<layer id="394" name="4963496722544" type="Const" version="opset1">
			<data offset="14180" size="4" shape="" element_type="f32"/>
			<output>
				<port id="0" precision="FP32"/>
			</output>
		</layer>
		<layer id="395" name="4910491423204" type="Const" version="opset1">
			<data offset="14184" size="4" shape="" element_type="f32"/>
			<output>
				<port id="0" precision="FP32"/>
			</output>
		</layer>
		<layer id="396" name="4911491524647" type="Const" version="opset1">
			<data offset="14188" size="4" shape="" element_type="f32"/>
			<output>
				<port id="0" precision="FP32"/>
			</output>
		</layer>
		<layer id="397" name="4912491624080" type="Const" version="opset1">
			<data offset="14184" size="4" shape="" element_type="f32"/>
			<output>
				<port id="0" precision="FP32"/>
			</output>
		</layer>
		<layer id="398" name="4913491722712" type="Const" version="opset1">
			<data offset="14188" size="4" shape="" element_type="f32"/>
			<output>
				<port id="0" precision="FP32"/>
			</output>
		</layer>
		<layer id="399" name="1499150122244" type="Const" version="opset1">
			<data offset="14192" size="128" shape="1,32,1,1" element_type="f32"/>
			<output>
				<port id="0" precision="FP32">
					<dim>1</dim>
					<dim>32</dim>
					<dim>1</dim>
					<dim>1</dim>
				</port>
			</output>
		</layer>
		<layer id="400" name="4990499424236" type="Const" version="opset1">
			<data offset="14320" size="4" shape="" element_type="f32"/>
			<output>
				<port id="0" precision="FP32"/>
			</output>
		</layer>
		<layer id="401" name="4991499521821" type="Const" version="opset1">
			<data offset="14324" size="4" shape="" element_type="f32"/>
			<output>
				<port id="0" precision="FP32"/>
			</output>
		</layer>
		<layer id="402" name="4992499624503" type="Const" version="opset1">
			<data offset="14320" size="4" shape="" element_type="f32"/>
			<output>
				<port id="0" precision="FP32"/>
			</output>
		</layer>
		<layer id="403" name="4993499724392" type="Const" version="opset1">
			<data offset="14324" size="4" shape="" element_type="f32"/>
			<output>
				<port id="0" precision="FP32"/>
			</output>
		</layer>
		<layer id="404" name="4380438422850" type="Const" version="opset1">
			<data offset="8" size="4" shape="" element_type="f32"/>
			<output>
				<port id="0" precision="FP32"/>
			</output>
		</layer>
		<layer id="405" name="4381438522019" type="Const" version="opset1">
			<data offset="14324" size="4" shape="" element_type="f32"/>
			<output>
				<port id="0" precision="FP32"/>
			</output>
		</layer>
		<layer id="406" name="4382438621743" type="Const" version="opset1">
			<data offset="8" size="4" shape="" element_type="f32"/>
			<output>
				<port id="0" precision="FP32"/>
			</output>
		</layer>
		<layer id="407" name="4383438724302" type="Const" version="opset1">
			<data offset="14324" size="4" shape="" element_type="f32"/>
			<output>
				<port id="0" precision="FP32"/>
			</output>
		</layer>
		<layer id="408" name="2540254422631" type="Const" version="opset1">
			<data offset="14328" size="4" shape="" element_type="f32"/>
			<output>
				<port id="0" precision="FP32"/>
			</output>
		</layer>
		<layer id="409" name="2541254521857" type="Const" version="opset1">
			<data offset="14332" size="4" shape="" element_type="f32"/>
			<output>
				<port id="0" precision="FP32"/>
			</output>
		</layer>
		<layer id="410" name="2542254621935" type="Const" version="opset1">
			<data offset="14328" size="4" shape="" element_type="f32"/>
			<output>
				<port id="0" precision="FP32"/>
			</output>
		</layer>
		<layer id="411" name="2543254724608" type="Const" version="opset1">
			<data offset="14332" size="4" shape="" element_type="f32"/>
			<output>
				<port id="0" precision="FP32"/>
			</output>
		</layer>
		<layer id="412" name="1970197422469" type="Const" version="opset1">
			<data offset="14336" size="4" shape="" element_type="f32"/>
			<output>
				<port id="0" precision="FP32"/>
			</output>
		</layer>
		<layer id="413" name="1971197523546" type="Const" version="opset1">
			<data offset="14340" size="4" shape="" element_type="f32"/>
			<output>
				<port id="0" precision="FP32"/>
			</output>
		</layer>
		<layer id="414" name="1972197621842" type="Const" version="opset1">
			<data offset="14336" size="4" shape="" element_type="f32"/>
			<output>
				<port id="0" precision="FP32"/>
			</output>
		</layer>
		<layer id="415" name="1973197722754" type="Const" version="opset1">
			<data offset="14340" size="4" shape="" element_type="f32"/>
			<output>
				<port id="0" precision="FP32"/>
			</output>
		</layer>
		<layer id="416" name="1495149723750" type="Const" version="opset1">
			<data offset="14344" size="128" shape="1,32,1,1" element_type="f32"/>
			<output>
				<port id="0" precision="FP32">
					<dim>1</dim>
					<dim>32</dim>
					<dim>1</dim>
					<dim>1</dim>
				</port>
			</output>
		</layer>
		<layer id="417" name="2110211422841" type="Const" version="opset1">
			<data offset="14472" size="4" shape="" element_type="f32"/>
			<output>
				<port id="0" precision="FP32"/>
			</output>
		</layer>
		<layer id="418" name="2111211524476" type="Const" version="opset1">
			<data offset="14476" size="4" shape="" element_type="f32"/>
			<output>
				<port id="0" precision="FP32"/>
			</output>
		</layer>
		<layer id="419" name="2112211623159" type="Const" version="opset1">
			<data offset="14472" size="4" shape="" element_type="f32"/>
			<output>
				<port id="0" precision="FP32"/>
			</output>
		</layer>
		<layer id="420" name="2113211724356" type="Const" version="opset1">
			<data offset="14476" size="4" shape="" element_type="f32"/>
			<output>
				<port id="0" precision="FP32"/>
			</output>
		</layer>
		<layer id="421" name="4730473423531" type="Const" version="opset1">
			<data offset="8" size="4" shape="" element_type="f32"/>
			<output>
				<port id="0" precision="FP32"/>
			</output>
		</layer>
		<layer id="422" name="4731473521833" type="Const" version="opset1">
			<data offset="14480" size="4" shape="" element_type="f32"/>
			<output>
				<port id="0" precision="FP32"/>
			</output>
		</layer>
		<layer id="423" name="4732473621554" type="Const" version="opset1">
			<data offset="8" size="4" shape="" element_type="f32"/>
			<output>
				<port id="0" precision="FP32"/>
			</output>
		</layer>
		<layer id="424" name="4733473722499" type="Const" version="opset1">
			<data offset="14480" size="4" shape="" element_type="f32"/>
			<output>
				<port id="0" precision="FP32"/>
			</output>
		</layer>
		<layer id="425" name="4080408424941" type="Const" version="opset1">
			<data offset="8" size="4" shape="" element_type="f32"/>
			<output>
				<port id="0" precision="FP32"/>
			</output>
		</layer>
		<layer id="426" name="4081408524680" type="Const" version="opset1">
			<data offset="14484" size="4" shape="" element_type="f32"/>
			<output>
				<port id="0" precision="FP32"/>
			</output>
		</layer>
		<layer id="427" name="4082408622463" type="Const" version="opset1">
			<data offset="8" size="4" shape="" element_type="f32"/>
			<output>
				<port id="0" precision="FP32"/>
			</output>
		</layer>
		<layer id="428" name="4083408723540" type="Const" version="opset1">
			<data offset="14484" size="4" shape="" element_type="f32"/>
			<output>
				<port id="0" precision="FP32"/>
			</output>
		</layer>
		<layer id="430" name="Conv2D/fq_input_0" type="FakeQuantize" version="opset1">
			<data levels="256" auto_broadcast="numpy"/>
			<input>
				<port id="0">
					<dim>1</dim>
					<dim>3</dim>
					<dim>192</dim>
					<dim>192</dim>
				</port>
				<port id="1"/>
				<port id="2"/>
				<port id="3"/>
				<port id="4"/>
			</input>
			<output>
				<port id="5" precision="FP32">
					<dim>1</dim>
					<dim>3</dim>
					<dim>192</dim>
					<dim>192</dim>
				</port>
			</output>
		</layer>
		<layer id="431" name="input_1/scale_copy57912078/restored_convert/quantized1516623054" type="Const" version="opset1">
			<data offset="14488" size="2400" shape="32,3,5,5" element_type="i8"/>
			<output>
				<port id="0" precision="I8">
					<dim>32</dim>
					<dim>3</dim>
					<dim>5</dim>
					<dim>5</dim>
				</port>
			</output>
		</layer>
		<layer id="432" name="input_1/scale_copy57912078/restored_convert/quantized/to_f32" type="Convert" version="opset1">
			<data destination_type="f32"/>
			<input>
				<port id="0">
					<dim>32</dim>
					<dim>3</dim>
					<dim>5</dim>
					<dim>5</dim>
				</port>
			</input>
			<output>
				<port id="1" precision="FP32">
					<dim>32</dim>
					<dim>3</dim>
					<dim>5</dim>
					<dim>5</dim>
				</port>
			</output>
		</layer>
		<layer id="433" name="Conv2D/fq_weights_1/zero_point1518521575" type="Const" version="opset1">
			<data offset="16888" size="128" shape="32,1,1,1" element_type="f32"/>
			<output>
				<port id="0" precision="FP32">
					<dim>32</dim>
					<dim>1</dim>
					<dim>1</dim>
					<dim>1</dim>
				</port>
			</output>
		</layer>
		<layer id="434" name="Conv2D/fq_weights_1/minus_zp" type="Subtract" version="opset1">
			<data auto_broadcast="numpy"/>
			<input>
				<port id="0">
					<dim>32</dim>
					<dim>3</dim>
					<dim>5</dim>
					<dim>5</dim>
				</port>
				<port id="1">
					<dim>32</dim>
					<dim>1</dim>
					<dim>1</dim>
					<dim>1</dim>
				</port>
			</input>
			<output>
				<port id="2" precision="FP32">
					<dim>32</dim>
					<dim>3</dim>
					<dim>5</dim>
					<dim>5</dim>
				</port>
			</output>
		</layer>
		<layer id="435" name="Conv2D/fq_weights_1/scale1517421614" type="Const" version="opset1">
			<data offset="17016" size="128" shape="32,1,1,1" element_type="f32"/>
			<output>
				<port id="0" precision="FP32">
					<dim>32</dim>
					<dim>1</dim>
					<dim>1</dim>
					<dim>1</dim>
				</port>
			</output>
		</layer>
		<layer id="436" name="Conv2D/fq_weights_1/mulpiply_by_scale" type="Multiply" version="opset1">
			<data auto_broadcast="numpy"/>
			<input>
				<port id="0">
					<dim>32</dim>
					<dim>3</dim>
					<dim>5</dim>
					<dim>5</dim>
				</port>
				<port id="1">
					<dim>32</dim>
					<dim>1</dim>
					<dim>1</dim>
					<dim>1</dim>
				</port>
			</input>
			<output>
				<port id="2" precision="FP32">
					<dim>32</dim>
					<dim>3</dim>
					<dim>5</dim>
					<dim>5</dim>
				</port>
			</output>
		</layer>
		<layer id="437" name="Conv2D" type="Convolution" version="opset1">
			<data auto_pad="same_upper" strides="2,2" dilations="1,1" pads_begin="0,0" pads_end="0,0"/>
			<rt_info>
				<attribute name="fused_names" version="0" value="Conv2D"/>
			</rt_info>
			<input>
				<port id="0">
					<dim>1</dim>
					<dim>3</dim>
					<dim>192</dim>
					<dim>192</dim>
				</port>
				<port id="1">
					<dim>32</dim>
					<dim>3</dim>
					<dim>5</dim>
					<dim>5</dim>
				</port>
			</input>
			<output>
				<port id="2" precision="FP32" names="Conv2D:0">
					<dim>1</dim>
					<dim>32</dim>
					<dim>96</dim>
					<dim>96</dim>
				</port>
			</output>
		</layer>
		<layer id="438" name="model_1/model/batch_normalization/FusedBatchNormV3_model_1/model/depthwise_conv2d_3/depthwise_model_1/model/conv2d/Conv2D1/y58221557" type="Const" version="opset1">
			<data offset="17144" size="64" shape="1,32,1,1" element_type="f16"/>
			<output>
				<port id="0" precision="FP16">
					<dim>1</dim>
					<dim>32</dim>
					<dim>1</dim>
					<dim>1</dim>
				</port>
			</output>
		</layer>
		<layer id="439" name="model_1/model/batch_normalization/FusedBatchNormV3_model_1/model/depthwise_conv2d_3/depthwise_model_1/model/conv2d/Conv2D1/y58212079/restored_convert" type="Convert" version="opset1">
			<data destination_type="f32"/>
			<rt_info>
				<attribute name="decompression" version="0"/>
				<attribute name="fused_names" version="0" value="model_1/model/batch_normalization/FusedBatchNormV3_model_1/model/depthwise_conv2d_3/depthwise_model_1/model/conv2d/Conv2D1/y"/>
			</rt_info>
			<input>
				<port id="0">
					<dim>1</dim>
					<dim>32</dim>
					<dim>1</dim>
					<dim>1</dim>
				</port>
			</input>
			<output>
				<port id="1" precision="FP32" names="model_1/model/batch_normalization/FusedBatchNormV3_model_1/model/depthwise_conv2d_3/depthwise_model_1/model/conv2d/Conv2D1/y:0">
					<dim>1</dim>
					<dim>32</dim>
					<dim>1</dim>
					<dim>1</dim>
				</port>
			</output>
		</layer>
		<layer id="440" name="model_1/model/batch_normalization/FusedBatchNormV3_model_1/model/depthwise_conv2d_3/depthwise_model_1/model/conv2d/Conv2D1" type="Add" version="opset1">
			<data auto_broadcast="numpy"/>
			<rt_info>
				<attribute name="fused_names" version="0" value="model_1/model/batch_normalization/FusedBatchNormV3_model_1/model/depthwise_conv2d_3/depthwise_model_1/model/conv2d/Conv2D1"/>
			</rt_info>
			<input>
				<port id="0">
					<dim>1</dim>
					<dim>32</dim>
					<dim>96</dim>
					<dim>96</dim>
				</port>
				<port id="1">
					<dim>1</dim>
					<dim>32</dim>
					<dim>1</dim>
					<dim>1</dim>
				</port>
			</input>
			<output>
				<port id="2" precision="FP32" names="model_1/model/batch_normalization/FusedBatchNormV3_model_1/model/depthwise_conv2d_3/depthwise_model_1/model/conv2d/Conv2D1:0">
					<dim>1</dim>
					<dim>32</dim>
					<dim>96</dim>
					<dim>96</dim>
				</port>
			</output>
		</layer>
		<layer id="441" name="model_1/model/p_re_lu/add_model_1/model/p_re_lu/Relu_model_1/model/p_re_lu/Neg_1_model_1/model/p_re_lu/Relu_1_model_1/model/p_re_lu/mul_dequantize_prelu/Relu" type="ReLU" version="opset1">
			<rt_info>
				<attribute name="fused_names" version="0" value="model_1/model/p_re_lu/add_model_1/model/p_re_lu/Relu_model_1/model/p_re_lu/Neg_1_model_1/model/p_re_lu/Relu_1_model_1/model/p_re_lu/mul_dequantize_prelu/Relu"/>
			</rt_info>
			<input>
				<port id="0">
					<dim>1</dim>
					<dim>32</dim>
					<dim>96</dim>
					<dim>96</dim>
				</port>
			</input>
			<output>
				<port id="1" precision="FP32" names="model_1/model/p_re_lu/add_model_1/model/p_re_lu/Relu_model_1/model/p_re_lu/Neg_1_model_1/model/p_re_lu/Relu_1_model_1/model/p_re_lu/mul_dequantize_prelu/Relu:0">
					<dim>1</dim>
					<dim>32</dim>
					<dim>96</dim>
					<dim>96</dim>
				</port>
			</output>
		</layer>
		<layer id="442" name="model_1/model/p_re_lu/add_model_1/model/p_re_lu/Relu_model_1/model/p_re_lu/Neg_1_model_1/model/p_re_lu/Relu_1_model_1/model/p_re_lu/mul_dequantize_prelu/add/fq_input_0" type="FakeQuantize" version="opset1">
			<data levels="256" auto_broadcast="numpy"/>
			<input>
				<port id="0">
					<dim>1</dim>
					<dim>32</dim>
					<dim>96</dim>
					<dim>96</dim>
				</port>
				<port id="1"/>
				<port id="2"/>
				<port id="3"/>
				<port id="4"/>
			</input>
			<output>
				<port id="5" precision="FP32">
					<dim>1</dim>
					<dim>32</dim>
					<dim>96</dim>
					<dim>96</dim>
				</port>
			</output>
		</layer>
		<layer id="443" name="4740474421551" type="Const" version="opset1">
			<data offset="17208" size="4" shape="" element_type="f32"/>
			<output>
				<port id="0" precision="FP32"/>
			</output>
		</layer>
		<layer id="444" name="4741474521866" type="Const" version="opset1">
			<data offset="17212" size="4" shape="" element_type="f32"/>
			<output>
				<port id="0" precision="FP32"/>
			</output>
		</layer>
		<layer id="445" name="4742474623777" type="Const" version="opset1">
			<data offset="17208" size="4" shape="" element_type="f32"/>
			<output>
				<port id="0" precision="FP32"/>
			</output>
		</layer>
		<layer id="446" name="4743474724578" type="Const" version="opset1">
			<data offset="17212" size="4" shape="" element_type="f32"/>
			<output>
				<port id="0" precision="FP32"/>
			</output>
		</layer>
		<layer id="447" name="2620262422853" type="Const" version="opset1">
			<data offset="8" size="4" shape="" element_type="f32"/>
			<output>
				<port id="0" precision="FP32"/>
			</output>
		</layer>
		<layer id="448" name="2621262521620" type="Const" version="opset1">
			<data offset="17216" size="4" shape="" element_type="f32"/>
			<output>
				<port id="0" precision="FP32"/>
			</output>
		</layer>
		<layer id="449" name="2622262622082" type="Const" version="opset1">
			<data offset="8" size="4" shape="" element_type="f32"/>
			<output>
				<port id="0" precision="FP32"/>
			</output>
		</layer>
		<layer id="450" name="2623262724854" type="Const" version="opset1">
			<data offset="17216" size="4" shape="" element_type="f32"/>
			<output>
				<port id="0" precision="FP32"/>
			</output>
		</layer>
		<layer id="451" name="3880388423690" type="Const" version="opset1">
			<data offset="17220" size="4" shape="" element_type="f32"/>
			<output>
				<port id="0" precision="FP32"/>
			</output>
		</layer>
		<layer id="452" name="3881388524653" type="Const" version="opset1">
			<data offset="17224" size="4" shape="" element_type="f32"/>
			<output>
				<port id="0" precision="FP32"/>
			</output>
		</layer>
		<layer id="453" name="3882388622580" type="Const" version="opset1">
			<data offset="17220" size="4" shape="" element_type="f32"/>
			<output>
				<port id="0" precision="FP32"/>
			</output>
		</layer>
		<layer id="454" name="3883388723138" type="Const" version="opset1">
			<data offset="17224" size="4" shape="" element_type="f32"/>
			<output>
				<port id="0" precision="FP32"/>
			</output>
		</layer>
		<layer id="455" name="model_1/model/p_re_lu/add_model_1/model/p_re_lu/Relu_model_1/model/p_re_lu/Neg_1_model_1/model/p_re_lu/Relu_1_model_1/model/p_re_lu/mul_dequantize_prelu/Neg_1/mul_/fq_input_0" type="FakeQuantize" version="opset1">
			<data levels="256" auto_broadcast="numpy"/>
			<input>
				<port id="0">
					<dim>1</dim>
					<dim>32</dim>
					<dim>96</dim>
					<dim>96</dim>
				</port>
				<port id="1"/>
				<port id="2"/>
				<port id="3"/>
				<port id="4"/>
			</input>
			<output>
				<port id="5" precision="FP32">
					<dim>1</dim>
					<dim>32</dim>
					<dim>96</dim>
					<dim>96</dim>
				</port>
			</output>
		</layer>
		<layer id="456" name="57158812081/restored_convert/quantized1456623483" type="Const" version="opset1">
			<data offset="17228" size="1" shape="1,1,1,1" element_type="i8"/>
			<output>
				<port id="0" precision="I8">
					<dim>1</dim>
					<dim>1</dim>
					<dim>1</dim>
					<dim>1</dim>
				</port>
			</output>
		</layer>
		<layer id="457" name="57158812081/restored_convert/quantized/to_f32" type="Convert" version="opset1">
			<data destination_type="f32"/>
			<input>
				<port id="0">
					<dim>1</dim>
					<dim>1</dim>
					<dim>1</dim>
					<dim>1</dim>
				</port>
			</input>
			<output>
				<port id="1" precision="FP32">
					<dim>1</dim>
					<dim>1</dim>
					<dim>1</dim>
					<dim>1</dim>
				</port>
			</output>
		</layer>
		<layer id="458" name="model_1/model/p_re_lu/add_model_1/model/p_re_lu/Relu_model_1/model/p_re_lu/Neg_1_model_1/model/p_re_lu/Relu_1_model_1/model/p_re_lu/mul_dequantize_prelu/Neg_1/mul_/fq_input_1/zero_point1458523549" type="Const" version="opset1">
			<data offset="17229" size="4" shape="1,1,1,1" element_type="f32"/>
			<output>
				<port id="0" precision="FP32">
					<dim>1</dim>
					<dim>1</dim>
					<dim>1</dim>
					<dim>1</dim>
				</port>
			</output>
		</layer>
		<layer id="459" name="model_1/model/p_re_lu/add_model_1/model/p_re_lu/Relu_model_1/model/p_re_lu/Neg_1_model_1/model/p_re_lu/Relu_1_model_1/model/p_re_lu/mul_dequantize_prelu/Neg_1/mul_/fq_input_1/minus_zp" type="Subtract" version="opset1">
			<data auto_broadcast="numpy"/>
			<input>
				<port id="0">
					<dim>1</dim>
					<dim>1</dim>
					<dim>1</dim>
					<dim>1</dim>
				</port>
				<port id="1">
					<dim>1</dim>
					<dim>1</dim>
					<dim>1</dim>
					<dim>1</dim>
				</port>
			</input>
			<output>
				<port id="2" precision="FP32">
					<dim>1</dim>
					<dim>1</dim>
					<dim>1</dim>
					<dim>1</dim>
				</port>
			</output>
		</layer>
		<layer id="460" name="model_1/model/p_re_lu/add_model_1/model/p_re_lu/Relu_model_1/model/p_re_lu/Neg_1_model_1/model/p_re_lu/Relu_1_model_1/model/p_re_lu/mul_dequantize_prelu/Neg_1/mul_/fq_input_1/scale1457422868" type="Const" version="opset1">
			<data offset="17233" size="4" shape="1,1,1,1" element_type="f32"/>
			<output>
				<port id="0" precision="FP32">
					<dim>1</dim>
					<dim>1</dim>
					<dim>1</dim>
					<dim>1</dim>
				</port>
			</output>
		</layer>
		<layer id="461" name="model_1/model/p_re_lu/add_model_1/model/p_re_lu/Relu_model_1/model/p_re_lu/Neg_1_model_1/model/p_re_lu/Relu_1_model_1/model/p_re_lu/mul_dequantize_prelu/Neg_1/mul_/fq_input_1/mulpiply_by_scale" type="Multiply" version="opset1">
			<data auto_broadcast="numpy"/>
			<input>
				<port id="0">
					<dim>1</dim>
					<dim>1</dim>
					<dim>1</dim>
					<dim>1</dim>
				</port>
				<port id="1">
					<dim>1</dim>
					<dim>1</dim>
					<dim>1</dim>
					<dim>1</dim>
				</port>
			</input>
			<output>
				<port id="2" precision="FP32">
					<dim>1</dim>
					<dim>1</dim>
					<dim>1</dim>
					<dim>1</dim>
				</port>
			</output>
		</layer>
		<layer id="462" name="model_1/model/p_re_lu/add_model_1/model/p_re_lu/Relu_model_1/model/p_re_lu/Neg_1_model_1/model/p_re_lu/Relu_1_model_1/model/p_re_lu/mul_dequantize_prelu/Neg_1/mul_" type="Multiply" version="opset1">
			<data auto_broadcast="numpy"/>
			<rt_info>
				<attribute name="fused_names" version="0" value="model_1/model/p_re_lu/add_model_1/model/p_re_lu/Relu_model_1/model/p_re_lu/Neg_1_model_1/model/p_re_lu/Relu_1_model_1/model/p_re_lu/mul_dequantize_prelu/Neg_1/mul_"/>
			</rt_info>
			<input>
				<port id="0">
					<dim>1</dim>
					<dim>32</dim>
					<dim>96</dim>
					<dim>96</dim>
				</port>
				<port id="1">
					<dim>1</dim>
					<dim>1</dim>
					<dim>1</dim>
					<dim>1</dim>
				</port>
			</input>
			<output>
				<port id="2" precision="FP32" names="model_1/model/p_re_lu/add_model_1/model/p_re_lu/Relu_model_1/model/p_re_lu/Neg_1_model_1/model/p_re_lu/Relu_1_model_1/model/p_re_lu/mul_dequantize_prelu/Neg_1:0">
					<dim>1</dim>
					<dim>32</dim>
					<dim>96</dim>
					<dim>96</dim>
				</port>
			</output>
		</layer>
		<layer id="463" name="model_1/model/p_re_lu/add_model_1/model/p_re_lu/Relu_model_1/model/p_re_lu/Neg_1_model_1/model/p_re_lu/Relu_1_model_1/model/p_re_lu/mul_dequantize_prelu/Relu_1" type="ReLU" version="opset1">
			<rt_info>
				<attribute name="fused_names" version="0" value="model_1/model/p_re_lu/add_model_1/model/p_re_lu/Relu_model_1/model/p_re_lu/Neg_1_model_1/model/p_re_lu/Relu_1_model_1/model/p_re_lu/mul_dequantize_prelu/Relu_1"/>
			</rt_info>
			<input>
				<port id="0">
					<dim>1</dim>
					<dim>32</dim>
					<dim>96</dim>
					<dim>96</dim>
				</port>
			</input>
			<output>
				<port id="1" precision="FP32" names="model_1/model/p_re_lu/add_model_1/model/p_re_lu/Relu_model_1/model/p_re_lu/Neg_1_model_1/model/p_re_lu/Relu_1_model_1/model/p_re_lu/mul_dequantize_prelu/Relu_1:0">
					<dim>1</dim>
					<dim>32</dim>
					<dim>96</dim>
					<dim>96</dim>
				</port>
			</output>
		</layer>
		<layer id="464" name="model_1/model/p_re_lu/add_model_1/model/p_re_lu/Relu_model_1/model/p_re_lu/Neg_1_model_1/model/p_re_lu/Relu_1_model_1/model/p_re_lu/mul_dequantize_prelu/mul/fq_input_1" type="FakeQuantize" version="opset1">
			<data levels="256" auto_broadcast="numpy"/>
			<input>
				<port id="0">
					<dim>1</dim>
					<dim>32</dim>
					<dim>96</dim>
					<dim>96</dim>
				</port>
				<port id="1"/>
				<port id="2"/>
				<port id="3"/>
				<port id="4"/>
			</input>
			<output>
				<port id="5" precision="FP32">
					<dim>1</dim>
					<dim>32</dim>
					<dim>96</dim>
					<dim>96</dim>
				</port>
			</output>
		</layer>
		<layer id="465" name="model_1/model/p_re_lu/add_model_1/model/p_re_lu/Relu_model_1/model/p_re_lu/Neg_1_model_1/model/p_re_lu/Relu_1_model_1/model/p_re_lu/mul_dequantize_prelu/Neg/mul_58612080/restored_convert/quantized1642622487" type="Const" version="opset1">
			<data offset="17237" size="32" shape="1,32,1,1" element_type="i8"/>
			<output>
				<port id="0" precision="I8">
					<dim>1</dim>
					<dim>32</dim>
					<dim>1</dim>
					<dim>1</dim>
				</port>
			</output>
		</layer>
		<layer id="466" name="model_1/model/p_re_lu/add_model_1/model/p_re_lu/Relu_model_1/model/p_re_lu/Neg_1_model_1/model/p_re_lu/Relu_1_model_1/model/p_re_lu/mul_dequantize_prelu/Neg/mul_58612080/restored_convert/quantized/to_f32" type="Convert" version="opset1">
			<data destination_type="f32"/>
			<input>
				<port id="0">
					<dim>1</dim>
					<dim>32</dim>
					<dim>1</dim>
					<dim>1</dim>
				</port>
			</input>
			<output>
				<port id="1" precision="FP32">
					<dim>1</dim>
					<dim>32</dim>
					<dim>1</dim>
					<dim>1</dim>
				</port>
			</output>
		</layer>
		<layer id="467" name="model_1/model/p_re_lu/add_model_1/model/p_re_lu/Relu_model_1/model/p_re_lu/Neg_1_model_1/model/p_re_lu/Relu_1_model_1/model/p_re_lu/mul_dequantize_prelu/mul/fq_input_0/zero_point1644522055" type="Const" version="opset1">
			<data offset="17229" size="4" shape="1,1,1,1" element_type="f32"/>
			<output>
				<port id="0" precision="FP32">
					<dim>1</dim>
					<dim>1</dim>
					<dim>1</dim>
					<dim>1</dim>
				</port>
			</output>
		</layer>
		<layer id="468" name="model_1/model/p_re_lu/add_model_1/model/p_re_lu/Relu_model_1/model/p_re_lu/Neg_1_model_1/model/p_re_lu/Relu_1_model_1/model/p_re_lu/mul_dequantize_prelu/mul/fq_input_0/minus_zp" type="Subtract" version="opset1">
			<data auto_broadcast="numpy"/>
			<input>
				<port id="0">
					<dim>1</dim>
					<dim>32</dim>
					<dim>1</dim>
					<dim>1</dim>
				</port>
				<port id="1">
					<dim>1</dim>
					<dim>1</dim>
					<dim>1</dim>
					<dim>1</dim>
				</port>
			</input>
			<output>
				<port id="2" precision="FP32">
					<dim>1</dim>
					<dim>32</dim>
					<dim>1</dim>
					<dim>1</dim>
				</port>
			</output>
		</layer>
		<layer id="469" name="model_1/model/p_re_lu/add_model_1/model/p_re_lu/Relu_model_1/model/p_re_lu/Neg_1_model_1/model/p_re_lu/Relu_1_model_1/model/p_re_lu/mul_dequantize_prelu/mul/fq_input_0/scale1643424959" type="Const" version="opset1">
			<data offset="17269" size="4" shape="1,1,1,1" element_type="f32"/>
			<output>
				<port id="0" precision="FP32">
					<dim>1</dim>
					<dim>1</dim>
					<dim>1</dim>
					<dim>1</dim>
				</port>
			</output>
		</layer>
		<layer id="470" name="model_1/model/p_re_lu/add_model_1/model/p_re_lu/Relu_model_1/model/p_re_lu/Neg_1_model_1/model/p_re_lu/Relu_1_model_1/model/p_re_lu/mul_dequantize_prelu/mul/fq_input_0/mulpiply_by_scale" type="Multiply" version="opset1">
			<data auto_broadcast="numpy"/>
			<input>
				<port id="0">
					<dim>1</dim>
					<dim>32</dim>
					<dim>1</dim>
					<dim>1</dim>
				</port>
				<port id="1">
					<dim>1</dim>
					<dim>1</dim>
					<dim>1</dim>
					<dim>1</dim>
				</port>
			</input>
			<output>
				<port id="2" precision="FP32">
					<dim>1</dim>
					<dim>32</dim>
					<dim>1</dim>
					<dim>1</dim>
				</port>
			</output>
		</layer>
		<layer id="471" name="model_1/model/p_re_lu/add_model_1/model/p_re_lu/Relu_model_1/model/p_re_lu/Neg_1_model_1/model/p_re_lu/Relu_1_model_1/model/p_re_lu/mul_dequantize_prelu/mul" type="Multiply" version="opset1">
			<data auto_broadcast="numpy"/>
			<rt_info>
				<attribute name="fused_names" version="0" value="model_1/model/p_re_lu/add_model_1/model/p_re_lu/Relu_model_1/model/p_re_lu/Neg_1_model_1/model/p_re_lu/Relu_1_model_1/model/p_re_lu/mul_dequantize_prelu/mul"/>
			</rt_info>
			<input>
				<port id="0">
					<dim>1</dim>
					<dim>32</dim>
					<dim>1</dim>
					<dim>1</dim>
				</port>
				<port id="1">
					<dim>1</dim>
					<dim>32</dim>
					<dim>96</dim>
					<dim>96</dim>
				</port>
			</input>
			<output>
				<port id="2" precision="FP32" names="model_1/model/p_re_lu/add_model_1/model/p_re_lu/Relu_model_1/model/p_re_lu/Neg_1_model_1/model/p_re_lu/Relu_1_model_1/model/p_re_lu/mul_dequantize_prelu/mul:0">
					<dim>1</dim>
					<dim>32</dim>
					<dim>96</dim>
					<dim>96</dim>
				</port>
			</output>
		</layer>
		<layer id="472" name="model_1/model/p_re_lu/add_model_1/model/p_re_lu/Relu_model_1/model/p_re_lu/Neg_1_model_1/model/p_re_lu/Relu_1_model_1/model/p_re_lu/mul_dequantize_prelu/add/fq_input_1" type="FakeQuantize" version="opset1">
			<data levels="256" auto_broadcast="numpy"/>
			<input>
				<port id="0">
					<dim>1</dim>
					<dim>32</dim>
					<dim>96</dim>
					<dim>96</dim>
				</port>
				<port id="1"/>
				<port id="2"/>
				<port id="3"/>
				<port id="4"/>
			</input>
			<output>
				<port id="5" precision="FP32">
					<dim>1</dim>
					<dim>32</dim>
					<dim>96</dim>
					<dim>96</dim>
				</port>
			</output>
		</layer>
		<layer id="473" name="model_1/model/p_re_lu/add_model_1/model/p_re_lu/Relu_model_1/model/p_re_lu/Neg_1_model_1/model/p_re_lu/Relu_1_model_1/model/p_re_lu/mul_dequantize_prelu/add" type="Add" version="opset1">
			<data auto_broadcast="numpy"/>
			<rt_info>
				<attribute name="fused_names" version="0" value="model_1/model/p_re_lu/add_model_1/model/p_re_lu/Relu_model_1/model/p_re_lu/Neg_1_model_1/model/p_re_lu/Relu_1_model_1/model/p_re_lu/mul_dequantize_prelu/add"/>
			</rt_info>
			<input>
				<port id="0">
					<dim>1</dim>
					<dim>32</dim>
					<dim>96</dim>
					<dim>96</dim>
				</port>
				<port id="1">
					<dim>1</dim>
					<dim>32</dim>
					<dim>96</dim>
					<dim>96</dim>
				</port>
			</input>
			<output>
				<port id="2" precision="FP32" names="model_1/model/p_re_lu/add_model_1/model/p_re_lu/Relu_model_1/model/p_re_lu/Neg_1_model_1/model/p_re_lu/Relu_1_model_1/model/p_re_lu/mul_dequantize:0,model_1/model/p_re_lu/add_model_1/model/p_re_lu/Relu_model_1/model/p_re_lu/Neg_1_model_1/model/p_re_lu/Relu_1_model_1/model/p_re_lu/mul_dequantize_prelu/add:0">
					<dim>1</dim>
					<dim>32</dim>
					<dim>96</dim>
					<dim>96</dim>
				</port>
			</output>
		</layer>
		<layer id="474" name="depthwise/fq_input_0" type="FakeQuantize" version="opset1">
			<data levels="256" auto_broadcast="numpy"/>
			<input>
				<port id="0">
					<dim>1</dim>
					<dim>32</dim>
					<dim>96</dim>
					<dim>96</dim>
				</port>
				<port id="1"/>
				<port id="2"/>
				<port id="3"/>
				<port id="4"/>
			</input>
			<output>
				<port id="5" precision="FP32">
					<dim>1</dim>
					<dim>32</dim>
					<dim>96</dim>
					<dim>96</dim>
				</port>
			</output>
		</layer>
		<layer id="475" name="19133/value1913523114" type="Const" version="opset1">
			<data offset="17273" size="40" shape="5" element_type="i64"/>
			<output>
				<port id="0" precision="I64">
					<dim>5</dim>
				</port>
			</output>
		</layer>
		<layer id="476" name="depthwise/filter_in59412082/restored_convert/quantized1414624365" type="Const" version="opset1">
			<data offset="17313" size="800" shape="32,1,5,5" element_type="i8"/>
			<output>
				<port id="0" precision="I8">
					<dim>32</dim>
					<dim>1</dim>
					<dim>5</dim>
					<dim>5</dim>
				</port>
			</output>
		</layer>
		<layer id="477" name="depthwise/filter_in59412082/restored_convert/quantized/to_f32" type="Convert" version="opset1">
			<data destination_type="f32"/>
			<input>
				<port id="0">
					<dim>32</dim>
					<dim>1</dim>
					<dim>5</dim>
					<dim>5</dim>
				</port>
			</input>
			<output>
				<port id="1" precision="FP32">
					<dim>32</dim>
					<dim>1</dim>
					<dim>5</dim>
					<dim>5</dim>
				</port>
			</output>
		</layer>
		<layer id="478" name="depthwise/fq_weights_1/zero_point1416522781" type="Const" version="opset1">
			<data offset="18113" size="128" shape="32,1,1,1" element_type="f32"/>
			<output>
				<port id="0" precision="FP32">
					<dim>32</dim>
					<dim>1</dim>
					<dim>1</dim>
					<dim>1</dim>
				</port>
			</output>
		</layer>
		<layer id="479" name="depthwise/fq_weights_1/minus_zp" type="Subtract" version="opset1">
			<data auto_broadcast="numpy"/>
			<input>
				<port id="0">
					<dim>32</dim>
					<dim>1</dim>
					<dim>5</dim>
					<dim>5</dim>
				</port>
				<port id="1">
					<dim>32</dim>
					<dim>1</dim>
					<dim>1</dim>
					<dim>1</dim>
				</port>
			</input>
			<output>
				<port id="2" precision="FP32">
					<dim>32</dim>
					<dim>1</dim>
					<dim>5</dim>
					<dim>5</dim>
				</port>
			</output>
		</layer>
		<layer id="480" name="depthwise/fq_weights_1/scale1415422193" type="Const" version="opset1">
			<data offset="18241" size="128" shape="32,1,1,1" element_type="f32"/>
			<output>
				<port id="0" precision="FP32">
					<dim>32</dim>
					<dim>1</dim>
					<dim>1</dim>
					<dim>1</dim>
				</port>
			</output>
		</layer>
		<layer id="481" name="depthwise/fq_weights_1/mulpiply_by_scale" type="Multiply" version="opset1">
			<data auto_broadcast="numpy"/>
			<input>
				<port id="0">
					<dim>32</dim>
					<dim>1</dim>
					<dim>5</dim>
					<dim>5</dim>
				</port>
				<port id="1">
					<dim>32</dim>
					<dim>1</dim>
					<dim>1</dim>
					<dim>1</dim>
				</port>
			</input>
			<output>
				<port id="2" precision="FP32">
					<dim>32</dim>
					<dim>1</dim>
					<dim>5</dim>
					<dim>5</dim>
				</port>
			</output>
		</layer>
		<layer id="482" name="19133" type="Reshape" version="opset1">
			<data special_zero="true"/>
			<input>
				<port id="0">
					<dim>32</dim>
					<dim>1</dim>
					<dim>5</dim>
					<dim>5</dim>
				</port>
				<port id="1">
					<dim>5</dim>
				</port>
			</input>
			<output>
				<port id="2" precision="FP32">
					<dim>32</dim>
					<dim>1</dim>
					<dim>1</dim>
					<dim>5</dim>
					<dim>5</dim>
				</port>
			</output>
		</layer>
		<layer id="483" name="depthwise" type="GroupConvolution" version="opset1">
			<data auto_pad="same_upper" strides="1,1" dilations="1,1" pads_begin="0,0" pads_end="0,0"/>
			<rt_info>
				<attribute name="fused_names" version="0" value="depthwise, model_1/model/depthwise_conv2d/depthwise1"/>
			</rt_info>
			<input>
				<port id="0">
					<dim>1</dim>
					<dim>32</dim>
					<dim>96</dim>
					<dim>96</dim>
				</port>
				<port id="1">
					<dim>32</dim>
					<dim>1</dim>
					<dim>1</dim>
					<dim>5</dim>
					<dim>5</dim>
				</port>
			</input>
			<output>
				<port id="2" precision="FP32" names="depthwise:0,model_1/model/depthwise_conv2d/depthwise1:0">
					<dim>1</dim>
					<dim>32</dim>
					<dim>96</dim>
					<dim>96</dim>
				</port>
			</output>
		</layer>
		<layer id="484" name="depthwise/add_" type="Add" version="opset1">
			<data auto_broadcast="numpy"/>
			<input>
				<port id="0">
					<dim>1</dim>
					<dim>32</dim>
					<dim>96</dim>
					<dim>96</dim>
				</port>
				<port id="1">
					<dim>1</dim>
					<dim>32</dim>
					<dim>1</dim>
					<dim>1</dim>
				</port>
			</input>
			<output>
				<port id="2" precision="FP32">
					<dim>1</dim>
					<dim>32</dim>
					<dim>96</dim>
					<dim>96</dim>
				</port>
			</output>
		</layer>
		<layer id="485" name="Conv2D_1/fq_input_0" type="FakeQuantize" version="opset1">
			<data levels="256" auto_broadcast="numpy"/>
			<input>
				<port id="0">
					<dim>1</dim>
					<dim>32</dim>
					<dim>96</dim>
					<dim>96</dim>
				</port>
				<port id="1"/>
				<port id="2"/>
				<port id="3"/>
				<port id="4"/>
			</input>
			<output>
				<port id="5" precision="FP32">
					<dim>1</dim>
					<dim>32</dim>
					<dim>96</dim>
					<dim>96</dim>
				</port>
			</output>
		</layer>
		<layer id="486" name="Conv2D_1/filter59712083/restored_convert/quantized1372622955" type="Const" version="opset1">
			<data offset="18369" size="1024" shape="32,32,1,1" element_type="i8"/>
			<output>
				<port id="0" precision="I8">
					<dim>32</dim>
					<dim>32</dim>
					<dim>1</dim>
					<dim>1</dim>
				</port>
			</output>
		</layer>
		<layer id="487" name="Conv2D_1/filter59712083/restored_convert/quantized/to_f32" type="Convert" version="opset1">
			<data destination_type="f32"/>
			<input>
				<port id="0">
					<dim>32</dim>
					<dim>32</dim>
					<dim>1</dim>
					<dim>1</dim>
				</port>
			</input>
			<output>
				<port id="1" precision="FP32">
					<dim>32</dim>
					<dim>32</dim>
					<dim>1</dim>
					<dim>1</dim>
				</port>
			</output>
		</layer>
		<layer id="488" name="Conv2D_1/fq_weights_1/zero_point1374524389" type="Const" version="opset1">
			<data offset="19393" size="128" shape="32,1,1,1" element_type="f32"/>
			<output>
				<port id="0" precision="FP32">
					<dim>32</dim>
					<dim>1</dim>
					<dim>1</dim>
					<dim>1</dim>
				</port>
			</output>
		</layer>
		<layer id="489" name="Conv2D_1/fq_weights_1/minus_zp" type="Subtract" version="opset1">
			<data auto_broadcast="numpy"/>
			<input>
				<port id="0">
					<dim>32</dim>
					<dim>32</dim>
					<dim>1</dim>
					<dim>1</dim>
				</port>
				<port id="1">
					<dim>32</dim>
					<dim>1</dim>
					<dim>1</dim>
					<dim>1</dim>
				</port>
			</input>
			<output>
				<port id="2" precision="FP32">
					<dim>32</dim>
					<dim>32</dim>
					<dim>1</dim>
					<dim>1</dim>
				</port>
			</output>
		</layer>
		<layer id="490" name="Conv2D_1/fq_weights_1/scale1373423537" type="Const" version="opset1">
			<data offset="19521" size="128" shape="32,1,1,1" element_type="f32"/>
			<output>
				<port id="0" precision="FP32">
					<dim>32</dim>
					<dim>1</dim>
					<dim>1</dim>
					<dim>1</dim>
				</port>
			</output>
		</layer>
		<layer id="491" name="Conv2D_1/fq_weights_1/mulpiply_by_scale" type="Multiply" version="opset1">
			<data auto_broadcast="numpy"/>
			<input>
				<port id="0">
					<dim>32</dim>
					<dim>32</dim>
					<dim>1</dim>
					<dim>1</dim>
				</port>
				<port id="1">
					<dim>32</dim>
					<dim>1</dim>
					<dim>1</dim>
					<dim>1</dim>
				</port>
			</input>
			<output>
				<port id="2" precision="FP32">
					<dim>32</dim>
					<dim>32</dim>
					<dim>1</dim>
					<dim>1</dim>
				</port>
			</output>
		</layer>
		<layer id="492" name="Conv2D_1" type="Convolution" version="opset1">
			<data auto_pad="valid" strides="1,1" dilations="1,1" pads_begin="0,0" pads_end="0,0"/>
			<rt_info>
				<attribute name="fused_names" version="0" value="Conv2D_1"/>
			</rt_info>
			<input>
				<port id="0">
					<dim>1</dim>
					<dim>32</dim>
					<dim>96</dim>
					<dim>96</dim>
				</port>
				<port id="1">
					<dim>32</dim>
					<dim>32</dim>
					<dim>1</dim>
					<dim>1</dim>
				</port>
			</input>
			<output>
				<port id="2" precision="FP32" names="Conv2D_1:0">
					<dim>1</dim>
					<dim>32</dim>
					<dim>96</dim>
					<dim>96</dim>
				</port>
			</output>
		</layer>
		<layer id="493" name="model_1/model/batch_normalization_1/FusedBatchNormV3_model_1/model/depthwise_conv2d_3/depthwise_model_1/model/conv2d_1/Conv2D1/y60023048" type="Const" version="opset1">
			<data offset="19649" size="64" shape="1,32,1,1" element_type="f16"/>
			<output>
				<port id="0" precision="FP16">
					<dim>1</dim>
					<dim>32</dim>
					<dim>1</dim>
					<dim>1</dim>
				</port>
			</output>
		</layer>
		<layer id="494" name="model_1/model/batch_normalization_1/FusedBatchNormV3_model_1/model/depthwise_conv2d_3/depthwise_model_1/model/conv2d_1/Conv2D1/y60012084/restored_convert" type="Convert" version="opset1">
			<data destination_type="f32"/>
			<rt_info>
				<attribute name="decompression" version="0"/>
				<attribute name="fused_names" version="0" value="model_1/model/batch_normalization_1/FusedBatchNormV3_model_1/model/depthwise_conv2d_3/depthwise_model_1/model/conv2d_1/Conv2D1/y"/>
			</rt_info>
			<input>
				<port id="0">
					<dim>1</dim>
					<dim>32</dim>
					<dim>1</dim>
					<dim>1</dim>
				</port>
			</input>
			<output>
				<port id="1" precision="FP32" names="model_1/model/batch_normalization_1/FusedBatchNormV3_model_1/model/depthwise_conv2d_3/depthwise_model_1/model/conv2d_1/Conv2D1/y:0">
					<dim>1</dim>
					<dim>32</dim>
					<dim>1</dim>
					<dim>1</dim>
				</port>
			</output>
		</layer>
		<layer id="495" name="model_1/model/batch_normalization_1/FusedBatchNormV3_model_1/model/depthwise_conv2d_3/depthwise_model_1/model/conv2d_1/Conv2D1" type="Add" version="opset1">
			<data auto_broadcast="numpy"/>
			<rt_info>
				<attribute name="fused_names" version="0" value="model_1/model/batch_normalization_1/FusedBatchNormV3_model_1/model/depthwise_conv2d_3/depthwise_model_1/model/conv2d_1/Conv2D1"/>
			</rt_info>
			<input>
				<port id="0">
					<dim>1</dim>
					<dim>32</dim>
					<dim>96</dim>
					<dim>96</dim>
				</port>
				<port id="1">
					<dim>1</dim>
					<dim>32</dim>
					<dim>1</dim>
					<dim>1</dim>
				</port>
			</input>
			<output>
				<port id="2" precision="FP32" names="model_1/model/batch_normalization_1/FusedBatchNormV3_model_1/model/depthwise_conv2d_3/depthwise_model_1/model/conv2d_1/Conv2D1:0">
					<dim>1</dim>
					<dim>32</dim>
					<dim>96</dim>
					<dim>96</dim>
				</port>
			</output>
		</layer>
		<layer id="496" name="model_1/model/add/add/fq_input_1" type="FakeQuantize" version="opset1">
			<data levels="256" auto_broadcast="numpy"/>
			<input>
				<port id="0">
					<dim>1</dim>
					<dim>32</dim>
					<dim>96</dim>
					<dim>96</dim>
				</port>
				<port id="1"/>
				<port id="2"/>
				<port id="3"/>
				<port id="4"/>
			</input>
			<output>
				<port id="5" precision="FP32">
					<dim>1</dim>
					<dim>32</dim>
					<dim>96</dim>
					<dim>96</dim>
				</port>
			</output>
		</layer>
		<layer id="497" name="model_1/model/add/add" type="Add" version="opset1">
			<data auto_broadcast="numpy"/>
			<rt_info>
				<attribute name="fused_names" version="0" value="model_1/model/add/add"/>
			</rt_info>
			<input>
				<port id="0">
					<dim>1</dim>
					<dim>32</dim>
					<dim>96</dim>
					<dim>96</dim>
				</port>
				<port id="1">
					<dim>1</dim>
					<dim>32</dim>
					<dim>96</dim>
					<dim>96</dim>
				</port>
			</input>
			<output>
				<port id="2" precision="FP32" names="model_1/model/add/add:0">
					<dim>1</dim>
					<dim>32</dim>
					<dim>96</dim>
					<dim>96</dim>
				</port>
			</output>
		</layer>
		<layer id="498" name="model_1/model/p_re_lu_1/add_model_1/model/p_re_lu_1/Relu_model_1/model/p_re_lu_1/Neg_1_model_1/model/p_re_lu_1/Relu_1_model_1/model/p_re_lu_1/mul_dequantize_prelu/Relu" type="ReLU" version="opset1">
			<rt_info>
				<attribute name="fused_names" version="0" value="model_1/model/p_re_lu_1/add_model_1/model/p_re_lu_1/Relu_model_1/model/p_re_lu_1/Neg_1_model_1/model/p_re_lu_1/Relu_1_model_1/model/p_re_lu_1/mul_dequantize_prelu/Relu"/>
			</rt_info>
			<input>
				<port id="0">
					<dim>1</dim>
					<dim>32</dim>
					<dim>96</dim>
					<dim>96</dim>
				</port>
			</input>
			<output>
				<port id="1" precision="FP32" names="model_1/model/p_re_lu_1/add_model_1/model/p_re_lu_1/Relu_model_1/model/p_re_lu_1/Neg_1_model_1/model/p_re_lu_1/Relu_1_model_1/model/p_re_lu_1/mul_dequantize_prelu/Relu:0">
					<dim>1</dim>
					<dim>32</dim>
					<dim>96</dim>
					<dim>96</dim>
				</port>
			</output>
		</layer>
		<layer id="499" name="model_1/model/p_re_lu_1/add_model_1/model/p_re_lu_1/Relu_model_1/model/p_re_lu_1/Neg_1_model_1/model/p_re_lu_1/Relu_1_model_1/model/p_re_lu_1/mul_dequantize_prelu/add/fq_input_0" type="FakeQuantize" version="opset1">
			<data levels="256" auto_broadcast="numpy"/>
			<input>
				<port id="0">
					<dim>1</dim>
					<dim>32</dim>
					<dim>96</dim>
					<dim>96</dim>
				</port>
				<port id="1"/>
				<port id="2"/>
				<port id="3"/>
				<port id="4"/>
			</input>
			<output>
				<port id="5" precision="FP32">
					<dim>1</dim>
					<dim>32</dim>
					<dim>96</dim>
					<dim>96</dim>
				</port>
			</output>
		</layer>
		<layer id="500" name="4390439424773" type="Const" version="opset1">
			<data offset="19713" size="4" shape="" element_type="f32"/>
			<output>
				<port id="0" precision="FP32"/>
			</output>
		</layer>
		<layer id="501" name="4391439523945" type="Const" version="opset1">
			<data offset="19717" size="4" shape="" element_type="f32"/>
			<output>
				<port id="0" precision="FP32"/>
			</output>
		</layer>
		<layer id="502" name="4392439624686" type="Const" version="opset1">
			<data offset="19713" size="4" shape="" element_type="f32"/>
			<output>
				<port id="0" precision="FP32"/>
			</output>
		</layer>
		<layer id="503" name="4393439721995" type="Const" version="opset1">
			<data offset="19717" size="4" shape="" element_type="f32"/>
			<output>
				<port id="0" precision="FP32"/>
			</output>
		</layer>
		<layer id="504" name="3850385423342" type="Const" version="opset1">
			<data offset="19721" size="4" shape="" element_type="f32"/>
			<output>
				<port id="0" precision="FP32"/>
			</output>
		</layer>
		<layer id="505" name="3851385521791" type="Const" version="opset1">
			<data offset="19725" size="4" shape="" element_type="f32"/>
			<output>
				<port id="0" precision="FP32"/>
			</output>
		</layer>
		<layer id="506" name="3852385623174" type="Const" version="opset1">
			<data offset="19721" size="4" shape="" element_type="f32"/>
			<output>
				<port id="0" precision="FP32"/>
			</output>
		</layer>
		<layer id="507" name="3853385722514" type="Const" version="opset1">
			<data offset="19725" size="4" shape="" element_type="f32"/>
			<output>
				<port id="0" precision="FP32"/>
			</output>
		</layer>
		<layer id="508" name="3150315423123" type="Const" version="opset1">
			<data offset="14320" size="4" shape="" element_type="f32"/>
			<output>
				<port id="0" precision="FP32"/>
			</output>
		</layer>
		<layer id="509" name="3151315524194" type="Const" version="opset1">
			<data offset="14324" size="4" shape="" element_type="f32"/>
			<output>
				<port id="0" precision="FP32"/>
			</output>
		</layer>
		<layer id="510" name="3152315623057" type="Const" version="opset1">
			<data offset="14320" size="4" shape="" element_type="f32"/>
			<output>
				<port id="0" precision="FP32"/>
			</output>
		</layer>
		<layer id="511" name="3153315723246" type="Const" version="opset1">
			<data offset="14324" size="4" shape="" element_type="f32"/>
			<output>
				<port id="0" precision="FP32"/>
			</output>
		</layer>
		<layer id="512" name="model_1/model/p_re_lu_1/add_model_1/model/p_re_lu_1/Relu_model_1/model/p_re_lu_1/Neg_1_model_1/model/p_re_lu_1/Relu_1_model_1/model/p_re_lu_1/mul_dequantize_prelu/Neg_1/mul_/fq_input_0" type="FakeQuantize" version="opset1">
			<data levels="256" auto_broadcast="numpy"/>
			<input>
				<port id="0">
					<dim>1</dim>
					<dim>32</dim>
					<dim>96</dim>
					<dim>96</dim>
				</port>
				<port id="1"/>
				<port id="2"/>
				<port id="3"/>
				<port id="4"/>
			</input>
			<output>
				<port id="5" precision="FP32">
					<dim>1</dim>
					<dim>32</dim>
					<dim>96</dim>
					<dim>96</dim>
				</port>
			</output>
		</layer>
		<layer id="513" name="55560712086/restored_convert/quantized1570623126" type="Const" version="opset1">
			<data offset="17228" size="1" shape="1,1,1,1" element_type="i8"/>
			<output>
				<port id="0" precision="I8">
					<dim>1</dim>
					<dim>1</dim>
					<dim>1</dim>
					<dim>1</dim>
				</port>
			</output>
		</layer>
		<layer id="514" name="55560712086/restored_convert/quantized/to_f32" type="Convert" version="opset1">
			<data destination_type="f32"/>
			<input>
				<port id="0">
					<dim>1</dim>
					<dim>1</dim>
					<dim>1</dim>
					<dim>1</dim>
				</port>
			</input>
			<output>
				<port id="1" precision="FP32">
					<dim>1</dim>
					<dim>1</dim>
					<dim>1</dim>
					<dim>1</dim>
				</port>
			</output>
		</layer>
		<layer id="515" name="model_1/model/p_re_lu_1/add_model_1/model/p_re_lu_1/Relu_model_1/model/p_re_lu_1/Neg_1_model_1/model/p_re_lu_1/Relu_1_model_1/model/p_re_lu_1/mul_dequantize_prelu/Neg_1/mul_/fq_input_1/zero_point1572522826" type="Const" version="opset1">
			<data offset="19729" size="4" shape="1,1,1,1" element_type="f32"/>
			<output>
				<port id="0" precision="FP32">
					<dim>1</dim>
					<dim>1</dim>
					<dim>1</dim>
					<dim>1</dim>
				</port>
			</output>
		</layer>
		<layer id="516" name="model_1/model/p_re_lu_1/add_model_1/model/p_re_lu_1/Relu_model_1/model/p_re_lu_1/Neg_1_model_1/model/p_re_lu_1/Relu_1_model_1/model/p_re_lu_1/mul_dequantize_prelu/Neg_1/mul_/fq_input_1/minus_zp" type="Subtract" version="opset1">
			<data auto_broadcast="numpy"/>
			<input>
				<port id="0">
					<dim>1</dim>
					<dim>1</dim>
					<dim>1</dim>
					<dim>1</dim>
				</port>
				<port id="1">
					<dim>1</dim>
					<dim>1</dim>
					<dim>1</dim>
					<dim>1</dim>
				</port>
			</input>
			<output>
				<port id="2" precision="FP32">
					<dim>1</dim>
					<dim>1</dim>
					<dim>1</dim>
					<dim>1</dim>
				</port>
			</output>
		</layer>
		<layer id="517" name="model_1/model/p_re_lu_1/add_model_1/model/p_re_lu_1/Relu_model_1/model/p_re_lu_1/Neg_1_model_1/model/p_re_lu_1/Relu_1_model_1/model/p_re_lu_1/mul_dequantize_prelu/Neg_1/mul_/fq_input_1/scale1571424341" type="Const" version="opset1">
			<data offset="17233" size="4" shape="1,1,1,1" element_type="f32"/>
			<output>
				<port id="0" precision="FP32">
					<dim>1</dim>
					<dim>1</dim>
					<dim>1</dim>
					<dim>1</dim>
				</port>
			</output>
		</layer>
		<layer id="518" name="model_1/model/p_re_lu_1/add_model_1/model/p_re_lu_1/Relu_model_1/model/p_re_lu_1/Neg_1_model_1/model/p_re_lu_1/Relu_1_model_1/model/p_re_lu_1/mul_dequantize_prelu/Neg_1/mul_/fq_input_1/mulpiply_by_scale" type="Multiply" version="opset1">
			<data auto_broadcast="numpy"/>
			<input>
				<port id="0">
					<dim>1</dim>
					<dim>1</dim>
					<dim>1</dim>
					<dim>1</dim>
				</port>
				<port id="1">
					<dim>1</dim>
					<dim>1</dim>
					<dim>1</dim>
					<dim>1</dim>
				</port>
			</input>
			<output>
				<port id="2" precision="FP32">
					<dim>1</dim>
					<dim>1</dim>
					<dim>1</dim>
					<dim>1</dim>
				</port>
			</output>
		</layer>
		<layer id="519" name="model_1/model/p_re_lu_1/add_model_1/model/p_re_lu_1/Relu_model_1/model/p_re_lu_1/Neg_1_model_1/model/p_re_lu_1/Relu_1_model_1/model/p_re_lu_1/mul_dequantize_prelu/Neg_1/mul_" type="Multiply" version="opset1">
			<data auto_broadcast="numpy"/>
			<rt_info>
				<attribute name="fused_names" version="0" value="model_1/model/p_re_lu_1/add_model_1/model/p_re_lu_1/Relu_model_1/model/p_re_lu_1/Neg_1_model_1/model/p_re_lu_1/Relu_1_model_1/model/p_re_lu_1/mul_dequantize_prelu/Neg_1/mul_"/>
			</rt_info>
			<input>
				<port id="0">
					<dim>1</dim>
					<dim>32</dim>
					<dim>96</dim>
					<dim>96</dim>
				</port>
				<port id="1">
					<dim>1</dim>
					<dim>1</dim>
					<dim>1</dim>
					<dim>1</dim>
				</port>
			</input>
			<output>
				<port id="2" precision="FP32" names="model_1/model/p_re_lu_1/add_model_1/model/p_re_lu_1/Relu_model_1/model/p_re_lu_1/Neg_1_model_1/model/p_re_lu_1/Relu_1_model_1/model/p_re_lu_1/mul_dequantize_prelu/Neg_1:0">
					<dim>1</dim>
					<dim>32</dim>
					<dim>96</dim>
					<dim>96</dim>
				</port>
			</output>
		</layer>
		<layer id="520" name="model_1/model/p_re_lu_1/add_model_1/model/p_re_lu_1/Relu_model_1/model/p_re_lu_1/Neg_1_model_1/model/p_re_lu_1/Relu_1_model_1/model/p_re_lu_1/mul_dequantize_prelu/Relu_1" type="ReLU" version="opset1">
			<rt_info>
				<attribute name="fused_names" version="0" value="model_1/model/p_re_lu_1/add_model_1/model/p_re_lu_1/Relu_model_1/model/p_re_lu_1/Neg_1_model_1/model/p_re_lu_1/Relu_1_model_1/model/p_re_lu_1/mul_dequantize_prelu/Relu_1"/>
			</rt_info>
			<input>
				<port id="0">
					<dim>1</dim>
					<dim>32</dim>
					<dim>96</dim>
					<dim>96</dim>
				</port>
			</input>
			<output>
				<port id="1" precision="FP32" names="model_1/model/p_re_lu_1/add_model_1/model/p_re_lu_1/Relu_model_1/model/p_re_lu_1/Neg_1_model_1/model/p_re_lu_1/Relu_1_model_1/model/p_re_lu_1/mul_dequantize_prelu/Relu_1:0">
					<dim>1</dim>
					<dim>32</dim>
					<dim>96</dim>
					<dim>96</dim>
				</port>
			</output>
		</layer>
		<layer id="521" name="model_1/model/p_re_lu_1/add_model_1/model/p_re_lu_1/Relu_model_1/model/p_re_lu_1/Neg_1_model_1/model/p_re_lu_1/Relu_1_model_1/model/p_re_lu_1/mul_dequantize_prelu/mul/fq_input_1" type="FakeQuantize" version="opset1">
			<data levels="256" auto_broadcast="numpy"/>
			<input>
				<port id="0">
					<dim>1</dim>
					<dim>32</dim>
					<dim>96</dim>
					<dim>96</dim>
				</port>
				<port id="1"/>
				<port id="2"/>
				<port id="3"/>
				<port id="4"/>
			</input>
			<output>
				<port id="5" precision="FP32">
					<dim>1</dim>
					<dim>32</dim>
					<dim>96</dim>
					<dim>96</dim>
				</port>
			</output>
		</layer>
		<layer id="522" name="model_1/model/p_re_lu_1/add_model_1/model/p_re_lu_1/Relu_model_1/model/p_re_lu_1/Neg_1_model_1/model/p_re_lu_1/Relu_1_model_1/model/p_re_lu_1/mul_dequantize_prelu/Neg/mul_60512085/restored_convert/quantized1633622646" type="Const" version="opset1">
			<data offset="19733" size="32" shape="1,32,1,1" element_type="i8"/>
			<output>
				<port id="0" precision="I8">
					<dim>1</dim>
					<dim>32</dim>
					<dim>1</dim>
					<dim>1</dim>
				</port>
			</output>
		</layer>
		<layer id="523" name="model_1/model/p_re_lu_1/add_model_1/model/p_re_lu_1/Relu_model_1/model/p_re_lu_1/Neg_1_model_1/model/p_re_lu_1/Relu_1_model_1/model/p_re_lu_1/mul_dequantize_prelu/Neg/mul_60512085/restored_convert/quantized/to_f32" type="Convert" version="opset1">
			<data destination_type="f32"/>
			<input>
				<port id="0">
					<dim>1</dim>
					<dim>32</dim>
					<dim>1</dim>
					<dim>1</dim>
				</port>
			</input>
			<output>
				<port id="1" precision="FP32">
					<dim>1</dim>
					<dim>32</dim>
					<dim>1</dim>
					<dim>1</dim>
				</port>
			</output>
		</layer>
		<layer id="524" name="model_1/model/p_re_lu_1/add_model_1/model/p_re_lu_1/Relu_model_1/model/p_re_lu_1/Neg_1_model_1/model/p_re_lu_1/Relu_1_model_1/model/p_re_lu_1/mul_dequantize_prelu/mul/fq_input_0/zero_point1635524470" type="Const" version="opset1">
			<data offset="19729" size="4" shape="1,1,1,1" element_type="f32"/>
			<output>
				<port id="0" precision="FP32">
					<dim>1</dim>
					<dim>1</dim>
					<dim>1</dim>
					<dim>1</dim>
				</port>
			</output>
		</layer>
		<layer id="525" name="model_1/model/p_re_lu_1/add_model_1/model/p_re_lu_1/Relu_model_1/model/p_re_lu_1/Neg_1_model_1/model/p_re_lu_1/Relu_1_model_1/model/p_re_lu_1/mul_dequantize_prelu/mul/fq_input_0/minus_zp" type="Subtract" version="opset1">
			<data auto_broadcast="numpy"/>
			<input>
				<port id="0">
					<dim>1</dim>
					<dim>32</dim>
					<dim>1</dim>
					<dim>1</dim>
				</port>
				<port id="1">
					<dim>1</dim>
					<dim>1</dim>
					<dim>1</dim>
					<dim>1</dim>
				</port>
			</input>
			<output>
				<port id="2" precision="FP32">
					<dim>1</dim>
					<dim>32</dim>
					<dim>1</dim>
					<dim>1</dim>
				</port>
			</output>
		</layer>
		<layer id="526" name="model_1/model/p_re_lu_1/add_model_1/model/p_re_lu_1/Relu_model_1/model/p_re_lu_1/Neg_1_model_1/model/p_re_lu_1/Relu_1_model_1/model/p_re_lu_1/mul_dequantize_prelu/mul/fq_input_0/scale1634422835" type="Const" version="opset1">
			<data offset="19765" size="4" shape="1,1,1,1" element_type="f32"/>
			<output>
				<port id="0" precision="FP32">
					<dim>1</dim>
					<dim>1</dim>
					<dim>1</dim>
					<dim>1</dim>
				</port>
			</output>
		</layer>
		<layer id="527" name="model_1/model/p_re_lu_1/add_model_1/model/p_re_lu_1/Relu_model_1/model/p_re_lu_1/Neg_1_model_1/model/p_re_lu_1/Relu_1_model_1/model/p_re_lu_1/mul_dequantize_prelu/mul/fq_input_0/mulpiply_by_scale" type="Multiply" version="opset1">
			<data auto_broadcast="numpy"/>
			<input>
				<port id="0">
					<dim>1</dim>
					<dim>32</dim>
					<dim>1</dim>
					<dim>1</dim>
				</port>
				<port id="1">
					<dim>1</dim>
					<dim>1</dim>
					<dim>1</dim>
					<dim>1</dim>
				</port>
			</input>
			<output>
				<port id="2" precision="FP32">
					<dim>1</dim>
					<dim>32</dim>
					<dim>1</dim>
					<dim>1</dim>
				</port>
			</output>
		</layer>
		<layer id="528" name="model_1/model/p_re_lu_1/add_model_1/model/p_re_lu_1/Relu_model_1/model/p_re_lu_1/Neg_1_model_1/model/p_re_lu_1/Relu_1_model_1/model/p_re_lu_1/mul_dequantize_prelu/mul" type="Multiply" version="opset1">
			<data auto_broadcast="numpy"/>
			<rt_info>
				<attribute name="fused_names" version="0" value="model_1/model/p_re_lu_1/add_model_1/model/p_re_lu_1/Relu_model_1/model/p_re_lu_1/Neg_1_model_1/model/p_re_lu_1/Relu_1_model_1/model/p_re_lu_1/mul_dequantize_prelu/mul"/>
			</rt_info>
			<input>
				<port id="0">
					<dim>1</dim>
					<dim>32</dim>
					<dim>1</dim>
					<dim>1</dim>
				</port>
				<port id="1">
					<dim>1</dim>
					<dim>32</dim>
					<dim>96</dim>
					<dim>96</dim>
				</port>
			</input>
			<output>
				<port id="2" precision="FP32" names="model_1/model/p_re_lu_1/add_model_1/model/p_re_lu_1/Relu_model_1/model/p_re_lu_1/Neg_1_model_1/model/p_re_lu_1/Relu_1_model_1/model/p_re_lu_1/mul_dequantize_prelu/mul:0">
					<dim>1</dim>
					<dim>32</dim>
					<dim>96</dim>
					<dim>96</dim>
				</port>
			</output>
		</layer>
		<layer id="529" name="model_1/model/p_re_lu_1/add_model_1/model/p_re_lu_1/Relu_model_1/model/p_re_lu_1/Neg_1_model_1/model/p_re_lu_1/Relu_1_model_1/model/p_re_lu_1/mul_dequantize_prelu/add/fq_input_1" type="FakeQuantize" version="opset1">
			<data levels="256" auto_broadcast="numpy"/>
			<input>
				<port id="0">
					<dim>1</dim>
					<dim>32</dim>
					<dim>96</dim>
					<dim>96</dim>
				</port>
				<port id="1"/>
				<port id="2"/>
				<port id="3"/>
				<port id="4"/>
			</input>
			<output>
				<port id="5" precision="FP32">
					<dim>1</dim>
					<dim>32</dim>
					<dim>96</dim>
					<dim>96</dim>
				</port>
			</output>
		</layer>
		<layer id="530" name="model_1/model/p_re_lu_1/add_model_1/model/p_re_lu_1/Relu_model_1/model/p_re_lu_1/Neg_1_model_1/model/p_re_lu_1/Relu_1_model_1/model/p_re_lu_1/mul_dequantize_prelu/add" type="Add" version="opset1">
			<data auto_broadcast="numpy"/>
			<rt_info>
				<attribute name="fused_names" version="0" value="model_1/model/p_re_lu_1/add_model_1/model/p_re_lu_1/Relu_model_1/model/p_re_lu_1/Neg_1_model_1/model/p_re_lu_1/Relu_1_model_1/model/p_re_lu_1/mul_dequantize_prelu/add"/>
			</rt_info>
			<input>
				<port id="0">
					<dim>1</dim>
					<dim>32</dim>
					<dim>96</dim>
					<dim>96</dim>
				</port>
				<port id="1">
					<dim>1</dim>
					<dim>32</dim>
					<dim>96</dim>
					<dim>96</dim>
				</port>
			</input>
			<output>
				<port id="2" precision="FP32" names="model_1/model/p_re_lu_1/add_model_1/model/p_re_lu_1/Relu_model_1/model/p_re_lu_1/Neg_1_model_1/model/p_re_lu_1/Relu_1_model_1/model/p_re_lu_1/mul_dequantize:0,model_1/model/p_re_lu_1/add_model_1/model/p_re_lu_1/Relu_model_1/model/p_re_lu_1/Neg_1_model_1/model/p_re_lu_1/Relu_1_model_1/model/p_re_lu_1/mul_dequantize_prelu/add:0">
					<dim>1</dim>
					<dim>32</dim>
					<dim>96</dim>
					<dim>96</dim>
				</port>
			</output>
		</layer>
		<layer id="531" name="depthwise_1/fq_input_0" type="FakeQuantize" version="opset1">
			<data levels="256" auto_broadcast="numpy"/>
			<input>
				<port id="0">
					<dim>1</dim>
					<dim>32</dim>
					<dim>96</dim>
					<dim>96</dim>
				</port>
				<port id="1"/>
				<port id="2"/>
				<port id="3"/>
				<port id="4"/>
			</input>
			<output>
				<port id="5" precision="FP32">
					<dim>1</dim>
					<dim>32</dim>
					<dim>96</dim>
					<dim>96</dim>
				</port>
			</output>
		</layer>
		<layer id="532" name="19137/value1913923396" type="Const" version="opset1">
			<data offset="17273" size="40" shape="5" element_type="i64"/>
			<output>
				<port id="0" precision="I64">
					<dim>5</dim>
				</port>
			</output>
		</layer>
		<layer id="533" name="depthwise_1/filter_in61312087/restored_convert/quantized1606624818" type="Const" version="opset1">
			<data offset="19769" size="800" shape="32,1,5,5" element_type="i8"/>
			<output>
				<port id="0" precision="I8">
					<dim>32</dim>
					<dim>1</dim>
					<dim>5</dim>
					<dim>5</dim>
				</port>
			</output>
		</layer>
		<layer id="534" name="depthwise_1/filter_in61312087/restored_convert/quantized/to_f32" type="Convert" version="opset1">
			<data destination_type="f32"/>
			<input>
				<port id="0">
					<dim>32</dim>
					<dim>1</dim>
					<dim>5</dim>
					<dim>5</dim>
				</port>
			</input>
			<output>
				<port id="1" precision="FP32">
					<dim>32</dim>
					<dim>1</dim>
					<dim>5</dim>
					<dim>5</dim>
				</port>
			</output>
		</layer>
		<layer id="535" name="depthwise_1/fq_weights_1/zero_point1608522397" type="Const" version="opset1">
			<data offset="20569" size="128" shape="32,1,1,1" element_type="f32"/>
			<output>
				<port id="0" precision="FP32">
					<dim>32</dim>
					<dim>1</dim>
					<dim>1</dim>
					<dim>1</dim>
				</port>
			</output>
		</layer>
		<layer id="536" name="depthwise_1/fq_weights_1/minus_zp" type="Subtract" version="opset1">
			<data auto_broadcast="numpy"/>
			<input>
				<port id="0">
					<dim>32</dim>
					<dim>1</dim>
					<dim>5</dim>
					<dim>5</dim>
				</port>
				<port id="1">
					<dim>32</dim>
					<dim>1</dim>
					<dim>1</dim>
					<dim>1</dim>
				</port>
			</input>
			<output>
				<port id="2" precision="FP32">
					<dim>32</dim>
					<dim>1</dim>
					<dim>5</dim>
					<dim>5</dim>
				</port>
			</output>
		</layer>
		<layer id="537" name="depthwise_1/fq_weights_1/scale1607424197" type="Const" version="opset1">
			<data offset="20697" size="128" shape="32,1,1,1" element_type="f32"/>
			<output>
				<port id="0" precision="FP32">
					<dim>32</dim>
					<dim>1</dim>
					<dim>1</dim>
					<dim>1</dim>
				</port>
			</output>
		</layer>
		<layer id="538" name="depthwise_1/fq_weights_1/mulpiply_by_scale" type="Multiply" version="opset1">
			<data auto_broadcast="numpy"/>
			<input>
				<port id="0">
					<dim>32</dim>
					<dim>1</dim>
					<dim>5</dim>
					<dim>5</dim>
				</port>
				<port id="1">
					<dim>32</dim>
					<dim>1</dim>
					<dim>1</dim>
					<dim>1</dim>
				</port>
			</input>
			<output>
				<port id="2" precision="FP32">
					<dim>32</dim>
					<dim>1</dim>
					<dim>5</dim>
					<dim>5</dim>
				</port>
			</output>
		</layer>
		<layer id="539" name="19137" type="Reshape" version="opset1">
			<data special_zero="true"/>
			<input>
				<port id="0">
					<dim>32</dim>
					<dim>1</dim>
					<dim>5</dim>
					<dim>5</dim>
				</port>
				<port id="1">
					<dim>5</dim>
				</port>
			</input>
			<output>
				<port id="2" precision="FP32">
					<dim>32</dim>
					<dim>1</dim>
					<dim>1</dim>
					<dim>5</dim>
					<dim>5</dim>
				</port>
			</output>
		</layer>
		<layer id="540" name="depthwise_1" type="GroupConvolution" version="opset1">
			<data auto_pad="same_upper" strides="1,1" dilations="1,1" pads_begin="0,0" pads_end="0,0"/>
			<rt_info>
				<attribute name="fused_names" version="0" value="depthwise_1, model_1/model/depthwise_conv2d_1/depthwise1"/>
			</rt_info>
			<input>
				<port id="0">
					<dim>1</dim>
					<dim>32</dim>
					<dim>96</dim>
					<dim>96</dim>
				</port>
				<port id="1">
					<dim>32</dim>
					<dim>1</dim>
					<dim>1</dim>
					<dim>5</dim>
					<dim>5</dim>
				</port>
			</input>
			<output>
				<port id="2" precision="FP32" names="depthwise_1:0,model_1/model/depthwise_conv2d_1/depthwise1:0">
					<dim>1</dim>
					<dim>32</dim>
					<dim>96</dim>
					<dim>96</dim>
				</port>
			</output>
		</layer>
		<layer id="541" name="depthwise_1/add_" type="Add" version="opset1">
			<data auto_broadcast="numpy"/>
			<input>
				<port id="0">
					<dim>1</dim>
					<dim>32</dim>
					<dim>96</dim>
					<dim>96</dim>
				</port>
				<port id="1">
					<dim>1</dim>
					<dim>32</dim>
					<dim>1</dim>
					<dim>1</dim>
				</port>
			</input>
			<output>
				<port id="2" precision="FP32">
					<dim>1</dim>
					<dim>32</dim>
					<dim>96</dim>
					<dim>96</dim>
				</port>
			</output>
		</layer>
		<layer id="542" name="Conv2D_2/fq_input_0" type="FakeQuantize" version="opset1">
			<data levels="256" auto_broadcast="numpy"/>
			<input>
				<port id="0">
					<dim>1</dim>
					<dim>32</dim>
					<dim>96</dim>
					<dim>96</dim>
				</port>
				<port id="1"/>
				<port id="2"/>
				<port id="3"/>
				<port id="4"/>
			</input>
			<output>
				<port id="5" precision="FP32">
					<dim>1</dim>
					<dim>32</dim>
					<dim>96</dim>
					<dim>96</dim>
				</port>
			</output>
		</layer>
		<layer id="543" name="Conv2D_2/filter61612088/restored_convert/quantized1471622466" type="Const" version="opset1">
			<data offset="20825" size="1024" shape="32,32,1,1" element_type="i8"/>
			<output>
				<port id="0" precision="I8">
					<dim>32</dim>
					<dim>32</dim>
					<dim>1</dim>
					<dim>1</dim>
				</port>
			</output>
		</layer>
		<layer id="544" name="Conv2D_2/filter61612088/restored_convert/quantized/to_f32" type="Convert" version="opset1">
			<data destination_type="f32"/>
			<input>
				<port id="0">
					<dim>32</dim>
					<dim>32</dim>
					<dim>1</dim>
					<dim>1</dim>
				</port>
			</input>
			<output>
				<port id="1" precision="FP32">
					<dim>32</dim>
					<dim>32</dim>
					<dim>1</dim>
					<dim>1</dim>
				</port>
			</output>
		</layer>
		<layer id="545" name="Conv2D_2/fq_weights_1/zero_point1473522307" type="Const" version="opset1">
			<data offset="21849" size="128" shape="32,1,1,1" element_type="f32"/>
			<output>
				<port id="0" precision="FP32">
					<dim>32</dim>
					<dim>1</dim>
					<dim>1</dim>
					<dim>1</dim>
				</port>
			</output>
		</layer>
		<layer id="546" name="Conv2D_2/fq_weights_1/minus_zp" type="Subtract" version="opset1">
			<data auto_broadcast="numpy"/>
			<input>
				<port id="0">
					<dim>32</dim>
					<dim>32</dim>
					<dim>1</dim>
					<dim>1</dim>
				</port>
				<port id="1">
					<dim>32</dim>
					<dim>1</dim>
					<dim>1</dim>
					<dim>1</dim>
				</port>
			</input>
			<output>
				<port id="2" precision="FP32">
					<dim>32</dim>
					<dim>32</dim>
					<dim>1</dim>
					<dim>1</dim>
				</port>
			</output>
		</layer>
		<layer id="547" name="Conv2D_2/fq_weights_1/scale1472421755" type="Const" version="opset1">
			<data offset="21977" size="128" shape="32,1,1,1" element_type="f32"/>
			<output>
				<port id="0" precision="FP32">
					<dim>32</dim>
					<dim>1</dim>
					<dim>1</dim>
					<dim>1</dim>
				</port>
			</output>
		</layer>
		<layer id="548" name="Conv2D_2/fq_weights_1/mulpiply_by_scale" type="Multiply" version="opset1">
			<data auto_broadcast="numpy"/>
			<input>
				<port id="0">
					<dim>32</dim>
					<dim>32</dim>
					<dim>1</dim>
					<dim>1</dim>
				</port>
				<port id="1">
					<dim>32</dim>
					<dim>1</dim>
					<dim>1</dim>
					<dim>1</dim>
				</port>
			</input>
			<output>
				<port id="2" precision="FP32">
					<dim>32</dim>
					<dim>32</dim>
					<dim>1</dim>
					<dim>1</dim>
				</port>
			</output>
		</layer>
		<layer id="549" name="Conv2D_2" type="Convolution" version="opset1">
			<data auto_pad="valid" strides="1,1" dilations="1,1" pads_begin="0,0" pads_end="0,0"/>
			<rt_info>
				<attribute name="fused_names" version="0" value="Conv2D_2"/>
			</rt_info>
			<input>
				<port id="0">
					<dim>1</dim>
					<dim>32</dim>
					<dim>96</dim>
					<dim>96</dim>
				</port>
				<port id="1">
					<dim>32</dim>
					<dim>32</dim>
…
		<edge from-layer="1459" from-port="2" to-layer="1460" to-port="0"/>
		<edge from-layer="1431" from-port="0" to-layer="1460" to-port="1"/>
		<edge from-layer="1432" from-port="0" to-layer="1460" to-port="2"/>
		<edge from-layer="1433" from-port="0" to-layer="1460" to-port="3"/>
		<edge from-layer="1434" from-port="0" to-layer="1460" to-port="4"/>
		<edge from-layer="1430" from-port="5" to-layer="1461" to-port="0"/>
		<edge from-layer="1460" from-port="5" to-layer="1461" to-port="1"/>
		<edge from-layer="1461" from-port="2" to-layer="1462" to-port="0"/>
		<edge from-layer="128" from-port="0" to-layer="1462" to-port="1"/>
		<edge from-layer="129" from-port="0" to-layer="1462" to-port="2"/>
		<edge from-layer="130" from-port="0" to-layer="1462" to-port="3"/>
		<edge from-layer="131" from-port="0" to-layer="1462" to-port="4"/>
		<edge from-layer="1464" from-port="0" to-layer="1465" to-port="0"/>
		<edge from-layer="1465" from-port="1" to-layer="1467" to-port="0"/>
		<edge from-layer="1466" from-port="0" to-layer="1467" to-port="1"/>
		<edge from-layer="1467" from-port="2" to-layer="1469" to-port="0"/>
		<edge from-layer="1468" from-port="0" to-layer="1469" to-port="1"/>
		<edge from-layer="1469" from-port="2" to-layer="1470" to-port="0"/>
		<edge from-layer="1463" from-port="0" to-layer="1470" to-port="1"/>
		<edge from-layer="1462" from-port="5" to-layer="1471" to-port="0"/>
		<edge from-layer="1470" from-port="2" to-layer="1471" to-port="1"/>
		<edge from-layer="1471" from-port="2" to-layer="1472" to-port="0"/>
		<edge from-layer="127" from-port="0" to-layer="1472" to-port="1"/>
		<edge from-layer="1472" from-port="2" to-layer="1473" to-port="0"/>
		<edge from-layer="123" from-port="0" to-layer="1473" to-port="1"/>
		<edge from-layer="124" from-port="0" to-layer="1473" to-port="2"/>
		<edge from-layer="125" from-port="0" to-layer="1473" to-port="3"/>
		<edge from-layer="126" from-port="0" to-layer="1473" to-port="4"/>
		<edge from-layer="1474" from-port="0" to-layer="1475" to-port="0"/>
		<edge from-layer="1475" from-port="1" to-layer="1477" to-port="0"/>
		<edge from-layer="1476" from-port="0" to-layer="1477" to-port="1"/>
		<edge from-layer="1477" from-port="2" to-layer="1479" to-port="0"/>
		<edge from-layer="1478" from-port="0" to-layer="1479" to-port="1"/>
		<edge from-layer="1473" from-port="5" to-layer="1480" to-port="0"/>
		<edge from-layer="1479" from-port="2" to-layer="1480" to-port="1"/>
		<edge from-layer="1481" from-port="0" to-layer="1482" to-port="0"/>
		<edge from-layer="1480" from-port="2" to-layer="1483" to-port="0"/>
		<edge from-layer="1482" from-port="1" to-layer="1483" to-port="1"/>
		<edge from-layer="1483" from-port="2" to-layer="1484" to-port="0"/>
		<edge from-layer="119" from-port="0" to-layer="1484" to-port="1"/>
		<edge from-layer="120" from-port="0" to-layer="1484" to-port="2"/>
		<edge from-layer="121" from-port="0" to-layer="1484" to-port="3"/>
		<edge from-layer="122" from-port="0" to-layer="1484" to-port="4"/>
		<edge from-layer="1462" from-port="5" to-layer="1485" to-port="0"/>
		<edge from-layer="1484" from-port="5" to-layer="1485" to-port="1"/>
		<edge from-layer="1485" from-port="2" to-layer="1486" to-port="0"/>
		<edge from-layer="1486" from-port="1" to-layer="1487" to-port="0"/>
		<edge from-layer="115" from-port="0" to-layer="1487" to-port="1"/>
		<edge from-layer="116" from-port="0" to-layer="1487" to-port="2"/>
		<edge from-layer="117" from-port="0" to-layer="1487" to-port="3"/>
		<edge from-layer="118" from-port="0" to-layer="1487" to-port="4"/>
		<edge from-layer="1485" from-port="2" to-layer="1500" to-port="0"/>
		<edge from-layer="1496" from-port="0" to-layer="1500" to-port="1"/>
		<edge from-layer="1497" from-port="0" to-layer="1500" to-port="2"/>
		<edge from-layer="1498" from-port="0" to-layer="1500" to-port="3"/>
		<edge from-layer="1499" from-port="0" to-layer="1500" to-port="4"/>
		<edge from-layer="1501" from-port="0" to-layer="1502" to-port="0"/>
		<edge from-layer="1502" from-port="1" to-layer="1504" to-port="0"/>
		<edge from-layer="1503" from-port="0" to-layer="1504" to-port="1"/>
		<edge from-layer="1504" from-port="2" to-layer="1506" to-port="0"/>
		<edge from-layer="1505" from-port="0" to-layer="1506" to-port="1"/>
		<edge from-layer="1500" from-port="5" to-layer="1507" to-port="0"/>
		<edge from-layer="1506" from-port="2" to-layer="1507" to-port="1"/>
		<edge from-layer="1507" from-port="2" to-layer="1508" to-port="0"/>
		<edge from-layer="1508" from-port="1" to-layer="1509" to-port="0"/>
		<edge from-layer="1492" from-port="0" to-layer="1509" to-port="1"/>
		<edge from-layer="1493" from-port="0" to-layer="1509" to-port="2"/>
		<edge from-layer="1494" from-port="0" to-layer="1509" to-port="3"/>
		<edge from-layer="1495" from-port="0" to-layer="1509" to-port="4"/>
		<edge from-layer="1510" from-port="0" to-layer="1511" to-port="0"/>
		<edge from-layer="1511" from-port="1" to-layer="1513" to-port="0"/>
		<edge from-layer="1512" from-port="0" to-layer="1513" to-port="1"/>
		<edge from-layer="1513" from-port="2" to-layer="1515" to-port="0"/>
		<edge from-layer="1514" from-port="0" to-layer="1515" to-port="1"/>
		<edge from-layer="1515" from-port="2" to-layer="1516" to-port="0"/>
		<edge from-layer="1509" from-port="5" to-layer="1516" to-port="1"/>
		<edge from-layer="1516" from-port="2" to-layer="1517" to-port="0"/>
		<edge from-layer="1488" from-port="0" to-layer="1517" to-port="1"/>
		<edge from-layer="1489" from-port="0" to-layer="1517" to-port="2"/>
		<edge from-layer="1490" from-port="0" to-layer="1517" to-port="3"/>
		<edge from-layer="1491" from-port="0" to-layer="1517" to-port="4"/>
		<edge from-layer="1487" from-port="5" to-layer="1518" to-port="0"/>
		<edge from-layer="1517" from-port="5" to-layer="1518" to-port="1"/>
		<edge from-layer="1518" from-port="2" to-layer="1519" to-port="0"/>
		<edge from-layer="111" from-port="0" to-layer="1519" to-port="1"/>
		<edge from-layer="112" from-port="0" to-layer="1519" to-port="2"/>
		<edge from-layer="113" from-port="0" to-layer="1519" to-port="3"/>
		<edge from-layer="114" from-port="0" to-layer="1519" to-port="4"/>
		<edge from-layer="1521" from-port="0" to-layer="1522" to-port="0"/>
		<edge from-layer="1522" from-port="1" to-layer="1524" to-port="0"/>
		<edge from-layer="1523" from-port="0" to-layer="1524" to-port="1"/>
		<edge from-layer="1524" from-port="2" to-layer="1526" to-port="0"/>
		<edge from-layer="1525" from-port="0" to-layer="1526" to-port="1"/>
		<edge from-layer="1526" from-port="2" to-layer="1527" to-port="0"/>
		<edge from-layer="1520" from-port="0" to-layer="1527" to-port="1"/>
		<edge from-layer="1519" from-port="5" to-layer="1528" to-port="0"/>
		<edge from-layer="1527" from-port="2" to-layer="1528" to-port="1"/>
		<edge from-layer="1528" from-port="2" to-layer="1529" to-port="0"/>
		<edge from-layer="110" from-port="0" to-layer="1529" to-port="1"/>
		<edge from-layer="1529" from-port="2" to-layer="1530" to-port="0"/>
		<edge from-layer="106" from-port="0" to-layer="1530" to-port="1"/>
		<edge from-layer="107" from-port="0" to-layer="1530" to-port="2"/>
		<edge from-layer="108" from-port="0" to-layer="1530" to-port="3"/>
		<edge from-layer="109" from-port="0" to-layer="1530" to-port="4"/>
		<edge from-layer="1531" from-port="0" to-layer="1532" to-port="0"/>
		<edge from-layer="1532" from-port="1" to-layer="1534" to-port="0"/>
		<edge from-layer="1533" from-port="0" to-layer="1534" to-port="1"/>
		<edge from-layer="1534" from-port="2" to-layer="1536" to-port="0"/>
		<edge from-layer="1535" from-port="0" to-layer="1536" to-port="1"/>
		<edge from-layer="1530" from-port="5" to-layer="1537" to-port="0"/>
		<edge from-layer="1536" from-port="2" to-layer="1537" to-port="1"/>
		<edge from-layer="1538" from-port="0" to-layer="1539" to-port="0"/>
		<edge from-layer="1537" from-port="2" to-layer="1540" to-port="0"/>
		<edge from-layer="1539" from-port="1" to-layer="1540" to-port="1"/>
		<edge from-layer="1540" from-port="2" to-layer="1541" to-port="0"/>
		<edge from-layer="102" from-port="0" to-layer="1541" to-port="1"/>
		<edge from-layer="103" from-port="0" to-layer="1541" to-port="2"/>
		<edge from-layer="104" from-port="0" to-layer="1541" to-port="3"/>
		<edge from-layer="105" from-port="0" to-layer="1541" to-port="4"/>
		<edge from-layer="1519" from-port="5" to-layer="1542" to-port="0"/>
		<edge from-layer="1541" from-port="5" to-layer="1542" to-port="1"/>
		<edge from-layer="1542" from-port="2" to-layer="1543" to-port="0"/>
		<edge from-layer="1543" from-port="1" to-layer="1544" to-port="0"/>
		<edge from-layer="98" from-port="0" to-layer="1544" to-port="1"/>
		<edge from-layer="99" from-port="0" to-layer="1544" to-port="2"/>
		<edge from-layer="100" from-port="0" to-layer="1544" to-port="3"/>
		<edge from-layer="101" from-port="0" to-layer="1544" to-port="4"/>
		<edge from-layer="1542" from-port="2" to-layer="1557" to-port="0"/>
		<edge from-layer="1553" from-port="0" to-layer="1557" to-port="1"/>
		<edge from-layer="1554" from-port="0" to-layer="1557" to-port="2"/>
		<edge from-layer="1555" from-port="0" to-layer="1557" to-port="3"/>
		<edge from-layer="1556" from-port="0" to-layer="1557" to-port="4"/>
		<edge from-layer="1558" from-port="0" to-layer="1559" to-port="0"/>
		<edge from-layer="1559" from-port="1" to-layer="1561" to-port="0"/>
		<edge from-layer="1560" from-port="0" to-layer="1561" to-port="1"/>
		<edge from-layer="1561" from-port="2" to-layer="1563" to-port="0"/>
		<edge from-layer="1562" from-port="0" to-layer="1563" to-port="1"/>
		<edge from-layer="1557" from-port="5" to-layer="1564" to-port="0"/>
		<edge from-layer="1563" from-port="2" to-layer="1564" to-port="1"/>
		<edge from-layer="1564" from-port="2" to-layer="1565" to-port="0"/>
		<edge from-layer="1565" from-port="1" to-layer="1566" to-port="0"/>
		<edge from-layer="1549" from-port="0" to-layer="1566" to-port="1"/>
		<edge from-layer="1550" from-port="0" to-layer="1566" to-port="2"/>
		<edge from-layer="1551" from-port="0" to-layer="1566" to-port="3"/>
		<edge from-layer="1552" from-port="0" to-layer="1566" to-port="4"/>
		<edge from-layer="1567" from-port="0" to-layer="1568" to-port="0"/>
		<edge from-layer="1568" from-port="1" to-layer="1570" to-port="0"/>
		<edge from-layer="1569" from-port="0" to-layer="1570" to-port="1"/>
		<edge from-layer="1570" from-port="2" to-layer="1572" to-port="0"/>
		<edge from-layer="1571" from-port="0" to-layer="1572" to-port="1"/>
		<edge from-layer="1572" from-port="2" to-layer="1573" to-port="0"/>
		<edge from-layer="1566" from-port="5" to-layer="1573" to-port="1"/>
		<edge from-layer="1573" from-port="2" to-layer="1574" to-port="0"/>
		<edge from-layer="1545" from-port="0" to-layer="1574" to-port="1"/>
		<edge from-layer="1546" from-port="0" to-layer="1574" to-port="2"/>
		<edge from-layer="1547" from-port="0" to-layer="1574" to-port="3"/>
		<edge from-layer="1548" from-port="0" to-layer="1574" to-port="4"/>
		<edge from-layer="1544" from-port="5" to-layer="1575" to-port="0"/>
		<edge from-layer="1574" from-port="5" to-layer="1575" to-port="1"/>
		<edge from-layer="1575" from-port="2" to-layer="1576" to-port="0"/>
		<edge from-layer="1576" from-port="1" to-layer="1579" to-port="0"/>
		<edge from-layer="1577" from-port="0" to-layer="1579" to-port="1"/>
		<edge from-layer="1578" from-port="0" to-layer="1579" to-port="2"/>
		<edge from-layer="1579" from-port="3" to-layer="1583" to-port="0"/>
		<edge from-layer="1580" from-port="0" to-layer="1583" to-port="1"/>
		<edge from-layer="1581" from-port="0" to-layer="1583" to-port="2"/>
		<edge from-layer="1582" from-port="0" to-layer="1583" to-port="3"/>
		<edge from-layer="1583" from-port="4" to-layer="1584" to-port="0"/>
		<edge from-layer="97" from-port="0" to-layer="1585" to-port="0"/>
		<edge from-layer="1584" from-port="1" to-layer="1585" to-port="1"/>
		<edge from-layer="1575" from-port="2" to-layer="1591" to-port="0"/>
		<edge from-layer="1587" from-port="0" to-layer="1591" to-port="1"/>
		<edge from-layer="1588" from-port="0" to-layer="1591" to-port="2"/>
		<edge from-layer="1589" from-port="0" to-layer="1591" to-port="3"/>
		<edge from-layer="1590" from-port="0" to-layer="1591" to-port="4"/>
		<edge from-layer="1591" from-port="5" to-layer="1593" to-port="0"/>
		<edge from-layer="1592" from-port="0" to-layer="1593" to-port="1"/>
		<edge from-layer="1585" from-port="2" to-layer="1593" to-port="2"/>
		<edge from-layer="1586" from-port="0" to-layer="1593" to-port="3"/>
		<edge from-layer="1593" from-port="4" to-layer="1594" to-port="0"/>
		<edge from-layer="93" from-port="0" to-layer="1594" to-port="1"/>
		<edge from-layer="94" from-port="0" to-layer="1594" to-port="2"/>
		<edge from-layer="95" from-port="0" to-layer="1594" to-port="3"/>
		<edge from-layer="96" from-port="0" to-layer="1594" to-port="4"/>
		<edge from-layer="1595" from-port="0" to-layer="1596" to-port="0"/>
		<edge from-layer="1596" from-port="1" to-layer="1598" to-port="0"/>
		<edge from-layer="1597" from-port="0" to-layer="1598" to-port="1"/>
		<edge from-layer="1598" from-port="2" to-layer="1600" to-port="0"/>
		<edge from-layer="1599" from-port="0" to-layer="1600" to-port="1"/>
		<edge from-layer="1594" from-port="5" to-layer="1601" to-port="0"/>
		<edge from-layer="1600" from-port="2" to-layer="1601" to-port="1"/>
		<edge from-layer="1602" from-port="0" to-layer="1603" to-port="0"/>
		<edge from-layer="1601" from-port="2" to-layer="1604" to-port="0"/>
		<edge from-layer="1603" from-port="1" to-layer="1604" to-port="1"/>
		<edge from-layer="1604" from-port="2" to-layer="1605" to-port="0"/>
		<edge from-layer="1605" from-port="1" to-layer="1606" to-port="0"/>
		<edge from-layer="89" from-port="0" to-layer="1606" to-port="1"/>
		<edge from-layer="90" from-port="0" to-layer="1606" to-port="2"/>
		<edge from-layer="91" from-port="0" to-layer="1606" to-port="3"/>
		<edge from-layer="92" from-port="0" to-layer="1606" to-port="4"/>
		<edge from-layer="1604" from-port="2" to-layer="1619" to-port="0"/>
		<edge from-layer="1615" from-port="0" to-layer="1619" to-port="1"/>
		<edge from-layer="1616" from-port="0" to-layer="1619" to-port="2"/>
		<edge from-layer="1617" from-port="0" to-layer="1619" to-port="3"/>
		<edge from-layer="1618" from-port="0" to-layer="1619" to-port="4"/>
		<edge from-layer="1620" from-port="0" to-layer="1621" to-port="0"/>
		<edge from-layer="1621" from-port="1" to-layer="1623" to-port="0"/>
		<edge from-layer="1622" from-port="0" to-layer="1623" to-port="1"/>
		<edge from-layer="1623" from-port="2" to-layer="1625" to-port="0"/>
		<edge from-layer="1624" from-port="0" to-layer="1625" to-port="1"/>
		<edge from-layer="1619" from-port="5" to-layer="1626" to-port="0"/>
		<edge from-layer="1625" from-port="2" to-layer="1626" to-port="1"/>
		<edge from-layer="1626" from-port="2" to-layer="1627" to-port="0"/>
		<edge from-layer="1627" from-port="1" to-layer="1628" to-port="0"/>
		<edge from-layer="1611" from-port="0" to-layer="1628" to-port="1"/>
		<edge from-layer="1612" from-port="0" to-layer="1628" to-port="2"/>
		<edge from-layer="1613" from-port="0" to-layer="1628" to-port="3"/>
		<edge from-layer="1614" from-port="0" to-layer="1628" to-port="4"/>
		<edge from-layer="1629" from-port="0" to-layer="1630" to-port="0"/>
		<edge from-layer="1630" from-port="1" to-layer="1632" to-port="0"/>
		<edge from-layer="1631" from-port="0" to-layer="1632" to-port="1"/>
		<edge from-layer="1632" from-port="2" to-layer="1634" to-port="0"/>
		<edge from-layer="1633" from-port="0" to-layer="1634" to-port="1"/>
		<edge from-layer="1634" from-port="2" to-layer="1635" to-port="0"/>
		<edge from-layer="1628" from-port="5" to-layer="1635" to-port="1"/>
		<edge from-layer="1635" from-port="2" to-layer="1636" to-port="0"/>
		<edge from-layer="1607" from-port="0" to-layer="1636" to-port="1"/>
		<edge from-layer="1608" from-port="0" to-layer="1636" to-port="2"/>
		<edge from-layer="1609" from-port="0" to-layer="1636" to-port="3"/>
		<edge from-layer="1610" from-port="0" to-layer="1636" to-port="4"/>
		<edge from-layer="1606" from-port="5" to-layer="1637" to-port="0"/>
		<edge from-layer="1636" from-port="5" to-layer="1637" to-port="1"/>
		<edge from-layer="1637" from-port="2" to-layer="1638" to-port="0"/>
		<edge from-layer="85" from-port="0" to-layer="1638" to-port="1"/>
		<edge from-layer="86" from-port="0" to-layer="1638" to-port="2"/>
		<edge from-layer="87" from-port="0" to-layer="1638" to-port="3"/>
		<edge from-layer="88" from-port="0" to-layer="1638" to-port="4"/>
		<edge from-layer="1347" from-port="5" to-layer="1639" to-port="0"/>
		<edge from-layer="1638" from-port="5" to-layer="1639" to-port="1"/>
		<edge from-layer="1639" from-port="2" to-layer="1640" to-port="0"/>
		<edge from-layer="81" from-port="0" to-layer="1640" to-port="1"/>
		<edge from-layer="82" from-port="0" to-layer="1640" to-port="2"/>
		<edge from-layer="83" from-port="0" to-layer="1640" to-port="3"/>
		<edge from-layer="84" from-port="0" to-layer="1640" to-port="4"/>
		<edge from-layer="1642" from-port="0" to-layer="1643" to-port="0"/>
		<edge from-layer="1643" from-port="1" to-layer="1645" to-port="0"/>
		<edge from-layer="1644" from-port="0" to-layer="1645" to-port="1"/>
		<edge from-layer="1645" from-port="2" to-layer="1647" to-port="0"/>
		<edge from-layer="1646" from-port="0" to-layer="1647" to-port="1"/>
		<edge from-layer="1647" from-port="2" to-layer="1648" to-port="0"/>
		<edge from-layer="1641" from-port="0" to-layer="1648" to-port="1"/>
		<edge from-layer="1640" from-port="5" to-layer="1649" to-port="0"/>
		<edge from-layer="1648" from-port="2" to-layer="1649" to-port="1"/>
		<edge from-layer="1649" from-port="2" to-layer="1650" to-port="0"/>
		<edge from-layer="80" from-port="0" to-layer="1650" to-port="1"/>
		<edge from-layer="1650" from-port="2" to-layer="1651" to-port="0"/>
		<edge from-layer="76" from-port="0" to-layer="1651" to-port="1"/>
		<edge from-layer="77" from-port="0" to-layer="1651" to-port="2"/>
		<edge from-layer="78" from-port="0" to-layer="1651" to-port="3"/>
		<edge from-layer="79" from-port="0" to-layer="1651" to-port="4"/>
		<edge from-layer="1652" from-port="0" to-layer="1653" to-port="0"/>
		<edge from-layer="1653" from-port="1" to-layer="1655" to-port="0"/>
		<edge from-layer="1654" from-port="0" to-layer="1655" to-port="1"/>
		<edge from-layer="1655" from-port="2" to-layer="1657" to-port="0"/>
		<edge from-layer="1656" from-port="0" to-layer="1657" to-port="1"/>
		<edge from-layer="1651" from-port="5" to-layer="1658" to-port="0"/>
		<edge from-layer="1657" from-port="2" to-layer="1658" to-port="1"/>
		<edge from-layer="1659" from-port="0" to-layer="1660" to-port="0"/>
		<edge from-layer="1658" from-port="2" to-layer="1661" to-port="0"/>
		<edge from-layer="1660" from-port="1" to-layer="1661" to-port="1"/>
		<edge from-layer="1661" from-port="2" to-layer="1662" to-port="0"/>
		<edge from-layer="72" from-port="0" to-layer="1662" to-port="1"/>
		<edge from-layer="73" from-port="0" to-layer="1662" to-port="2"/>
		<edge from-layer="74" from-port="0" to-layer="1662" to-port="3"/>
		<edge from-layer="75" from-port="0" to-layer="1662" to-port="4"/>
		<edge from-layer="1640" from-port="5" to-layer="1663" to-port="0"/>
		<edge from-layer="1662" from-port="5" to-layer="1663" to-port="1"/>
		<edge from-layer="1663" from-port="2" to-layer="1664" to-port="0"/>
		<edge from-layer="1664" from-port="1" to-layer="1665" to-port="0"/>
		<edge from-layer="68" from-port="0" to-layer="1665" to-port="1"/>
		<edge from-layer="69" from-port="0" to-layer="1665" to-port="2"/>
		<edge from-layer="70" from-port="0" to-layer="1665" to-port="3"/>
		<edge from-layer="71" from-port="0" to-layer="1665" to-port="4"/>
		<edge from-layer="1663" from-port="2" to-layer="1678" to-port="0"/>
		<edge from-layer="1674" from-port="0" to-layer="1678" to-port="1"/>
		<edge from-layer="1675" from-port="0" to-layer="1678" to-port="2"/>
		<edge from-layer="1676" from-port="0" to-layer="1678" to-port="3"/>
		<edge from-layer="1677" from-port="0" to-layer="1678" to-port="4"/>
		<edge from-layer="1679" from-port="0" to-layer="1680" to-port="0"/>
		<edge from-layer="1680" from-port="1" to-layer="1682" to-port="0"/>
		<edge from-layer="1681" from-port="0" to-layer="1682" to-port="1"/>
		<edge from-layer="1682" from-port="2" to-layer="1684" to-port="0"/>
		<edge from-layer="1683" from-port="0" to-layer="1684" to-port="1"/>
		<edge from-layer="1678" from-port="5" to-layer="1685" to-port="0"/>
		<edge from-layer="1684" from-port="2" to-layer="1685" to-port="1"/>
		<edge from-layer="1685" from-port="2" to-layer="1686" to-port="0"/>
		<edge from-layer="1686" from-port="1" to-layer="1687" to-port="0"/>
		<edge from-layer="1670" from-port="0" to-layer="1687" to-port="1"/>
		<edge from-layer="1671" from-port="0" to-layer="1687" to-port="2"/>
		<edge from-layer="1672" from-port="0" to-layer="1687" to-port="3"/>
		<edge from-layer="1673" from-port="0" to-layer="1687" to-port="4"/>
		<edge from-layer="1688" from-port="0" to-layer="1689" to-port="0"/>
		<edge from-layer="1689" from-port="1" to-layer="1691" to-port="0"/>
		<edge from-layer="1690" from-port="0" to-layer="1691" to-port="1"/>
		<edge from-layer="1691" from-port="2" to-layer="1693" to-port="0"/>
		<edge from-layer="1692" from-port="0" to-layer="1693" to-port="1"/>
		<edge from-layer="1693" from-port="2" to-layer="1694" to-port="0"/>
		<edge from-layer="1687" from-port="5" to-layer="1694" to-port="1"/>
		<edge from-layer="1694" from-port="2" to-layer="1695" to-port="0"/>
		<edge from-layer="1666" from-port="0" to-layer="1695" to-port="1"/>
		<edge from-layer="1667" from-port="0" to-layer="1695" to-port="2"/>
		<edge from-layer="1668" from-port="0" to-layer="1695" to-port="3"/>
		<edge from-layer="1669" from-port="0" to-layer="1695" to-port="4"/>
		<edge from-layer="1665" from-port="5" to-layer="1696" to-port="0"/>
		<edge from-layer="1695" from-port="5" to-layer="1696" to-port="1"/>
		<edge from-layer="1696" from-port="2" to-layer="1697" to-port="0"/>
		<edge from-layer="64" from-port="0" to-layer="1697" to-port="1"/>
		<edge from-layer="65" from-port="0" to-layer="1697" to-port="2"/>
		<edge from-layer="66" from-port="0" to-layer="1697" to-port="3"/>
		<edge from-layer="67" from-port="0" to-layer="1697" to-port="4"/>
		<edge from-layer="1699" from-port="0" to-layer="1700" to-port="0"/>
		<edge from-layer="1700" from-port="1" to-layer="1702" to-port="0"/>
		<edge from-layer="1701" from-port="0" to-layer="1702" to-port="1"/>
		<edge from-layer="1702" from-port="2" to-layer="1704" to-port="0"/>
		<edge from-layer="1703" from-port="0" to-layer="1704" to-port="1"/>
		<edge from-layer="1704" from-port="2" to-layer="1705" to-port="0"/>
		<edge from-layer="1698" from-port="0" to-layer="1705" to-port="1"/>
		<edge from-layer="1697" from-port="5" to-layer="1706" to-port="0"/>
		<edge from-layer="1705" from-port="2" to-layer="1706" to-port="1"/>
		<edge from-layer="1706" from-port="2" to-layer="1707" to-port="0"/>
		<edge from-layer="63" from-port="0" to-layer="1707" to-port="1"/>
		<edge from-layer="1707" from-port="2" to-layer="1708" to-port="0"/>
		<edge from-layer="59" from-port="0" to-layer="1708" to-port="1"/>
		<edge from-layer="60" from-port="0" to-layer="1708" to-port="2"/>
		<edge from-layer="61" from-port="0" to-layer="1708" to-port="3"/>
		<edge from-layer="62" from-port="0" to-layer="1708" to-port="4"/>
		<edge from-layer="1709" from-port="0" to-layer="1710" to-port="0"/>
		<edge from-layer="1710" from-port="1" to-layer="1712" to-port="0"/>
		<edge from-layer="1711" from-port="0" to-layer="1712" to-port="1"/>
		<edge from-layer="1712" from-port="2" to-layer="1714" to-port="0"/>
		<edge from-layer="1713" from-port="0" to-layer="1714" to-port="1"/>
		<edge from-layer="1708" from-port="5" to-layer="1715" to-port="0"/>
		<edge from-layer="1714" from-port="2" to-layer="1715" to-port="1"/>
		<edge from-layer="1716" from-port="0" to-layer="1717" to-port="0"/>
		<edge from-layer="1715" from-port="2" to-layer="1718" to-port="0"/>
		<edge from-layer="1717" from-port="1" to-layer="1718" to-port="1"/>
		<edge from-layer="1718" from-port="2" to-layer="1719" to-port="0"/>
		<edge from-layer="55" from-port="0" to-layer="1719" to-port="1"/>
		<edge from-layer="56" from-port="0" to-layer="1719" to-port="2"/>
		<edge from-layer="57" from-port="0" to-layer="1719" to-port="3"/>
		<edge from-layer="58" from-port="0" to-layer="1719" to-port="4"/>
		<edge from-layer="1697" from-port="5" to-layer="1720" to-port="0"/>
		<edge from-layer="1719" from-port="5" to-layer="1720" to-port="1"/>
		<edge from-layer="1720" from-port="2" to-layer="1721" to-port="0"/>
		<edge from-layer="1721" from-port="1" to-layer="1722" to-port="0"/>
		<edge from-layer="51" from-port="0" to-layer="1722" to-port="1"/>
		<edge from-layer="52" from-port="0" to-layer="1722" to-port="2"/>
		<edge from-layer="53" from-port="0" to-layer="1722" to-port="3"/>
		<edge from-layer="54" from-port="0" to-layer="1722" to-port="4"/>
		<edge from-layer="1720" from-port="2" to-layer="1735" to-port="0"/>
		<edge from-layer="1731" from-port="0" to-layer="1735" to-port="1"/>
		<edge from-layer="1732" from-port="0" to-layer="1735" to-port="2"/>
		<edge from-layer="1733" from-port="0" to-layer="1735" to-port="3"/>
		<edge from-layer="1734" from-port="0" to-layer="1735" to-port="4"/>
		<edge from-layer="1736" from-port="0" to-layer="1737" to-port="0"/>
		<edge from-layer="1737" from-port="1" to-layer="1739" to-port="0"/>
		<edge from-layer="1738" from-port="0" to-layer="1739" to-port="1"/>
		<edge from-layer="1739" from-port="2" to-layer="1741" to-port="0"/>
		<edge from-layer="1740" from-port="0" to-layer="1741" to-port="1"/>
		<edge from-layer="1735" from-port="5" to-layer="1742" to-port="0"/>
		<edge from-layer="1741" from-port="2" to-layer="1742" to-port="1"/>
		<edge from-layer="1742" from-port="2" to-layer="1743" to-port="0"/>
		<edge from-layer="1743" from-port="1" to-layer="1744" to-port="0"/>
		<edge from-layer="1727" from-port="0" to-layer="1744" to-port="1"/>
		<edge from-layer="1728" from-port="0" to-layer="1744" to-port="2"/>
		<edge from-layer="1729" from-port="0" to-layer="1744" to-port="3"/>
		<edge from-layer="1730" from-port="0" to-layer="1744" to-port="4"/>
		<edge from-layer="1745" from-port="0" to-layer="1746" to-port="0"/>
		<edge from-layer="1746" from-port="1" to-layer="1748" to-port="0"/>
		<edge from-layer="1747" from-port="0" to-layer="1748" to-port="1"/>
		<edge from-layer="1748" from-port="2" to-layer="1750" to-port="0"/>
		<edge from-layer="1749" from-port="0" to-layer="1750" to-port="1"/>
		<edge from-layer="1750" from-port="2" to-layer="1751" to-port="0"/>
		<edge from-layer="1744" from-port="5" to-layer="1751" to-port="1"/>
		<edge from-layer="1751" from-port="2" to-layer="1752" to-port="0"/>
		<edge from-layer="1723" from-port="0" to-layer="1752" to-port="1"/>
		<edge from-layer="1724" from-port="0" to-layer="1752" to-port="2"/>
		<edge from-layer="1725" from-port="0" to-layer="1752" to-port="3"/>
		<edge from-layer="1726" from-port="0" to-layer="1752" to-port="4"/>
		<edge from-layer="1722" from-port="5" to-layer="1753" to-port="0"/>
		<edge from-layer="1752" from-port="5" to-layer="1753" to-port="1"/>
		<edge from-layer="1753" from-port="2" to-layer="1754" to-port="0"/>
		<edge from-layer="1754" from-port="1" to-layer="1757" to-port="0"/>
		<edge from-layer="1755" from-port="0" to-layer="1757" to-port="1"/>
		<edge from-layer="1756" from-port="0" to-layer="1757" to-port="2"/>
		<edge from-layer="1757" from-port="3" to-layer="1761" to-port="0"/>
		<edge from-layer="1758" from-port="0" to-layer="1761" to-port="1"/>
		<edge from-layer="1759" from-port="0" to-layer="1761" to-port="2"/>
		<edge from-layer="1760" from-port="0" to-layer="1761" to-port="3"/>
		<edge from-layer="1761" from-port="4" to-layer="1762" to-port="0"/>
		<edge from-layer="50" from-port="0" to-layer="1763" to-port="0"/>
		<edge from-layer="1762" from-port="1" to-layer="1763" to-port="1"/>
		<edge from-layer="1753" from-port="2" to-layer="1769" to-port="0"/>
		<edge from-layer="1765" from-port="0" to-layer="1769" to-port="1"/>
		<edge from-layer="1766" from-port="0" to-layer="1769" to-port="2"/>
		<edge from-layer="1767" from-port="0" to-layer="1769" to-port="3"/>
		<edge from-layer="1768" from-port="0" to-layer="1769" to-port="4"/>
		<edge from-layer="1769" from-port="5" to-layer="1771" to-port="0"/>
		<edge from-layer="1770" from-port="0" to-layer="1771" to-port="1"/>
		<edge from-layer="1763" from-port="2" to-layer="1771" to-port="2"/>
		<edge from-layer="1764" from-port="0" to-layer="1771" to-port="3"/>
		<edge from-layer="1771" from-port="4" to-layer="1772" to-port="0"/>
		<edge from-layer="46" from-port="0" to-layer="1772" to-port="1"/>
		<edge from-layer="47" from-port="0" to-layer="1772" to-port="2"/>
		<edge from-layer="48" from-port="0" to-layer="1772" to-port="3"/>
		<edge from-layer="49" from-port="0" to-layer="1772" to-port="4"/>
		<edge from-layer="1773" from-port="0" to-layer="1774" to-port="0"/>
		<edge from-layer="1774" from-port="1" to-layer="1776" to-port="0"/>
		<edge from-layer="1775" from-port="0" to-layer="1776" to-port="1"/>
		<edge from-layer="1776" from-port="2" to-layer="1778" to-port="0"/>
		<edge from-layer="1777" from-port="0" to-layer="1778" to-port="1"/>
		<edge from-layer="1772" from-port="5" to-layer="1779" to-port="0"/>
		<edge from-layer="1778" from-port="2" to-layer="1779" to-port="1"/>
		<edge from-layer="1780" from-port="0" to-layer="1781" to-port="0"/>
		<edge from-layer="1779" from-port="2" to-layer="1782" to-port="0"/>
		<edge from-layer="1781" from-port="1" to-layer="1782" to-port="1"/>
		<edge from-layer="1782" from-port="2" to-layer="1783" to-port="0"/>
		<edge from-layer="1783" from-port="1" to-layer="1784" to-port="0"/>
		<edge from-layer="42" from-port="0" to-layer="1784" to-port="1"/>
		<edge from-layer="43" from-port="0" to-layer="1784" to-port="2"/>
		<edge from-layer="44" from-port="0" to-layer="1784" to-port="3"/>
		<edge from-layer="45" from-port="0" to-layer="1784" to-port="4"/>
		<edge from-layer="1782" from-port="2" to-layer="1797" to-port="0"/>
		<edge from-layer="1793" from-port="0" to-layer="1797" to-port="1"/>
		<edge from-layer="1794" from-port="0" to-layer="1797" to-port="2"/>
		<edge from-layer="1795" from-port="0" to-layer="1797" to-port="3"/>
		<edge from-layer="1796" from-port="0" to-layer="1797" to-port="4"/>
		<edge from-layer="1798" from-port="0" to-layer="1799" to-port="0"/>
		<edge from-layer="1799" from-port="1" to-layer="1801" to-port="0"/>
		<edge from-layer="1800" from-port="0" to-layer="1801" to-port="1"/>
		<edge from-layer="1801" from-port="2" to-layer="1803" to-port="0"/>
		<edge from-layer="1802" from-port="0" to-layer="1803" to-port="1"/>
		<edge from-layer="1797" from-port="5" to-layer="1804" to-port="0"/>
		<edge from-layer="1803" from-port="2" to-layer="1804" to-port="1"/>
		<edge from-layer="1804" from-port="2" to-layer="1805" to-port="0"/>
		<edge from-layer="1805" from-port="1" to-layer="1806" to-port="0"/>
		<edge from-layer="1789" from-port="0" to-layer="1806" to-port="1"/>
		<edge from-layer="1790" from-port="0" to-layer="1806" to-port="2"/>
		<edge from-layer="1791" from-port="0" to-layer="1806" to-port="3"/>
		<edge from-layer="1792" from-port="0" to-layer="1806" to-port="4"/>
		<edge from-layer="1807" from-port="0" to-layer="1808" to-port="0"/>
		<edge from-layer="1808" from-port="1" to-layer="1810" to-port="0"/>
		<edge from-layer="1809" from-port="0" to-layer="1810" to-port="1"/>
		<edge from-layer="1810" from-port="2" to-layer="1812" to-port="0"/>
		<edge from-layer="1811" from-port="0" to-layer="1812" to-port="1"/>
		<edge from-layer="1812" from-port="2" to-layer="1813" to-port="0"/>
		<edge from-layer="1806" from-port="5" to-layer="1813" to-port="1"/>
		<edge from-layer="1813" from-port="2" to-layer="1814" to-port="0"/>
		<edge from-layer="1785" from-port="0" to-layer="1814" to-port="1"/>
		<edge from-layer="1786" from-port="0" to-layer="1814" to-port="2"/>
		<edge from-layer="1787" from-port="0" to-layer="1814" to-port="3"/>
		<edge from-layer="1788" from-port="0" to-layer="1814" to-port="4"/>
		<edge from-layer="1784" from-port="5" to-layer="1815" to-port="0"/>
		<edge from-layer="1814" from-port="5" to-layer="1815" to-port="1"/>
		<edge from-layer="1815" from-port="2" to-layer="1816" to-port="0"/>
		<edge from-layer="38" from-port="0" to-layer="1816" to-port="1"/>
		<edge from-layer="39" from-port="0" to-layer="1816" to-port="2"/>
		<edge from-layer="40" from-port="0" to-layer="1816" to-port="3"/>
		<edge from-layer="41" from-port="0" to-layer="1816" to-port="4"/>
		<edge from-layer="1113" from-port="5" to-layer="1817" to-port="0"/>
		<edge from-layer="1816" from-port="5" to-layer="1817" to-port="1"/>
		<edge from-layer="1817" from-port="2" to-layer="1818" to-port="0"/>
		<edge from-layer="34" from-port="0" to-layer="1818" to-port="1"/>
		<edge from-layer="35" from-port="0" to-layer="1818" to-port="2"/>
		<edge from-layer="36" from-port="0" to-layer="1818" to-port="3"/>
		<edge from-layer="37" from-port="0" to-layer="1818" to-port="4"/>
		<edge from-layer="1820" from-port="0" to-layer="1821" to-port="0"/>
		<edge from-layer="1821" from-port="1" to-layer="1823" to-port="0"/>
		<edge from-layer="1822" from-port="0" to-layer="1823" to-port="1"/>
		<edge from-layer="1823" from-port="2" to-layer="1825" to-port="0"/>
		<edge from-layer="1824" from-port="0" to-layer="1825" to-port="1"/>
		<edge from-layer="1825" from-port="2" to-layer="1826" to-port="0"/>
		<edge from-layer="1819" from-port="0" to-layer="1826" to-port="1"/>
		<edge from-layer="1818" from-port="5" to-layer="1827" to-port="0"/>
		<edge from-layer="1826" from-port="2" to-layer="1827" to-port="1"/>
		<edge from-layer="1827" from-port="2" to-layer="1828" to-port="0"/>
		<edge from-layer="33" from-port="0" to-layer="1828" to-port="1"/>
		<edge from-layer="1828" from-port="2" to-layer="1829" to-port="0"/>
		<edge from-layer="29" from-port="0" to-layer="1829" to-port="1"/>
		<edge from-layer="30" from-port="0" to-layer="1829" to-port="2"/>
		<edge from-layer="31" from-port="0" to-layer="1829" to-port="3"/>
		<edge from-layer="32" from-port="0" to-layer="1829" to-port="4"/>
		<edge from-layer="1830" from-port="0" to-layer="1831" to-port="0"/>
		<edge from-layer="1831" from-port="1" to-layer="1833" to-port="0"/>
		<edge from-layer="1832" from-port="0" to-layer="1833" to-port="1"/>
		<edge from-layer="1833" from-port="2" to-layer="1835" to-port="0"/>
		<edge from-layer="1834" from-port="0" to-layer="1835" to-port="1"/>
		<edge from-layer="1829" from-port="5" to-layer="1836" to-port="0"/>
		<edge from-layer="1835" from-port="2" to-layer="1836" to-port="1"/>
		<edge from-layer="1837" from-port="0" to-layer="1838" to-port="0"/>
		<edge from-layer="1836" from-port="2" to-layer="1839" to-port="0"/>
		<edge from-layer="1838" from-port="1" to-layer="1839" to-port="1"/>
		<edge from-layer="1839" from-port="2" to-layer="1840" to-port="0"/>
		<edge from-layer="25" from-port="0" to-layer="1840" to-port="1"/>
		<edge from-layer="26" from-port="0" to-layer="1840" to-port="2"/>
		<edge from-layer="27" from-port="0" to-layer="1840" to-port="3"/>
		<edge from-layer="28" from-port="0" to-layer="1840" to-port="4"/>
		<edge from-layer="1818" from-port="5" to-layer="1841" to-port="0"/>
		<edge from-layer="1840" from-port="5" to-layer="1841" to-port="1"/>
		<edge from-layer="1841" from-port="2" to-layer="1842" to-port="0"/>
		<edge from-layer="1842" from-port="1" to-layer="1843" to-port="0"/>
		<edge from-layer="21" from-port="0" to-layer="1843" to-port="1"/>
		<edge from-layer="22" from-port="0" to-layer="1843" to-port="2"/>
		<edge from-layer="23" from-port="0" to-layer="1843" to-port="3"/>
		<edge from-layer="24" from-port="0" to-layer="1843" to-port="4"/>
		<edge from-layer="1841" from-port="2" to-layer="1856" to-port="0"/>
		<edge from-layer="1852" from-port="0" to-layer="1856" to-port="1"/>
		<edge from-layer="1853" from-port="0" to-layer="1856" to-port="2"/>
		<edge from-layer="1854" from-port="0" to-layer="1856" to-port="3"/>
		<edge from-layer="1855" from-port="0" to-layer="1856" to-port="4"/>
		<edge from-layer="1857" from-port="0" to-layer="1858" to-port="0"/>
		<edge from-layer="1858" from-port="1" to-layer="1860" to-port="0"/>
		<edge from-layer="1859" from-port="0" to-layer="1860" to-port="1"/>
		<edge from-layer="1860" from-port="2" to-layer="1862" to-port="0"/>
		<edge from-layer="1861" from-port="0" to-layer="1862" to-port="1"/>
		<edge from-layer="1856" from-port="5" to-layer="1863" to-port="0"/>
		<edge from-layer="1862" from-port="2" to-layer="1863" to-port="1"/>
		<edge from-layer="1863" from-port="2" to-layer="1864" to-port="0"/>
		<edge from-layer="1864" from-port="1" to-layer="1865" to-port="0"/>
		<edge from-layer="1848" from-port="0" to-layer="1865" to-port="1"/>
		<edge from-layer="1849" from-port="0" to-layer="1865" to-port="2"/>
		<edge from-layer="1850" from-port="0" to-layer="1865" to-port="3"/>
		<edge from-layer="1851" from-port="0" to-layer="1865" to-port="4"/>
		<edge from-layer="1866" from-port="0" to-layer="1867" to-port="0"/>
		<edge from-layer="1867" from-port="1" to-layer="1869" to-port="0"/>
		<edge from-layer="1868" from-port="0" to-layer="1869" to-port="1"/>
		<edge from-layer="1869" from-port="2" to-layer="1871" to-port="0"/>
		<edge from-layer="1870" from-port="0" to-layer="1871" to-port="1"/>
		<edge from-layer="1871" from-port="2" to-layer="1872" to-port="0"/>
		<edge from-layer="1865" from-port="5" to-layer="1872" to-port="1"/>
		<edge from-layer="1872" from-port="2" to-layer="1873" to-port="0"/>
		<edge from-layer="1844" from-port="0" to-layer="1873" to-port="1"/>
		<edge from-layer="1845" from-port="0" to-layer="1873" to-port="2"/>
		<edge from-layer="1846" from-port="0" to-layer="1873" to-port="3"/>
		<edge from-layer="1847" from-port="0" to-layer="1873" to-port="4"/>
		<edge from-layer="1843" from-port="5" to-layer="1874" to-port="0"/>
		<edge from-layer="1873" from-port="5" to-layer="1874" to-port="1"/>
		<edge from-layer="1874" from-port="2" to-layer="1875" to-port="0"/>
		<edge from-layer="17" from-port="0" to-layer="1875" to-port="1"/>
		<edge from-layer="18" from-port="0" to-layer="1875" to-port="2"/>
		<edge from-layer="19" from-port="0" to-layer="1875" to-port="3"/>
		<edge from-layer="20" from-port="0" to-layer="1875" to-port="4"/>
		<edge from-layer="1877" from-port="0" to-layer="1878" to-port="0"/>
		<edge from-layer="1878" from-port="1" to-layer="1880" to-port="0"/>
		<edge from-layer="1879" from-port="0" to-layer="1880" to-port="1"/>
		<edge from-layer="1880" from-port="2" to-layer="1882" to-port="0"/>
		<edge from-layer="1881" from-port="0" to-layer="1882" to-port="1"/>
		<edge from-layer="1882" from-port="2" to-layer="1883" to-port="0"/>
		<edge from-layer="1876" from-port="0" to-layer="1883" to-port="1"/>
		<edge from-layer="1875" from-port="5" to-layer="1884" to-port="0"/>
		<edge from-layer="1883" from-port="2" to-layer="1884" to-port="1"/>
		<edge from-layer="1884" from-port="2" to-layer="1885" to-port="0"/>
		<edge from-layer="16" from-port="0" to-layer="1885" to-port="1"/>
		<edge from-layer="1885" from-port="2" to-layer="1886" to-port="0"/>
		<edge from-layer="12" from-port="0" to-layer="1886" to-port="1"/>
		<edge from-layer="13" from-port="0" to-layer="1886" to-port="2"/>
		<edge from-layer="14" from-port="0" to-layer="1886" to-port="3"/>
		<edge from-layer="15" from-port="0" to-layer="1886" to-port="4"/>
		<edge from-layer="1887" from-port="0" to-layer="1888" to-port="0"/>
		<edge from-layer="1888" from-port="1" to-layer="1890" to-port="0"/>
		<edge from-layer="1889" from-port="0" to-layer="1890" to-port="1"/>
		<edge from-layer="1890" from-port="2" to-layer="1892" to-port="0"/>
		<edge from-layer="1891" from-port="0" to-layer="1892" to-port="1"/>
		<edge from-layer="1886" from-port="5" to-layer="1893" to-port="0"/>
		<edge from-layer="1892" from-port="2" to-layer="1893" to-port="1"/>
		<edge from-layer="1894" from-port="0" to-layer="1895" to-port="0"/>
		<edge from-layer="1893" from-port="2" to-layer="1896" to-port="0"/>
		<edge from-layer="1895" from-port="1" to-layer="1896" to-port="1"/>
		<edge from-layer="1896" from-port="2" to-layer="1897" to-port="0"/>
		<edge from-layer="8" from-port="0" to-layer="1897" to-port="1"/>
		<edge from-layer="9" from-port="0" to-layer="1897" to-port="2"/>
		<edge from-layer="10" from-port="0" to-layer="1897" to-port="3"/>
		<edge from-layer="11" from-port="0" to-layer="1897" to-port="4"/>
		<edge from-layer="1875" from-port="5" to-layer="1898" to-port="0"/>
		<edge from-layer="1897" from-port="5" to-layer="1898" to-port="1"/>
		<edge from-layer="1898" from-port="2" to-layer="1899" to-port="0"/>
		<edge from-layer="1899" from-port="1" to-layer="1900" to-port="0"/>
		<edge from-layer="4" from-port="0" to-layer="1900" to-port="1"/>
		<edge from-layer="5" from-port="0" to-layer="1900" to-port="2"/>
		<edge from-layer="6" from-port="0" to-layer="1900" to-port="3"/>
		<edge from-layer="7" from-port="0" to-layer="1900" to-port="4"/>
		<edge from-layer="1898" from-port="2" to-layer="1913" to-port="0"/>
		<edge from-layer="1909" from-port="0" to-layer="1913" to-port="1"/>
		<edge from-layer="1910" from-port="0" to-layer="1913" to-port="2"/>
		<edge from-layer="1911" from-port="0" to-layer="1913" to-port="3"/>
		<edge from-layer="1912" from-port="0" to-layer="1913" to-port="4"/>
		<edge from-layer="1914" from-port="0" to-layer="1915" to-port="0"/>
		<edge from-layer="1915" from-port="1" to-layer="1917" to-port="0"/>
		<edge from-layer="1916" from-port="0" to-layer="1917" to-port="1"/>
		<edge from-layer="1917" from-port="2" to-layer="1919" to-port="0"/>
		<edge from-layer="1918" from-port="0" to-layer="1919" to-port="1"/>
		<edge from-layer="1913" from-port="5" to-layer="1920" to-port="0"/>
		<edge from-layer="1919" from-port="2" to-layer="1920" to-port="1"/>
		<edge from-layer="1920" from-port="2" to-layer="1921" to-port="0"/>
		<edge from-layer="1921" from-port="1" to-layer="1922" to-port="0"/>
		<edge from-layer="1905" from-port="0" to-layer="1922" to-port="1"/>
		<edge from-layer="1906" from-port="0" to-layer="1922" to-port="2"/>
		<edge from-layer="1907" from-port="0" to-layer="1922" to-port="3"/>
		<edge from-layer="1908" from-port="0" to-layer="1922" to-port="4"/>
		<edge from-layer="1923" from-port="0" to-layer="1924" to-port="0"/>
		<edge from-layer="1924" from-port="1" to-layer="1926" to-port="0"/>
		<edge from-layer="1925" from-port="0" to-layer="1926" to-port="1"/>
		<edge from-layer="1926" from-port="2" to-layer="1928" to-port="0"/>
		<edge from-layer="1927" from-port="0" to-layer="1928" to-port="1"/>
		<edge from-layer="1928" from-port="2" to-layer="1929" to-port="0"/>
		<edge from-layer="1922" from-port="5" to-layer="1929" to-port="1"/>
		<edge from-layer="1929" from-port="2" to-layer="1930" to-port="0"/>
		<edge from-layer="1901" from-port="0" to-layer="1930" to-port="1"/>
		<edge from-layer="1902" from-port="0" to-layer="1930" to-port="2"/>
		<edge from-layer="1903" from-port="0" to-layer="1930" to-port="3"/>
		<edge from-layer="1904" from-port="0" to-layer="1930" to-port="4"/>
		<edge from-layer="1900" from-port="5" to-layer="1931" to-port="0"/>
		<edge from-layer="1930" from-port="5" to-layer="1931" to-port="1"/>
		<edge from-layer="1931" from-port="2" to-layer="1932" to-port="0"/>
		<edge from-layer="0" from-port="0" to-layer="1932" to-port="1"/>
		<edge from-layer="1" from-port="0" to-layer="1932" to-port="2"/>
		<edge from-layer="2" from-port="0" to-layer="1932" to-port="3"/>
		<edge from-layer="3" from-port="0" to-layer="1932" to-port="4"/>
		<edge from-layer="1933" from-port="0" to-layer="1934" to-port="0"/>
		<edge from-layer="1934" from-port="1" to-layer="1936" to-port="0"/>
		<edge from-layer="1935" from-port="0" to-layer="1936" to-port="1"/>
		<edge from-layer="1936" from-port="2" to-layer="1938" to-port="0"/>
		<edge from-layer="1937" from-port="0" to-layer="1938" to-port="1"/>
		<edge from-layer="1932" from-port="5" to-layer="1939" to-port="0"/>
		<edge from-layer="1938" from-port="2" to-layer="1939" to-port="1"/>
		<edge from-layer="1940" from-port="0" to-layer="1941" to-port="0"/>
		<edge from-layer="1939" from-port="2" to-layer="1942" to-port="0"/>
		<edge from-layer="1941" from-port="1" to-layer="1942" to-port="1"/>
		<edge from-layer="1942" from-port="2" to-layer="1944" to-port="0"/>
		<edge from-layer="1943" from-port="0" to-layer="1944" to-port="1"/>
		<edge from-layer="1944" from-port="2" to-layer="1946" to-port="0"/>
		<edge from-layer="1945" from-port="0" to-layer="1946" to-port="1"/>
		<edge from-layer="1947" from-port="0" to-layer="1948" to-port="0"/>
		<edge from-layer="1948" from-port="1" to-layer="1950" to-port="0"/>
		<edge from-layer="1949" from-port="0" to-layer="1950" to-port="1"/>
		<edge from-layer="1950" from-port="2" to-layer="1952" to-port="0"/>
		<edge from-layer="1951" from-port="0" to-layer="1952" to-port="1"/>
		<edge from-layer="1769" from-port="5" to-layer="1953" to-port="0"/>
		<edge from-layer="1952" from-port="2" to-layer="1953" to-port="1"/>
		<edge from-layer="1954" from-port="0" to-layer="1955" to-port="0"/>
		<edge from-layer="1953" from-port="2" to-layer="1956" to-port="0"/>
		<edge from-layer="1955" from-port="1" to-layer="1956" to-port="1"/>
		<edge from-layer="1956" from-port="2" to-layer="1958" to-port="0"/>
		<edge from-layer="1957" from-port="0" to-layer="1958" to-port="1"/>
		<edge from-layer="1958" from-port="2" to-layer="1960" to-port="0"/>
		<edge from-layer="1959" from-port="0" to-layer="1960" to-port="1"/>
		<edge from-layer="1946" from-port="2" to-layer="1961" to-port="0"/>
		<edge from-layer="1960" from-port="2" to-layer="1961" to-port="1"/>
		<edge from-layer="1963" from-port="0" to-layer="1964" to-port="0"/>
		<edge from-layer="1964" from-port="1" to-layer="1966" to-port="0"/>
		<edge from-layer="1965" from-port="0" to-layer="1966" to-port="1"/>
		<edge from-layer="1966" from-port="2" to-layer="1968" to-port="0"/>
		<edge from-layer="1967" from-port="0" to-layer="1968" to-port="1"/>
		<edge from-layer="1932" from-port="5" to-layer="1969" to-port="0"/>
		<edge from-layer="1968" from-port="2" to-layer="1969" to-port="1"/>
		<edge from-layer="1970" from-port="0" to-layer="1971" to-port="0"/>
		<edge from-layer="1969" from-port="2" to-layer="1972" to-port="0"/>
		<edge from-layer="1971" from-port="1" to-layer="1972" to-port="1"/>
		<edge from-layer="1972" from-port="2" to-layer="1974" to-port="0"/>
		<edge from-layer="1973" from-port="0" to-layer="1974" to-port="1"/>
		<edge from-layer="1974" from-port="2" to-layer="1976" to-port="0"/>
		<edge from-layer="1975" from-port="0" to-layer="1976" to-port="1"/>
		<edge from-layer="1977" from-port="0" to-layer="1978" to-port="0"/>
		<edge from-layer="1978" from-port="1" to-layer="1980" to-port="0"/>
		<edge from-layer="1979" from-port="0" to-layer="1980" to-port="1"/>
		<edge from-layer="1980" from-port="2" to-layer="1982" to-port="0"/>
		<edge from-layer="1981" from-port="0" to-layer="1982" to-port="1"/>
		<edge from-layer="1769" from-port="5" to-layer="1983" to-port="0"/>
		<edge from-layer="1982" from-port="2" to-layer="1983" to-port="1"/>
		<edge from-layer="1984" from-port="0" to-layer="1985" to-port="0"/>
		<edge from-layer="1983" from-port="2" to-layer="1986" to-port="0"/>
		<edge from-layer="1985" from-port="1" to-layer="1986" to-port="1"/>
		<edge from-layer="1986" from-port="2" to-layer="1988" to-port="0"/>
		<edge from-layer="1987" from-port="0" to-layer="1988" to-port="1"/>
		<edge from-layer="1988" from-port="2" to-layer="1990" to-port="0"/>
		<edge from-layer="1989" from-port="0" to-layer="1990" to-port="1"/>
		<edge from-layer="1976" from-port="2" to-layer="1991" to-port="0"/>
		<edge from-layer="1990" from-port="2" to-layer="1991" to-port="1"/>
		<edge from-layer="1991" from-port="2" to-layer="1992" to-port="0"/>
		<edge from-layer="1961" from-port="2" to-layer="1962" to-port="0"/>
	</edges>
	<meta_data>
		<MO_version value="2022.1.0-7080-6582ec65d78-releases/2022/1"/>
		<Runtime_version value="2022.1.0-7080-6582ec65d78-releases/2022/1"/>
		<legacy_path value="True"/>
		<cli_parameters>
			<compress_fp16 value="True"/>
			<data_type value="FP16"/>
			<disable_nhwc_to_nchw value="False"/>
			<disable_resnet_optimization value="False"/>
			<disable_weights_compression value="False"/>
			<enable_concat_optimization value="False"/>
			<extensions value="DIR"/>
			<framework value="tf"/>
			<freeze_placeholder_with_value value="{}"/>
			<input_model value="DIR/palm_detection_192x192.pb"/>
			<input_model_is_text value="False"/>
			<layout value="nhwc-&gt;nchw"/>
			<layout_values value="{'': {'source_layout': 'nhwc', 'target_layout': 'nchw'}}"/>
			<log_level value="ERROR"/>
			<mean_scale_values value="{}"/>
			<mean_values value="()"/>
			<model_name value="palm_detection_192x192"/>
			<output_dir value="DIR"/>
			<placeholder_data_types value="{}"/>
			<progress value="False"/>
			<reverse_input_channels value="True"/>
			<scale value="255.0"/>
			<scale_values value="()"/>
			<silent value="False"/>
			<source_layout value="()"/>
			<static_shape value="False"/>
			<stream_output value="False"/>
			<target_layout value="()"/>
			<transform value=""/>
			<use_legacy_frontend value="False"/>
			<use_new_frontend value="False"/>
			<unset unset_cli_parameters="batch, disable_fusing, finegrain_fusing, input, input_checkpoint, input_meta_graph, input_shape, output, packed_user_shapes, placeholder_shapes, saved_model_dir, saved_model_tags, tensorboard_logdir, tensorflow_custom_layer_libraries, tensorflow_custom_operations_config_update, tensorflow_object_detection_api_pipeline_config, tensorflow_use_custom_operations_config, transformations_config"/>
		</cli_parameters>
	</meta_data>
	<quantization_parameters>
		<config/>
		<version value="{}"/>
		<cli_params value="{}"/>
	</quantization_parameters>
</net>
