<?xml version="1.0" ?>
<net name="palm_detection_192x192" version="11">
	<layers>
		<layer id="0" name="input_1" type="Parameter" version="opset1">
			<data shape="1,3,192,192" element_type="f32"/>
			<rt_info>
				<attribute name="fused_names" version="0" value="input_1, input_1/Transpose([0 3 1 2])"/>
				<attribute name="old_api_map_element_type" version="0" value="f16"/>
				<attribute name="old_api_map_order" version="0" value="0, 2, 3, 1"/>
			</rt_info>
			<output>
				<port id="0" precision="FP32" names="input_1:0">
					<dim>1</dim>
					<dim>3</dim>
					<dim>192</dim>
					<dim>192</dim>
					<rt_info>
						<attribute name="layout" version="0" layout="[N,C,H,W]"/>
					</rt_info>
				</port>
			</output>
		</layer>
		<layer id="1" name="input_1/scale_copy_compressed" type="Const" version="opset1">
			<data element_type="f16" shape="32, 3, 5, 5" offset="0" size="4800"/>
			<output>
				<port id="0" precision="FP16">
					<dim>32</dim>
					<dim>3</dim>
					<dim>5</dim>
					<dim>5</dim>
				</port>
			</output>
		</layer>
		<layer id="2" name="input_1/scale_copy" type="Convert" version="opset1">
			<data destination_type="f32"/>
			<rt_info>
				<attribute name="decompression" version="0"/>
				<attribute name="fused_names" version="0" value="input_1/scale_copy"/>
			</rt_info>
			<input>
				<port id="0" precision="FP16">
					<dim>32</dim>
					<dim>3</dim>
					<dim>5</dim>
					<dim>5</dim>
				</port>
			</input>
			<output>
				<port id="1" precision="FP32" names="Conv2D/filter:0">
					<dim>32</dim>
					<dim>3</dim>
					<dim>5</dim>
					<dim>5</dim>
				</port>
			</output>
		</layer>
		<layer id="3" name="Conv2D" type="Convolution" version="opset1">
			<data strides="2, 2" dilations="1, 1" pads_begin="0, 0" pads_end="0, 0" auto_pad="same_upper"/>
			<rt_info>
				<attribute name="fused_names" version="0" value="Conv2D"/>
			</rt_info>
			<input>
				<port id="0" precision="FP32">
					<dim>1</dim>
					<dim>3</dim>
					<dim>192</dim>
					<dim>192</dim>
				</port>
				<port id="1" precision="FP32">
					<dim>32</dim>
					<dim>3</dim>
					<dim>5</dim>
					<dim>5</dim>
				</port>
			</input>
			<output>
				<port id="2" precision="FP32" names="Conv2D:0">
					<dim>1</dim>
					<dim>32</dim>
					<dim>96</dim>
					<dim>96</dim>
				</port>
			</output>
		</layer>
		<layer id="4" name="model_1/model/batch_normalization/FusedBatchNormV3_model_1/model/depthwise_conv2d_3/depthwise_model_1/model/conv2d/Conv2D1/y_compressed" type="Const" version="opset1">
			<data element_type="f16" shape="1, 32, 1, 1" offset="4800" size="64"/>
			<output>
				<port id="0" precision="FP16">
					<dim>1</dim>
					<dim>32</dim>
					<dim>1</dim>
					<dim>1</dim>
				</port>
			</output>
		</layer>
		<layer id="5" name="model_1/model/batch_normalization/FusedBatchNormV3_model_1/model/depthwise_conv2d_3/depthwise_model_1/model/conv2d/Conv2D1/y" type="Convert" version="opset1">
			<data destination_type="f32"/>
			<rt_info>
				<attribute name="decompression" version="0"/>
				<attribute name="fused_names" version="0" value="model_1/model/batch_normalization/FusedBatchNormV3_model_1/model/depthwise_conv2d_3/depthwise_model_1/model/conv2d/Conv2D1/y"/>
			</rt_info>
			<input>
				<port id="0" precision="FP16">
					<dim>1</dim>
					<dim>32</dim>
					<dim>1</dim>
					<dim>1</dim>
				</port>
			</input>
			<output>
				<port id="1" precision="FP32" names="model_1/model/batch_normalization/FusedBatchNormV3_model_1/model/depthwise_conv2d_3/depthwise_model_1/model/conv2d/Conv2D1/y:0">
					<dim>1</dim>
					<dim>32</dim>
					<dim>1</dim>
					<dim>1</dim>
				</port>
			</output>
		</layer>
		<layer id="6" name="model_1/model/batch_normalization/FusedBatchNormV3_model_1/model/depthwise_conv2d_3/depthwise_model_1/model/conv2d/Conv2D1" type="Add" version="opset1">
			<data auto_broadcast="numpy"/>
			<rt_info>
				<attribute name="fused_names" version="0" value="model_1/model/batch_normalization/FusedBatchNormV3_model_1/model/depthwise_conv2d_3/depthwise_model_1/model/conv2d/Conv2D1"/>
			</rt_info>
			<input>
				<port id="0" precision="FP32">
					<dim>1</dim>
					<dim>32</dim>
					<dim>96</dim>
					<dim>96</dim>
				</port>
				<port id="1" precision="FP32">
					<dim>1</dim>
					<dim>32</dim>
					<dim>1</dim>
					<dim>1</dim>
				</port>
			</input>
			<output>
				<port id="2" precision="FP32" names="model_1/model/batch_normalization/FusedBatchNormV3_model_1/model/depthwise_conv2d_3/depthwise_model_1/model/conv2d/Conv2D1:0">
					<dim>1</dim>
					<dim>32</dim>
					<dim>96</dim>
					<dim>96</dim>
				</port>
			</output>
		</layer>
		<layer id="7" name="model_1/model/p_re_lu/add_model_1/model/p_re_lu/Relu_model_1/model/p_re_lu/Neg_1_model_1/model/p_re_lu/Relu_1_model_1/model/p_re_lu/mul_dequantize_prelu/Relu" type="ReLU" version="opset1">
			<rt_info>
				<attribute name="fused_names" version="0" value="model_1/model/p_re_lu/add_model_1/model/p_re_lu/Relu_model_1/model/p_re_lu/Neg_1_model_1/model/p_re_lu/Relu_1_model_1/model/p_re_lu/mul_dequantize_prelu/Relu"/>
			</rt_info>
			<input>
				<port id="0" precision="FP32">
					<dim>1</dim>
					<dim>32</dim>
					<dim>96</dim>
					<dim>96</dim>
				</port>
			</input>
			<output>
				<port id="1" precision="FP32" names="model_1/model/p_re_lu/add_model_1/model/p_re_lu/Relu_model_1/model/p_re_lu/Neg_1_model_1/model/p_re_lu/Relu_1_model_1/model/p_re_lu/mul_dequantize_prelu/Relu:0">
					<dim>1</dim>
					<dim>32</dim>
					<dim>96</dim>
					<dim>96</dim>
				</port>
			</output>
		</layer>
		<layer id="8" name="model_1/model/p_re_lu/add_model_1/model/p_re_lu/Relu_model_1/model/p_re_lu/Neg_1_model_1/model/p_re_lu/Relu_1_model_1/model/p_re_lu/mul_dequantize_prelu/Neg/mul__compressed" type="Const" version="opset1">
			<data element_type="f16" shape="1, 32, 1, 1" offset="4864" size="64"/>
			<output>
				<port id="0" precision="FP16">
					<dim>1</dim>
					<dim>32</dim>
					<dim>1</dim>
					<dim>1</dim>
				</port>
			</output>
		</layer>
		<layer id="9" name="model_1/model/p_re_lu/add_model_1/model/p_re_lu/Relu_model_1/model/p_re_lu/Neg_1_model_1/model/p_re_lu/Relu_1_model_1/model/p_re_lu/mul_dequantize_prelu/Neg/mul_" type="Convert" version="opset1">
			<data destination_type="f32"/>
			<rt_info>
				<attribute name="decompression" version="0"/>
				<attribute name="fused_names" version="0" value="model_1/model/p_re_lu/add_model_1/model/p_re_lu/Relu_model_1/model/p_re_lu/Neg_1_model_1/model/p_re_lu/Relu_1_model_1/model/p_re_lu/mul_dequantize_prelu/Neg/mul_"/>
			</rt_info>
			<input>
				<port id="0" precision="FP16">
					<dim>1</dim>
					<dim>32</dim>
					<dim>1</dim>
					<dim>1</dim>
				</port>
			</input>
			<output>
				<port id="1" precision="FP32" names="model_1/model/p_re_lu/add_model_1/model/p_re_lu/Relu_model_1/model/p_re_lu/Neg_1_model_1/model/p_re_lu/Relu_1_model_1/model/p_re_lu/mul_dequantize_prelu/Neg:0">
					<dim>1</dim>
					<dim>32</dim>
					<dim>1</dim>
					<dim>1</dim>
				</port>
			</output>
		</layer>
		<layer id="10" name="571_compressed" type="Const" version="opset1">
			<data element_type="f16" shape="1, 1, 1, 1" offset="4928" size="2"/>
			<output>
				<port id="0" precision="FP16">
					<dim>1</dim>
					<dim>1</dim>
					<dim>1</dim>
					<dim>1</dim>
				</port>
			</output>
		</layer>
		<layer id="11" name="571" type="Convert" version="opset1">
			<data destination_type="f32"/>
			<rt_info>
				<attribute name="decompression" version="0"/>
				<attribute name="fused_names" version="0" value="571"/>
			</rt_info>
			<input>
				<port id="0" precision="FP16">
					<dim>1</dim>
					<dim>1</dim>
					<dim>1</dim>
					<dim>1</dim>
				</port>
			</input>
			<output>
				<port id="1" precision="FP32">
					<dim>1</dim>
					<dim>1</dim>
					<dim>1</dim>
					<dim>1</dim>
				</port>
			</output>
		</layer>
		<layer id="12" name="model_1/model/p_re_lu/add_model_1/model/p_re_lu/Relu_model_1/model/p_re_lu/Neg_1_model_1/model/p_re_lu/Relu_1_model_1/model/p_re_lu/mul_dequantize_prelu/Neg_1/mul_" type="Multiply" version="opset1">
			<data auto_broadcast="numpy"/>
			<rt_info>
				<attribute name="fused_names" version="0" value="model_1/model/p_re_lu/add_model_1/model/p_re_lu/Relu_model_1/model/p_re_lu/Neg_1_model_1/model/p_re_lu/Relu_1_model_1/model/p_re_lu/mul_dequantize_prelu/Neg_1/mul_"/>
			</rt_info>
			<input>
				<port id="0" precision="FP32">
					<dim>1</dim>
					<dim>32</dim>
					<dim>96</dim>
					<dim>96</dim>
				</port>
				<port id="1" precision="FP32">
					<dim>1</dim>
					<dim>1</dim>
					<dim>1</dim>
					<dim>1</dim>
				</port>
			</input>
			<output>
				<port id="2" precision="FP32" names="model_1/model/p_re_lu/add_model_1/model/p_re_lu/Relu_model_1/model/p_re_lu/Neg_1_model_1/model/p_re_lu/Relu_1_model_1/model/p_re_lu/mul_dequantize_prelu/Neg_1:0">
					<dim>1</dim>
					<dim>32</dim>
					<dim>96</dim>
					<dim>96</dim>
				</port>
			</output>
		</layer>
		<layer id="13" name="model_1/model/p_re_lu/add_model_1/model/p_re_lu/Relu_model_1/model/p_re_lu/Neg_1_model_1/model/p_re_lu/Relu_1_model_1/model/p_re_lu/mul_dequantize_prelu/Relu_1" type="ReLU" version="opset1">
			<rt_info>
				<attribute name="fused_names" version="0" value="model_1/model/p_re_lu/add_model_1/model/p_re_lu/Relu_model_1/model/p_re_lu/Neg_1_model_1/model/p_re_lu/Relu_1_model_1/model/p_re_lu/mul_dequantize_prelu/Relu_1"/>
			</rt_info>
			<input>
				<port id="0" precision="FP32">
					<dim>1</dim>
					<dim>32</dim>
					<dim>96</dim>
					<dim>96</dim>
				</port>
			</input>
			<output>
				<port id="1" precision="FP32" names="model_1/model/p_re_lu/add_model_1/model/p_re_lu/Relu_model_1/model/p_re_lu/Neg_1_model_1/model/p_re_lu/Relu_1_model_1/model/p_re_lu/mul_dequantize_prelu/Relu_1:0">
					<dim>1</dim>
					<dim>32</dim>
					<dim>96</dim>
					<dim>96</dim>
				</port>
			</output>
		</layer>
		<layer id="14" name="model_1/model/p_re_lu/add_model_1/model/p_re_lu/Relu_model_1/model/p_re_lu/Neg_1_model_1/model/p_re_lu/Relu_1_model_1/model/p_re_lu/mul_dequantize_prelu/mul" type="Multiply" version="opset1">
			<data auto_broadcast="numpy"/>
			<rt_info>
				<attribute name="fused_names" version="0" value="model_1/model/p_re_lu/add_model_1/model/p_re_lu/Relu_model_1/model/p_re_lu/Neg_1_model_1/model/p_re_lu/Relu_1_model_1/model/p_re_lu/mul_dequantize_prelu/mul"/>
			</rt_info>
			<input>
				<port id="0" precision="FP32">
					<dim>1</dim>
					<dim>32</dim>
					<dim>1</dim>
					<dim>1</dim>
				</port>
				<port id="1" precision="FP32">
					<dim>1</dim>
					<dim>32</dim>
					<dim>96</dim>
					<dim>96</dim>
				</port>
			</input>
			<output>
				<port id="2" precision="FP32" names="model_1/model/p_re_lu/add_model_1/model/p_re_lu/Relu_model_1/model/p_re_lu/Neg_1_model_1/model/p_re_lu/Relu_1_model_1/model/p_re_lu/mul_dequantize_prelu/mul:0">
					<dim>1</dim>
					<dim>32</dim>
					<dim>96</dim>
					<dim>96</dim>
				</port>
			</output>
		</layer>
		<layer id="15" name="model_1/model/p_re_lu/add_model_1/model/p_re_lu/Relu_model_1/model/p_re_lu/Neg_1_model_1/model/p_re_lu/Relu_1_model_1/model/p_re_lu/mul_dequantize_prelu/add" type="Add" version="opset1">
			<data auto_broadcast="numpy"/>
			<rt_info>
				<attribute name="fused_names" version="0" value="model_1/model/p_re_lu/add_model_1/model/p_re_lu/Relu_model_1/model/p_re_lu/Neg_1_model_1/model/p_re_lu/Relu_1_model_1/model/p_re_lu/mul_dequantize_prelu/add"/>
			</rt_info>
			<input>
				<port id="0" precision="FP32">
					<dim>1</dim>
					<dim>32</dim>
					<dim>96</dim>
					<dim>96</dim>
				</port>
				<port id="1" precision="FP32">
					<dim>1</dim>
					<dim>32</dim>
					<dim>96</dim>
					<dim>96</dim>
				</port>
			</input>
			<output>
				<port id="2" precision="FP32" names="model_1/model/p_re_lu/add_model_1/model/p_re_lu/Relu_model_1/model/p_re_lu/Neg_1_model_1/model/p_re_lu/Relu_1_model_1/model/p_re_lu/mul_dequantize:0,model_1/model/p_re_lu/add_model_1/model/p_re_lu/Relu_model_1/model/p_re_lu/Neg_1_model_1/model/p_re_lu/Relu_1_model_1/model/p_re_lu/mul_dequantize_prelu/add:0">
					<dim>1</dim>
					<dim>32</dim>
					<dim>96</dim>
					<dim>96</dim>
				</port>
			</output>
		</layer>
		<layer id="16" name="depthwise/filter_in_compressed" type="Const" version="opset1">
			<data element_type="f16" shape="32, 1, 1, 5, 5" offset="4930" size="1600"/>
			<output>
				<port id="0" precision="FP16">
					<dim>32</dim>
					<dim>1</dim>
					<dim>1</dim>
					<dim>5</dim>
					<dim>5</dim>
				</port>
			</output>
		</layer>
		<layer id="17" name="depthwise/filter_in" type="Convert" version="opset1">
			<data destination_type="f32"/>
			<rt_info>
				<attribute name="decompression" version="0"/>
				<attribute name="fused_names" version="0" value="depthwise/filter_in"/>
			</rt_info>
			<input>
				<port id="0" precision="FP16">
					<dim>32</dim>
					<dim>1</dim>
					<dim>1</dim>
					<dim>5</dim>
					<dim>5</dim>
				</port>
			</input>
			<output>
				<port id="1" precision="FP32" names="depthwise/filter_in:0">
					<dim>32</dim>
					<dim>1</dim>
					<dim>1</dim>
					<dim>5</dim>
					<dim>5</dim>
				</port>
			</output>
		</layer>
		<layer id="18" name="depthwise" type="GroupConvolution" version="opset1">
			<data strides="1, 1" pads_begin="0, 0" pads_end="0, 0" dilations="1, 1" auto_pad="same_upper"/>
			<rt_info>
				<attribute name="fused_names" version="0" value="depthwise, model_1/model/depthwise_conv2d/depthwise1"/>
			</rt_info>
			<input>
				<port id="0" precision="FP32">
					<dim>1</dim>
					<dim>32</dim>
					<dim>96</dim>
					<dim>96</dim>
				</port>
				<port id="1" precision="FP32">
					<dim>32</dim>
					<dim>1</dim>
					<dim>1</dim>
					<dim>5</dim>
					<dim>5</dim>
				</port>
			</input>
			<output>
				<port id="2" precision="FP32" names="depthwise:0,model_1/model/depthwise_conv2d/depthwise1:0">
					<dim>1</dim>
					<dim>32</dim>
					<dim>96</dim>
					<dim>96</dim>
				</port>
			</output>
		</layer>
		<layer id="19" name="Conv2D_1/filter_compressed" type="Const" version="opset1">
			<data element_type="f16" shape="32, 32, 1, 1" offset="6530" size="2048"/>
			<output>
				<port id="0" precision="FP16">
					<dim>32</dim>
					<dim>32</dim>
					<dim>1</dim>
					<dim>1</dim>
				</port>
			</output>
		</layer>
		<layer id="20" name="Conv2D_1/filter" type="Convert" version="opset1">
			<data destination_type="f32"/>
			<rt_info>
				<attribute name="decompression" version="0"/>
				<attribute name="fused_names" version="0" value="Conv2D_1/filter"/>
			</rt_info>
			<input>
				<port id="0" precision="FP16">
					<dim>32</dim>
					<dim>32</dim>
					<dim>1</dim>
					<dim>1</dim>
				</port>
			</input>
			<output>
				<port id="1" precision="FP32" names="Conv2D_1/filter:0">
					<dim>32</dim>
					<dim>32</dim>
					<dim>1</dim>
					<dim>1</dim>
				</port>
			</output>
		</layer>
		<layer id="21" name="Conv2D_1" type="Convolution" version="opset1">
			<data strides="1, 1" dilations="1, 1" pads_begin="0, 0" pads_end="0, 0" auto_pad="valid"/>
			<rt_info>
				<attribute name="fused_names" version="0" value="Conv2D_1"/>
			</rt_info>
			<input>
				<port id="0" precision="FP32">
					<dim>1</dim>
					<dim>32</dim>
					<dim>96</dim>
					<dim>96</dim>
				</port>
				<port id="1" precision="FP32">
					<dim>32</dim>
					<dim>32</dim>
					<dim>1</dim>
					<dim>1</dim>
				</port>
			</input>
			<output>
				<port id="2" precision="FP32" names="Conv2D_1:0">
					<dim>1</dim>
					<dim>32</dim>
					<dim>96</dim>
					<dim>96</dim>
				</port>
			</output>
		</layer>
		<layer id="22" name="model_1/model/batch_normalization_1/FusedBatchNormV3_model_1/model/depthwise_conv2d_3/depthwise_model_1/model/conv2d_1/Conv2D1/y_compressed" type="Const" version="opset1">
			<data element_type="f16" shape="1, 32, 1, 1" offset="8578" size="64"/>
			<output>
				<port id="0" precision="FP16">
					<dim>1</dim>
					<dim>32</dim>
					<dim>1</dim>
					<dim>1</dim>
				</port>
			</output>
		</layer>
		<layer id="23" name="model_1/model/batch_normalization_1/FusedBatchNormV3_model_1/model/depthwise_conv2d_3/depthwise_model_1/model/conv2d_1/Conv2D1/y" type="Convert" version="opset1">
			<data destination_type="f32"/>
			<rt_info>
				<attribute name="decompression" version="0"/>
				<attribute name="fused_names" version="0" value="model_1/model/batch_normalization_1/FusedBatchNormV3_model_1/model/depthwise_conv2d_3/depthwise_model_1/model/conv2d_1/Conv2D1/y"/>
			</rt_info>
			<input>
				<port id="0" precision="FP16">
					<dim>1</dim>
					<dim>32</dim>
					<dim>1</dim>
					<dim>1</dim>
				</port>
			</input>
			<output>
				<port id="1" precision="FP32" names="model_1/model/batch_normalization_1/FusedBatchNormV3_model_1/model/depthwise_conv2d_3/depthwise_model_1/model/conv2d_1/Conv2D1/y:0">
					<dim>1</dim>
					<dim>32</dim>
					<dim>1</dim>
					<dim>1</dim>
				</port>
			</output>
		</layer>
		<layer id="24" name="model_1/model/batch_normalization_1/FusedBatchNormV3_model_1/model/depthwise_conv2d_3/depthwise_model_1/model/conv2d_1/Conv2D1" type="Add" version="opset1">
			<data auto_broadcast="numpy"/>
			<rt_info>
				<attribute name="fused_names" version="0" value="model_1/model/batch_normalization_1/FusedBatchNormV3_model_1/model/depthwise_conv2d_3/depthwise_model_1/model/conv2d_1/Conv2D1"/>
			</rt_info>
			<input>
				<port id="0" precision="FP32">
					<dim>1</dim>
					<dim>32</dim>
					<dim>96</dim>
					<dim>96</dim>
				</port>
				<port id="1" precision="FP32">
					<dim>1</dim>
					<dim>32</dim>
					<dim>1</dim>
					<dim>1</dim>
				</port>
			</input>
			<output>
				<port id="2" precision="FP32" names="model_1/model/batch_normalization_1/FusedBatchNormV3_model_1/model/depthwise_conv2d_3/depthwise_model_1/model/conv2d_1/Conv2D1:0">
					<dim>1</dim>
					<dim>32</dim>
					<dim>96</dim>
					<dim>96</dim>
				</port>
			</output>
		</layer>
		<layer id="25" name="model_1/model/add/add" type="Add" version="opset1">
			<data auto_broadcast="numpy"/>
			<rt_info>
				<attribute name="fused_names" version="0" value="model_1/model/add/add"/>
			</rt_info>
			<input>
				<port id="0" precision="FP32">
					<dim>1</dim>
					<dim>32</dim>
					<dim>96</dim>
					<dim>96</dim>
				</port>
				<port id="1" precision="FP32">
					<dim>1</dim>
					<dim>32</dim>
					<dim>96</dim>
					<dim>96</dim>
				</port>
			</input>
			<output>
				<port id="2" precision="FP32" names="model_1/model/add/add:0">
					<dim>1</dim>
					<dim>32</dim>
					<dim>96</dim>
					<dim>96</dim>
				</port>
			</output>
		</layer>
		<layer id="26" name="model_1/model/p_re_lu_1/add_model_1/model/p_re_lu_1/Relu_model_1/model/p_re_lu_1/Neg_1_model_1/model/p_re_lu_1/Relu_1_model_1/model/p_re_lu_1/mul_dequantize_prelu/Relu" type="ReLU" version="opset1">
			<rt_info>
				<attribute name="fused_names" version="0" value="model_1/model/p_re_lu_1/add_model_1/model/p_re_lu_1/Relu_model_1/model/p_re_lu_1/Neg_1_model_1/model/p_re_lu_1/Relu_1_model_1/model/p_re_lu_1/mul_dequantize_prelu/Relu"/>
			</rt_info>
			<input>
				<port id="0" precision="FP32">
					<dim>1</dim>
					<dim>32</dim>
					<dim>96</dim>
					<dim>96</dim>
				</port>
			</input>
			<output>
				<port id="1" precision="FP32" names="model_1/model/p_re_lu_1/add_model_1/model/p_re_lu_1/Relu_model_1/model/p_re_lu_1/Neg_1_model_1/model/p_re_lu_1/Relu_1_model_1/model/p_re_lu_1/mul_dequantize_prelu/Relu:0">
					<dim>1</dim>
					<dim>32</dim>
					<dim>96</dim>
					<dim>96</dim>
				</port>
			</output>
		</layer>
		<layer id="27" name="model_1/model/p_re_lu_1/add_model_1/model/p_re_lu_1/Relu_model_1/model/p_re_lu_1/Neg_1_model_1/model/p_re_lu_1/Relu_1_model_1/model/p_re_lu_1/mul_dequantize_prelu/Neg/mul__compressed" type="Const" version="opset1">
			<data element_type="f16" shape="1, 32, 1, 1" offset="8642" size="64"/>
			<output>
				<port id="0" precision="FP16">
					<dim>1</dim>
					<dim>32</dim>
					<dim>1</dim>
					<dim>1</dim>
				</port>
			</output>
		</layer>
		<layer id="28" name="model_1/model/p_re_lu_1/add_model_1/model/p_re_lu_1/Relu_model_1/model/p_re_lu_1/Neg_1_model_1/model/p_re_lu_1/Relu_1_model_1/model/p_re_lu_1/mul_dequantize_prelu/Neg/mul_" type="Convert" version="opset1">
			<data destination_type="f32"/>
			<rt_info>
				<attribute name="decompression" version="0"/>
				<attribute name="fused_names" version="0" value="model_1/model/p_re_lu_1/add_model_1/model/p_re_lu_1/Relu_model_1/model/p_re_lu_1/Neg_1_model_1/model/p_re_lu_1/Relu_1_model_1/model/p_re_lu_1/mul_dequantize_prelu/Neg/mul_"/>
			</rt_info>
			<input>
				<port id="0" precision="FP16">
					<dim>1</dim>
					<dim>32</dim>
					<dim>1</dim>
					<dim>1</dim>
				</port>
			</input>
			<output>
				<port id="1" precision="FP32" names="model_1/model/p_re_lu_1/add_model_1/model/p_re_lu_1/Relu_model_1/model/p_re_lu_1/Neg_1_model_1/model/p_re_lu_1/Relu_1_model_1/model/p_re_lu_1/mul_dequantize_prelu/Neg:0">
					<dim>1</dim>
					<dim>32</dim>
					<dim>1</dim>
					<dim>1</dim>
				</port>
			</output>
		</layer>
		<layer id="29" name="555_compressed" type="Const" version="opset1">
			<data element_type="f16" shape="1, 1, 1, 1" offset="4928" size="2"/>
			<output>
				<port id="0" precision="FP16">
					<dim>1</dim>
					<dim>1</dim>
					<dim>1</dim>
					<dim>1</dim>
				</port>
			</output>
		</layer>
		<layer id="30" name="555" type="Convert" version="opset1">
			<data destination_type="f32"/>
			<rt_info>
				<attribute name="decompression" version="0"/>
				<attribute name="fused_names" version="0" value="555"/>
			</rt_info>
			<input>
				<port id="0" precision="FP16">
					<dim>1</dim>
					<dim>1</dim>
					<dim>1</dim>
					<dim>1</dim>
				</port>
			</input>
			<output>
				<port id="1" precision="FP32">
					<dim>1</dim>
					<dim>1</dim>
					<dim>1</dim>
					<dim>1</dim>
				</port>
			</output>
		</layer>
		<layer id="31" name="model_1/model/p_re_lu_1/add_model_1/model/p_re_lu_1/Relu_model_1/model/p_re_lu_1/Neg_1_model_1/model/p_re_lu_1/Relu_1_model_1/model/p_re_lu_1/mul_dequantize_prelu/Neg_1/mul_" type="Multiply" version="opset1">
			<data auto_broadcast="numpy"/>
			<rt_info>
				<attribute name="fused_names" version="0" value="model_1/model/p_re_lu_1/add_model_1/model/p_re_lu_1/Relu_model_1/model/p_re_lu_1/Neg_1_model_1/model/p_re_lu_1/Relu_1_model_1/model/p_re_lu_1/mul_dequantize_prelu/Neg_1/mul_"/>
			</rt_info>
			<input>
				<port id="0" precision="FP32">
					<dim>1</dim>
					<dim>32</dim>
					<dim>96</dim>
					<dim>96</dim>
				</port>
				<port id="1" precision="FP32">
					<dim>1</dim>
					<dim>1</dim>
					<dim>1</dim>
					<dim>1</dim>
				</port>
			</input>
			<output>
				<port id="2" precision="FP32" names="model_1/model/p_re_lu_1/add_model_1/model/p_re_lu_1/Relu_model_1/model/p_re_lu_1/Neg_1_model_1/model/p_re_lu_1/Relu_1_model_1/model/p_re_lu_1/mul_dequantize_prelu/Neg_1:0">
					<dim>1</dim>
					<dim>32</dim>
					<dim>96</dim>
					<dim>96</dim>
				</port>
			</output>
		</layer>
		<layer id="32" name="model_1/model/p_re_lu_1/add_model_1/model/p_re_lu_1/Relu_model_1/model/p_re_lu_1/Neg_1_model_1/model/p_re_lu_1/Relu_1_model_1/model/p_re_lu_1/mul_dequantize_prelu/Relu_1" type="ReLU" version="opset1">
			<rt_info>
				<attribute name="fused_names" version="0" value="model_1/model/p_re_lu_1/add_model_1/model/p_re_lu_1/Relu_model_1/model/p_re_lu_1/Neg_1_model_1/model/p_re_lu_1/Relu_1_model_1/model/p_re_lu_1/mul_dequantize_prelu/Relu_1"/>
			</rt_info>
			<input>
				<port id="0" precision="FP32">
					<dim>1</dim>
					<dim>32</dim>
					<dim>96</dim>
					<dim>96</dim>
				</port>
			</input>
			<output>
				<port id="1" precision="FP32" names="model_1/model/p_re_lu_1/add_model_1/model/p_re_lu_1/Relu_model_1/model/p_re_lu_1/Neg_1_model_1/model/p_re_lu_1/Relu_1_model_1/model/p_re_lu_1/mul_dequantize_prelu/Relu_1:0">
					<dim>1</dim>
					<dim>32</dim>
					<dim>96</dim>
					<dim>96</dim>
				</port>
			</output>
		</layer>
		<layer id="33" name="model_1/model/p_re_lu_1/add_model_1/model/p_re_lu_1/Relu_model_1/model/p_re_lu_1/Neg_1_model_1/model/p_re_lu_1/Relu_1_model_1/model/p_re_lu_1/mul_dequantize_prelu/mul" type="Multiply" version="opset1">
			<data auto_broadcast="numpy"/>
			<rt_info>
				<attribute name="fused_names" version="0" value="model_1/model/p_re_lu_1/add_model_1/model/p_re_lu_1/Relu_model_1/model/p_re_lu_1/Neg_1_model_1/model/p_re_lu_1/Relu_1_model_1/model/p_re_lu_1/mul_dequantize_prelu/mul"/>
			</rt_info>
			<input>
				<port id="0" precision="FP32">
					<dim>1</dim>
					<dim>32</dim>
					<dim>1</dim>
					<dim>1</dim>
				</port>
				<port id="1" precision="FP32">
					<dim>1</dim>
					<dim>32</dim>
					<dim>96</dim>
					<dim>96</dim>
				</port>
			</input>
			<output>
				<port id="2" precision="FP32" names="model_1/model/p_re_lu_1/add_model_1/model/p_re_lu_1/Relu_model_1/model/p_re_lu_1/Neg_1_model_1/model/p_re_lu_1/Relu_1_model_1/model/p_re_lu_1/mul_dequantize_prelu/mul:0">
					<dim>1</dim>
					<dim>32</dim>
					<dim>96</dim>
					<dim>96</dim>
				</port>
			</output>
		</layer>
		<layer id="34" name="model_1/model/p_re_lu_1/add_model_1/model/p_re_lu_1/Relu_model_1/model/p_re_lu_1/Neg_1_model_1/model/p_re_lu_1/Relu_1_model_1/model/p_re_lu_1/mul_dequantize_prelu/add" type="Add" version="opset1">
			<data auto_broadcast="numpy"/>
			<rt_info>
				<attribute name="fused_names" version="0" value="model_1/model/p_re_lu_1/add_model_1/model/p_re_lu_1/Relu_model_1/model/p_re_lu_1/Neg_1_model_1/model/p_re_lu_1/Relu_1_model_1/model/p_re_lu_1/mul_dequantize_prelu/add"/>
			</rt_info>
			<input>
				<port id="0" precision="FP32">
					<dim>1</dim>
					<dim>32</dim>
					<dim>96</dim>
					<dim>96</dim>
				</port>
				<port id="1" precision="FP32">
					<dim>1</dim>
					<dim>32</dim>
					<dim>96</dim>
					<dim>96</dim>
				</port>
			</input>
			<output>
				<port id="2" precision="FP32" names="model_1/model/p_re_lu_1/add_model_1/model/p_re_lu_1/Relu_model_1/model/p_re_lu_1/Neg_1_model_1/model/p_re_lu_1/Relu_1_model_1/model/p_re_lu_1/mul_dequantize:0,model_1/model/p_re_lu_1/add_model_1/model/p_re_lu_1/Relu_model_1/model/p_re_lu_1/Neg_1_model_1/model/p_re_lu_1/Relu_1_model_1/model/p_re_lu_1/mul_dequantize_prelu/add:0">
					<dim>1</dim>
					<dim>32</dim>
					<dim>96</dim>
					<dim>96</dim>
				</port>
			</output>
		</layer>
		<layer id="35" name="depthwise_1/filter_in_compressed" type="Const" version="opset1">
			<data element_type="f16" shape="32, 1, 1, 5, 5" offset="8706" size="1600"/>
			<output>
				<port id="0" precision="FP16">
					<dim>32</dim>
					<dim>1</dim>
					<dim>1</dim>
					<dim>5</dim>
					<dim>5</dim>
				</port>
			</output>
		</layer>
		<layer id="36" name="depthwise_1/filter_in" type="Convert" version="opset1">
			<data destination_type="f32"/>
			<rt_info>
				<attribute name="decompression" version="0"/>
				<attribute name="fused_names" version="0" value="depthwise_1/filter_in"/>
			</rt_info>
			<input>
				<port id="0" precision="FP16">
					<dim>32</dim>
					<dim>1</dim>
					<dim>1</dim>
					<dim>5</dim>
					<dim>5</dim>
				</port>
			</input>
			<output>
				<port id="1" precision="FP32" names="depthwise_1/filter_in:0">
					<dim>32</dim>
					<dim>1</dim>
					<dim>1</dim>
					<dim>5</dim>
					<dim>5</dim>
				</port>
			</output>
		</layer>
		<layer id="37" name="depthwise_1" type="GroupConvolution" version="opset1">
			<data strides="1, 1" pads_begin="0, 0" pads_end="0, 0" dilations="1, 1" auto_pad="same_upper"/>
			<rt_info>
				<attribute name="fused_names" version="0" value="depthwise_1, model_1/model/depthwise_conv2d_1/depthwise1"/>
			</rt_info>
			<input>
				<port id="0" precision="FP32">
					<dim>1</dim>
					<dim>32</dim>
					<dim>96</dim>
					<dim>96</dim>
				</port>
				<port id="1" precision="FP32">
					<dim>32</dim>
					<dim>1</dim>
					<dim>1</dim>
					<dim>5</dim>
					<dim>5</dim>
				</port>
			</input>
			<output>
				<port id="2" precision="FP32" names="depthwise_1:0,model_1/model/depthwise_conv2d_1/depthwise1:0">
					<dim>1</dim>
					<dim>32</dim>
					<dim>96</dim>
					<dim>96</dim>
				</port>
			</output>
		</layer>
		<layer id="38" name="Conv2D_2/filter_compressed" type="Const" version="opset1">
			<data element_type="f16" shape="32, 32, 1, 1" offset="10306" size="2048"/>
			<output>
				<port id="0" precision="FP16">
					<dim>32</dim>
					<dim>32</dim>
					<dim>1</dim>
					<dim>1</dim>
				</port>
			</output>
		</layer>
		<layer id="39" name="Conv2D_2/filter" type="Convert" version="opset1">
			<data destination_type="f32"/>
			<rt_info>
				<attribute name="decompression" version="0"/>
				<attribute name="fused_names" version="0" value="Conv2D_2/filter"/>
			</rt_info>
			<input>
				<port id="0" precision="FP16">
					<dim>32</dim>
					<dim>32</dim>
					<dim>1</dim>
					<dim>1</dim>
				</port>
			</input>
			<output>
				<port id="1" precision="FP32" names="Conv2D_2/filter:0">
					<dim>32</dim>
					<dim>32</dim>
					<dim>1</dim>
					<dim>1</dim>
				</port>
			</output>
		</layer>
		<layer id="40" name="Conv2D_2" type="Convolution" version="opset1">
			<data strides="1, 1" dilations="1, 1" pads_begin="0, 0" pads_end="0, 0" auto_pad="valid"/>
			<rt_info>
				<attribute name="fused_names" version="0" value="Conv2D_2"/>
			</rt_info>
			<input>
				<port id="0" precision="FP32">
					<dim>1</dim>
					<dim>32</dim>
					<dim>96</dim>
					<dim>96</dim>
				</port>
				<port id="1" precision="FP32">
					<dim>32</dim>
					<dim>32</dim>
					<dim>1</dim>
					<dim>1</dim>
				</port>
			</input>
			<output>
				<port id="2" precision="FP32" names="Conv2D_2:0">
					<dim>1</dim>
					<dim>32</dim>
					<dim>96</dim>
					<dim>96</dim>
				</port>
			</output>
		</layer>
		<layer id="41" name="model_1/model/batch_normalization_2/FusedBatchNormV3_model_1/model/depthwise_conv2d_3/depthwise_model_1/model/conv2d_2/Conv2D1/y_compressed" type="Const" version="opset1">
			<data element_type="f16" shape="1, 32, 1, 1" offset="12354" size="64"/>
			<output>
				<port id="0" precision="FP16">
					<dim>1</dim>
					<dim>32</dim>
					<dim>1</dim>
					<dim>1</dim>
				</port>
			</output>
		</layer>
		<layer id="42" name="model_1/model/batch_normalization_2/FusedBatchNormV3_model_1/model/depthwise_conv2d_3/depthwise_model_1/model/conv2d_2/Conv2D1/y" type="Convert" version="opset1">
			<data destination_type="f32"/>
			<rt_info>
				<attribute name="decompression" version="0"/>
				<attribute name="fused_names" version="0" value="model_1/model/batch_normalization_2/FusedBatchNormV3_model_1/model/depthwise_conv2d_3/depthwise_model_1/model/conv2d_2/Conv2D1/y"/>
			</rt_info>
			<input>
				<port id="0" precision="FP16">
					<dim>1</dim>
					<dim>32</dim>
					<dim>1</dim>
					<dim>1</dim>
				</port>
			</input>
			<output>
				<port id="1" precision="FP32" names="model_1/model/batch_normalization_2/FusedBatchNormV3_model_1/model/depthwise_conv2d_3/depthwise_model_1/model/conv2d_2/Conv2D1/y:0">
					<dim>1</dim>
					<dim>32</dim>
					<dim>1</dim>
					<dim>1</dim>
				</port>
			</output>
		</layer>
		<layer id="43" name="model_1/model/batch_normalization_2/FusedBatchNormV3_model_1/model/depthwise_conv2d_3/depthwise_model_1/model/conv2d_2/Conv2D1" type="Add" version="opset1">
			<data auto_broadcast="numpy"/>
			<rt_info>
				<attribute name="fused_names" version="0" value="model_1/model/batch_normalization_2/FusedBatchNormV3_model_1/model/depthwise_conv2d_3/depthwise_model_1/model/conv2d_2/Conv2D1"/>
			</rt_info>
			<input>
				<port id="0" precision="FP32">
					<dim>1</dim>
					<dim>32</dim>
					<dim>96</dim>
					<dim>96</dim>
				</port>
				<port id="1" precision="FP32">
					<dim>1</dim>
					<dim>32</dim>
					<dim>1</dim>
					<dim>1</dim>
				</port>
			</input>
			<output>
				<port id="2" precision="FP32" names="model_1/model/batch_normalization_2/FusedBatchNormV3_model_1/model/depthwise_conv2d_3/depthwise_model_1/model/conv2d_2/Conv2D1:0">
					<dim>1</dim>
					<dim>32</dim>
					<dim>96</dim>
					<dim>96</dim>
				</port>
			</output>
		</layer>
		<layer id="44" name="model_1/model/add_1/add" type="Add" version="opset1">
			<data auto_broadcast="numpy"/>
			<rt_info>
				<attribute name="fused_names" version="0" value="model_1/model/add_1/add"/>
			</rt_info>
			<input>
				<port id="0" precision="FP32">
					<dim>1</dim>
					<dim>32</dim>
					<dim>96</dim>
					<dim>96</dim>
				</port>
				<port id="1" precision="FP32">
					<dim>1</dim>
					<dim>32</dim>
					<dim>96</dim>
					<dim>96</dim>
				</port>
			</input>
			<output>
				<port id="2" precision="FP32" names="model_1/model/add_1/add:0">
					<dim>1</dim>
					<dim>32</dim>
					<dim>96</dim>
					<dim>96</dim>
				</port>
			</output>
		</layer>
		<layer id="45" name="model_1/model/p_re_lu_2/add_model_1/model/p_re_lu_2/Relu_model_1/model/p_re_lu_2/Neg_1_model_1/model/p_re_lu_2/Relu_1_model_1/model/p_re_lu_2/mul_dequantize_prelu/Relu" type="ReLU" version="opset1">
			<rt_info>
				<attribute name="fused_names" version="0" value="model_1/model/p_re_lu_2/add_model_1/model/p_re_lu_2/Relu_model_1/model/p_re_lu_2/Neg_1_model_1/model/p_re_lu_2/Relu_1_model_1/model/p_re_lu_2/mul_dequantize_prelu/Relu"/>
			</rt_info>
			<input>
				<port id="0" precision="FP32">
					<dim>1</dim>
					<dim>32</dim>
					<dim>96</dim>
					<dim>96</dim>
				</port>
			</input>
			<output>
				<port id="1" precision="FP32" names="model_1/model/p_re_lu_2/add_model_1/model/p_re_lu_2/Relu_model_1/model/p_re_lu_2/Neg_1_model_1/model/p_re_lu_2/Relu_1_model_1/model/p_re_lu_2/mul_dequantize_prelu/Relu:0">
					<dim>1</dim>
					<dim>32</dim>
					<dim>96</dim>
					<dim>96</dim>
				</port>
			</output>
		</layer>
		<layer id="46" name="model_1/model/p_re_lu_2/add_model_1/model/p_re_lu_2/Relu_model_1/model/p_re_lu_2/Neg_1_model_1/model/p_re_lu_2/Relu_1_model_1/model/p_re_lu_2/mul_dequantize_prelu/Neg/mul__compressed" type="Const" version="opset1">
			<data element_type="f16" shape="1, 32, 1, 1" offset="12418" size="64"/>
			<output>
				<port id="0" precision="FP16">
					<dim>1</dim>
					<dim>32</dim>
					<dim>1</dim>
					<dim>1</dim>
				</port>
			</output>
		</layer>
		<layer id="47" name="model_1/model/p_re_lu_2/add_model_1/model/p_re_lu_2/Relu_model_1/model/p_re_lu_2/Neg_1_model_1/model/p_re_lu_2/Relu_1_model_1/model/p_re_lu_2/mul_dequantize_prelu/Neg/mul_" type="Convert" version="opset1">
			<data destination_type="f32"/>
			<rt_info>
				<attribute name="decompression" version="0"/>
				<attribute name="fused_names" version="0" value="model_1/model/p_re_lu_2/add_model_1/model/p_re_lu_2/Relu_model_1/model/p_re_lu_2/Neg_1_model_1/model/p_re_lu_2/Relu_1_model_1/model/p_re_lu_2/mul_dequantize_prelu/Neg/mul_"/>
			</rt_info>
			<input>
				<port id="0" precision="FP16">
					<dim>1</dim>
					<dim>32</dim>
					<dim>1</dim>
					<dim>1</dim>
				</port>
			</input>
			<output>
				<port id="1" precision="FP32" names="model_1/model/p_re_lu_2/add_model_1/model/p_re_lu_2/Relu_model_1/model/p_re_lu_2/Neg_1_model_1/model/p_re_lu_2/Relu_1_model_1/model/p_re_lu_2/mul_dequantize_prelu/Neg:0">
					<dim>1</dim>
					<dim>32</dim>
					<dim>1</dim>
					<dim>1</dim>
				</port>
			</output>
		</layer>
		<layer id="48" name="505_compressed" type="Const" version="opset1">
			<data element_type="f16" shape="1, 1, 1, 1" offset="4928" size="2"/>
			<output>
				<port id="0" precision="FP16">
					<dim>1</dim>
					<dim>1</dim>
					<dim>1</dim>
					<dim>1</dim>
				</port>
			</output>
		</layer>
		<layer id="49" name="505" type="Convert" version="opset1">
			<data destination_type="f32"/>
			<rt_info>
				<attribute name="decompression" version="0"/>
				<attribute name="fused_names" version="0" value="505"/>
			</rt_info>
			<input>
				<port id="0" precision="FP16">
					<dim>1</dim>
					<dim>1</dim>
					<dim>1</dim>
					<dim>1</dim>
				</port>
			</input>
			<output>
				<port id="1" precision="FP32">
					<dim>1</dim>
					<dim>1</dim>
					<dim>1</dim>
					<dim>1</dim>
				</port>
			</output>
		</layer>
		<layer id="50" name="model_1/model/p_re_lu_2/add_model_1/model/p_re_lu_2/Relu_model_1/model/p_re_lu_2/Neg_1_model_1/model/p_re_lu_2/Relu_1_model_1/model/p_re_lu_2/mul_dequantize_prelu/Neg_1/mul_" type="Multiply" version="opset1">
			<data auto_broadcast="numpy"/>
			<rt_info>
				<attribute name="fused_names" version="0" value="model_1/model/p_re_lu_2/add_model_1/model/p_re_lu_2/Relu_model_1/model/p_re_lu_2/Neg_1_model_1/model/p_re_lu_2/Relu_1_model_1/model/p_re_lu_2/mul_dequantize_prelu/Neg_1/mul_"/>
			</rt_info>
			<input>
				<port id="0" precision="FP32">
					<dim>1</dim>
					<dim>32</dim>
					<dim>96</dim>
					<dim>96</dim>
				</port>
				<port id="1" precision="FP32">
					<dim>1</dim>
					<dim>1</dim>
					<dim>1</dim>
					<dim>1</dim>
				</port>
			</input>
			<output>
				<port id="2" precision="FP32" names="model_1/model/p_re_lu_2/add_model_1/model/p_re_lu_2/Relu_model_1/model/p_re_lu_2/Neg_1_model_1/model/p_re_lu_2/Relu_1_model_1/model/p_re_lu_2/mul_dequantize_prelu/Neg_1:0">
					<dim>1</dim>
					<dim>32</dim>
					<dim>96</dim>
					<dim>96</dim>
				</port>
			</output>
		</layer>
		<layer id="51" name="model_1/model/p_re_lu_2/add_model_1/model/p_re_lu_2/Relu_model_1/model/p_re_lu_2/Neg_1_model_1/model/p_re_lu_2/Relu_1_model_1/model/p_re_lu_2/mul_dequantize_prelu/Relu_1" type="ReLU" version="opset1">
			<rt_info>
				<attribute name="fused_names" version="0" value="model_1/model/p_re_lu_2/add_model_1/model/p_re_lu_2/Relu_model_1/model/p_re_lu_2/Neg_1_model_1/model/p_re_lu_2/Relu_1_model_1/model/p_re_lu_2/mul_dequantize_prelu/Relu_1"/>
			</rt_info>
			<input>
				<port id="0" precision="FP32">
					<dim>1</dim>
					<dim>32</dim>
					<dim>96</dim>
					<dim>96</dim>
				</port>
			</input>
			<output>
				<port id="1" precision="FP32" names="model_1/model/p_re_lu_2/add_model_1/model/p_re_lu_2/Relu_model_1/model/p_re_lu_2/Neg_1_model_1/model/p_re_lu_2/Relu_1_model_1/model/p_re_lu_2/mul_dequantize_prelu/Relu_1:0">
					<dim>1</dim>
					<dim>32</dim>
					<dim>96</dim>
					<dim>96</dim>
				</port>
			</output>
		</layer>
		<layer id="52" name="model_1/model/p_re_lu_2/add_model_1/model/p_re_lu_2/Relu_model_1/model/p_re_lu_2/Neg_1_model_1/model/p_re_lu_2/Relu_1_model_1/model/p_re_lu_2/mul_dequantize_prelu/mul" type="Multiply" version="opset1">
			<data auto_broadcast="numpy"/>
			<rt_info>
				<attribute name="fused_names" version="0" value="model_1/model/p_re_lu_2/add_model_1/model/p_re_lu_2/Relu_model_1/model/p_re_lu_2/Neg_1_model_1/model/p_re_lu_2/Relu_1_model_1/model/p_re_lu_2/mul_dequantize_prelu/mul"/>
			</rt_info>
			<input>
				<port id="0" precision="FP32">
					<dim>1</dim>
					<dim>32</dim>
					<dim>1</dim>
					<dim>1</dim>
				</port>
				<port id="1" precision="FP32">
					<dim>1</dim>
					<dim>32</dim>
					<dim>96</dim>
					<dim>96</dim>
				</port>
			</input>
			<output>
				<port id="2" precision="FP32" names="model_1/model/p_re_lu_2/add_model_1/model/p_re_lu_2/Relu_model_1/model/p_re_lu_2/Neg_1_model_1/model/p_re_lu_2/Relu_1_model_1/model/p_re_lu_2/mul_dequantize_prelu/mul:0">
					<dim>1</dim>
					<dim>32</dim>
					<dim>96</dim>
					<dim>96</dim>
				</port>
			</output>
		</layer>
		<layer id="53" name="model_1/model/p_re_lu_2/add_model_1/model/p_re_lu_2/Relu_model_1/model/p_re_lu_2/Neg_1_model_1/model/p_re_lu_2/Relu_1_model_1/model/p_re_lu_2/mul_dequantize_prelu/add" type="Add" version="opset1">
			<data auto_broadcast="numpy"/>
			<rt_info>
				<attribute name="fused_names" version="0" value="model_1/model/p_re_lu_2/add_model_1/model/p_re_lu_2/Relu_model_1/model/p_re_lu_2/Neg_1_model_1/model/p_re_lu_2/Relu_1_model_1/model/p_re_lu_2/mul_dequantize_prelu/add"/>
			</rt_info>
			<input>
				<port id="0" precision="FP32">
					<dim>1</dim>
					<dim>32</dim>
					<dim>96</dim>
					<dim>96</dim>
				</port>
				<port id="1" precision="FP32">
					<dim>1</dim>
					<dim>32</dim>
					<dim>96</dim>
					<dim>96</dim>
				</port>
			</input>
			<output>
				<port id="2" precision="FP32" names="model_1/model/p_re_lu_2/add_model_1/model/p_re_lu_2/Relu_model_1/model/p_re_lu_2/Neg_1_model_1/model/p_re_lu_2/Relu_1_model_1/model/p_re_lu_2/mul_dequantize:0,model_1/model/p_re_lu_2/add_model_1/model/p_re_lu_2/Relu_model_1/model/p_re_lu_2/Neg_1_model_1/model/p_re_lu_2/Relu_1_model_1/model/p_re_lu_2/mul_dequantize_prelu/add:0">
					<dim>1</dim>
					<dim>32</dim>
					<dim>96</dim>
					<dim>96</dim>
				</port>
			</output>
		</layer>
		<layer id="54" name="depthwise_2/filter_in_compressed" type="Const" version="opset1">
			<data element_type="f16" shape="32, 1, 1, 5, 5" offset="12482" size="1600"/>
			<output>
				<port id="0" precision="FP16">
					<dim>32</dim>
					<dim>1</dim>
					<dim>1</dim>
					<dim>5</dim>
					<dim>5</dim>
				</port>
			</output>
		</layer>
		<layer id="55" name="depthwise_2/filter_in" type="Convert" version="opset1">
			<data destination_type="f32"/>
			<rt_info>
				<attribute name="decompression" version="0"/>
				<attribute name="fused_names" version="0" value="depthwise_2/filter_in"/>
			</rt_info>
			<input>
				<port id="0" precision="FP16">
					<dim>32</dim>
					<dim>1</dim>
					<dim>1</dim>
					<dim>5</dim>
					<dim>5</dim>
				</port>
			</input>
			<output>
				<port id="1" precision="FP32" names="depthwise_2/filter_in:0">
					<dim>32</dim>
					<dim>1</dim>
					<dim>1</dim>
					<dim>5</dim>
					<dim>5</dim>
				</port>
			</output>
		</layer>
		<layer id="56" name="depthwise_2" type="GroupConvolution" version="opset1">
			<data strides="1, 1" pads_begin="0, 0" pads_end="0, 0" dilations="1, 1" auto_pad="same_upper"/>
			<rt_info>
				<attribute name="fused_names" version="0" value="depthwise_2, model_1/model/depthwise_conv2d_2/depthwise1"/>
			</rt_info>
			<input>
				<port id="0" precision="FP32">
					<dim>1</dim>
					<dim>32</dim>
					<dim>96</dim>
					<dim>96</dim>
				</port>
				<port id="1" precision="FP32">
					<dim>32</dim>
					<dim>1</dim>
					<dim>1</dim>
					<dim>5</dim>
					<dim>5</dim>
				</port>
			</input>
			<output>
				<port id="2" precision="FP32" names="depthwise_2:0,model_1/model/depthwise_conv2d_2/depthwise1:0">
					<dim>1</dim>
					<dim>32</dim>
					<dim>96</dim>
					<dim>96</dim>
				</port>
			</output>
		</layer>
		<layer id="57" name="Conv2D_3/filter_compressed" type="Const" version="opset1">
			<data element_type="f16" shape="32, 32, 1, 1" offset="14082" size="2048"/>
			<output>
				<port id="0" precision="FP16">
					<dim>32</dim>
					<dim>32</dim>
					<dim>1</dim>
					<dim>1</dim>
				</port>
			</output>
		</layer>
		<layer id="58" name="Conv2D_3/filter" type="Convert" version="opset1">
			<data destination_type="f32"/>
			<rt_info>
				<attribute name="decompression" version="0"/>
				<attribute name="fused_names" version="0" value="Conv2D_3/filter"/>
			</rt_info>
			<input>
				<port id="0" precision="FP16">
					<dim>32</dim>
					<dim>32</dim>
					<dim>1</dim>
					<dim>1</dim>
				</port>
			</input>
			<output>
				<port id="1" precision="FP32" names="Conv2D_3/filter:0">
					<dim>32</dim>
					<dim>32</dim>
					<dim>1</dim>
					<dim>1</dim>
				</port>
			</output>
		</layer>
		<layer id="59" name="Conv2D_3" type="Convolution" version="opset1">
			<data strides="1, 1" dilations="1, 1" pads_begin="0, 0" pads_end="0, 0" auto_pad="valid"/>
			<rt_info>
				<attribute name="fused_names" version="0" value="Conv2D_3"/>
			</rt_info>
			<input>
				<port id="0" precision="FP32">
					<dim>1</dim>
					<dim>32</dim>
					<dim>96</dim>
					<dim>96</dim>
				</port>
				<port id="1" precision="FP32">
					<dim>32</dim>
					<dim>32</dim>
					<dim>1</dim>
					<dim>1</dim>
				</port>
			</input>
			<output>
				<port id="2" precision="FP32" names="Conv2D_3:0">
					<dim>1</dim>
					<dim>32</dim>
					<dim>96</dim>
					<dim>96</dim>
				</port>
			</output>
		</layer>
		<layer id="60" name="model_1/model/batch_normalization_3/FusedBatchNormV3_model_1/model/depthwise_conv2d_3/depthwise_model_1/model/conv2d_3/Conv2D1/y_compressed" type="Const" version="opset1">
			<data element_type="f16" shape="1, 32, 1, 1" offset="16130" size="64"/>
			<output>
				<port id="0" precision="FP16">
					<dim>1</dim>
					<dim>32</dim>
					<dim>1</dim>
					<dim>1</dim>
				</port>
			</output>
		</layer>
		<layer id="61" name="model_1/model/batch_normalization_3/FusedBatchNormV3_model_1/model/depthwise_conv2d_3/depthwise_model_1/model/conv2d_3/Conv2D1/y" type="Convert" version="opset1">
			<data destination_type="f32"/>
			<rt_info>
				<attribute name="decompression" version="0"/>
				<attribute name="fused_names" version="0" value="model_1/model/batch_normalization_3/FusedBatchNormV3_model_1/model/depthwise_conv2d_3/depthwise_model_1/model/conv2d_3/Conv2D1/y"/>
			</rt_info>
			<input>
				<port id="0" precision="FP16">
					<dim>1</dim>
					<dim>32</dim>
					<dim>1</dim>
					<dim>1</dim>
				</port>
			</input>
			<output>
				<port id="1" precision="FP32" names="model_1/model/batch_normalization_3/FusedBatchNormV3_model_1/model/depthwise_conv2d_3/depthwise_model_1/model/conv2d_3/Conv2D1/y:0">
					<dim>1</dim>
					<dim>32</dim>
					<dim>1</dim>
					<dim>1</dim>
				</port>
			</output>
		</layer>
		<layer id="62" name="model_1/model/batch_normalization_3/FusedBatchNormV3_model_1/model/depthwise_conv2d_3/depthwise_model_1/model/conv2d_3/Conv2D1" type="Add" version="opset1">
			<data auto_broadcast="numpy"/>
			<rt_info>
				<attribute name="fused_names" version="0" value="model_1/model/batch_normalization_3/FusedBatchNormV3_model_1/model/depthwise_conv2d_3/depthwise_model_1/model/conv2d_3/Conv2D1"/>
			</rt_info>
			<input>
				<port id="0" precision="FP32">
					<dim>1</dim>
					<dim>32</dim>
					<dim>96</dim>
					<dim>96</dim>
				</port>
				<port id="1" precision="FP32">
					<dim>1</dim>
					<dim>32</dim>
					<dim>1</dim>
					<dim>1</dim>
				</port>
			</input>
			<output>
				<port id="2" precision="FP32" names="model_1/model/batch_normalization_3/FusedBatchNormV3_model_1/model/depthwise_conv2d_3/depthwise_model_1/model/conv2d_3/Conv2D1:0">
					<dim>1</dim>
					<dim>32</dim>
					<dim>96</dim>
					<dim>96</dim>
				</port>
			</output>
		</layer>
		<layer id="63" name="model_1/model/add_2/add" type="Add" version="opset1">
			<data auto_broadcast="numpy"/>
			<rt_info>
				<attribute name="fused_names" version="0" value="model_1/model/add_2/add"/>
			</rt_info>
			<input>
				<port id="0" precision="FP32">
					<dim>1</dim>
					<dim>32</dim>
					<dim>96</dim>
					<dim>96</dim>
				</port>
				<port id="1" precision="FP32">
					<dim>1</dim>
					<dim>32</dim>
					<dim>96</dim>
					<dim>96</dim>
				</port>
			</input>
			<output>
				<port id="2" precision="FP32" names="model_1/model/add_2/add:0">
					<dim>1</dim>
					<dim>32</dim>
					<dim>96</dim>
					<dim>96</dim>
				</port>
			</output>
		</layer>
		<layer id="64" name="model_1/model/p_re_lu_3/add_model_1/model/p_re_lu_3/Relu_model_1/model/p_re_lu_3/Neg_1_model_1/model/p_re_lu_3/Relu_1_model_1/model/p_re_lu_3/mul_dequantize_prelu/Relu" type="ReLU" version="opset1">
			<rt_info>
				<attribute name="fused_names" version="0" value="model_1/model/p_re_lu_3/add_model_1/model/p_re_lu_3/Relu_model_1/model/p_re_lu_3/Neg_1_model_1/model/p_re_lu_3/Relu_1_model_1/model/p_re_lu_3/mul_dequantize_prelu/Relu"/>
			</rt_info>
			<input>
				<port id="0" precision="FP32">
					<dim>1</dim>
					<dim>32</dim>
					<dim>96</dim>
					<dim>96</dim>
				</port>
			</input>
			<output>
				<port id="1" precision="FP32" names="model_1/model/p_re_lu_3/add_model_1/model/p_re_lu_3/Relu_model_1/model/p_re_lu_3/Neg_1_model_1/model/p_re_lu_3/Relu_1_model_1/model/p_re_lu_3/mul_dequantize_prelu/Relu:0">
					<dim>1</dim>
					<dim>32</dim>
					<dim>96</dim>
					<dim>96</dim>
				</port>
			</output>
		</layer>
		<layer id="65" name="model_1/model/p_re_lu_3/add_model_1/model/p_re_lu_3/Relu_model_1/model/p_re_lu_3/Neg_1_model_1/model/p_re_lu_3/Relu_1_model_1/model/p_re_lu_3/mul_dequantize_prelu/Neg/mul__compressed" type="Const" version="opset1">
			<data element_type="f16" shape="1, 32, 1, 1" offset="16194" size="64"/>
			<output>
				<port id="0" precision="FP16">
					<dim>1</dim>
					<dim>32</dim>
					<dim>1</dim>
					<dim>1</dim>
				</port>
			</output>
		</layer>
		<layer id="66" name="model_1/model/p_re_lu_3/add_model_1/model/p_re_lu_3/Relu_model_1/model/p_re_lu_3/Neg_1_model_1/model/p_re_lu_3/Relu_1_model_1/model/p_re_lu_3/mul_dequantize_prelu/Neg/mul_" type="Convert" version="opset1">
			<data destination_type="f32"/>
			<rt_info>
				<attribute name="decompression" version="0"/>
				<attribute name="fused_names" version="0" value="model_1/model/p_re_lu_3/add_model_1/model/p_re_lu_3/Relu_model_1/model/p_re_lu_3/Neg_1_model_1/model/p_re_lu_3/Relu_1_model_1/model/p_re_lu_3/mul_dequantize_prelu/Neg/mul_"/>
			</rt_info>
			<input>
				<port id="0" precision="FP16">
					<dim>1</dim>
					<dim>32</dim>
					<dim>1</dim>
					<dim>1</dim>
				</port>
			</input>
			<output>
				<port id="1" precision="FP32" names="model_1/model/p_re_lu_3/add_model_1/model/p_re_lu_3/Relu_model_1/model/p_re_lu_3/Neg_1_model_1/model/p_re_lu_3/Relu_1_model_1/model/p_re_lu_3/mul_dequantize_prelu/Neg:0">
					<dim>1</dim>
					<dim>32</dim>
					<dim>1</dim>
					<dim>1</dim>
				</port>
			</output>
		</layer>
		<layer id="67" name="539_compressed" type="Const" version="opset1">
			<data element_type="f16" shape="1, 1, 1, 1" offset="4928" size="2"/>
			<output>
				<port id="0" precision="FP16">
					<dim>1</dim>
					<dim>1</dim>
					<dim>1</dim>
					<dim>1</dim>
				</port>
			</output>
		</layer>
		<layer id="68" name="539" type="Convert" version="opset1">
			<data destination_type="f32"/>
			<rt_info>
				<attribute name="decompression" version="0"/>
				<attribute name="fused_names" version="0" value="539"/>
			</rt_info>
			<input>
				<port id="0" precision="FP16">
					<dim>1</dim>
					<dim>1</dim>
					<dim>1</dim>
					<dim>1</dim>
				</port>
			</input>
			<output>
				<port id="1" precision="FP32">
					<dim>1</dim>
					<dim>1</dim>
					<dim>1</dim>
					<dim>1</dim>
				</port>
			</output>
		</layer>
		<layer id="69" name="model_1/model/p_re_lu_3/add_model_1/model/p_re_lu_3/Relu_model_1/model/p_re_lu_3/Neg_1_model_1/model/p_re_lu_3/Relu_1_model_1/model/p_re_lu_3/mul_dequantize_prelu/Neg_1/mul_" type="Multiply" version="opset1">
			<data auto_broadcast="numpy"/>
			<rt_info>
				<attribute name="fused_names" version="0" value="model_1/model/p_re_lu_3/add_model_1/model/p_re_lu_3/Relu_model_1/model/p_re_lu_3/Neg_1_model_1/model/p_re_lu_3/Relu_1_model_1/model/p_re_lu_3/mul_dequantize_prelu/Neg_1/mul_"/>
			</rt_info>
			<input>
				<port id="0" precision="FP32">
					<dim>1</dim>
					<dim>32</dim>
					<dim>96</dim>
					<dim>96</dim>
				</port>
				<port id="1" precision="FP32">
					<dim>1</dim>
					<dim>1</dim>
					<dim>1</dim>
					<dim>1</dim>
				</port>
			</input>
			<output>
				<port id="2" precision="FP32" names="model_1/model/p_re_lu_3/add_model_1/model/p_re_lu_3/Relu_model_1/model/p_re_lu_3/Neg_1_model_1/model/p_re_lu_3/Relu_1_model_1/model/p_re_lu_3/mul_dequantize_prelu/Neg_1:0">
					<dim>1</dim>
					<dim>32</dim>
					<dim>96</dim>
					<dim>96</dim>
				</port>
			</output>
		</layer>
		<layer id="70" name="model_1/model/p_re_lu_3/add_model_1/model/p_re_lu_3/Relu_model_1/model/p_re_lu_3/Neg_1_model_1/model/p_re_lu_3/Relu_1_model_1/model/p_re_lu_3/mul_dequantize_prelu/Relu_1" type="ReLU" version="opset1">
			<rt_info>
				<attribute name="fused_names" version="0" value="model_1/model/p_re_lu_3/add_model_1/model/p_re_lu_3/Relu_model_1/model/p_re_lu_3/Neg_1_model_1/model/p_re_lu_3/Relu_1_model_1/model/p_re_lu_3/mul_dequantize_prelu/Relu_1"/>
			</rt_info>
			<input>
				<port id="0" precision="FP32">
					<dim>1</dim>
					<dim>32</dim>
					<dim>96</dim>
					<dim>96</dim>
				</port>
			</input>
			<output>
				<port id="1" precision="FP32" names="model_1/model/p_re_lu_3/add_model_1/model/p_re_lu_3/Relu_model_1/model/p_re_lu_3/Neg_1_model_1/model/p_re_lu_3/Relu_1_model_1/model/p_re_lu_3/mul_dequantize_prelu/Relu_1:0">
					<dim>1</dim>
					<dim>32</dim>
					<dim>96</dim>
					<dim>96</dim>
				</port>
			</output>
		</layer>
		<layer id="71" name="model_1/model/p_re_lu_3/add_model_1/model/p_re_lu_3/Relu_model_1/model/p_re_lu_3/Neg_1_model_1/model/p_re_lu_3/Relu_1_model_1/model/p_re_lu_3/mul_dequantize_prelu/mul" type="Multiply" version="opset1">
			<data auto_broadcast="numpy"/>
			<rt_info>
				<attribute name="fused_names" version="0" value="model_1/model/p_re_lu_3/add_model_1/model/p_re_lu_3/Relu_model_1/model/p_re_lu_3/Neg_1_model_1/model/p_re_lu_3/Relu_1_model_1/model/p_re_lu_3/mul_dequantize_prelu/mul"/>
			</rt_info>
			<input>
				<port id="0" precision="FP32">
					<dim>1</dim>
					<dim>32</dim>
					<dim>1</dim>
					<dim>1</dim>
				</port>
				<port id="1" precision="FP32">
					<dim>1</dim>
					<dim>32</dim>
					<dim>96</dim>
					<dim>96</dim>
				</port>
			</input>
			<output>
				<port id="2" precision="FP32" names="model_1/model/p_re_lu_3/add_model_1/model/p_re_lu_3/Relu_model_1/model/p_re_lu_3/Neg_1_model_1/model/p_re_lu_3/Relu_1_model_1/model/p_re_lu_3/mul_dequantize_prelu/mul:0">
					<dim>1</dim>
					<dim>32</dim>
					<dim>96</dim>
					<dim>96</dim>
				</port>
			</output>
		</layer>
		<layer id="72" name="model_1/model/p_re_lu_3/add_model_1/model/p_re_lu_3/Relu_model_1/model/p_re_lu_3/Neg_1_model_1/model/p_re_lu_3/Relu_1_model_1/model/p_re_lu_3/mul_dequantize_prelu/add" type="Add" version="opset1">
			<data auto_broadcast="numpy"/>
			<rt_info>
				<attribute name="fused_names" version="0" value="model_1/model/p_re_lu_3/add_model_1/model/p_re_lu_3/Relu_model_1/model/p_re_lu_3/Neg_1_model_1/model/p_re_lu_3/Relu_1_model_1/model/p_re_lu_3/mul_dequantize_prelu/add"/>
			</rt_info>
			<input>
				<port id="0" precision="FP32">
					<dim>1</dim>
					<dim>32</dim>
					<dim>96</dim>
					<dim>96</dim>
				</port>
				<port id="1" precision="FP32">
					<dim>1</dim>
					<dim>32</dim>
					<dim>96</dim>
					<dim>96</dim>
				</port>
			</input>
			<output>
				<port id="2" precision="FP32" names="model_1/model/p_re_lu_3/add_model_1/model/p_re_lu_3/Relu_model_1/model/p_re_lu_3/Neg_1_model_1/model/p_re_lu_3/Relu_1_model_1/model/p_re_lu_3/mul_dequantize:0,model_1/model/p_re_lu_3/add_model_1/model/p_re_lu_3/Relu_model_1/model/p_re_lu_3/Neg_1_model_1/model/p_re_lu_3/Relu_1_model_1/model/p_re_lu_3/mul_dequantize_prelu/add:0">
					<dim>1</dim>
					<dim>32</dim>
					<dim>96</dim>
					<dim>96</dim>
				</port>
			</output>
		</layer>
		<layer id="73" name="model_1/model/max_pooling2d/MaxPool" type="MaxPool" version="opset8">
			<data strides="2, 2" dilations="1, 1" pads_begin="0, 0" pads_end="0, 0" kernel="2, 2" rounding_type="floor" auto_pad="same_upper" index_element_type="i64" axis="0"/>
			<rt_info>
				<attribute name="fused_names" version="0" value="model_1/model/max_pooling2d/MaxPool"/>
			</rt_info>
			<input>
				<port id="0" precision="FP32">
					<dim>1</dim>
					<dim>32</dim>
					<dim>96</dim>
					<dim>96</dim>
				</port>
			</input>
			<output>
				<port id="1" precision="FP32" names="model_1/model/max_pooling2d/MaxPool:0">
					<dim>1</dim>
					<dim>32</dim>
					<dim>48</dim>
					<dim>48</dim>
				</port>
				<port id="2" precision="I64">
					<dim>1</dim>
					<dim>32</dim>
					<dim>48</dim>
					<dim>48</dim>
				</port>
			</output>
		</layer>
		<layer id="74" name="954114881" type="Const" version="opset1">
			<data element_type="i64" shape="4" offset="16258" size="32"/>
			<rt_info>
				<attribute name="fused_names" version="0" value="954114881"/>
			</rt_info>
			<output>
				<port id="0" precision="I64">
					<dim>4</dim>
				</port>
			</output>
		</layer>
		<layer id="75" name="954714548" type="Const" version="opset1">
			<data element_type="i64" shape="4" offset="16290" size="32"/>
			<rt_info>
				<attribute name="fused_names" version="0" value="954714548"/>
			</rt_info>
			<output>
				<port id="0" precision="I64">
					<dim>4</dim>
				</port>
			</output>
		</layer>
		<layer id="76" name="Constant_131_compressed" type="Const" version="opset1">
			<data element_type="f16" shape="" offset="16322" size="2"/>
			<output>
				<port id="0" precision="FP16"/>
			</output>
		</layer>
		<layer id="77" name="Constant_131" type="Convert" version="opset1">
			<data destination_type="f32"/>
			<rt_info>
				<attribute name="decompression" version="0"/>
				<attribute name="fused_names" version="0" value="Constant_131"/>
			</rt_info>
			<input>
				<port id="0" precision="FP16"/>
			</input>
			<output>
				<port id="1" precision="FP32"/>
			</output>
		</layer>
		<layer id="78" name="model_1/model/channel_padding/Pad" type="Pad" version="opset1">
			<data pad_mode="constant"/>
			<rt_info>
				<attribute name="fused_names" version="0" value="model_1/model/channel_padding/Pad"/>
			</rt_info>
			<input>
				<port id="0" precision="FP32">
					<dim>1</dim>
					<dim>32</dim>
					<dim>48</dim>
					<dim>48</dim>
				</port>
				<port id="1" precision="I64">
					<dim>4</dim>
				</port>
				<port id="2" precision="I64">
					<dim>4</dim>
				</port>
				<port id="3" precision="FP32"/>
			</input>
			<output>
				<port id="4" precision="FP32" names="model_1/model/channel_padding/Pad:0">
					<dim>1</dim>
					<dim>64</dim>
					<dim>48</dim>
					<dim>48</dim>
				</port>
			</output>
		</layer>
		<layer id="79" name="depthwise_3/filter_in_compressed" type="Const" version="opset1">
			<data element_type="f16" shape="32, 1, 1, 5, 5" offset="16324" size="1600"/>
			<output>
				<port id="0" precision="FP16">
					<dim>32</dim>
					<dim>1</dim>
					<dim>1</dim>
					<dim>5</dim>
					<dim>5</dim>
				</port>
			</output>
		</layer>
		<layer id="80" name="depthwise_3/filter_in" type="Convert" version="opset1">
			<data destination_type="f32"/>
			<rt_info>
				<attribute name="decompression" version="0"/>
				<attribute name="fused_names" version="0" value="depthwise_3/filter_in"/>
			</rt_info>
			<input>
				<port id="0" precision="FP16">
					<dim>32</dim>
					<dim>1</dim>
					<dim>1</dim>
					<dim>5</dim>
					<dim>5</dim>
				</port>
			</input>
			<output>
				<port id="1" precision="FP32" names="depthwise_3/filter_in:0">
					<dim>32</dim>
					<dim>1</dim>
					<dim>1</dim>
					<dim>5</dim>
					<dim>5</dim>
				</port>
			</output>
		</layer>
		<layer id="81" name="depthwise_3" type="GroupConvolution" version="opset1">
			<data strides="2, 2" pads_begin="0, 0" pads_end="0, 0" dilations="1, 1" auto_pad="same_upper"/>
			<rt_info>
				<attribute name="fused_names" version="0" value="depthwise_3, model_1/model/depthwise_conv2d_3/depthwise2"/>
			</rt_info>
			<input>
				<port id="0" precision="FP32">
					<dim>1</dim>
					<dim>32</dim>
					<dim>96</dim>
					<dim>96</dim>
				</port>
				<port id="1" precision="FP32">
					<dim>32</dim>
					<dim>1</dim>
					<dim>1</dim>
					<dim>5</dim>
					<dim>5</dim>
				</port>
			</input>
			<output>
				<port id="2" precision="FP32" names="depthwise_3:0,model_1/model/depthwise_conv2d_3/depthwise2:0">
					<dim>1</dim>
					<dim>32</dim>
					<dim>48</dim>
					<dim>48</dim>
				</port>
			</output>
		</layer>
		<layer id="82" name="Conv2D_4/filter_compressed" type="Const" version="opset1">
			<data element_type="f16" shape="64, 32, 1, 1" offset="17924" size="4096"/>
			<output>
				<port id="0" precision="FP16">
					<dim>64</dim>
					<dim>32</dim>
					<dim>1</dim>
					<dim>1</dim>
				</port>
			</output>
		</layer>
		<layer id="83" name="Conv2D_4/filter" type="Convert" version="opset1">
			<data destination_type="f32"/>
			<rt_info>
				<attribute name="decompression" version="0"/>
				<attribute name="fused_names" version="0" value="Conv2D_4/filter"/>
			</rt_info>
			<input>
				<port id="0" precision="FP16">
					<dim>64</dim>
					<dim>32</dim>
					<dim>1</dim>
					<dim>1</dim>
				</port>
			</input>
			<output>
				<port id="1" precision="FP32" names="Conv2D_4/filter:0">
					<dim>64</dim>
					<dim>32</dim>
					<dim>1</dim>
					<dim>1</dim>
				</port>
			</output>
		</layer>
		<layer id="84" name="Conv2D_4" type="Convolution" version="opset1">
			<data strides="1, 1" dilations="1, 1" pads_begin="0, 0" pads_end="0, 0" auto_pad="valid"/>
			<rt_info>
				<attribute name="fused_names" version="0" value="Conv2D_4"/>
			</rt_info>
			<input>
				<port id="0" precision="FP32">
					<dim>1</dim>
					<dim>32</dim>
					<dim>48</dim>
					<dim>48</dim>
				</port>
				<port id="1" precision="FP32">
					<dim>64</dim>
					<dim>32</dim>
					<dim>1</dim>
					<dim>1</dim>
				</port>
			</input>
			<output>
				<port id="2" precision="FP32" names="Conv2D_4:0">
					<dim>1</dim>
					<dim>64</dim>
					<dim>48</dim>
					<dim>48</dim>
				</port>
			</output>
		</layer>
		<layer id="85" name="model_1/model/batch_normalization_4/FusedBatchNormV3_model_1/model/depthwise_conv2d_7/depthwise_model_1/model/conv2d_4/Conv2D1/y_compressed" type="Const" version="opset1">
			<data element_type="f16" shape="1, 64, 1, 1" offset="22020" size="128"/>
			<output>
				<port id="0" precision="FP16">
					<dim>1</dim>
					<dim>64</dim>
					<dim>1</dim>
					<dim>1</dim>
				</port>
			</output>
		</layer>
		<layer id="86" name="model_1/model/batch_normalization_4/FusedBatchNormV3_model_1/model/depthwise_conv2d_7/depthwise_model_1/model/conv2d_4/Conv2D1/y" type="Convert" version="opset1">
			<data destination_type="f32"/>
			<rt_info>
				<attribute name="decompression" version="0"/>
				<attribute name="fused_names" version="0" value="model_1/model/batch_normalization_4/FusedBatchNormV3_model_1/model/depthwise_conv2d_7/depthwise_model_1/model/conv2d_4/Conv2D1/y"/>
			</rt_info>
			<input>
				<port id="0" precision="FP16">
					<dim>1</dim>
					<dim>64</dim>
					<dim>1</dim>
					<dim>1</dim>
				</port>
			</input>
			<output>
				<port id="1" precision="FP32" names="model_1/model/batch_normalization_4/FusedBatchNormV3_model_1/model/depthwise_conv2d_7/depthwise_model_1/model/conv2d_4/Conv2D1/y:0">
					<dim>1</dim>
					<dim>64</dim>
					<dim>1</dim>
					<dim>1</dim>
				</port>
			</output>
		</layer>
		<layer id="87" name="model_1/model/batch_normalization_4/FusedBatchNormV3_model_1/model/depthwise_conv2d_7/depthwise_model_1/model/conv2d_4/Conv2D1" type="Add" version="opset1">
			<data auto_broadcast="numpy"/>
			<rt_info>
				<attribute name="fused_names" version="0" value="model_1/model/batch_normalization_4/FusedBatchNormV3_model_1/model/depthwise_conv2d_7/depthwise_model_1/model/conv2d_4/Conv2D1"/>
			</rt_info>
			<input>
				<port id="0" precision="FP32">
					<dim>1</dim>
					<dim>64</dim>
					<dim>48</dim>
					<dim>48</dim>
				</port>
				<port id="1" precision="FP32">
					<dim>1</dim>
					<dim>64</dim>
					<dim>1</dim>
					<dim>1</dim>
				</port>
			</input>
			<output>
				<port id="2" precision="FP32" names="model_1/model/batch_normalization_4/FusedBatchNormV3_model_1/model/depthwise_conv2d_7/depthwise_model_1/model/conv2d_4/Conv2D1:0">
					<dim>1</dim>
					<dim>64</dim>
					<dim>48</dim>
					<dim>48</dim>
				</port>
			</output>
		</layer>
		<layer id="88" name="model_1/model/add_3/add" type="Add" version="opset1">
			<data auto_broadcast="numpy"/>
			<rt_info>
				<attribute name="fused_names" version="0" value="model_1/model/add_3/add"/>
			</rt_info>
			<input>
				<port id="0" precision="FP32">
					<dim>1</dim>
					<dim>64</dim>
					<dim>48</dim>
					<dim>48</dim>
				</port>
				<port id="1" precision="FP32">
					<dim>1</dim>
					<dim>64</dim>
					<dim>48</dim>
					<dim>48</dim>
				</port>
			</input>
			<output>
				<port id="2" precision="FP32" names="model_1/model/add_3/add:0">
					<dim>1</dim>
					<dim>64</dim>
					<dim>48</dim>
					<dim>48</dim>
				</port>
			</output>
		</layer>
		<layer id="89" name="model_1/model/p_re_lu_4/add_model_1/model/p_re_lu_4/Relu_model_1/model/p_re_lu_4/Neg_1_model_1/model/p_re_lu_4/Relu_1_model_1/model/p_re_lu_4/mul_dequantize_prelu/Relu" type="ReLU" version="opset1">
			<rt_info>
				<attribute name="fused_names" version="0" value="model_1/model/p_re_lu_4/add_model_1/model/p_re_lu_4/Relu_model_1/model/p_re_lu_4/Neg_1_model_1/model/p_re_lu_4/Relu_1_model_1/model/p_re_lu_4/mul_dequantize_prelu/Relu"/>
			</rt_info>
			<input>
				<port id="0" precision="FP32">
					<dim>1</dim>
					<dim>64</dim>
					<dim>48</dim>
					<dim>48</dim>
				</port>
			</input>
			<output>
				<port id="1" precision="FP32" names="model_1/model/p_re_lu_4/add_model_1/model/p_re_lu_4/Relu_model_1/model/p_re_lu_4/Neg_1_model_1/model/p_re_lu_4/Relu_1_model_1/model/p_re_lu_4/mul_dequantize_prelu/Relu:0">
					<dim>1</dim>
					<dim>64</dim>
					<dim>48</dim>
					<dim>48</dim>
				</port>
			</output>
		</layer>
		<layer id="90" name="model_1/model/p_re_lu_4/add_model_1/model/p_re_lu_4/Relu_model_1/model/p_re_lu_4/Neg_1_model_1/model/p_re_lu_4/Relu_1_model_1/model/p_re_lu_4/mul_dequantize_prelu/Neg/mul__compressed" type="Const" version="opset1">
			<data element_type="f16" shape="1, 64, 1, 1" offset="22148" size="128"/>
			<output>
				<port id="0" precision="FP16">
					<dim>1</dim>
					<dim>64</dim>
					<dim>1</dim>
					<dim>1</dim>
				</port>
			</output>
		</layer>
		<layer id="91" name="model_1/model/p_re_lu_4/add_model_1/model/p_re_lu_4/Relu_model_1/model/p_re_lu_4/Neg_1_model_1/model/p_re_lu_4/Relu_1_model_1/model/p_re_lu_4/mul_dequantize_prelu/Neg/mul_" type="Convert" version="opset1">
			<data destination_type="f32"/>
			<rt_info>
				<attribute name="decompression" version="0"/>
				<attribute name="fused_names" version="0" value="model_1/model/p_re_lu_4/add_model_1/model/p_re_lu_4/Relu_model_1/model/p_re_lu_4/Neg_1_model_1/model/p_re_lu_4/Relu_1_model_1/model/p_re_lu_4/mul_dequantize_prelu/Neg/mul_"/>
			</rt_info>
			<input>
				<port id="0" precision="FP16">
					<dim>1</dim>
					<dim>64</dim>
					<dim>1</dim>
					<dim>1</dim>
				</port>
			</input>
			<output>
				<port id="1" precision="FP32" names="model_1/model/p_re_lu_4/add_model_1/model/p_re_lu_4/Relu_model_1/model/p_re_lu_4/Neg_1_model_1/model/p_re_lu_4/Relu_1_model_1/model/p_re_lu_4/mul_dequantize_prelu/Neg:0">
					<dim>1</dim>
					<dim>64</dim>
					<dim>1</dim>
					<dim>1</dim>
				</port>
			</output>
		</layer>
		<layer id="92" name="549_compressed" type="Const" version="opset1">
			<data element_type="f16" shape="1, 1, 1, 1" offset="4928" size="2"/>
			<output>
				<port id="0" precision="FP16">
					<dim>1</dim>
					<dim>1</dim>
					<dim>1</dim>
					<dim>1</dim>
				</port>
			</output>
		</layer>
		<layer id="93" name="549" type="Convert" version="opset1">
			<data destination_type="f32"/>
			<rt_info>
				<attribute name="decompression" version="0"/>
				<attribute name="fused_names" version="0" value="549"/>
			</rt_info>
			<input>
				<port id="0" precision="FP16">
					<dim>1</dim>
					<dim>1</dim>
					<dim>1</dim>
					<dim>1</dim>
				</port>
			</input>
			<output>
				<port id="1" precision="FP32">
					<dim>1</dim>
					<dim>1</dim>
					<dim>1</dim>
					<dim>1</dim>
				</port>
			</output>
		</layer>
		<layer id="94" name="model_1/model/p_re_lu_4/add_model_1/model/p_re_lu_4/Relu_model_1/model/p_re_lu_4/Neg_1_model_1/model/p_re_lu_4/Relu_1_model_1/model/p_re_lu_4/mul_dequantize_prelu/Neg_1/mul_" type="Multiply" version="opset1">
			<data auto_broadcast="numpy"/>
			<rt_info>
				<attribute name="fused_names" version="0" value="model_1/model/p_re_lu_4/add_model_1/model/p_re_lu_4/Relu_model_1/model/p_re_lu_4/Neg_1_model_1/model/p_re_lu_4/Relu_1_model_1/model/p_re_lu_4/mul_dequantize_prelu/Neg_1/mul_"/>
			</rt_info>
			<input>
				<port id="0" precision="FP32">
					<dim>1</dim>
					<dim>64</dim>
					<dim>48</dim>
					<dim>48</dim>
				</port>
				<port id="1" precision="FP32">
					<dim>1</dim>
					<dim>1</dim>
					<dim>1</dim>
					<dim>1</dim>
				</port>
			</input>
			<output>
				<port id="2" precision="FP32" names="model_1/model/p_re_lu_4/add_model_1/model/p_re_lu_4/Relu_model_1/model/p_re_lu_4/Neg_1_model_1/model/p_re_lu_4/Relu_1_model_1/model/p_re_lu_4/mul_dequantize_prelu/Neg_1:0">
					<dim>1</dim>
					<dim>64</dim>
					<dim>48</dim>
					<dim>48</dim>
				</port>
			</output>
		</layer>
		<layer id="95" name="model_1/model/p_re_lu_4/add_model_1/model/p_re_lu_4/Relu_model_1/model/p_re_lu_4/Neg_1_model_1/model/p_re_lu_4/Relu_1_model_1/model/p_re_lu_4/mul_dequantize_prelu/Relu_1" type="ReLU" version="opset1">
			<rt_info>
				<attribute name="fused_names" version="0" value="model_1/model/p_re_lu_4/add_model_1/model/p_re_lu_4/Relu_model_1/model/p_re_lu_4/Neg_1_model_1/model/p_re_lu_4/Relu_1_model_1/model/p_re_lu_4/mul_dequantize_prelu/Relu_1"/>
			</rt_info>
			<input>
				<port id="0" precision="FP32">
					<dim>1</dim>
					<dim>64</dim>
					<dim>48</dim>
					<dim>48</dim>
				</port>
			</input>
			<output>
				<port id="1" precision="FP32" names="model_1/model/p_re_lu_4/add_model_1/model/p_re_lu_4/Relu_model_1/model/p_re_lu_4/Neg_1_model_1/model/p_re_lu_4/Relu_1_model_1/model/p_re_lu_4/mul_dequantize_prelu/Relu_1:0">
					<dim>1</dim>
					<dim>64</dim>
					<dim>48</dim>
					<dim>48</dim>
				</port>
			</output>
		</layer>
		<layer id="96" name="model_1/model/p_re_lu_4/add_model_1/model/p_re_lu_4/Relu_model_1/model/p_re_lu_4/Neg_1_model_1/model/p_re_lu_4/Relu_1_model_1/model/p_re_lu_4/mul_dequantize_prelu/mul" type="Multiply" version="opset1">
			<data auto_broadcast="numpy"/>
			<rt_info>
				<attribute name="fused_names" version="0" value="model_1/model/p_re_lu_4/add_model_1/model/p_re_lu_4/Relu_model_1/model/p_re_lu_4/Neg_1_model_1/model/p_re_lu_4/Relu_1_model_1/model/p_re_lu_4/mul_dequantize_prelu/mul"/>
			</rt_info>
			<input>
				<port id="0" precision="FP32">
					<dim>1</dim>
					<dim>64</dim>
					<dim>1</dim>
					<dim>1</dim>
				</port>
				<port id="1" precision="FP32">
					<dim>1</dim>
					<dim>64</dim>
					<dim>48</dim>
					<dim>48</dim>
				</port>
			</input>
			<output>
				<port id="2" precision="FP32" names="model_1/model/p_re_lu_4/add_model_1/model/p_re_lu_4/Relu_model_1/model/p_re_lu_4/Neg_1_model_1/model/p_re_lu_4/Relu_1_model_1/model/p_re_lu_4/mul_dequantize_prelu/mul:0">
					<dim>1</dim>
					<dim>64</dim>
					<dim>48</dim>
					<dim>48</dim>
				</port>
			</output>
		</layer>
		<layer id="97" name="model_1/model/p_re_lu_4/add_model_1/model/p_re_lu_4/Relu_model_1/model/p_re_lu_4/Neg_1_model_1/model/p_re_lu_4/Relu_1_model_1/model/p_re_lu_4/mul_dequantize_prelu/add" type="Add" version="opset1">
			<data auto_broadcast="numpy"/>
			<rt_info>
				<attribute name="fused_names" version="0" value="model_1/model/p_re_lu_4/add_model_1/model/p_re_lu_4/Relu_model_1/model/p_re_lu_4/Neg_1_model_1/model/p_re_lu_4/Relu_1_model_1/model/p_re_lu_4/mul_dequantize_prelu/add"/>
			</rt_info>
			<input>
				<port id="0" precision="FP32">
					<dim>1</dim>
					<dim>64</dim>
					<dim>48</dim>
					<dim>48</dim>
				</port>
				<port id="1" precision="FP32">
					<dim>1</dim>
					<dim>64</dim>
					<dim>48</dim>
					<dim>48</dim>
				</port>
			</input>
			<output>
				<port id="2" precision="FP32" names="model_1/model/p_re_lu_4/add_model_1/model/p_re_lu_4/Relu_model_1/model/p_re_lu_4/Neg_1_model_1/model/p_re_lu_4/Relu_1_model_1/model/p_re_lu_4/mul_dequantize:0,model_1/model/p_re_lu_4/add_model_1/model/p_re_lu_4/Relu_model_1/model/p_re_lu_4/Neg_1_model_1/model/p_re_lu_4/Relu_1_model_1/model/p_re_lu_4/mul_dequantize_prelu/add:0">
					<dim>1</dim>
					<dim>64</dim>
					<dim>48</dim>
					<dim>48</dim>
				</port>
			</output>
		</layer>
		<layer id="98" name="depthwise_4/filter_in_compressed" type="Const" version="opset1">
			<data element_type="f16" shape="64, 1, 1, 5, 5" offset="22276" size="3200"/>
			<output>
				<port id="0" precision="FP16">
					<dim>64</dim>
					<dim>1</dim>
					<dim>1</dim>
					<dim>5</dim>
					<dim>5</dim>
				</port>
			</output>
		</layer>
		<layer id="99" name="depthwise_4/filter_in" type="Convert" version="opset1">
			<data destination_type="f32"/>
			<rt_info>
				<attribute name="decompression" version="0"/>
				<attribute name="fused_names" version="0" value="depthwise_4/filter_in"/>
			</rt_info>
			<input>
				<port id="0" precision="FP16">
					<dim>64</dim>
					<dim>1</dim>
					<dim>1</dim>
					<dim>5</dim>
					<dim>5</dim>
				</port>
			</input>
			<output>
				<port id="1" precision="FP32" names="depthwise_4/filter_in:0">
					<dim>64</dim>
					<dim>1</dim>
					<dim>1</dim>
					<dim>5</dim>
					<dim>5</dim>
				</port>
			</output>
		</layer>
		<layer id="100" name="depthwise_4" type="GroupConvolution" version="opset1">
			<data strides="1, 1" pads_begin="0, 0" pads_end="0, 0" dilations="1, 1" auto_pad="same_upper"/>
			<rt_info>
				<attribute name="fused_names" version="0" value="depthwise_4, model_1/model/depthwise_conv2d_4/depthwise1"/>
			</rt_info>
			<input>
				<port id="0" precision="FP32">
					<dim>1</dim>
					<dim>64</dim>
					<dim>48</dim>
					<dim>48</dim>
				</port>
				<port id="1" precision="FP32">
					<dim>64</dim>
					<dim>1</dim>
					<dim>1</dim>
					<dim>5</dim>
					<dim>5</dim>
				</port>
			</input>
			<output>
				<port id="2" precision="FP32" names="depthwise_4:0,model_1/model/depthwise_conv2d_4/depthwise1:0">
					<dim>1</dim>
					<dim>64</dim>
					<dim>48</dim>
					<dim>48</dim>
				</port>
			</output>
		</layer>
		<layer id="101" name="Conv2D_5/filter_compressed" type="Const" version="opset1">
			<data element_type="f16" shape="64, 64, 1, 1" offset="25476" size="8192"/>
			<output>
				<port id="0" precision="FP16">
					<dim>64</dim>
					<dim>64</dim>
					<dim>1</dim>
					<dim>1</dim>
				</port>
			</output>
		</layer>
		<layer id="102" name="Conv2D_5/filter" type="Convert" version="opset1">
			<data destination_type="f32"/>
			<rt_info>
				<attribute name="decompression" version="0"/>
				<attribute name="fused_names" version="0" value="Conv2D_5/filter"/>
			</rt_info>
			<input>
				<port id="0" precision="FP16">
					<dim>64</dim>
					<dim>64</dim>
					<dim>1</dim>
					<dim>1</dim>
				</port>
			</input>
			<output>
				<port id="1" precision="FP32" names="Conv2D_5/filter:0">
					<dim>64</dim>
					<dim>64</dim>
					<dim>1</dim>
					<dim>1</dim>
				</port>
			</output>
		</layer>
		<layer id="103" name="Conv2D_5" type="Convolution" version="opset1">
			<data strides="1, 1" dilations="1, 1" pads_begin="0, 0" pads_end="0, 0" auto_pad="valid"/>
			<rt_info>
				<attribute name="fused_names" version="0" value="Conv2D_5"/>
			</rt_info>
			<input>
				<port id="0" precision="FP32">
					<dim>1</dim>
					<dim>64</dim>
					<dim>48</dim>
					<dim>48</dim>
				</port>
				<port id="1" precision="FP32">
					<dim>64</dim>
					<dim>64</dim>
					<dim>1</dim>
					<dim>1</dim>
				</port>
			</input>
			<output>
				<port id="2" precision="FP32" names="Conv2D_5:0">
					<dim>1</dim>
					<dim>64</dim>
					<dim>48</dim>
					<dim>48</dim>
				</port>
			</output>
		</layer>
		<layer id="104" name="model_1/model/batch_normalization_5/FusedBatchNormV3_model_1/model/depthwise_conv2d_7/depthwise_model_1/model/conv2d_5/Conv2D1/y_compressed" type="Const" version="opset1">
			<data element_type="f16" shape="1, 64, 1, 1" offset="33668" size="128"/>
			<output>
				<port id="0" precision="FP16">
					<dim>1</dim>
					<dim>64</dim>
					<dim>1</dim>
					<dim>1</dim>
				</port>
			</output>
		</layer>
		<layer id="105" name="model_1/model/batch_normalization_5/FusedBatchNormV3_model_1/model/depthwise_conv2d_7/depthwise_model_1/model/conv2d_5/Conv2D1/y" type="Convert" version="opset1">
			<data destination_type="f32"/>
			<rt_info>
				<attribute name="decompression" version="0"/>
				<attribute name="fused_names" version="0" value="model_1/model/batch_normalization_5/FusedBatchNormV3_model_1/model/depthwise_conv2d_7/depthwise_model_1/model/conv2d_5/Conv2D1/y"/>
			</rt_info>
			<input>
				<port id="0" precision="FP16">
					<dim>1</dim>
					<dim>64</dim>
					<dim>1</dim>
					<dim>1</dim>
				</port>
			</input>
			<output>
				<port id="1" precision="FP32" names="model_1/model/batch_normalization_5/FusedBatchNormV3_model_1/model/depthwise_conv2d_7/depthwise_model_1/model/conv2d_5/Conv2D1/y:0">
					<dim>1</dim>
					<dim>64</dim>
					<dim>1</dim>
					<dim>1</dim>
				</port>
			</output>
		</layer>
		<layer id="106" name="model_1/model/batch_normalization_5/FusedBatchNormV3_model_1/model/depthwise_conv2d_7/depthwise_model_1/model/conv2d_5/Conv2D1" type="Add" version="opset1">
			<data auto_broadcast="numpy"/>
			<rt_info>
				<attribute name="fused_names" version="0" value="model_1/model/batch_normalization_5/FusedBatchNormV3_model_1/model/depthwise_conv2d_7/depthwise_model_1/model/conv2d_5/Conv2D1"/>
			</rt_info>
			<input>
				<port id="0" precision="FP32">
					<dim>1</dim>
					<dim>64</dim>
					<dim>48</dim>
					<dim>48</dim>
				</port>
				<port id="1" precision="FP32">
					<dim>1</dim>
					<dim>64</dim>
					<dim>1</dim>
					<dim>1</dim>
				</port>
			</input>
			<output>
				<port id="2" precision="FP32" names="model_1/model/batch_normalization_5/FusedBatchNormV3_model_1/model/depthwise_conv2d_7/depthwise_model_1/model/conv2d_5/Conv2D1:0">
					<dim>1</dim>
					<dim>64</dim>
					<dim>48</dim>
					<dim>48</dim>
				</port>
			</output>
		</layer>
		<layer id="107" name="model_1/model/add_4/add" type="Add" version="opset1">
			<data auto_broadcast="numpy"/>
			<rt_info>
				<attribute name="fused_names" version="0" value="model_1/model/add_4/add"/>
			</rt_info>
			<input>
				<port id="0" precision="FP32">
					<dim>1</dim>
					<dim>64</dim>
					<dim>48</dim>
					<dim>48</dim>
				</port>
				<port id="1" precision="FP32">
					<dim>1</dim>
					<dim>64</dim>
					<dim>48</dim>
					<dim>48</dim>
				</port>
			</input>
			<output>
				<port id="2" precision="FP32" names="model_1/model/add_4/add:0">
					<dim>1</dim>
					<dim>64</dim>
					<dim>48</dim>
					<dim>48</dim>
				</port>
			</output>
		</layer>
		<layer id="108" name="model_1/model/p_re_lu_5/add_model_1/model/p_re_lu_5/Relu_model_1/model/p_re_lu_5/Neg_1_model_1/model/p_re_lu_5/Relu_1_model_1/model/p_re_lu_5/mul_dequantize_prelu/Relu" type="ReLU" version="opset1">
			<rt_info>
				<attribute name="fused_names" version="0" value="model_1/model/p_re_lu_5/add_model_1/model/p_re_lu_5/Relu_model_1/model/p_re_lu_5/Neg_1_model_1/model/p_re_lu_5/Relu_1_model_1/model/p_re_lu_5/mul_dequantize_prelu/Relu"/>
			</rt_info>
			<input>
				<port id="0" precision="FP32">
					<dim>1</dim>
					<dim>64</dim>
					<dim>48</dim>
					<dim>48</dim>
				</port>
			</input>
			<output>
				<port id="1" precision="FP32" names="model_1/model/p_re_lu_5/add_model_1/model/p_re_lu_5/Relu_model_1/model/p_re_lu_5/Neg_1_model_1/model/p_re_lu_5/Relu_1_model_1/model/p_re_lu_5/mul_dequantize_prelu/Relu:0">
					<dim>1</dim>
					<dim>64</dim>
					<dim>48</dim>
					<dim>48</dim>
				</port>
			</output>
		</layer>
		<layer id="109" name="model_1/model/p_re_lu_5/add_model_1/model/p_re_lu_5/Relu_model_1/model/p_re_lu_5/Neg_1_model_1/model/p_re_lu_5/Relu_1_model_1/model/p_re_lu_5/mul_dequantize_prelu/Neg/mul__compressed" type="Const" version="opset1">
			<data element_type="f16" shape="1, 64, 1, 1" offset="33796" size="128"/>
			<output>
				<port id="0" precision="FP16">
					<dim>1</dim>
					<dim>64</dim>
					<dim>1</dim>
					<dim>1</dim>
				</port>
			</output>
		</layer>
		<layer id="110" name="model_1/model/p_re_lu_5/add_model_1/model/p_re_lu_5/Relu_model_1/model/p_re_lu_5/Neg_1_model_1/model/p_re_lu_5/Relu_1_model_1/model/p_re_lu_5/mul_dequantize_prelu/Neg/mul_" type="Convert" version="opset1">
			<data destination_type="f32"/>
			<rt_info>
				<attribute name="decompression" version="0"/>
				<attribute name="fused_names" version="0" value="model_1/model/p_re_lu_5/add_model_1/model/p_re_lu_5/Relu_model_1/model/p_re_lu_5/Neg_1_model_1/model/p_re_lu_5/Relu_1_model_1/model/p_re_lu_5/mul_dequantize_prelu/Neg/mul_"/>
			</rt_info>
			<input>
				<port id="0" precision="FP16">
					<dim>1</dim>
					<dim>64</dim>
					<dim>1</dim>
					<dim>1</dim>
				</port>
			</input>
			<output>
				<port id="1" precision="FP32" names="model_1/model/p_re_lu_5/add_model_1/model/p_re_lu_5/Relu_model_1/model/p_re_lu_5/Neg_1_model_1/model/p_re_lu_5/Relu_1_model_1/model/p_re_lu_5/mul_dequantize_prelu/Neg:0">
					<dim>1</dim>
					<dim>64</dim>
					<dim>1</dim>
					<dim>1</dim>
				</port>
			</output>
		</layer>
		<layer id="111" name="513_compressed" type="Const" version="opset1">
			<data element_type="f16" shape="1, 1, 1, 1" offset="4928" size="2"/>
			<output>
				<port id="0" precision="FP16">
					<dim>1</dim>
					<dim>1</dim>
					<dim>1</dim>
					<dim>1</dim>
				</port>
			</output>
		</layer>
		<layer id="112" name="513" type="Convert" version="opset1">
			<data destination_type="f32"/>
			<rt_info>
				<attribute name="decompression" version="0"/>
				<attribute name="fused_names" version="0" value="513"/>
			</rt_info>
			<input>
				<port id="0" precision="FP16">
					<dim>1</dim>
					<dim>1</dim>
					<dim>1</dim>
					<dim>1</dim>
				</port>
			</input>
			<output>
				<port id="1" precision="FP32">
					<dim>1</dim>
					<dim>1</dim>
					<dim>1</dim>
					<dim>1</dim>
				</port>
			</output>
		</layer>
		<layer id="113" name="model_1/model/p_re_lu_5/add_model_1/model/p_re_lu_5/Relu_model_1/model/p_re_lu_5/Neg_1_model_1/model/p_re_lu_5/Relu_1_model_1/model/p_re_lu_5/mul_dequantize_prelu/Neg_1/mul_" type="Multiply" version="opset1">
			<data auto_broadcast="numpy"/>
			<rt_info>
				<attribute name="fused_names" version="0" value="model_1/model/p_re_lu_5/add_model_1/model/p_re_lu_5/Relu_model_1/model/p_re_lu_5/Neg_1_model_1/model/p_re_lu_5/Relu_1_model_1/model/p_re_lu_5/mul_dequantize_prelu/Neg_1/mul_"/>
			</rt_info>
			<input>
				<port id="0" precision="FP32">
					<dim>1</dim>
					<dim>64</dim>
					<dim>48</dim>
					<dim>48</dim>
				</port>
				<port id="1" precision="FP32">
					<dim>1</dim>
					<dim>1</dim>
					<dim>1</dim>
					<dim>1</dim>
				</port>
			</input>
			<output>
				<port id="2" precision="FP32" names="model_1/model/p_re_lu_5/add_model_1/model/p_re_lu_5/Relu_model_1/model/p_re_lu_5/Neg_1_model_1/model/p_re_lu_5/Relu_1_model_1/model/p_re_lu_5/mul_dequantize_prelu/Neg_1:0">
					<dim>1</dim>
					<dim>64</dim>
					<dim>48</dim>
					<dim>48</dim>
				</port>
			</output>
		</layer>
		<layer id="114" name="model_1/model/p_re_lu_5/add_model_1/model/p_re_lu_5/Relu_model_1/model/p_re_lu_5/Neg_1_model_1/model/p_re_lu_5/Relu_1_model_1/model/p_re_lu_5/mul_dequantize_prelu/Relu_1" type="ReLU" version="opset1">
			<rt_info>
				<attribute name="fused_names" version="0" value="model_1/model/p_re_lu_5/add_model_1/model/p_re_lu_5/Relu_model_1/model/p_re_lu_5/Neg_1_model_1/model/p_re_lu_5/Relu_1_model_1/model/p_re_lu_5/mul_dequantize_prelu/Relu_1"/>
			</rt_info>
			<input>
				<port id="0" precision="FP32">
					<dim>1</dim>
					<dim>64</dim>
					<dim>48</dim>
					<dim>48</dim>
				</port>
			</input>
			<output>
				<port id="1" precision="FP32" names="model_1/model/p_re_lu_5/add_model_1/model/p_re_lu_5/Relu_model_1/model/p_re_lu_5/Neg_1_model_1/model/p_re_lu_5/Relu_1_model_1/model/p_re_lu_5/mul_dequantize_prelu/Relu_1:0">
					<dim>1</dim>
					<dim>64</dim>
					<dim>48</dim>
					<dim>48</dim>
				</port>
			</output>
		</layer>
		<layer id="115" name="model_1/model/p_re_lu_5/add_model_1/model/p_re_lu_5/Relu_model_1/model/p_re_lu_5/Neg_1_model_1/model/p_re_lu_5/Relu_1_model_1/model/p_re_lu_5/mul_dequantize_prelu/mul" type="Multiply" version="opset1">
			<data auto_broadcast="numpy"/>
			<rt_info>
				<attribute name="fused_names" version="0" value="model_1/model/p_re_lu_5/add_model_1/model/p_re_lu_5/Relu_model_1/model/p_re_lu_5/Neg_1_model_1/model/p_re_lu_5/Relu_1_model_1/model/p_re_lu_5/mul_dequantize_prelu/mul"/>
			</rt_info>
			<input>
				<port id="0" precision="FP32">
					<dim>1</dim>
					<dim>64</dim>
					<dim>1</dim>
					<dim>1</dim>
				</port>
				<port id="1" precision="FP32">
					<dim>1</dim>
					<dim>64</dim>
					<dim>48</dim>
					<dim>48</dim>
				</port>
			</input>
			<output>
				<port id="2" precision="FP32" names="model_1/model/p_re_lu_5/add_model_1/model/p_re_lu_5/Relu_model_1/model/p_re_lu_5/Neg_1_model_1/model/p_re_lu_5/Relu_1_model_1/model/p_re_lu_5/mul_dequantize_prelu/mul:0">
					<dim>1</dim>
					<dim>64</dim>
					<dim>48</dim>
					<dim>48</dim>
				</port>
			</output>
		</layer>
		<layer id="116" name="model_1/model/p_re_lu_5/add_model_1/model/p_re_lu_5/Relu_model_1/model/p_re_lu_5/Neg_1_model_1/model/p_re_lu_5/Relu_1_model_1/model/p_re_lu_5/mul_dequantize_prelu/add" type="Add" version="opset1">
			<data auto_broadcast="numpy"/>
			<rt_info>
				<attribute name="fused_names" version="0" value="model_1/model/p_re_lu_5/add_model_1/model/p_re_lu_5/Relu_model_1/model/p_re_lu_5/Neg_1_model_1/model/p_re_lu_5/Relu_1_model_1/model/p_re_lu_5/mul_dequantize_prelu/add"/>
			</rt_info>
			<input>
				<port id="0" precision="FP32">
					<dim>1</dim>
					<dim>64</dim>
					<dim>48</dim>
					<dim>48</dim>
				</port>
				<port id="1" precision="FP32">
					<dim>1</dim>
					<dim>64</dim>
					<dim>48</dim>
					<dim>48</dim>
				</port>
			</input>
			<output>
				<port id="2" precision="FP32" names="model_1/model/p_re_lu_5/add_model_1/model/p_re_lu_5/Relu_model_1/model/p_re_lu_5/Neg_1_model_1/model/p_re_lu_5/Relu_1_model_1/model/p_re_lu_5/mul_dequantize:0,model_1/model/p_re_lu_5/add_model_1/model/p_re_lu_5/Relu_model_1/model/p_re_lu_5/Neg_1_model_1/model/p_re_lu_5/Relu_1_model_1/model/p_re_lu_5/mul_dequantize_prelu/add:0">
					<dim>1</dim>
					<dim>64</dim>
					<dim>48</dim>
					<dim>48</dim>
				</port>
			</output>
		</layer>
		<layer id="117" name="depthwise_5/filter_in_compressed" type="Const" version="opset1">
			<data element_type="f16" shape="64, 1, 1, 5, 5" offset="33924" size="3200"/>
			<output>
				<port id="0" precision="FP16">
					<dim>64</dim>
					<dim>1</dim>
					<dim>1</dim>
					<dim>5</dim>
					<dim>5</dim>
				</port>
			</output>
		</layer>
		<layer id="118" name="depthwise_5/filter_in" type="Convert" version="opset1">
			<data destination_type="f32"/>
			<rt_info>
				<attribute name="decompression" version="0"/>
				<attribute name="fused_names" version="0" value="depthwise_5/filter_in"/>
			</rt_info>
			<input>
				<port id="0" precision="FP16">
					<dim>64</dim>
					<dim>1</dim>
					<dim>1</dim>
					<dim>5</dim>
					<dim>5</dim>
				</port>
			</input>
			<output>
				<port id="1" precision="FP32" names="depthwise_5/filter_in:0">
					<dim>64</dim>
					<dim>1</dim>
					<dim>1</dim>
					<dim>5</dim>
					<dim>5</dim>
				</port>
			</output>
		</layer>
		<layer id="119" name="depthwise_5" type="GroupConvolution" version="opset1">
			<data strides="1, 1" pads_begin="0, 0" pads_end="0, 0" dilations="1, 1" auto_pad="same_upper"/>
			<rt_info>
				<attribute name="fused_names" version="0" value="depthwise_5, model_1/model/depthwise_conv2d_5/depthwise1"/>
			</rt_info>
			<input>
				<port id="0" precision="FP32">
					<dim>1</dim>
					<dim>64</dim>
					<dim>48</dim>
					<dim>48</dim>
				</port>
				<port id="1" precision="FP32">
					<dim>64</dim>
					<dim>1</dim>
					<dim>1</dim>
					<dim>5</dim>
					<dim>5</dim>
				</port>
			</input>
			<output>
				<port id="2" precision="FP32" names="depthwise_5:0,model_1/model/depthwise_conv2d_5/depthwise1:0">
					<dim>1</dim>
					<dim>64</dim>
					<dim>48</dim>
					<dim>48</dim>
				</port>
			</output>
		</layer>
		<layer id="120" name="Conv2D_6/filter_compressed" type="Const" version="opset1">
			<data element_type="f16" shape="64, 64, 1, 1" offset="37124" size="8192"/>
			<output>
				<port id="0" precision="FP16">
					<dim>64</dim>
					<dim>64</dim>
					<dim>1</dim>
					<dim>1</dim>
				</port>
			</output>
		</layer>
		<layer id="121" name="Conv2D_6/filter" type="Convert" version="opset1">
			<data destination_type="f32"/>
			<rt_info>
				<attribute name="decompression" version="0"/>
				<attribute name="fused_names" version="0" value="Conv2D_6/filter"/>
			</rt_info>
			<input>
				<port id="0" precision="FP16">
					<dim>64</dim>
					<dim>64</dim>
					<dim>1</dim>
					<dim>1</dim>
				</port>
			</input>
			<output>
				<port id="1" precision="FP32" names="Conv2D_6/filter:0">
					<dim>64</dim>
					<dim>64</dim>
					<dim>1</dim>
					<dim>1</dim>
				</port>
			</output>
		</layer>
		<layer id="122" name="Conv2D_6" type="Convolution" version="opset1">
			<data strides="1, 1" dilations="1, 1" pads_begin="0, 0" pads_end="0, 0" auto_pad="valid"/>
			<rt_info>
				<attribute name="fused_names" version="0" value="Conv2D_6"/>
			</rt_info>
			<input>
				<port id="0" precision="FP32">
					<dim>1</dim>
					<dim>64</dim>
					<dim>48</dim>
					<dim>48</dim>
				</port>
				<port id="1" precision="FP32">
					<dim>64</dim>
					<dim>64</dim>
					<dim>1</dim>
					<dim>1</dim>
				</port>
			</input>
			<output>
				<port id="2" precision="FP32" names="Conv2D_6:0">
					<dim>1</dim>
					<dim>64</dim>
					<dim>48</dim>
					<dim>48</dim>
				</port>
			</output>
		</layer>
		<layer id="123" name="model_1/model/batch_normalization_6/FusedBatchNormV3_model_1/model/depthwise_conv2d_7/depthwise_model_1/model/conv2d_6/Conv2D1/y_compressed" type="Const" version="opset1">
			<data element_type="f16" shape="1, 64, 1, 1" offset="45316" size="128"/>
			<output>
				<port id="0" precision="FP16">
					<dim>1</dim>
					<dim>64</dim>
					<dim>1</dim>
					<dim>1</dim>
				</port>
			</output>
		</layer>
		<layer id="124" name="model_1/model/batch_normalization_6/FusedBatchNormV3_model_1/model/depthwise_conv2d_7/depthwise_model_1/model/conv2d_6/Conv2D1/y" type="Convert" version="opset1">
			<data destination_type="f32"/>
			<rt_info>
				<attribute name="decompression" version="0"/>
				<attribute name="fused_names" version="0" value="model_1/model/batch_normalization_6/FusedBatchNormV3_model_1/model/depthwise_conv2d_7/depthwise_model_1/model/conv2d_6/Conv2D1/y"/>
			</rt_info>
			<input>
				<port id="0" precision="FP16">
					<dim>1</dim>
					<dim>64</dim>
					<dim>1</dim>
					<dim>1</dim>
				</port>
			</input>
			<output>
				<port id="1" precision="FP32" names="model_1/model/batch_normalization_6/FusedBatchNormV3_model_1/model/depthwise_conv2d_7/depthwise_model_1/model/conv2d_6/Conv2D1/y:0">
					<dim>1</dim>
					<dim>64</dim>
					<dim>1</dim>
					<dim>1</dim>
				</port>
			</output>
		</layer>
		<layer id="125" name="model_1/model/batch_normalization_6/FusedBatchNormV3_model_1/model/depthwise_conv2d_7/depthwise_model_1/model/conv2d_6/Conv2D1" type="Add" version="opset1">
			<data auto_broadcast="numpy"/>
			<rt_info>
				<attribute name="fused_names" version="0" value="model_1/model/batch_normalization_6/FusedBatchNormV3_model_1/model/depthwise_conv2d_7/depthwise_model_1/model/conv2d_6/Conv2D1"/>
			</rt_info>
			<input>
				<port id="0" precision="FP32">
					<dim>1</dim>
					<dim>64</dim>
					<dim>48</dim>
					<dim>48</dim>
				</port>
				<port id="1" precision="FP32">
					<dim>1</dim>
					<dim>64</dim>
					<dim>1</dim>
					<dim>1</dim>
				</port>
			</input>
			<output>
				<port id="2" precision="FP32" names="model_1/model/batch_normalization_6/FusedBatchNormV3_model_1/model/depthwise_conv2d_7/depthwise_model_1/model/conv2d_6/Conv2D1:0">
					<dim>1</dim>
					<dim>64</dim>
					<dim>48</dim>
					<dim>48</dim>
				</port>
			</output>
		</layer>
		<layer id="126" name="model_1/model/add_5/add" type="Add" version="opset1">
			<data auto_broadcast="numpy"/>
			<rt_info>
				<attribute name="fused_names" version="0" value="model_1/model/add_5/add"/>
			</rt_info>
			<input>
				<port id="0" precision="FP32">
					<dim>1</dim>
					<dim>64</dim>
					<dim>48</dim>
					<dim>48</dim>
				</port>
				<port id="1" precision="FP32">
					<dim>1</dim>
					<dim>64</dim>
					<dim>48</dim>
					<dim>48</dim>
				</port>
			</input>
			<output>
				<port id="2" precision="FP32" names="model_1/model/add_5/add:0">
					<dim>1</dim>
					<dim>64</dim>
					<dim>48</dim>
					<dim>48</dim>
				</port>
			</output>
		</layer>
		<layer id="127" name="model_1/model/p_re_lu_6/add_model_1/model/p_re_lu_6/Relu_model_1/model/p_re_lu_6/Neg_1_model_1/model/p_re_lu_6/Relu_1_model_1/model/p_re_lu_6/mul_dequantize_prelu/Relu" type="ReLU" version="opset1">
			<rt_info>
				<attribute name="fused_names" version="0" value="model_1/model/p_re_lu_6/add_model_1/model/p_re_lu_6/Relu_model_1/model/p_re_lu_6/Neg_1_model_1/model/p_re_lu_6/Relu_1_model_1/model/p_re_lu_6/mul_dequantize_prelu/Relu"/>
			</rt_info>
			<input>
				<port id="0" precision="FP32">
					<dim>1</dim>
					<dim>64</dim>
					<dim>48</dim>
					<dim>48</dim>
				</port>
			</input>
			<output>
				<port id="1" precision="FP32" names="model_1/model/p_re_lu_6/add_model_1/model/p_re_lu_6/Relu_model_1/model/p_re_lu_6/Neg_1_model_1/model/p_re_lu_6/Relu_1_model_1/model/p_re_lu_6/mul_dequantize_prelu/Relu:0">
					<dim>1</dim>
					<dim>64</dim>
					<dim>48</dim>
					<dim>48</dim>
				</port>
			</output>
		</layer>
		<layer id="128" name="model_1/model/p_re_lu_6/add_model_1/model/p_re_lu_6/Relu_model_1/model/p_re_lu_6/Neg_1_model_1/model/p_re_lu_6/Relu_1_model_1/model/p_re_lu_6/mul_dequantize_prelu/Neg/mul__compressed" type="Const" version="opset1">
			<data element_type="f16" shape="1, 64, 1, 1" offset="45444" size="128"/>
			<output>
				<port id="0" precision="FP16">
					<dim>1</dim>
					<dim>64</dim>
					<dim>1</dim>
					<dim>1</dim>
				</port>
			</output>
		</layer>
		<layer id="129" name="model_1/model/p_re_lu_6/add_model_1/model/p_re_lu_6/Relu_model_1/model/p_re_lu_6/Neg_1_model_1/model/p_re_lu_6/Relu_1_model_1/model/p_re_lu_6/mul_dequantize_prelu/Neg/mul_" type="Convert" version="opset1">
			<data destination_type="f32"/>
			<rt_info>
				<attribute name="decompression" version="0"/>
				<attribute name="fused_names" version="0" value="model_1/model/p_re_lu_6/add_model_1/model/p_re_lu_6/Relu_model_1/model/p_re_lu_6/Neg_1_model_1/model/p_re_lu_6/Relu_1_model_1/model/p_re_lu_6/mul_dequantize_prelu/Neg/mul_"/>
			</rt_info>
			<input>
				<port id="0" precision="FP16">
					<dim>1</dim>
					<dim>64</dim>
					<dim>1</dim>
					<dim>1</dim>
				</port>
			</input>
			<output>
				<port id="1" precision="FP32" names="model_1/model/p_re_lu_6/add_model_1/model/p_re_lu_6/Relu_model_1/model/p_re_lu_6/Neg_1_model_1/model/p_re_lu_6/Relu_1_model_1/model/p_re_lu_6/mul_dequantize_prelu/Neg:0">
					<dim>1</dim>
					<dim>64</dim>
					<dim>1</dim>
					<dim>1</dim>
				</port>
			</output>
		</layer>
		<layer id="130" name="557_compressed" type="Const" version="opset1">
			<data element_type="f16" shape="1, 1, 1, 1" offset="4928" size="2"/>
			<output>
				<port id="0" precision="FP16">
					<dim>1</dim>
					<dim>1</dim>
					<dim>1</dim>
					<dim>1</dim>
				</port>
			</output>
		</layer>
		<layer id="131" name="557" type="Convert" version="opset1">
			<data destination_type="f32"/>
			<rt_info>
				<attribute name="decompression" version="0"/>
				<attribute name="fused_names" version="0" value="557"/>
			</rt_info>
			<input>
				<port id="0" precision="FP16">
					<dim>1</dim>
					<dim>1</dim>
					<dim>1</dim>
					<dim>1</dim>
				</port>
			</input>
			<output>
				<port id="1" precision="FP32">
					<dim>1</dim>
					<dim>1</dim>
					<dim>1</dim>
					<dim>1</dim>
				</port>
			</output>
		</layer>
		<layer id="132" name="model_1/model/p_re_lu_6/add_model_1/model/p_re_lu_6/Relu_model_1/model/p_re_lu_6/Neg_1_model_1/model/p_re_lu_6/Relu_1_model_1/model/p_re_lu_6/mul_dequantize_prelu/Neg_1/mul_" type="Multiply" version="opset1">
			<data auto_broadcast="numpy"/>
			<rt_info>
				<attribute name="fused_names" version="0" value="model_1/model/p_re_lu_6/add_model_1/model/p_re_lu_6/Relu_model_1/model/p_re_lu_6/Neg_1_model_1/model/p_re_lu_6/Relu_1_model_1/model/p_re_lu_6/mul_dequantize_prelu/Neg_1/mul_"/>
			</rt_info>
			<input>
				<port id="0" precision="FP32">
					<dim>1</dim>
					<dim>64</dim>
					<dim>48</dim>
					<dim>48</dim>
				</port>
				<port id="1" precision="FP32">
					<dim>1</dim>
					<dim>1</dim>
					<dim>1</dim>
					<dim>1</dim>
				</port>
			</input>
			<output>
				<port id="2" precision="FP32" names="model_1/model/p_re_lu_6/add_model_1/model/p_re_lu_6/Relu_model_1/model/p_re_lu_6/Neg_1_model_1/model/p_re_lu_6/Relu_1_model_1/model/p_re_lu_6/mul_dequantize_prelu/Neg_1:0">
					<dim>1</dim>
					<dim>64</dim>
					<dim>48</dim>
					<dim>48</dim>
				</port>
			</output>
		</layer>
		<layer id="133" name="model_1/model/p_re_lu_6/add_model_1/model/p_re_lu_6/Relu_model_1/model/p_re_lu_6/Neg_1_model_1/model/p_re_lu_6/Relu_1_model_1/model/p_re_lu_6/mul_dequantize_prelu/Relu_1" type="ReLU" version="opset1">
			<rt_info>
				<attribute name="fused_names" version="0" value="model_1/model/p_re_lu_6/add_model_1/model/p_re_lu_6/Relu_model_1/model/p_re_lu_6/Neg_1_model_1/model/p_re_lu_6/Relu_1_model_1/model/p_re_lu_6/mul_dequantize_prelu/Relu_1"/>
			</rt_info>
			<input>
				<port id="0" precision="FP32">
					<dim>1</dim>
					<dim>64</dim>
					<dim>48</dim>
					<dim>48</dim>
				</port>
			</input>
			<output>
				<port id="1" precision="FP32" names="model_1/model/p_re_lu_6/add_model_1/model/p_re_lu_6/Relu_model_1/model/p_re_lu_6/Neg_1_model_1/model/p_re_lu_6/Relu_1_model_1/model/p_re_lu_6/mul_dequantize_prelu/Relu_1:0">
					<dim>1</dim>
					<dim>64</dim>
					<dim>48</dim>
					<dim>48</dim>
				</port>
			</output>
		</layer>
		<layer id="134" name="model_1/model/p_re_lu_6/add_model_1/model/p_re_lu_6/Relu_model_1/model/p_re_lu_6/Neg_1_model_1/model/p_re_lu_6/Relu_1_model_1/model/p_re_lu_6/mul_dequantize_prelu/mul" type="Multiply" version="opset1">
			<data auto_broadcast="numpy"/>
			<rt_info>
				<attribute name="fused_names" version="0" value="model_1/model/p_re_lu_6/add_model_1/model/p_re_lu_6/Relu_model_1/model/p_re_lu_6/Neg_1_model_1/model/p_re_lu_6/Relu_1_model_1/model/p_re_lu_6/mul_dequantize_prelu/mul"/>
			</rt_info>
			<input>
				<port id="0" precision="FP32">
					<dim>1</dim>
					<dim>64</dim>
					<dim>1</dim>
					<dim>1</dim>
				</port>
				<port id="1" precision="FP32">
					<dim>1</dim>
					<dim>64</dim>
					<dim>48</dim>
					<dim>48</dim>
				</port>
			</input>
			<output>
				<port id="2" precision="FP32" names="model_1/model/p_re_lu_6/add_model_1/model/p_re_lu_6/Relu_model_1/model/p_re_lu_6/Neg_1_model_1/model/p_re_lu_6/Relu_1_model_1/model/p_re_lu_6/mul_dequantize_prelu/mul:0">
					<dim>1</dim>
					<dim>64</dim>
					<dim>48</dim>
					<dim>48</dim>
				</port>
			</output>
		</layer>
		<layer id="135" name="model_1/model/p_re_lu_6/add_model_1/model/p_re_lu_6/Relu_model_1/model/p_re_lu_6/Neg_1_model_1/model/p_re_lu_6/Relu_1_model_1/model/p_re_lu_6/mul_dequantize_prelu/add" type="Add" version="opset1">
			<data auto_broadcast="numpy"/>
			<rt_info>
				<attribute name="fused_names" version="0" value="model_1/model/p_re_lu_6/add_model_1/model/p_re_lu_6/Relu_model_1/model/p_re_lu_6/Neg_1_model_1/model/p_re_lu_6/Relu_1_model_1/model/p_re_lu_6/mul_dequantize_prelu/add"/>
			</rt_info>
			<input>
				<port id="0" precision="FP32">
					<dim>1</dim>
					<dim>64</dim>
					<dim>48</dim>
					<dim>48</dim>
				</port>
				<port id="1" precision="FP32">
					<dim>1</dim>
					<dim>64</dim>
					<dim>48</dim>
					<dim>48</dim>
				</port>
			</input>
			<output>
				<port id="2" precision="FP32" names="model_1/model/p_re_lu_6/add_model_1/model/p_re_lu_6/Relu_model_1/model/p_re_lu_6/Neg_1_model_1/model/p_re_lu_6/Relu_1_model_1/model/p_re_lu_6/mul_dequantize:0,model_1/model/p_re_lu_6/add_model_1/model/p_re_lu_6/Relu_model_1/model/p_re_lu_6/Neg_1_model_1/model/p_re_lu_6/Relu_1_model_1/model/p_re_lu_6/mul_dequantize_prelu/add:0">
					<dim>1</dim>
					<dim>64</dim>
					<dim>48</dim>
					<dim>48</dim>
				</port>
			</output>
		</layer>
		<layer id="136" name="depthwise_6/filter_in_compressed" type="Const" version="opset1">
			<data element_type="f16" shape="64, 1, 1, 5, 5" offset="45572" size="3200"/>
			<output>
				<port id="0" precision="FP16">
					<dim>64</dim>
					<dim>1</dim>
					<dim>1</dim>
					<dim>5</dim>
					<dim>5</dim>
				</port>
			</output>
		</layer>
		<layer id="137" name="depthwise_6/filter_in" type="Convert" version="opset1">
			<data destination_type="f32"/>
			<rt_info>
				<attribute name="decompression" version="0"/>
				<attribute name="fused_names" version="0" value="depthwise_6/filter_in"/>
			</rt_info>
			<input>
				<port id="0" precision="FP16">
					<dim>64</dim>
					<dim>1</dim>
					<dim>1</dim>
					<dim>5</dim>
					<dim>5</dim>
				</port>
			</input>
			<output>
				<port id="1" precision="FP32" names="depthwise_6/filter_in:0">
					<dim>64</dim>
					<dim>1</dim>
					<dim>1</dim>
					<dim>5</dim>
					<dim>5</dim>
				</port>
			</output>
		</layer>
		<layer id="138" name="depthwise_6" type="GroupConvolution" version="opset1">
			<data strides="1, 1" pads_begin="0, 0" pads_end="0, 0" dilations="1, 1" auto_pad="same_upper"/>
			<rt_info>
				<attribute name="fused_names" version="0" value="depthwise_6, model_1/model/depthwise_conv2d_6/depthwise1"/>
			</rt_info>
			<input>
				<port id="0" precision="FP32">
					<dim>1</dim>
					<dim>64</dim>
					<dim>48</dim>
					<dim>48</dim>
				</port>
				<port id="1" precision="FP32">
					<dim>64</dim>
					<dim>1</dim>
					<dim>1</dim>
					<dim>5</dim>
					<dim>5</dim>
				</port>
			</input>
			<output>
				<port id="2" precision="FP32" names="depthwise_6:0,model_1/model/depthwise_conv2d_6/depthwise1:0">
					<dim>1</dim>
					<dim>64</dim>
					<dim>48</dim>
					<dim>48</dim>
				</port>
			</output>
		</layer>
		<layer id="139" name="Conv2D_7/filter_compressed" type="Const" version="opset1">
			<data element_type="f16" shape="64, 64, 1, 1" offset="48772" size="8192"/>
			<output>
				<port id="0" precision="FP16">
					<dim>64</dim>
					<dim>64</dim>
					<dim>1</dim>
					<dim>1</dim>
				</port>
			</output>
		</layer>
		<layer id="140" name="Conv2D_7/filter" type="Convert" version="opset1">
			<data destination_type="f32"/>
			<rt_info>
				<attribute name="decompression" version="0"/>
				<attribute name="fused_names" version="0" value="Conv2D_7/filter"/>
			</rt_info>
			<input>
				<port id="0" precision="FP16">
					<dim>64</dim>
					<dim>64</dim>
					<dim>1</dim>
					<dim>1</dim>
				</port>
			</input>
			<output>
				<port id="1" precision="FP32" names="Conv2D_7/filter:0">
					<dim>64</dim>
					<dim>64</dim>
					<dim>1</dim>
					<dim>1</dim>
				</port>
			</output>
		</layer>
		<layer id="141" name="Conv2D_7" type="Convolution" version="opset1">
			<data strides="1, 1" dilations="1, 1" pads_begin="0, 0" pads_end="0, 0" auto_pad="valid"/>
			<rt_info>
				<attribute name="fused_names" version="0" value="Conv2D_7"/>
			</rt_info>
			<input>
				<port id="0" precision="FP32">
					<dim>1</dim>
					<dim>64</dim>
					<dim>48</dim>
					<dim>48</dim>
				</port>
				<port id="1" precision="FP32">
					<dim>64</dim>
					<dim>64</dim>
					<dim>1</dim>
					<dim>1</dim>
				</port>
			</input>
			<output>
				<port id="2" precision="FP32" names="Conv2D_7:0">
					<dim>1</dim>
					<dim>64</dim>
					<dim>48</dim>
					<dim>48</dim>
				</port>
			</output>
		</layer>
		<layer id="142" name="model_1/model/batch_normalization_7/FusedBatchNormV3_model_1/model/depthwise_conv2d_7/depthwise_model_1/model/conv2d_7/Conv2D1/y_compressed" type="Const" version="opset1">
			<data element_type="f16" shape="1, 64, 1, 1" offset="56964" size="128"/>
			<output>
				<port id="0" precision="FP16">
					<dim>1</dim>
					<dim>64</dim>
					<dim>1</dim>
					<dim>1</dim>
				</port>
			</output>
		</layer>
		<layer id="143" name="model_1/model/batch_normalization_7/FusedBatchNormV3_model_1/model/depthwise_conv2d_7/depthwise_model_1/model/conv2d_7/Conv2D1/y" type="Convert" version="opset1">
			<data destination_type="f32"/>
			<rt_info>
				<attribute name="decompression" version="0"/>
				<attribute name="fused_names" version="0" value="model_1/model/batch_normalization_7/FusedBatchNormV3_model_1/model/depthwise_conv2d_7/depthwise_model_1/model/conv2d_7/Conv2D1/y"/>
			</rt_info>
			<input>
				<port id="0" precision="FP16">
					<dim>1</dim>
					<dim>64</dim>
					<dim>1</dim>
					<dim>1</dim>
				</port>
			</input>
			<output>
				<port id="1" precision="FP32" names="model_1/model/batch_normalization_7/FusedBatchNormV3_model_1/model/depthwise_conv2d_7/depthwise_model_1/model/conv2d_7/Conv2D1/y:0">
					<dim>1</dim>
					<dim>64</dim>
					<dim>1</dim>
					<dim>1</dim>
				</port>
			</output>
		</layer>
		<layer id="144" name="model_1/model/batch_normalization_7/FusedBatchNormV3_model_1/model/depthwise_conv2d_7/depthwise_model_1/model/conv2d_7/Conv2D1" type="Add" version="opset1">
			<data auto_broadcast="numpy"/>
			<rt_info>
				<attribute name="fused_names" version="0" value="model_1/model/batch_normalization_7/FusedBatchNormV3_model_1/model/depthwise_conv2d_7/depthwise_model_1/model/conv2d_7/Conv2D1"/>
			</rt_info>
			<input>
				<port id="0" precision="FP32">
					<dim>1</dim>
					<dim>64</dim>
					<dim>48</dim>
					<dim>48</dim>
				</port>
				<port id="1" precision="FP32">
					<dim>1</dim>
					<dim>64</dim>
					<dim>1</dim>
					<dim>1</dim>
				</port>
			</input>
			<output>
				<port id="2" precision="FP32" names="model_1/model/batch_normalization_7/FusedBatchNormV3_model_1/model/depthwise_conv2d_7/depthwise_model_1/model/conv2d_7/Conv2D1:0">
					<dim>1</dim>
					<dim>64</dim>
					<dim>48</dim>
					<dim>48</dim>
				</port>
			</output>
		</layer>
		<layer id="145" name="model_1/model/add_6/add" type="Add" version="opset1">
			<data auto_broadcast="numpy"/>
			<rt_info>
				<attribute name="fused_names" version="0" value="model_1/model/add_6/add"/>
			</rt_info>
			<input>
				<port id="0" precision="FP32">
					<dim>1</dim>
					<dim>64</dim>
					<dim>48</dim>
					<dim>48</dim>
				</port>
				<port id="1" precision="FP32">
					<dim>1</dim>
					<dim>64</dim>
					<dim>48</dim>
					<dim>48</dim>
				</port>
			</input>
			<output>
				<port id="2" precision="FP32" names="model_1/model/add_6/add:0">
					<dim>1</dim>
					<dim>64</dim>
					<dim>48</dim>
					<dim>48</dim>
				</port>
			</output>
		</layer>
		<layer id="146" name="model_1/model/p_re_lu_7/add_model_1/model/p_re_lu_7/Relu_model_1/model/p_re_lu_7/Neg_1_model_1/model/p_re_lu_7/Relu_1_model_1/model/p_re_lu_7/mul_dequantize_prelu/Relu" type="ReLU" version="opset1">
			<rt_info>
				<attribute name="fused_names" version="0" value="model_1/model/p_re_lu_7/add_model_1/model/p_re_lu_7/Relu_model_1/model/p_re_lu_7/Neg_1_model_1/model/p_re_lu_7/Relu_1_model_1/model/p_re_lu_7/mul_dequantize_prelu/Relu"/>
			</rt_info>
			<input>
				<port id="0" precision="FP32">
					<dim>1</dim>
					<dim>64</dim>
					<dim>48</dim>
					<dim>48</dim>
				</port>
			</input>
			<output>
				<port id="1" precision="FP32" names="model_1/model/p_re_lu_7/add_model_1/model/p_re_lu_7/Relu_model_1/model/p_re_lu_7/Neg_1_model_1/model/p_re_lu_7/Relu_1_model_1/model/p_re_lu_7/mul_dequantize_prelu/Relu:0">
					<dim>1</dim>
					<dim>64</dim>
					<dim>48</dim>
					<dim>48</dim>
				</port>
			</output>
		</layer>
		<layer id="147" name="model_1/model/p_re_lu_7/add_model_1/model/p_re_lu_7/Relu_model_1/model/p_re_lu_7/Neg_1_model_1/model/p_re_lu_7/Relu_1_model_1/model/p_re_lu_7/mul_dequantize_prelu/Neg/mul__compressed" type="Const" version="opset1">
			<data element_type="f16" shape="1, 64, 1, 1" offset="57092" size="128"/>
			<output>
				<port id="0" precision="FP16">
					<dim>1</dim>
					<dim>64</dim>
					<dim>1</dim>
					<dim>1</dim>
				</port>
			</output>
		</layer>
		<layer id="148" name="model_1/model/p_re_lu_7/add_model_1/model/p_re_lu_7/Relu_model_1/model/p_re_lu_7/Neg_1_model_1/model/p_re_lu_7/Relu_1_model_1/model/p_re_lu_7/mul_dequantize_prelu/Neg/mul_" type="Convert" version="opset1">
			<data destination_type="f32"/>
			<rt_info>
				<attribute name="decompression" version="0"/>
				<attribute name="fused_names" version="0" value="model_1/model/p_re_lu_7/add_model_1/model/p_re_lu_7/Relu_model_1/model/p_re_lu_7/Neg_1_model_1/model/p_re_lu_7/Relu_1_model_1/model/p_re_lu_7/mul_dequantize_prelu/Neg/mul_"/>
			</rt_info>
			<input>
				<port id="0" precision="FP16">
					<dim>1</dim>
					<dim>64</dim>
					<dim>1</dim>
					<dim>1</dim>
				</port>
			</input>
			<output>
				<port id="1" precision="FP32" names="model_1/model/p_re_lu_7/add_model_1/model/p_re_lu_7/Relu_model_1/model/p_re_lu_7/Neg_1_model_1/model/p_re_lu_7/Relu_1_model_1/model/p_re_lu_7/mul_dequantize_prelu/Neg:0">
					<dim>1</dim>
					<dim>64</dim>
					<dim>1</dim>
					<dim>1</dim>
				</port>
			</output>
		</layer>
		<layer id="149" name="523_compressed" type="Const" version="opset1">
			<data element_type="f16" shape="1, 1, 1, 1" offset="4928" size="2"/>
			<output>
				<port id="0" precision="FP16">
					<dim>1</dim>
					<dim>1</dim>
					<dim>1</dim>
					<dim>1</dim>
				</port>
			</output>
		</layer>
		<layer id="150" name="523" type="Convert" version="opset1">
			<data destination_type="f32"/>
			<rt_info>
				<attribute name="decompression" version="0"/>
				<attribute name="fused_names" version="0" value="523"/>
			</rt_info>
			<input>
				<port id="0" precision="FP16">
					<dim>1</dim>
					<dim>1</dim>
					<dim>1</dim>
					<dim>1</dim>
				</port>
			</input>
			<output>
				<port id="1" precision="FP32">
					<dim>1</dim>
					<dim>1</dim>
					<dim>1</dim>
					<dim>1</dim>
				</port>
			</output>
		</layer>
		<layer id="151" name="model_1/model/p_re_lu_7/add_model_1/model/p_re_lu_7/Relu_model_1/model/p_re_lu_7/Neg_1_model_1/model/p_re_lu_7/Relu_1_model_1/model/p_re_lu_7/mul_dequantize_prelu/Neg_1/mul_" type="Multiply" version="opset1">
			<data auto_broadcast="numpy"/>
			<rt_info>
				<attribute name="fused_names" version="0" value="model_1/model/p_re_lu_7/add_model_1/model/p_re_lu_7/Relu_model_1/model/p_re_lu_7/Neg_1_model_1/model/p_re_lu_7/Relu_1_model_1/model/p_re_lu_7/mul_dequantize_prelu/Neg_1/mul_"/>
			</rt_info>
			<input>
				<port id="0" precision="FP32">
					<dim>1</dim>
					<dim>64</dim>
					<dim>48</dim>
					<dim>48</dim>
				</port>
				<port id="1" precision="FP32">
					<dim>1</dim>
					<dim>1</dim>
					<dim>1</dim>
					<dim>1</dim>
				</port>
			</input>
			<output>
				<port id="2" precision="FP32" names="model_1/model/p_re_lu_7/add_model_1/model/p_re_lu_7/Relu_model_1/model/p_re_lu_7/Neg_1_model_1/model/p_re_lu_7/Relu_1_model_1/model/p_re_lu_7/mul_dequantize_prelu/Neg_1:0">
					<dim>1</dim>
					<dim>64</dim>
					<dim>48</dim>
					<dim>48</dim>
				</port>
			</output>
		</layer>
		<layer id="152" name="model_1/model/p_re_lu_7/add_model_1/model/p_re_lu_7/Relu_model_1/model/p_re_lu_7/Neg_1_model_1/model/p_re_lu_7/Relu_1_model_1/model/p_re_lu_7/mul_dequantize_prelu/Relu_1" type="ReLU" version="opset1">
			<rt_info>
				<attribute name="fused_names" version="0" value="model_1/model/p_re_lu_7/add_model_1/model/p_re_lu_7/Relu_model_1/model/p_re_lu_7/Neg_1_model_1/model/p_re_lu_7/Relu_1_model_1/model/p_re_lu_7/mul_dequantize_prelu/Relu_1"/>
			</rt_info>
			<input>
				<port id="0" precision="FP32">
					<dim>1</dim>
					<dim>64</dim>
					<dim>48</dim>
					<dim>48</dim>
				</port>
			</input>
			<output>
				<port id="1" precision="FP32" names="model_1/model/p_re_lu_7/add_model_1/model/p_re_lu_7/Relu_model_1/model/p_re_lu_7/Neg_1_model_1/model/p_re_lu_7/Relu_1_model_1/model/p_re_lu_7/mul_dequantize_prelu/Relu_1:0">
					<dim>1</dim>
					<dim>64</dim>
					<dim>48</dim>
					<dim>48</dim>
				</port>
			</output>
		</layer>
		<layer id="153" name="model_1/model/p_re_lu_7/add_model_1/model/p_re_lu_7/Relu_model_1/model/p_re_lu_7/Neg_1_model_1/model/p_re_lu_7/Relu_1_model_1/model/p_re_lu_7/mul_dequantize_prelu/mul" type="Multiply" version="opset1">
			<data auto_broadcast="numpy"/>
			<rt_info>
				<attribute name="fused_names" version="0" value="model_1/model/p_re_lu_7/add_model_1/model/p_re_lu_7/Relu_model_1/model/p_re_lu_7/Neg_1_model_1/model/p_re_lu_7/Relu_1_model_1/model/p_re_lu_7/mul_dequantize_prelu/mul"/>
			</rt_info>
			<input>
				<port id="0" precision="FP32">
					<dim>1</dim>
					<dim>64</dim>
					<dim>1</dim>
					<dim>1</dim>
				</port>
				<port id="1" precision="FP32">
					<dim>1</dim>
					<dim>64</dim>
					<dim>48</dim>
					<dim>48</dim>
				</port>
			</input>
			<output>
				<port id="2" precision="FP32" names="model_1/model/p_re_lu_7/add_model_1/model/p_re_lu_7/Relu_model_1/model/p_re_lu_7/Neg_1_model_1/model/p_re_lu_7/Relu_1_model_1/model/p_re_lu_7/mul_dequantize_prelu/mul:0">
					<dim>1</dim>
					<dim>64</dim>
					<dim>48</dim>
					<dim>48</dim>
				</port>
			</output>
		</layer>
		<layer id="154" name="model_1/model/p_re_lu_7/add_model_1/model/p_re_lu_7/Relu_model_1/model/p_re_lu_7/Neg_1_model_1/model/p_re_lu_7/Relu_1_model_1/model/p_re_lu_7/mul_dequantize_prelu/add" type="Add" version="opset1">
			<data auto_broadcast="numpy"/>
			<rt_info>
				<attribute name="fused_names" version="0" value="model_1/model/p_re_lu_7/add_model_1/model/p_re_lu_7/Relu_model_1/model/p_re_lu_7/Neg_1_model_1/model/p_re_lu_7/Relu_1_model_1/model/p_re_lu_7/mul_dequantize_prelu/add"/>
			</rt_info>
			<input>
				<port id="0" precision="FP32">
					<dim>1</dim>
					<dim>64</dim>
					<dim>48</dim>
					<dim>48</dim>
				</port>
				<port id="1" precision="FP32">
					<dim>1</dim>
					<dim>64</dim>
					<dim>48</dim>
					<dim>48</dim>
				</port>
			</input>
			<output>
				<port id="2" precision="FP32" names="model_1/model/p_re_lu_7/add_model_1/model/p_re_lu_7/Relu_model_1/model/p_re_lu_7/Neg_1_model_1/model/p_re_lu_7/Relu_1_model_1/model/p_re_lu_7/mul_dequantize:0,model_1/model/p_re_lu_7/add_model_1/model/p_re_lu_7/Relu_model_1/model/p_re_lu_7/Neg_1_model_1/model/p_re_lu_7/Relu_1_model_1/model/p_re_lu_7/mul_dequantize_prelu/add:0">
					<dim>1</dim>
					<dim>64</dim>
					<dim>48</dim>
					<dim>48</dim>
				</port>
			</output>
		</layer>
		<layer id="155" name="model_1/model/max_pooling2d_1/MaxPool" type="MaxPool" version="opset8">
			<data strides="2, 2" dilations="1, 1" pads_begin="0, 0" pads_end="0, 0" kernel="2, 2" rounding_type="floor" auto_pad="same_upper" index_element_type="i64" axis="0"/>
			<rt_info>
				<attribute name="fused_names" version="0" value="model_1/model/max_pooling2d_1/MaxPool"/>
			</rt_info>
			<input>
				<port id="0" precision="FP32">
					<dim>1</dim>
					<dim>64</dim>
					<dim>48</dim>
					<dim>48</dim>
				</port>
			</input>
			<output>
				<port id="1" precision="FP32" names="model_1/model/max_pooling2d_1/MaxPool:0">
					<dim>1</dim>
					<dim>64</dim>
					<dim>24</dim>
					<dim>24</dim>
				</port>
				<port id="2" precision="I64">
					<dim>1</dim>
					<dim>64</dim>
					<dim>24</dim>
					<dim>24</dim>
				</port>
			</output>
		</layer>
		<layer id="156" name="955314716" type="Const" version="opset1">
			<data element_type="i64" shape="4" offset="16258" size="32"/>
			<rt_info>
				<attribute name="fused_names" version="0" value="955314716"/>
			</rt_info>
			<output>
				<port id="0" precision="I64">
					<dim>4</dim>
				</port>
			</output>
		</layer>
		<layer id="157" name="955914491" type="Const" version="opset1">
			<data element_type="i64" shape="4" offset="57220" size="32"/>
			<rt_info>
				<attribute name="fused_names" version="0" value="955914491"/>
			</rt_info>
			<output>
				<port id="0" precision="I64">
					<dim>4</dim>
				</port>
			</output>
		</layer>
		<layer id="158" name="Constant_268_compressed" type="Const" version="opset1">
			<data element_type="f16" shape="" offset="16322" size="2"/>
			<output>
				<port id="0" precision="FP16"/>
			</output>
		</layer>
		<layer id="159" name="Constant_268" type="Convert" version="opset1">
			<data destination_type="f32"/>
			<rt_info>
				<attribute name="decompression" version="0"/>
				<attribute name="fused_names" version="0" value="Constant_268"/>
			</rt_info>
			<input>
				<port id="0" precision="FP16"/>
			</input>
			<output>
				<port id="1" precision="FP32"/>
			</output>
		</layer>
		<layer id="160" name="model_1/model/channel_padding_1/Pad" type="Pad" version="opset1">
			<data pad_mode="constant"/>
			<rt_info>
				<attribute name="fused_names" version="0" value="model_1/model/channel_padding_1/Pad"/>
			</rt_info>
			<input>
				<port id="0" precision="FP32">
					<dim>1</dim>
					<dim>64</dim>
					<dim>24</dim>
					<dim>24</dim>
				</port>
				<port id="1" precision="I64">
					<dim>4</dim>
				</port>
				<port id="2" precision="I64">
					<dim>4</dim>
				</port>
				<port id="3" precision="FP32"/>
			</input>
			<output>
				<port id="4" precision="FP32" names="model_1/model/channel_padding_1/Pad:0">
					<dim>1</dim>
					<dim>128</dim>
					<dim>24</dim>
					<dim>24</dim>
				</port>
			</output>
		</layer>
		<layer id="161" name="depthwise_7/filter_in_compressed" type="Const" version="opset1">
			<data element_type="f16" shape="64, 1, 1, 5, 5" offset="57252" size="3200"/>
			<output>
				<port id="0" precision="FP16">
					<dim>64</dim>
					<dim>1</dim>
					<dim>1</dim>
					<dim>5</dim>
					<dim>5</dim>
				</port>
			</output>
		</layer>
		<layer id="162" name="depthwise_7/filter_in" type="Convert" version="opset1">
			<data destination_type="f32"/>
			<rt_info>
				<attribute name="decompression" version="0"/>
				<attribute name="fused_names" version="0" value="depthwise_7/filter_in"/>
			</rt_info>
			<input>
				<port id="0" precision="FP16">
					<dim>64</dim>
					<dim>1</dim>
					<dim>1</dim>
					<dim>5</dim>
					<dim>5</dim>
				</port>
			</input>
			<output>
				<port id="1" precision="FP32" names="depthwise_7/filter_in:0">
					<dim>64</dim>
					<dim>1</dim>
					<dim>1</dim>
					<dim>5</dim>
					<dim>5</dim>
				</port>
			</output>
		</layer>
		<layer id="163" name="depthwise_7" type="GroupConvolution" version="opset1">
			<data strides="2, 2" pads_begin="0, 0" pads_end="0, 0" dilations="1, 1" auto_pad="same_upper"/>
			<rt_info>
				<attribute name="fused_names" version="0" value="depthwise_7, model_1/model/depthwise_conv2d_7/depthwise2"/>
			</rt_info>
			<input>
				<port id="0" precision="FP32">
					<dim>1</dim>
					<dim>64</dim>
					<dim>48</dim>
					<dim>48</dim>
				</port>
				<port id="1" precision="FP32">
					<dim>64</dim>
					<dim>1</dim>
					<dim>1</dim>
					<dim>5</dim>
					<dim>5</dim>
				</port>
			</input>
			<output>
				<port id="2" precision="FP32" names="depthwise_7:0,model_1/model/depthwise_conv2d_7/depthwise2:0">
					<dim>1</dim>
					<dim>64</dim>
					<dim>24</dim>
					<dim>24</dim>
				</port>
			</output>
		</layer>
		<layer id="164" name="Conv2D_8/filter_compressed" type="Const" version="opset1">
			<data element_type="f16" shape="128, 64, 1, 1" offset="60452" size="16384"/>
			<output>
				<port id="0" precision="FP16">
					<dim>128</dim>
					<dim>64</dim>
					<dim>1</dim>
					<dim>1</dim>
				</port>
			</output>
		</layer>
		<layer id="165" name="Conv2D_8/filter" type="Convert" version="opset1">
			<data destination_type="f32"/>
			<rt_info>
				<attribute name="decompression" version="0"/>
				<attribute name="fused_names" version="0" value="Conv2D_8/filter"/>
			</rt_info>
			<input>
				<port id="0" precision="FP16">
					<dim>128</dim>
					<dim>64</dim>
					<dim>1</dim>
					<dim>1</dim>
				</port>
			</input>
			<output>
				<port id="1" precision="FP32" names="Conv2D_8/filter:0">
					<dim>128</dim>
					<dim>64</dim>
					<dim>1</dim>
					<dim>1</dim>
				</port>
			</output>
		</layer>
		<layer id="166" name="Conv2D_8" type="Convolution" version="opset1">
			<data strides="1, 1" dilations="1, 1" pads_begin="0, 0" pads_end="0, 0" auto_pad="valid"/>
			<rt_info>
				<attribute name="fused_names" version="0" value="Conv2D_8"/>
			</rt_info>
			<input>
				<port id="0" precision="FP32">
					<dim>1</dim>
					<dim>64</dim>
					<dim>24</dim>
					<dim>24</dim>
				</port>
				<port id="1" precision="FP32">
					<dim>128</dim>
					<dim>64</dim>
					<dim>1</dim>
					<dim>1</dim>
				</port>
			</input>
			<output>
				<port id="2" precision="FP32" names="Conv2D_8:0">
					<dim>1</dim>
					<dim>128</dim>
					<dim>24</dim>
					<dim>24</dim>
				</port>
			</output>
		</layer>
		<layer id="167" name="model_1/model/batch_normalization_8/FusedBatchNormV3_model_1/model/conv2d_25/Conv2D_model_1/model/conv2d_8/Conv2D1/y_compressed" type="Const" version="opset1">
			<data element_type="f16" shape="1, 128, 1, 1" offset="76836" size="256"/>
			<output>
				<port id="0" precision="FP16">
					<dim>1</dim>
					<dim>128</dim>
					<dim>1</dim>
					<dim>1</dim>
				</port>
			</output>
		</layer>
		<layer id="168" name="model_1/model/batch_normalization_8/FusedBatchNormV3_model_1/model/conv2d_25/Conv2D_model_1/model/conv2d_8/Conv2D1/y" type="Convert" version="opset1">
			<data destination_type="f32"/>
			<rt_info>
				<attribute name="decompression" version="0"/>
				<attribute name="fused_names" version="0" value="model_1/model/batch_normalization_8/FusedBatchNormV3_model_1/model/conv2d_25/Conv2D_model_1/model/conv2d_8/Conv2D1/y"/>
			</rt_info>
			<input>
				<port id="0" precision="FP16">
					<dim>1</dim>
					<dim>128</dim>
					<dim>1</dim>
					<dim>1</dim>
				</port>
			</input>
			<output>
				<port id="1" precision="FP32" names="model_1/model/batch_normalization_8/FusedBatchNormV3_model_1/model/conv2d_25/Conv2D_model_1/model/conv2d_8/Conv2D1/y:0">
					<dim>1</dim>
					<dim>128</dim>
					<dim>1</dim>
					<dim>1</dim>
				</port>
			</output>
		</layer>
		<layer id="169" name="model_1/model/batch_normalization_8/FusedBatchNormV3_model_1/model/conv2d_25/Conv2D_model_1/model/conv2d_8/Conv2D1" type="Add" version="opset1">
			<data auto_broadcast="numpy"/>
			<rt_info>
				<attribute name="fused_names" version="0" value="model_1/model/batch_normalization_8/FusedBatchNormV3_model_1/model/conv2d_25/Conv2D_model_1/model/conv2d_8/Conv2D1"/>
			</rt_info>
			<input>
				<port id="0" precision="FP32">
					<dim>1</dim>
					<dim>128</dim>
					<dim>24</dim>
					<dim>24</dim>
				</port>
				<port id="1" precision="FP32">
					<dim>1</dim>
					<dim>128</dim>
					<dim>1</dim>
					<dim>1</dim>
				</port>
			</input>
			<output>
				<port id="2" precision="FP32" names="model_1/model/batch_normalization_8/FusedBatchNormV3_model_1/model/conv2d_25/Conv2D_model_1/model/conv2d_8/Conv2D1:0">
					<dim>1</dim>
					<dim>128</dim>
					<dim>24</dim>
					<dim>24</dim>
				</port>
			</output>
		</layer>
		<layer id="170" name="model_1/model/add_7/add" type="Add" version="opset1">
			<data auto_broadcast="numpy"/>
			<rt_info>
				<attribute name="fused_names" version="0" value="model_1/model/add_7/add"/>
			</rt_info>
			<input>
				<port id="0" precision="FP32">
					<dim>1</dim>
					<dim>128</dim>
					<dim>24</dim>
					<dim>24</dim>
				</port>
				<port id="1" precision="FP32">
					<dim>1</dim>
					<dim>128</dim>
					<dim>24</dim>
					<dim>24</dim>
				</port>
			</input>
			<output>
				<port id="2" precision="FP32" names="model_1/model/add_7/add:0">
					<dim>1</dim>
					<dim>128</dim>
					<dim>24</dim>
					<dim>24</dim>
				</port>
			</output>
		</layer>
		<layer id="171" name="model_1/model/p_re_lu_8/add_model_1/model/p_re_lu_8/Relu_model_1/model/p_re_lu_8/Neg_1_model_1/model/p_re_lu_8/Relu_1_model_1/model/p_re_lu_8/mul_dequantize_prelu/Relu" type="ReLU" version="opset1">
			<rt_info>
				<attribute name="fused_names" version="0" value="model_1/model/p_re_lu_8/add_model_1/model/p_re_lu_8/Relu_model_1/model/p_re_lu_8/Neg_1_model_1/model/p_re_lu_8/Relu_1_model_1/model/p_re_lu_8/mul_dequantize_prelu/Relu"/>
			</rt_info>
			<input>
				<port id="0" precision="FP32">
					<dim>1</dim>
					<dim>128</dim>
					<dim>24</dim>
					<dim>24</dim>
				</port>
			</input>
			<output>
				<port id="1" precision="FP32" names="model_1/model/p_re_lu_8/add_model_1/model/p_re_lu_8/Relu_model_1/model/p_re_lu_8/Neg_1_model_1/model/p_re_lu_8/Relu_1_model_1/model/p_re_lu_8/mul_dequantize_prelu/Relu:0">
					<dim>1</dim>
					<dim>128</dim>
					<dim>24</dim>
					<dim>24</dim>
				</port>
			</output>
		</layer>
		<layer id="172" name="model_1/model/p_re_lu_8/add_model_1/model/p_re_lu_8/Relu_model_1/model/p_re_lu_8/Neg_1_model_1/model/p_re_lu_8/Relu_1_model_1/model/p_re_lu_8/mul_dequantize_prelu/Neg/mul__compressed" type="Const" version="opset1">
			<data element_type="f16" shape="1, 128, 1, 1" offset="77092" size="256"/>
			<output>
				<port id="0" precision="FP16">
					<dim>1</dim>
					<dim>128</dim>
					<dim>1</dim>
					<dim>1</dim>
				</port>
			</output>
		</layer>
		<layer id="173" name="model_1/model/p_re_lu_8/add_model_1/model/p_re_lu_8/Relu_model_1/model/p_re_lu_8/Neg_1_model_1/model/p_re_lu_8/Relu_1_model_1/model/p_re_lu_8/mul_dequantize_prelu/Neg/mul_" type="Convert" version="opset1">
			<data destination_type="f32"/>
			<rt_info>
				<attribute name="decompression" version="0"/>
				<attribute name="fused_names" version="0" value="model_1/model/p_re_lu_8/add_model_1/model/p_re_lu_8/Relu_model_1/model/p_re_lu_8/Neg_1_model_1/model/p_re_lu_8/Relu_1_model_1/model/p_re_lu_8/mul_dequantize_prelu/Neg/mul_"/>
			</rt_info>
			<input>
				<port id="0" precision="FP16">
					<dim>1</dim>
					<dim>128</dim>
					<dim>1</dim>
					<dim>1</dim>
				</port>
			</input>
			<output>
				<port id="1" precision="FP32" names="model_1/model/p_re_lu_8/add_model_1/model/p_re_lu_8/Relu_model_1/model/p_re_lu_8/Neg_1_model_1/model/p_re_lu_8/Relu_1_model_1/model/p_re_lu_8/mul_dequantize_prelu/Neg:0">
					<dim>1</dim>
					<dim>128</dim>
					<dim>1</dim>
					<dim>1</dim>
				</port>
			</output>
		</layer>
		<layer id="174" name="519_compressed" type="Const" version="opset1">
			<data element_type="f16" shape="1, 1, 1, 1" offset="4928" size="2"/>
			<output>
				<port id="0" precision="FP16">
					<dim>1</dim>
					<dim>1</dim>
					<dim>1</dim>
					<dim>1</dim>
				</port>
			</output>
		</layer>
		<layer id="175" name="519" type="Convert" version="opset1">
			<data destination_type="f32"/>
			<rt_info>
				<attribute name="decompression" version="0"/>
				<attribute name="fused_names" version="0" value="519"/>
			</rt_info>
			<input>
				<port id="0" precision="FP16">
					<dim>1</dim>
					<dim>1</dim>
					<dim>1</dim>
					<dim>1</dim>
				</port>
			</input>
			<output>
				<port id="1" precision="FP32">
					<dim>1</dim>
					<dim>1</dim>
					<dim>1</dim>
					<dim>1</dim>
				</port>
			</output>
		</layer>
		<layer id="176" name="model_1/model/p_re_lu_8/add_model_1/model/p_re_lu_8/Relu_model_1/model/p_re_lu_8/Neg_1_model_1/model/p_re_lu_8/Relu_1_model_1/model/p_re_lu_8/mul_dequantize_prelu/Neg_1/mul_" type="Multiply" version="opset1">
			<data auto_broadcast="numpy"/>
			<rt_info>
				<attribute name="fused_names" version="0" value="model_1/model/p_re_lu_8/add_model_1/model/p_re_lu_8/Relu_model_1/model/p_re_lu_8/Neg_1_model_1/model/p_re_lu_8/Relu_1_model_1/model/p_re_lu_8/mul_dequantize_prelu/Neg_1/mul_"/>
			</rt_info>
			<input>
				<port id="0" precision="FP32">
					<dim>1</dim>
					<dim>128</dim>
					<dim>24</dim>
					<dim>24</dim>
				</port>
				<port id="1" precision="FP32">
					<dim>1</dim>
					<dim>1</dim>
					<dim>1</dim>
					<dim>1</dim>
				</port>
			</input>
			<output>
				<port id="2" precision="FP32" names="model_1/model/p_re_lu_8/add_model_1/model/p_re_lu_8/Relu_model_1/model/p_re_lu_8/Neg_1_model_1/model/p_re_lu_8/Relu_1_model_1/model/p_re_lu_8/mul_dequantize_prelu/Neg_1:0">
					<dim>1</dim>
					<dim>128</dim>
					<dim>24</dim>
					<dim>24</dim>
				</port>
			</output>
		</layer>
		<layer id="177" name="model_1/model/p_re_lu_8/add_model_1/model/p_re_lu_8/Relu_model_1/model/p_re_lu_8/Neg_1_model_1/model/p_re_lu_8/Relu_1_model_1/model/p_re_lu_8/mul_dequantize_prelu/Relu_1" type="ReLU" version="opset1">
			<rt_info>
				<attribute name="fused_names" version="0" value="model_1/model/p_re_lu_8/add_model_1/model/p_re_lu_8/Relu_model_1/model/p_re_lu_8/Neg_1_model_1/model/p_re_lu_8/Relu_1_model_1/model/p_re_lu_8/mul_dequantize_prelu/Relu_1"/>
			</rt_info>
			<input>
				<port id="0" precision="FP32">
					<dim>1</dim>
					<dim>128</dim>
					<dim>24</dim>
					<dim>24</dim>
				</port>
			</input>
			<output>
				<port id="1" precision="FP32" names="model_1/model/p_re_lu_8/add_model_1/model/p_re_lu_8/Relu_model_1/model/p_re_lu_8/Neg_1_model_1/model/p_re_lu_8/Relu_1_model_1/model/p_re_lu_8/mul_dequantize_prelu/Relu_1:0">
					<dim>1</dim>
					<dim>128</dim>
					<dim>24</dim>
					<dim>24</dim>
				</port>
			</output>
		</layer>
		<layer id="178" name="model_1/model/p_re_lu_8/add_model_1/model/p_re_lu_8/Relu_model_1/model/p_re_lu_8/Neg_1_model_1/model/p_re_lu_8/Relu_1_model_1/model/p_re_lu_8/mul_dequantize_prelu/mul" type="Multiply" version="opset1">
			<data auto_broadcast="numpy"/>
			<rt_info>
				<attribute name="fused_names" version="0" value="model_1/model/p_re_lu_8/add_model_1/model/p_re_lu_8/Relu_model_1/model/p_re_lu_8/Neg_1_model_1/model/p_re_lu_8/Relu_1_model_1/model/p_re_lu_8/mul_dequantize_prelu/mul"/>
			</rt_info>
			<input>
				<port id="0" precision="FP32">
					<dim>1</dim>
					<dim>128</dim>
					<dim>1</dim>
					<dim>1</dim>
				</port>
				<port id="1" precision="FP32">
					<dim>1</dim>
					<dim>128</dim>
					<dim>24</dim>
					<dim>24</dim>
				</port>
			</input>
			<output>
				<port id="2" precision="FP32" names="model_1/model/p_re_lu_8/add_model_1/model/p_re_lu_8/Relu_model_1/model/p_re_lu_8/Neg_1_model_1/model/p_re_lu_8/Relu_1_model_1/model/p_re_lu_8/mul_dequantize_prelu/mul:0">
					<dim>1</dim>
					<dim>128</dim>
					<dim>24</dim>
					<dim>24</dim>
				</port>
			</output>
		</layer>
		<layer id="179" name="model_1/model/p_re_lu_8/add_model_1/model/p_re_lu_8/Relu_model_1/model/p_re_lu_8/Neg_1_model_1/model/p_re_lu_8/Relu_1_model_1/model/p_re_lu_8/mul_dequantize_prelu/add" type="Add" version="opset1">
			<data auto_broadcast="numpy"/>
			<rt_info>
				<attribute name="fused_names" version="0" value="model_1/model/p_re_lu_8/add_model_1/model/p_re_lu_8/Relu_model_1/model/p_re_lu_8/Neg_1_model_1/model/p_re_lu_8/Relu_1_model_1/model/p_re_lu_8/mul_dequantize_prelu/add"/>
			</rt_info>
			<input>
				<port id="0" precision="FP32">
					<dim>1</dim>
					<dim>128</dim>
					<dim>24</dim>
					<dim>24</dim>
				</port>
				<port id="1" precision="FP32">
					<dim>1</dim>
					<dim>128</dim>
					<dim>24</dim>
					<dim>24</dim>
				</port>
			</input>
			<output>
				<port id="2" precision="FP32" names="model_1/model/p_re_lu_8/add_model_1/model/p_re_lu_8/Relu_model_1/model/p_re_lu_8/Neg_1_model_1/model/p_re_lu_8/Relu_1_model_1/model/p_re_lu_8/mul_dequantize:0,model_1/model/p_re_lu_8/add_model_1/model/p_re_lu_8/Relu_model_1/model/p_re_lu_8/Neg_1_model_1/model/p_re_lu_8/Relu_1_model_1/model/p_re_lu_8/mul_dequantize_prelu/add:0">
					<dim>1</dim>
					<dim>128</dim>
					<dim>24</dim>
					<dim>24</dim>
				</port>
			</output>
		</layer>
		<layer id="180" name="depthwise_8/filter_in_compressed" type="Const" version="opset1">
			<data element_type="f16" shape="128, 1, 1, 5, 5" offset="77348" size="6400"/>
			<output>
				<port id="0" precision="FP16">
					<dim>128</dim>
					<dim>1</dim>
					<dim>1</dim>
					<dim>5</dim>
					<dim>5</dim>
				</port>
			</output>
		</layer>
		<layer id="181" name="depthwise_8/filter_in" type="Convert" version="opset1">
			<data destination_type="f32"/>
			<rt_info>
				<attribute name="decompression" version="0"/>
				<attribute name="fused_names" version="0" value="depthwise_8/filter_in"/>
			</rt_info>
			<input>
				<port id="0" precision="FP16">
					<dim>128</dim>
					<dim>1</dim>
					<dim>1</dim>
					<dim>5</dim>
					<dim>5</dim>
				</port>
			</input>
			<output>
				<port id="1" precision="FP32" names="depthwise_8/filter_in:0">
					<dim>128</dim>
					<dim>1</dim>
					<dim>1</dim>
					<dim>5</dim>
					<dim>5</dim>
				</port>
			</output>
		</layer>
		<layer id="182" name="depthwise_8" type="GroupConvolution" version="opset1">
			<data strides="1, 1" pads_begin="0, 0" pads_end="0, 0" dilations="1, 1" auto_pad="same_upper"/>
			<rt_info>
				<attribute name="fused_names" version="0" value="depthwise_8, model_1/model/depthwise_conv2d_8/depthwise1"/>
			</rt_info>
			<input>
				<port id="0" precision="FP32">
					<dim>1</dim>
					<dim>128</dim>
					<dim>24</dim>
					<dim>24</dim>
				</port>
				<port id="1" precision="FP32">
					<dim>128</dim>
					<dim>1</dim>
					<dim>1</dim>
					<dim>5</dim>
					<dim>5</dim>
				</port>
			</input>
			<output>
				<port id="2" precision="FP32" names="depthwise_8:0,model_1/model/depthwise_conv2d_8/depthwise1:0">
					<dim>1</dim>
					<dim>128</dim>
					<dim>24</dim>
					<dim>24</dim>
				</port>
			</output>
		</layer>
		<layer id="183" name="Conv2D_9/filter_compressed" type="Const" version="opset1">
			<data element_type="f16" shape="128, 128, 1, 1" offset="83748" size="32768"/>
			<output>
				<port id="0" precision="FP16">
					<dim>128</dim>
					<dim>128</dim>
					<dim>1</dim>
					<dim>1</dim>
				</port>
			</output>
		</layer>
		<layer id="184" name="Conv2D_9/filter" type="Convert" version="opset1">
			<data destination_type="f32"/>
			<rt_info>
				<attribute name="decompression" version="0"/>
				<attribute name="fused_names" version="0" value="Conv2D_9/filter"/>
			</rt_info>
			<input>
				<port id="0" precision="FP16">
					<dim>128</dim>
					<dim>128</dim>
					<dim>1</dim>
					<dim>1</dim>
				</port>
			</input>
			<output>
				<port id="1" precision="FP32" names="Conv2D_9/filter:0">
					<dim>128</dim>
					<dim>128</dim>
					<dim>1</dim>
					<dim>1</dim>
				</port>
			</output>
		</layer>
		<layer id="185" name="Conv2D_9" type="Convolution" version="opset1">
			<data strides="1, 1" dilations="1, 1" pads_begin="0, 0" pads_end="0, 0" auto_pad="valid"/>
			<rt_info>
				<attribute name="fused_names" version="0" value="Conv2D_9"/>
			</rt_info>
			<input>
				<port id="0" precision="FP32">
					<dim>1</dim>
					<dim>128</dim>
					<dim>24</dim>
					<dim>24</dim>
				</port>
				<port id="1" precision="FP32">
					<dim>128</dim>
					<dim>128</dim>
					<dim>1</dim>
					<dim>1</dim>
				</port>
			</input>
			<output>
				<port id="2" precision="FP32" names="Conv2D_9:0">
					<dim>1</dim>
					<dim>128</dim>
					<dim>24</dim>
					<dim>24</dim>
				</port>
			</output>
		</layer>
		<layer id="186" name="model_1/model/batch_normalization_9/FusedBatchNormV3_model_1/model/conv2d_25/Conv2D_model_1/model/conv2d_9/Conv2D1/y_compressed" type="Const" version="opset1">
			<data element_type="f16" shape="1, 128, 1, 1" offset="116516" size="256"/>
			<output>
				<port id="0" precision="FP16">
					<dim>1</dim>
					<dim>128</dim>
					<dim>1</dim>
					<dim>1</dim>
				</port>
			</output>
		</layer>
		<layer id="187" name="model_1/model/batch_normalization_9/FusedBatchNormV3_model_1/model/conv2d_25/Conv2D_model_1/model/conv2d_9/Conv2D1/y" type="Convert" version="opset1">
			<data destination_type="f32"/>
			<rt_info>
				<attribute name="decompression" version="0"/>
				<attribute name="fused_names" version="0" value="model_1/model/batch_normalization_9/FusedBatchNormV3_model_1/model/conv2d_25/Conv2D_model_1/model/conv2d_9/Conv2D1/y"/>
			</rt_info>
			<input>
				<port id="0" precision="FP16">
					<dim>1</dim>
					<dim>128</dim>
					<dim>1</dim>
					<dim>1</dim>
				</port>
			</input>
			<output>
				<port id="1" precision="FP32" names="model_1/model/batch_normalization_9/FusedBatchNormV3_model_1/model/conv2d_25/Conv2D_model_1/model/conv2d_9/Conv2D1/y:0">
					<dim>1</dim>
					<dim>128</dim>
					<dim>1</dim>
					<dim>1</dim>
				</port>
			</output>
		</layer>
		<layer id="188" name="model_1/model/batch_normalization_9/FusedBatchNormV3_model_1/model/conv2d_25/Conv2D_model_1/model/conv2d_9/Conv2D1" type="Add" version="opset1">
			<data auto_broadcast="numpy"/>
			<rt_info>
				<attribute name="fused_names" version="0" value="model_1/model/batch_normalization_9/FusedBatchNormV3_model_1/model/conv2d_25/Conv2D_model_1/model/conv2d_9/Conv2D1"/>
			</rt_info>
			<input>
				<port id="0" precision="FP32">
					<dim>1</dim>
					<dim>128</dim>
					<dim>24</dim>
					<dim>24</dim>
				</port>
				<port id="1" precision="FP32">
					<dim>1</dim>
					<dim>128</dim>
					<dim>1</dim>
					<dim>1</dim>
				</port>
			</input>
			<output>
				<port id="2" precision="FP32" names="model_1/model/batch_normalization_9/FusedBatchNormV3_model_1/model/conv2d_25/Conv2D_model_1/model/conv2d_9/Conv2D1:0">
					<dim>1</dim>
					<dim>128</dim>
					<dim>24</dim>
					<dim>24</dim>
				</port>
			</output>
		</layer>
		<layer id="189" name="model_1/model/add_8/add" type="Add" version="opset1">
			<data auto_broadcast="numpy"/>
			<rt_info>
				<attribute name="fused_names" version="0" value="model_1/model/add_8/add"/>
			</rt_info>
			<input>
				<port id="0" precision="FP32">
					<dim>1</dim>
					<dim>128</dim>
					<dim>24</dim>
					<dim>24</dim>
				</port>
				<port id="1" precision="FP32">
					<dim>1</dim>
					<dim>128</dim>
					<dim>24</dim>
					<dim>24</dim>
				</port>
			</input>
			<output>
				<port id="2" precision="FP32" names="model_1/model/add_8/add:0">
					<dim>1</dim>
					<dim>128</dim>
					<dim>24</dim>
					<dim>24</dim>
				</port>
			</output>
		</layer>
		<layer id="190" name="model_1/model/p_re_lu_9/add_model_1/model/p_re_lu_9/Relu_model_1/model/p_re_lu_9/Neg_1_model_1/model/p_re_lu_9/Relu_1_model_1/model/p_re_lu_9/mul_dequantize_prelu/Relu" type="ReLU" version="opset1">
			<rt_info>
				<attribute name="fused_names" version="0" value="model_1/model/p_re_lu_9/add_model_1/model/p_re_lu_9/Relu_model_1/model/p_re_lu_9/Neg_1_model_1/model/p_re_lu_9/Relu_1_model_1/model/p_re_lu_9/mul_dequantize_prelu/Relu"/>
			</rt_info>
			<input>
				<port id="0" precision="FP32">
					<dim>1</dim>
					<dim>128</dim>
					<dim>24</dim>
					<dim>24</dim>
				</port>
			</input>
			<output>
				<port id="1" precision="FP32" names="model_1/model/p_re_lu_9/add_model_1/model/p_re_lu_9/Relu_model_1/model/p_re_lu_9/Neg_1_model_1/model/p_re_lu_9/Relu_1_model_1/model/p_re_lu_9/mul_dequantize_prelu/Relu:0">
					<dim>1</dim>
					<dim>128</dim>
					<dim>24</dim>
					<dim>24</dim>
				</port>
			</output>
		</layer>
		<layer id="191" name="model_1/model/p_re_lu_9/add_model_1/model/p_re_lu_9/Relu_model_1/model/p_re_lu_9/Neg_1_model_1/model/p_re_lu_9/Relu_1_model_1/model/p_re_lu_9/mul_dequantize_prelu/Neg/mul__compressed" type="Const" version="opset1">
			<data element_type="f16" shape="1, 128, 1, 1" offset="116772" size="256"/>
			<output>
				<port id="0" precision="FP16">
					<dim>1</dim>
					<dim>128</dim>
					<dim>1</dim>
					<dim>1</dim>
				</port>
			</output>
		</layer>
		<layer id="192" name="model_1/model/p_re_lu_9/add_model_1/model/p_re_lu_9/Relu_model_1/model/p_re_lu_9/Neg_1_model_1/model/p_re_lu_9/Relu_1_model_1/model/p_re_lu_9/mul_dequantize_prelu/Neg/mul_" type="Convert" version="opset1">
			<data destination_type="f32"/>
			<rt_info>
				<attribute name="decompression" version="0"/>
				<attribute name="fused_names" version="0" value="model_1/model/p_re_lu_9/add_model_1/model/p_re_lu_9/Relu_model_1/model/p_re_lu_9/Neg_1_model_1/model/p_re_lu_9/Relu_1_model_1/model/p_re_lu_9/mul_dequantize_prelu/Neg/mul_"/>
			</rt_info>
			<input>
				<port id="0" precision="FP16">
					<dim>1</dim>
					<dim>128</dim>
					<dim>1</dim>
					<dim>1</dim>
				</port>
			</input>
			<output>
				<port id="1" precision="FP32" names="model_1/model/p_re_lu_9/add_model_1/model/p_re_lu_9/Relu_model_1/model/p_re_lu_9/Neg_1_model_1/model/p_re_lu_9/Relu_1_model_1/model/p_re_lu_9/mul_dequantize_prelu/Neg:0">
					<dim>1</dim>
					<dim>128</dim>
					<dim>1</dim>
					<dim>1</dim>
				</port>
			</output>
		</layer>
		<layer id="193" name="591_compressed" type="Const" version="opset1">
			<data element_type="f16" shape="1, 1, 1, 1" offset="4928" size="2"/>
			<output>
				<port id="0" precision="FP16">
					<dim>1</dim>
					<dim>1</dim>
					<dim>1</dim>
					<dim>1</dim>
				</port>
			</output>
		</layer>
		<layer id="194" name="591" type="Convert" version="opset1">
			<data destination_type="f32"/>
			<rt_info>
				<attribute name="decompression" version="0"/>
				<attribute name="fused_names" version="0" value="591"/>
			</rt_info>
			<input>
				<port id="0" precision="FP16">
					<dim>1</dim>
					<dim>1</dim>
					<dim>1</dim>
					<dim>1</dim>
				</port>
			</input>
			<output>
				<port id="1" precision="FP32">
					<dim>1</dim>
					<dim>1</dim>
					<dim>1</dim>
					<dim>1</dim>
				</port>
			</output>
		</layer>
		<layer id="195" name="model_1/model/p_re_lu_9/add_model_1/model/p_re_lu_9/Relu_model_1/model/p_re_lu_9/Neg_1_model_1/model/p_re_lu_9/Relu_1_model_1/model/p_re_lu_9/mul_dequantize_prelu/Neg_1/mul_" type="Multiply" version="opset1">
			<data auto_broadcast="numpy"/>
			<rt_info>
				<attribute name="fused_names" version="0" value="model_1/model/p_re_lu_9/add_model_1/model/p_re_lu_9/Relu_model_1/model/p_re_lu_9/Neg_1_model_1/model/p_re_lu_9/Relu_1_model_1/model/p_re_lu_9/mul_dequantize_prelu/Neg_1/mul_"/>
			</rt_info>
			<input>
				<port id="0" precision="FP32">
					<dim>1</dim>
					<dim>128</dim>
					<dim>24</dim>
					<dim>24</dim>
				</port>
				<port id="1" precision="FP32">
					<dim>1</dim>
					<dim>1</dim>
					<dim>1</dim>
					<dim>1</dim>
				</port>
			</input>
			<output>
				<port id="2" precision="FP32" names="model_1/model/p_re_lu_9/add_model_1/model/p_re_lu_9/Relu_model_1/model/p_re_lu_9/Neg_1_model_1/model/p_re_lu_9/Relu_1_model_1/model/p_re_lu_9/mul_dequantize_prelu/Neg_1:0">
					<dim>1</dim>
					<dim>128</dim>
					<dim>24</dim>
					<dim>24</dim>
				</port>
			</output>
		</layer>
		<layer id="196" name="model_1/model/p_re_lu_9/add_model_1/model/p_re_lu_9/Relu_model_1/model/p_re_lu_9/Neg_1_model_1/model/p_re_lu_9/Relu_1_model_1/model/p_re_lu_9/mul_dequantize_prelu/Relu_1" type="ReLU" version="opset1">
			<rt_info>
				<attribute name="fused_names" version="0" value="model_1/model/p_re_lu_9/add_model_1/model/p_re_lu_9/Relu_model_1/model/p_re_lu_9/Neg_1_model_1/model/p_re_lu_9/Relu_1_model_1/model/p_re_lu_9/mul_dequantize_prelu/Relu_1"/>
			</rt_info>
			<input>
				<port id="0" precision="FP32">
					<dim>1</dim>
					<dim>128</dim>
					<dim>24</dim>
					<dim>24</dim>
				</port>
			</input>
			<output>
				<port id="1" precision="FP32" names="model_1/model/p_re_lu_9/add_model_1/model/p_re_lu_9/Relu_model_1/model/p_re_lu_9/Neg_1_model_1/model/p_re_lu_9/Relu_1_model_1/model/p_re_lu_9/mul_dequantize_prelu/Relu_1:0">
					<dim>1</dim>
					<dim>128</dim>
					<dim>24</dim>
					<dim>24</dim>
				</port>
			</output>
		</layer>
		<layer id="197" name="model_1/model/p_re_lu_9/add_model_1/model/p_re_lu_9/Relu_model_1/model/p_re_lu_9/Neg_1_model_1/model/p_re_lu_9/Relu_1_model_1/model/p_re_lu_9/mul_dequantize_prelu/mul" type="Multiply" version="opset1">
			<data auto_broadcast="numpy"/>
			<rt_info>
				<attribute name="fused_names" version="0" value="model_1/model/p_re_lu_9/add_model_1/model/p_re_lu_9/Relu_model_1/model/p_re_lu_9/Neg_1_model_1/model/p_re_lu_9/Relu_1_model_1/model/p_re_lu_9/mul_dequantize_prelu/mul"/>
			</rt_info>
			<input>
				<port id="0" precision="FP32">
					<dim>1</dim>
					<dim>128</dim>
					<dim>1</dim>
					<dim>1</dim>
				</port>
				<port id="1" precision="FP32">
					<dim>1</dim>
					<dim>128</dim>
					<dim>24</dim>
					<dim>24</dim>
				</port>
			</input>
			<output>
				<port id="2" precision="FP32" names="model_1/model/p_re_lu_9/add_model_1/model/p_re_lu_9/Relu_model_1/model/p_re_lu_9/Neg_1_model_1/model/p_re_lu_9/Relu_1_model_1/model/p_re_lu_9/mul_dequantize_prelu/mul:0">
					<dim>1</dim>
					<dim>128</dim>
					<dim>24</dim>
					<dim>24</dim>
				</port>
			</output>
		</layer>
		<layer id="198" name="model_1/model/p_re_lu_9/add_model_1/model/p_re_lu_9/Relu_model_1/model/p_re_lu_9/Neg_1_model_1/model/p_re_lu_9/Relu_1_model_1/model/p_re_lu_9/mul_dequantize_prelu/add" type="Add" version="opset1">
			<data auto_broadcast="numpy"/>
			<rt_info>
				<attribute name="fused_names" version="0" value="model_1/model/p_re_lu_9/add_model_1/model/p_re_lu_9/Relu_model_1/model/p_re_lu_9/Neg_1_model_1/model/p_re_lu_9/Relu_1_model_1/model/p_re_lu_9/mul_dequantize_prelu/add"/>
			</rt_info>
			<input>
				<port id="0" precision="FP32">
					<dim>1</dim>
					<dim>128</dim>
					<dim>24</dim>
					<dim>24</dim>
				</port>
				<port id="1" precision="FP32">
					<dim>1</dim>
					<dim>128</dim>
					<dim>24</dim>
					<dim>24</dim>
				</port>
			</input>
			<output>
				<port id="2" precision="FP32" names="model_1/model/p_re_lu_9/add_model_1/model/p_re_lu_9/Relu_model_1/model/p_re_lu_9/Neg_1_model_1/model/p_re_lu_9/Relu_1_model_1/model/p_re_lu_9/mul_dequantize:0,model_1/model/p_re_lu_9/add_model_1/model/p_re_lu_9/Relu_model_1/model/p_re_lu_9/Neg_1_model_1/model/p_re_lu_9/Relu_1_model_1/model/p_re_lu_9/mul_dequantize_prelu/add:0">
					<dim>1</dim>
					<dim>128</dim>
					<dim>24</dim>
					<dim>24</dim>
				</port>
			</output>
		</layer>
		<layer id="199" name="depthwise_9/filter_in_compressed" type="Const" version="opset1">
			<data element_type="f16" shape="128, 1, 1, 5, 5" offset="117028" size="6400"/>
			<output>
				<port id="0" precision="FP16">
					<dim>128</dim>
					<dim>1</dim>
					<dim>1</dim>
					<dim>5</dim>
					<dim>5</dim>
				</port>
			</output>
		</layer>
		<layer id="200" name="depthwise_9/filter_in" type="Convert" version="opset1">
			<data destination_type="f32"/>
			<rt_info>
				<attribute name="decompression" version="0"/>
				<attribute name="fused_names" version="0" value="depthwise_9/filter_in"/>
			</rt_info>
			<input>
				<port id="0" precision="FP16">
					<dim>128</dim>
					<dim>1</dim>
					<dim>1</dim>
					<dim>5</dim>
					<dim>5</dim>
				</port>
			</input>
			<output>
				<port id="1" precision="FP32" names="depthwise_9/filter_in:0">
					<dim>128</dim>
					<dim>1</dim>
					<dim>1</dim>
					<dim>5</dim>
					<dim>5</dim>
				</port>
			</output>
		</layer>
		<layer id="201" name="depthwise_9" type="GroupConvolution" version="opset1">
			<data strides="1, 1" pads_begin="0, 0" pads_end="0, 0" dilations="1, 1" auto_pad="same_upper"/>
			<rt_info>
				<attribute name="fused_names" version="0" value="depthwise_9, model_1/model/depthwise_conv2d_9/depthwise1"/>
			</rt_info>
			<input>
				<port id="0" precision="FP32">
					<dim>1</dim>
					<dim>128</dim>
					<dim>24</dim>
					<dim>24</dim>
				</port>
				<port id="1" precision="FP32">
					<dim>128</dim>
					<dim>1</dim>
					<dim>1</dim>
					<dim>5</dim>
					<dim>5</dim>
				</port>
			</input>
			<output>
				<port id="2" precision="FP32" names="depthwise_9:0,model_1/model/depthwise_conv2d_9/depthwise1:0">
					<dim>1</dim>
					<dim>128</dim>
					<dim>24</dim>
					<dim>24</dim>
				</port>
			</output>
		</layer>
		<layer id="202" name="Conv2D_10/filter_compressed" type="Const" version="opset1">
			<data element_type="f16" shape="128, 128, 1, 1" offset="123428" size="32768"/>
			<output>
				<port id="0" precision="FP16">
					<dim>128</dim>
					<dim>128</dim>
					<dim>1</dim>
					<dim>1</dim>
				</port>
			</output>
		</layer>
		<layer id="203" name="Conv2D_10/filter" type="Convert" version="opset1">
			<data destination_type="f32"/>
			<rt_info>
				<attribute name="decompression" version="0"/>
				<attribute name="fused_names" version="0" value="Conv2D_10/filter"/>
			</rt_info>
			<input>
				<port id="0" precision="FP16">
					<dim>128</dim>
					<dim>128</dim>
					<dim>1</dim>
					<dim>1</dim>
				</port>
			</input>
			<output>
				<port id="1" precision="FP32" names="Conv2D_10/filter:0">
					<dim>128</dim>
					<dim>128</dim>
					<dim>1</dim>
					<dim>1</dim>
				</port>
			</output>
		</layer>
		<layer id="204" name="Conv2D_10" type="Convolution" version="opset1">
			<data strides="1, 1" dilations="1, 1" pads_begin="0, 0" pads_end="0, 0" auto_pad="valid"/>
			<rt_info>
				<attribute name="fused_names" version="0" value="Conv2D_10"/>
			</rt_info>
			<input>
				<port id="0" precision="FP32">
					<dim>1</dim>
					<dim>128</dim>
					<dim>24</dim>
					<dim>24</dim>
				</port>
				<port id="1" precision="FP32">
					<dim>128</dim>
					<dim>128</dim>
					<dim>1</dim>
					<dim>1</dim>
				</port>
			</input>
			<output>
				<port id="2" precision="FP32" names="Conv2D_10:0">
					<dim>1</dim>
					<dim>128</dim>
					<dim>24</dim>
					<dim>24</dim>
				</port>
			</output>
		</layer>
		<layer id="205" name="model_1/model/batch_normalization_10/FusedBatchNormV3_model_1/model/conv2d_25/Conv2D_model_1/model/conv2d_10/Conv2D1/y_compressed" type="Const" version="opset1">
			<data element_type="f16" shape="1, 128, 1, 1" offset="156196" size="256"/>
			<output>
				<port id="0" precision="FP16">
					<dim>1</dim>
					<dim>128</dim>
					<dim>1</dim>
					<dim>1</dim>
				</port>
			</output>
		</layer>
		<layer id="206" name="model_1/model/batch_normalization_10/FusedBatchNormV3_model_1/model/conv2d_25/Conv2D_model_1/model/conv2d_10/Conv2D1/y" type="Convert" version="opset1">
			<data destination_type="f32"/>
			<rt_info>
				<attribute name="decompression" version="0"/>
				<attribute name="fused_names" version="0" value="model_1/model/batch_normalization_10/FusedBatchNormV3_model_1/model/conv2d_25/Conv2D_model_1/model/conv2d_10/Conv2D1/y"/>
			</rt_info>
			<input>
				<port id="0" precision="FP16">
					<dim>1</dim>
					<dim>128</dim>
					<dim>1</dim>
					<dim>1</dim>
				</port>
			</input>
			<output>
				<port id="1" precision="FP32" names="model_1/model/batch_normalization_10/FusedBatchNormV3_model_1/model/conv2d_25/Conv2D_model_1/model/conv2d_10/Conv2D1/y:0">
					<dim>1</dim>
					<dim>128</dim>
					<dim>1</dim>
…
				<port id="0" precision="FP16">
					<dim>1</dim>
					<dim>6</dim>
					<dim>1</dim>
					<dim>1</dim>
				</port>
			</input>
			<output>
				<port id="1" precision="FP32" names="model_1/model/classifier_palm_16_NO_PRUNING/BiasAdd_model_1/model/classifier_palm_16_NO_PRUNING/Conv2D_model_1/model/classifier_palm_16_NO_PRUNING/BiasAdd/ReadVariableOp/resource1/y:0">
					<dim>1</dim>
					<dim>6</dim>
					<dim>1</dim>
					<dim>1</dim>
				</port>
			</output>
		</layer>
		<layer id="569" name="model_1/model/classifier_palm_16_NO_PRUNING/BiasAdd_model_1/model/classifier_palm_16_NO_PRUNING/Conv2D_model_1/model/classifier_palm_16_NO_PRUNING/BiasAdd/ReadVariableOp/resource1" type="Add" version="opset1">
			<data auto_broadcast="numpy"/>
			<rt_info>
				<attribute name="fused_names" version="0" value="model_1/model/classifier_palm_16_NO_PRUNING/BiasAdd_model_1/model/classifier_palm_16_NO_PRUNING/Conv2D_model_1/model/classifier_palm_16_NO_PRUNING/BiasAdd/ReadVariableOp/resource1"/>
			</rt_info>
			<input>
				<port id="0" precision="FP32">
					<dim>1</dim>
					<dim>6</dim>
					<dim>12</dim>
					<dim>12</dim>
				</port>
				<port id="1" precision="FP32">
					<dim>1</dim>
					<dim>6</dim>
					<dim>1</dim>
					<dim>1</dim>
				</port>
			</input>
			<output>
				<port id="2" precision="FP32">
					<dim>1</dim>
					<dim>6</dim>
					<dim>12</dim>
					<dim>12</dim>
				</port>
			</output>
		</layer>
		<layer id="570" name="model_1/model/classifier_palm_16_NO_PRUNING/BiasAdd_model_1/model/classifier_palm_16_NO_PRUNING/Conv2D_model_1/model/classifier_palm_16_NO_PRUNING/BiasAdd/ReadVariableOp/resource1/Transpose/value891014599" type="Const" version="opset1">
			<data element_type="i64" shape="4" offset="1860340" size="32"/>
			<rt_info>
				<attribute name="fused_names" version="0" value="model_1/model/classifier_palm_16_NO_PRUNING/BiasAdd_model_1/model/classifier_palm_16_NO_PRUNING/Conv2D_model_1/model/classifier_palm_16_NO_PRUNING/BiasAdd/ReadVariableOp/resource1/Transpose/value891014599"/>
			</rt_info>
			<output>
				<port id="0" precision="I64">
					<dim>4</dim>
				</port>
			</output>
		</layer>
		<layer id="571" name="model_1/model/classifier_palm_16_NO_PRUNING/BiasAdd_model_1/model/classifier_palm_16_NO_PRUNING/Conv2D_model_1/model/classifier_palm_16_NO_PRUNING/BiasAdd/ReadVariableOp/resource1/Transpose" type="Transpose" version="opset1">
			<rt_info>
				<attribute name="fused_names" version="0" value="model_1/model/classifier_palm_16_NO_PRUNING/BiasAdd_model_1/model/classifier_palm_16_NO_PRUNING/Conv2D_model_1/model/classifier_palm_16_NO_PRUNING/BiasAdd/ReadVariableOp/resource1/Transpose"/>
			</rt_info>
			<input>
				<port id="0" precision="FP32">
					<dim>1</dim>
					<dim>6</dim>
					<dim>12</dim>
					<dim>12</dim>
				</port>
				<port id="1" precision="I64">
					<dim>4</dim>
				</port>
			</input>
			<output>
				<port id="2" precision="FP32" names="model_1/model/classifier_palm_16_NO_PRUNING/BiasAdd_model_1/model/classifier_palm_16_NO_PRUNING/Conv2D_model_1/model/classifier_palm_16_NO_PRUNING/BiasAdd/ReadVariableOp/resource1:0">
					<dim>1</dim>
					<dim>12</dim>
					<dim>12</dim>
					<dim>6</dim>
				</port>
			</output>
		</layer>
		<layer id="572" name="model_1/model/reshaped_classifier_palm_16/Reshape/shape" type="Const" version="opset1">
			<data element_type="i64" shape="3" offset="1916424" size="24"/>
			<rt_info>
				<attribute name="fused_names" version="0" value="model_1/model/reshaped_classifier_palm_16/Reshape/shape"/>
			</rt_info>
			<output>
				<port id="0" precision="I64" names="model_1/model/reshaped_classifier_palm_16/Reshape/shape:0">
					<dim>3</dim>
				</port>
			</output>
		</layer>
		<layer id="573" name="model_1/model/reshaped_classifier_palm_16/Reshape" type="Reshape" version="opset1">
			<data special_zero="false"/>
			<rt_info>
				<attribute name="fused_names" version="0" value="model_1/model/reshaped_classifier_palm_16/Reshape"/>
			</rt_info>
			<input>
				<port id="0" precision="FP32">
					<dim>1</dim>
					<dim>12</dim>
					<dim>12</dim>
					<dim>6</dim>
				</port>
				<port id="1" precision="I64">
					<dim>3</dim>
				</port>
			</input>
			<output>
				<port id="2" precision="FP32" names="model_1/model/reshaped_classifier_palm_16/Reshape:0">
					<dim>1</dim>
					<dim>864</dim>
					<dim>1</dim>
				</port>
			</output>
		</layer>
		<layer id="574" name="Identity_1" type="Concat" version="opset1">
			<data axis="1"/>
			<rt_info>
				<attribute name="fused_names" version="0" value="Identity_1"/>
			</rt_info>
			<input>
				<port id="0" precision="FP32">
					<dim>1</dim>
					<dim>1152</dim>
					<dim>1</dim>
				</port>
				<port id="1" precision="FP32">
					<dim>1</dim>
					<dim>864</dim>
					<dim>1</dim>
				</port>
			</input>
			<output>
				<port id="2" precision="FP32" names="Identity_1:0">
					<dim>1</dim>
					<dim>2016</dim>
					<dim>1</dim>
				</port>
			</output>
		</layer>
		<layer id="575" name="Identity_1:0" type="Result" version="opset1">
			<rt_info>
				<attribute name="fused_names" version="0" value="Identity_1:0"/>
			</rt_info>
			<input>
				<port id="0" precision="FP32">
					<dim>1</dim>
					<dim>2016</dim>
					<dim>1</dim>
				</port>
			</input>
		</layer>
		<layer id="553" name="Identity:0" type="Result" version="opset1">
			<rt_info>
				<attribute name="fused_names" version="0" value="Identity:0"/>
			</rt_info>
			<input>
				<port id="0" precision="FP32">
					<dim>1</dim>
					<dim>2016</dim>
					<dim>18</dim>
				</port>
			</input>
		</layer>
	</layers>
	<edges>
		<edge from-layer="0" from-port="0" to-layer="3" to-port="0"/>
		<edge from-layer="1" from-port="0" to-layer="2" to-port="0"/>
		<edge from-layer="2" from-port="1" to-layer="3" to-port="1"/>
		<edge from-layer="3" from-port="2" to-layer="6" to-port="0"/>
		<edge from-layer="4" from-port="0" to-layer="5" to-port="0"/>
		<edge from-layer="5" from-port="1" to-layer="6" to-port="1"/>
		<edge from-layer="6" from-port="2" to-layer="7" to-port="0"/>
		<edge from-layer="6" from-port="2" to-layer="12" to-port="0"/>
		<edge from-layer="7" from-port="1" to-layer="15" to-port="0"/>
		<edge from-layer="8" from-port="0" to-layer="9" to-port="0"/>
		<edge from-layer="9" from-port="1" to-layer="14" to-port="0"/>
		<edge from-layer="10" from-port="0" to-layer="11" to-port="0"/>
		<edge from-layer="11" from-port="1" to-layer="12" to-port="1"/>
		<edge from-layer="12" from-port="2" to-layer="13" to-port="0"/>
		<edge from-layer="13" from-port="1" to-layer="14" to-port="1"/>
		<edge from-layer="14" from-port="2" to-layer="15" to-port="1"/>
		<edge from-layer="15" from-port="2" to-layer="18" to-port="0"/>
		<edge from-layer="15" from-port="2" to-layer="25" to-port="0"/>
		<edge from-layer="16" from-port="0" to-layer="17" to-port="0"/>
		<edge from-layer="17" from-port="1" to-layer="18" to-port="1"/>
		<edge from-layer="18" from-port="2" to-layer="21" to-port="0"/>
		<edge from-layer="19" from-port="0" to-layer="20" to-port="0"/>
		<edge from-layer="20" from-port="1" to-layer="21" to-port="1"/>
		<edge from-layer="21" from-port="2" to-layer="24" to-port="0"/>
		<edge from-layer="22" from-port="0" to-layer="23" to-port="0"/>
		<edge from-layer="23" from-port="1" to-layer="24" to-port="1"/>
		<edge from-layer="24" from-port="2" to-layer="25" to-port="1"/>
		<edge from-layer="25" from-port="2" to-layer="26" to-port="0"/>
		<edge from-layer="25" from-port="2" to-layer="31" to-port="0"/>
		<edge from-layer="26" from-port="1" to-layer="34" to-port="0"/>
		<edge from-layer="27" from-port="0" to-layer="28" to-port="0"/>
		<edge from-layer="28" from-port="1" to-layer="33" to-port="0"/>
		<edge from-layer="29" from-port="0" to-layer="30" to-port="0"/>
		<edge from-layer="30" from-port="1" to-layer="31" to-port="1"/>
		<edge from-layer="31" from-port="2" to-layer="32" to-port="0"/>
		<edge from-layer="32" from-port="1" to-layer="33" to-port="1"/>
		<edge from-layer="33" from-port="2" to-layer="34" to-port="1"/>
		<edge from-layer="34" from-port="2" to-layer="37" to-port="0"/>
		<edge from-layer="34" from-port="2" to-layer="44" to-port="0"/>
		<edge from-layer="35" from-port="0" to-layer="36" to-port="0"/>
		<edge from-layer="36" from-port="1" to-layer="37" to-port="1"/>
		<edge from-layer="37" from-port="2" to-layer="40" to-port="0"/>
		<edge from-layer="38" from-port="0" to-layer="39" to-port="0"/>
		<edge from-layer="39" from-port="1" to-layer="40" to-port="1"/>
		<edge from-layer="40" from-port="2" to-layer="43" to-port="0"/>
		<edge from-layer="41" from-port="0" to-layer="42" to-port="0"/>
		<edge from-layer="42" from-port="1" to-layer="43" to-port="1"/>
		<edge from-layer="43" from-port="2" to-layer="44" to-port="1"/>
		<edge from-layer="44" from-port="2" to-layer="45" to-port="0"/>
		<edge from-layer="44" from-port="2" to-layer="50" to-port="0"/>
		<edge from-layer="45" from-port="1" to-layer="53" to-port="0"/>
		<edge from-layer="46" from-port="0" to-layer="47" to-port="0"/>
		<edge from-layer="47" from-port="1" to-layer="52" to-port="0"/>
		<edge from-layer="48" from-port="0" to-layer="49" to-port="0"/>
		<edge from-layer="49" from-port="1" to-layer="50" to-port="1"/>
		<edge from-layer="50" from-port="2" to-layer="51" to-port="0"/>
		<edge from-layer="51" from-port="1" to-layer="52" to-port="1"/>
		<edge from-layer="52" from-port="2" to-layer="53" to-port="1"/>
		<edge from-layer="53" from-port="2" to-layer="56" to-port="0"/>
		<edge from-layer="53" from-port="2" to-layer="63" to-port="0"/>
		<edge from-layer="54" from-port="0" to-layer="55" to-port="0"/>
		<edge from-layer="55" from-port="1" to-layer="56" to-port="1"/>
		<edge from-layer="56" from-port="2" to-layer="59" to-port="0"/>
		<edge from-layer="57" from-port="0" to-layer="58" to-port="0"/>
		<edge from-layer="58" from-port="1" to-layer="59" to-port="1"/>
		<edge from-layer="59" from-port="2" to-layer="62" to-port="0"/>
		<edge from-layer="60" from-port="0" to-layer="61" to-port="0"/>
		<edge from-layer="61" from-port="1" to-layer="62" to-port="1"/>
		<edge from-layer="62" from-port="2" to-layer="63" to-port="1"/>
		<edge from-layer="63" from-port="2" to-layer="64" to-port="0"/>
		<edge from-layer="63" from-port="2" to-layer="69" to-port="0"/>
		<edge from-layer="64" from-port="1" to-layer="72" to-port="0"/>
		<edge from-layer="65" from-port="0" to-layer="66" to-port="0"/>
		<edge from-layer="66" from-port="1" to-layer="71" to-port="0"/>
		<edge from-layer="67" from-port="0" to-layer="68" to-port="0"/>
		<edge from-layer="68" from-port="1" to-layer="69" to-port="1"/>
		<edge from-layer="69" from-port="2" to-layer="70" to-port="0"/>
		<edge from-layer="70" from-port="1" to-layer="71" to-port="1"/>
		<edge from-layer="71" from-port="2" to-layer="72" to-port="1"/>
		<edge from-layer="72" from-port="2" to-layer="73" to-port="0"/>
		<edge from-layer="72" from-port="2" to-layer="81" to-port="0"/>
		<edge from-layer="73" from-port="1" to-layer="78" to-port="0"/>
		<edge from-layer="74" from-port="0" to-layer="78" to-port="1"/>
		<edge from-layer="75" from-port="0" to-layer="78" to-port="2"/>
		<edge from-layer="76" from-port="0" to-layer="77" to-port="0"/>
		<edge from-layer="77" from-port="1" to-layer="78" to-port="3"/>
		<edge from-layer="78" from-port="4" to-layer="88" to-port="0"/>
		<edge from-layer="79" from-port="0" to-layer="80" to-port="0"/>
		<edge from-layer="80" from-port="1" to-layer="81" to-port="1"/>
		<edge from-layer="81" from-port="2" to-layer="84" to-port="0"/>
		<edge from-layer="82" from-port="0" to-layer="83" to-port="0"/>
		<edge from-layer="83" from-port="1" to-layer="84" to-port="1"/>
		<edge from-layer="84" from-port="2" to-layer="87" to-port="0"/>
		<edge from-layer="85" from-port="0" to-layer="86" to-port="0"/>
		<edge from-layer="86" from-port="1" to-layer="87" to-port="1"/>
		<edge from-layer="87" from-port="2" to-layer="88" to-port="1"/>
		<edge from-layer="88" from-port="2" to-layer="89" to-port="0"/>
		<edge from-layer="88" from-port="2" to-layer="94" to-port="0"/>
		<edge from-layer="89" from-port="1" to-layer="97" to-port="0"/>
		<edge from-layer="90" from-port="0" to-layer="91" to-port="0"/>
		<edge from-layer="91" from-port="1" to-layer="96" to-port="0"/>
		<edge from-layer="92" from-port="0" to-layer="93" to-port="0"/>
		<edge from-layer="93" from-port="1" to-layer="94" to-port="1"/>
		<edge from-layer="94" from-port="2" to-layer="95" to-port="0"/>
		<edge from-layer="95" from-port="1" to-layer="96" to-port="1"/>
		<edge from-layer="96" from-port="2" to-layer="97" to-port="1"/>
		<edge from-layer="97" from-port="2" to-layer="100" to-port="0"/>
		<edge from-layer="97" from-port="2" to-layer="107" to-port="0"/>
		<edge from-layer="98" from-port="0" to-layer="99" to-port="0"/>
		<edge from-layer="99" from-port="1" to-layer="100" to-port="1"/>
		<edge from-layer="100" from-port="2" to-layer="103" to-port="0"/>
		<edge from-layer="101" from-port="0" to-layer="102" to-port="0"/>
		<edge from-layer="102" from-port="1" to-layer="103" to-port="1"/>
		<edge from-layer="103" from-port="2" to-layer="106" to-port="0"/>
		<edge from-layer="104" from-port="0" to-layer="105" to-port="0"/>
		<edge from-layer="105" from-port="1" to-layer="106" to-port="1"/>
		<edge from-layer="106" from-port="2" to-layer="107" to-port="1"/>
		<edge from-layer="107" from-port="2" to-layer="108" to-port="0"/>
		<edge from-layer="107" from-port="2" to-layer="113" to-port="0"/>
		<edge from-layer="108" from-port="1" to-layer="116" to-port="0"/>
		<edge from-layer="109" from-port="0" to-layer="110" to-port="0"/>
		<edge from-layer="110" from-port="1" to-layer="115" to-port="0"/>
		<edge from-layer="111" from-port="0" to-layer="112" to-port="0"/>
		<edge from-layer="112" from-port="1" to-layer="113" to-port="1"/>
		<edge from-layer="113" from-port="2" to-layer="114" to-port="0"/>
		<edge from-layer="114" from-port="1" to-layer="115" to-port="1"/>
		<edge from-layer="115" from-port="2" to-layer="116" to-port="1"/>
		<edge from-layer="116" from-port="2" to-layer="119" to-port="0"/>
		<edge from-layer="116" from-port="2" to-layer="126" to-port="0"/>
		<edge from-layer="117" from-port="0" to-layer="118" to-port="0"/>
		<edge from-layer="118" from-port="1" to-layer="119" to-port="1"/>
		<edge from-layer="119" from-port="2" to-layer="122" to-port="0"/>
		<edge from-layer="120" from-port="0" to-layer="121" to-port="0"/>
		<edge from-layer="121" from-port="1" to-layer="122" to-port="1"/>
		<edge from-layer="122" from-port="2" to-layer="125" to-port="0"/>
		<edge from-layer="123" from-port="0" to-layer="124" to-port="0"/>
		<edge from-layer="124" from-port="1" to-layer="125" to-port="1"/>
		<edge from-layer="125" from-port="2" to-layer="126" to-port="1"/>
		<edge from-layer="126" from-port="2" to-layer="132" to-port="0"/>
		<edge from-layer="126" from-port="2" to-layer="127" to-port="0"/>
		<edge from-layer="127" from-port="1" to-layer="135" to-port="0"/>
		<edge from-layer="128" from-port="0" to-layer="129" to-port="0"/>
		<edge from-layer="129" from-port="1" to-layer="134" to-port="0"/>
		<edge from-layer="130" from-port="0" to-layer="131" to-port="0"/>
		<edge from-layer="131" from-port="1" to-layer="132" to-port="1"/>
		<edge from-layer="132" from-port="2" to-layer="133" to-port="0"/>
		<edge from-layer="133" from-port="1" to-layer="134" to-port="1"/>
		<edge from-layer="134" from-port="2" to-layer="135" to-port="1"/>
		<edge from-layer="135" from-port="2" to-layer="138" to-port="0"/>
		<edge from-layer="135" from-port="2" to-layer="145" to-port="0"/>
		<edge from-layer="136" from-port="0" to-layer="137" to-port="0"/>
		<edge from-layer="137" from-port="1" to-layer="138" to-port="1"/>
		<edge from-layer="138" from-port="2" to-layer="141" to-port="0"/>
		<edge from-layer="139" from-port="0" to-layer="140" to-port="0"/>
		<edge from-layer="140" from-port="1" to-layer="141" to-port="1"/>
		<edge from-layer="141" from-port="2" to-layer="144" to-port="0"/>
		<edge from-layer="142" from-port="0" to-layer="143" to-port="0"/>
		<edge from-layer="143" from-port="1" to-layer="144" to-port="1"/>
		<edge from-layer="144" from-port="2" to-layer="145" to-port="1"/>
		<edge from-layer="145" from-port="2" to-layer="146" to-port="0"/>
		<edge from-layer="145" from-port="2" to-layer="151" to-port="0"/>
		<edge from-layer="146" from-port="1" to-layer="154" to-port="0"/>
		<edge from-layer="147" from-port="0" to-layer="148" to-port="0"/>
		<edge from-layer="148" from-port="1" to-layer="153" to-port="0"/>
		<edge from-layer="149" from-port="0" to-layer="150" to-port="0"/>
		<edge from-layer="150" from-port="1" to-layer="151" to-port="1"/>
		<edge from-layer="151" from-port="2" to-layer="152" to-port="0"/>
		<edge from-layer="152" from-port="1" to-layer="153" to-port="1"/>
		<edge from-layer="153" from-port="2" to-layer="154" to-port="1"/>
		<edge from-layer="154" from-port="2" to-layer="155" to-port="0"/>
		<edge from-layer="154" from-port="2" to-layer="163" to-port="0"/>
		<edge from-layer="155" from-port="1" to-layer="160" to-port="0"/>
		<edge from-layer="156" from-port="0" to-layer="160" to-port="1"/>
		<edge from-layer="157" from-port="0" to-layer="160" to-port="2"/>
		<edge from-layer="158" from-port="0" to-layer="159" to-port="0"/>
		<edge from-layer="159" from-port="1" to-layer="160" to-port="3"/>
		<edge from-layer="160" from-port="4" to-layer="170" to-port="0"/>
		<edge from-layer="161" from-port="0" to-layer="162" to-port="0"/>
		<edge from-layer="162" from-port="1" to-layer="163" to-port="1"/>
		<edge from-layer="163" from-port="2" to-layer="166" to-port="0"/>
		<edge from-layer="164" from-port="0" to-layer="165" to-port="0"/>
		<edge from-layer="165" from-port="1" to-layer="166" to-port="1"/>
		<edge from-layer="166" from-port="2" to-layer="169" to-port="0"/>
		<edge from-layer="167" from-port="0" to-layer="168" to-port="0"/>
		<edge from-layer="168" from-port="1" to-layer="169" to-port="1"/>
		<edge from-layer="169" from-port="2" to-layer="170" to-port="1"/>
		<edge from-layer="170" from-port="2" to-layer="176" to-port="0"/>
		<edge from-layer="170" from-port="2" to-layer="171" to-port="0"/>
		<edge from-layer="171" from-port="1" to-layer="179" to-port="0"/>
		<edge from-layer="172" from-port="0" to-layer="173" to-port="0"/>
		<edge from-layer="173" from-port="1" to-layer="178" to-port="0"/>
		<edge from-layer="174" from-port="0" to-layer="175" to-port="0"/>
		<edge from-layer="175" from-port="1" to-layer="176" to-port="1"/>
		<edge from-layer="176" from-port="2" to-layer="177" to-port="0"/>
		<edge from-layer="177" from-port="1" to-layer="178" to-port="1"/>
		<edge from-layer="178" from-port="2" to-layer="179" to-port="1"/>
		<edge from-layer="179" from-port="2" to-layer="182" to-port="0"/>
		<edge from-layer="179" from-port="2" to-layer="189" to-port="0"/>
		<edge from-layer="180" from-port="0" to-layer="181" to-port="0"/>
		<edge from-layer="181" from-port="1" to-layer="182" to-port="1"/>
		<edge from-layer="182" from-port="2" to-layer="185" to-port="0"/>
		<edge from-layer="183" from-port="0" to-layer="184" to-port="0"/>
		<edge from-layer="184" from-port="1" to-layer="185" to-port="1"/>
		<edge from-layer="185" from-port="2" to-layer="188" to-port="0"/>
		<edge from-layer="186" from-port="0" to-layer="187" to-port="0"/>
		<edge from-layer="187" from-port="1" to-layer="188" to-port="1"/>
		<edge from-layer="188" from-port="2" to-layer="189" to-port="1"/>
		<edge from-layer="189" from-port="2" to-layer="190" to-port="0"/>
		<edge from-layer="189" from-port="2" to-layer="195" to-port="0"/>
		<edge from-layer="190" from-port="1" to-layer="198" to-port="0"/>
		<edge from-layer="191" from-port="0" to-layer="192" to-port="0"/>
		<edge from-layer="192" from-port="1" to-layer="197" to-port="0"/>
		<edge from-layer="193" from-port="0" to-layer="194" to-port="0"/>
		<edge from-layer="194" from-port="1" to-layer="195" to-port="1"/>
		<edge from-layer="195" from-port="2" to-layer="196" to-port="0"/>
		<edge from-layer="196" from-port="1" to-layer="197" to-port="1"/>
		<edge from-layer="197" from-port="2" to-layer="198" to-port="1"/>
		<edge from-layer="198" from-port="2" to-layer="201" to-port="0"/>
		<edge from-layer="198" from-port="2" to-layer="208" to-port="0"/>
		<edge from-layer="199" from-port="0" to-layer="200" to-port="0"/>
		<edge from-layer="200" from-port="1" to-layer="201" to-port="1"/>
		<edge from-layer="201" from-port="2" to-layer="204" to-port="0"/>
		<edge from-layer="202" from-port="0" to-layer="203" to-port="0"/>
		<edge from-layer="203" from-port="1" to-layer="204" to-port="1"/>
		<edge from-layer="204" from-port="2" to-layer="207" to-port="0"/>
		<edge from-layer="205" from-port="0" to-layer="206" to-port="0"/>
		<edge from-layer="206" from-port="1" to-layer="207" to-port="1"/>
		<edge from-layer="207" from-port="2" to-layer="208" to-port="1"/>
		<edge from-layer="208" from-port="2" to-layer="209" to-port="0"/>
		<edge from-layer="208" from-port="2" to-layer="214" to-port="0"/>
		<edge from-layer="209" from-port="1" to-layer="217" to-port="0"/>
		<edge from-layer="210" from-port="0" to-layer="211" to-port="0"/>
		<edge from-layer="211" from-port="1" to-layer="216" to-port="0"/>
		<edge from-layer="212" from-port="0" to-layer="213" to-port="0"/>
		<edge from-layer="213" from-port="1" to-layer="214" to-port="1"/>
		<edge from-layer="214" from-port="2" to-layer="215" to-port="0"/>
		<edge from-layer="215" from-port="1" to-layer="216" to-port="1"/>
		<edge from-layer="216" from-port="2" to-layer="217" to-port="1"/>
		<edge from-layer="217" from-port="2" to-layer="227" to-port="0"/>
		<edge from-layer="217" from-port="2" to-layer="220" to-port="0"/>
		<edge from-layer="218" from-port="0" to-layer="219" to-port="0"/>
		<edge from-layer="219" from-port="1" to-layer="220" to-port="1"/>
		<edge from-layer="220" from-port="2" to-layer="223" to-port="0"/>
		<edge from-layer="221" from-port="0" to-layer="222" to-port="0"/>
		<edge from-layer="222" from-port="1" to-layer="223" to-port="1"/>
		<edge from-layer="223" from-port="2" to-layer="226" to-port="0"/>
		<edge from-layer="224" from-port="0" to-layer="225" to-port="0"/>
		<edge from-layer="225" from-port="1" to-layer="226" to-port="1"/>
		<edge from-layer="226" from-port="2" to-layer="227" to-port="1"/>
		<edge from-layer="227" from-port="2" to-layer="228" to-port="0"/>
		<edge from-layer="227" from-port="2" to-layer="233" to-port="0"/>
		<edge from-layer="228" from-port="1" to-layer="236" to-port="0"/>
		<edge from-layer="229" from-port="0" to-layer="230" to-port="0"/>
		<edge from-layer="230" from-port="1" to-layer="235" to-port="0"/>
		<edge from-layer="231" from-port="0" to-layer="232" to-port="0"/>
		<edge from-layer="232" from-port="1" to-layer="233" to-port="1"/>
		<edge from-layer="233" from-port="2" to-layer="234" to-port="0"/>
		<edge from-layer="234" from-port="1" to-layer="235" to-port="1"/>
		<edge from-layer="235" from-port="2" to-layer="236" to-port="1"/>
		<edge from-layer="236" from-port="2" to-layer="493" to-port="0"/>
		<edge from-layer="236" from-port="2" to-layer="245" to-port="0"/>
		<edge from-layer="236" from-port="2" to-layer="237" to-port="0"/>
		<edge from-layer="237" from-port="1" to-layer="242" to-port="0"/>
		<edge from-layer="238" from-port="0" to-layer="242" to-port="1"/>
		<edge from-layer="239" from-port="0" to-layer="242" to-port="2"/>
		<edge from-layer="240" from-port="0" to-layer="241" to-port="0"/>
		<edge from-layer="241" from-port="1" to-layer="242" to-port="3"/>
		<edge from-layer="242" from-port="4" to-layer="252" to-port="0"/>
		<edge from-layer="243" from-port="0" to-layer="244" to-port="0"/>
		<edge from-layer="244" from-port="1" to-layer="245" to-port="1"/>
		<edge from-layer="245" from-port="2" to-layer="248" to-port="0"/>
		<edge from-layer="246" from-port="0" to-layer="247" to-port="0"/>
		<edge from-layer="247" from-port="1" to-layer="248" to-port="1"/>
		<edge from-layer="248" from-port="2" to-layer="251" to-port="0"/>
		<edge from-layer="249" from-port="0" to-layer="250" to-port="0"/>
		<edge from-layer="250" from-port="1" to-layer="251" to-port="1"/>
		<edge from-layer="251" from-port="2" to-layer="252" to-port="1"/>
		<edge from-layer="252" from-port="2" to-layer="253" to-port="0"/>
		<edge from-layer="252" from-port="2" to-layer="258" to-port="0"/>
		<edge from-layer="253" from-port="1" to-layer="261" to-port="0"/>
		<edge from-layer="254" from-port="0" to-layer="255" to-port="0"/>
		<edge from-layer="255" from-port="1" to-layer="260" to-port="0"/>
		<edge from-layer="256" from-port="0" to-layer="257" to-port="0"/>
		<edge from-layer="257" from-port="1" to-layer="258" to-port="1"/>
		<edge from-layer="258" from-port="2" to-layer="259" to-port="0"/>
		<edge from-layer="259" from-port="1" to-layer="260" to-port="1"/>
		<edge from-layer="260" from-port="2" to-layer="261" to-port="1"/>
		<edge from-layer="261" from-port="2" to-layer="264" to-port="0"/>
		<edge from-layer="261" from-port="2" to-layer="271" to-port="0"/>
		<edge from-layer="262" from-port="0" to-layer="263" to-port="0"/>
		<edge from-layer="263" from-port="1" to-layer="264" to-port="1"/>
		<edge from-layer="264" from-port="2" to-layer="267" to-port="0"/>
		<edge from-layer="265" from-port="0" to-layer="266" to-port="0"/>
		<edge from-layer="266" from-port="1" to-layer="267" to-port="1"/>
		<edge from-layer="267" from-port="2" to-layer="270" to-port="0"/>
		<edge from-layer="268" from-port="0" to-layer="269" to-port="0"/>
		<edge from-layer="269" from-port="1" to-layer="270" to-port="1"/>
		<edge from-layer="270" from-port="2" to-layer="271" to-port="1"/>
		<edge from-layer="271" from-port="2" to-layer="272" to-port="0"/>
		<edge from-layer="271" from-port="2" to-layer="277" to-port="0"/>
		<edge from-layer="272" from-port="1" to-layer="280" to-port="0"/>
		<edge from-layer="273" from-port="0" to-layer="274" to-port="0"/>
		<edge from-layer="274" from-port="1" to-layer="279" to-port="0"/>
		<edge from-layer="275" from-port="0" to-layer="276" to-port="0"/>
		<edge from-layer="276" from-port="1" to-layer="277" to-port="1"/>
		<edge from-layer="277" from-port="2" to-layer="278" to-port="0"/>
		<edge from-layer="278" from-port="1" to-layer="279" to-port="1"/>
		<edge from-layer="279" from-port="2" to-layer="280" to-port="1"/>
		<edge from-layer="280" from-port="2" to-layer="283" to-port="0"/>
		<edge from-layer="280" from-port="2" to-layer="290" to-port="0"/>
		<edge from-layer="281" from-port="0" to-layer="282" to-port="0"/>
		<edge from-layer="282" from-port="1" to-layer="283" to-port="1"/>
		<edge from-layer="283" from-port="2" to-layer="286" to-port="0"/>
		<edge from-layer="284" from-port="0" to-layer="285" to-port="0"/>
		<edge from-layer="285" from-port="1" to-layer="286" to-port="1"/>
		<edge from-layer="286" from-port="2" to-layer="289" to-port="0"/>
		<edge from-layer="287" from-port="0" to-layer="288" to-port="0"/>
		<edge from-layer="288" from-port="1" to-layer="289" to-port="1"/>
		<edge from-layer="289" from-port="2" to-layer="290" to-port="1"/>
		<edge from-layer="290" from-port="2" to-layer="291" to-port="0"/>
		<edge from-layer="290" from-port="2" to-layer="296" to-port="0"/>
		<edge from-layer="291" from-port="1" to-layer="299" to-port="0"/>
		<edge from-layer="292" from-port="0" to-layer="293" to-port="0"/>
		<edge from-layer="293" from-port="1" to-layer="298" to-port="0"/>
		<edge from-layer="294" from-port="0" to-layer="295" to-port="0"/>
		<edge from-layer="295" from-port="1" to-layer="296" to-port="1"/>
		<edge from-layer="296" from-port="2" to-layer="297" to-port="0"/>
		<edge from-layer="297" from-port="1" to-layer="298" to-port="1"/>
		<edge from-layer="298" from-port="2" to-layer="299" to-port="1"/>
		<edge from-layer="299" from-port="2" to-layer="302" to-port="0"/>
		<edge from-layer="299" from-port="2" to-layer="309" to-port="0"/>
		<edge from-layer="300" from-port="0" to-layer="301" to-port="0"/>
		<edge from-layer="301" from-port="1" to-layer="302" to-port="1"/>
		<edge from-layer="302" from-port="2" to-layer="305" to-port="0"/>
		<edge from-layer="303" from-port="0" to-layer="304" to-port="0"/>
		<edge from-layer="304" from-port="1" to-layer="305" to-port="1"/>
		<edge from-layer="305" from-port="2" to-layer="308" to-port="0"/>
		<edge from-layer="306" from-port="0" to-layer="307" to-port="0"/>
		<edge from-layer="307" from-port="1" to-layer="308" to-port="1"/>
		<edge from-layer="308" from-port="2" to-layer="309" to-port="1"/>
		<edge from-layer="309" from-port="2" to-layer="315" to-port="0"/>
		<edge from-layer="309" from-port="2" to-layer="310" to-port="0"/>
		<edge from-layer="310" from-port="1" to-layer="318" to-port="0"/>
		<edge from-layer="311" from-port="0" to-layer="312" to-port="0"/>
		<edge from-layer="312" from-port="1" to-layer="317" to-port="0"/>
		<edge from-layer="313" from-port="0" to-layer="314" to-port="0"/>
		<edge from-layer="314" from-port="1" to-layer="315" to-port="1"/>
		<edge from-layer="315" from-port="2" to-layer="316" to-port="0"/>
		<edge from-layer="316" from-port="1" to-layer="317" to-port="1"/>
		<edge from-layer="317" from-port="2" to-layer="318" to-port="1"/>
		<edge from-layer="318" from-port="2" to-layer="319" to-port="0"/>
		<edge from-layer="318" from-port="2" to-layer="425" to-port="0"/>
		<edge from-layer="318" from-port="2" to-layer="322" to-port="0"/>
		<edge from-layer="319" from-port="1" to-layer="329" to-port="0"/>
		<edge from-layer="320" from-port="0" to-layer="321" to-port="0"/>
		<edge from-layer="321" from-port="1" to-layer="322" to-port="1"/>
		<edge from-layer="322" from-port="2" to-layer="325" to-port="0"/>
		<edge from-layer="323" from-port="0" to-layer="324" to-port="0"/>
		<edge from-layer="324" from-port="1" to-layer="325" to-port="1"/>
		<edge from-layer="325" from-port="2" to-layer="328" to-port="0"/>
		<edge from-layer="326" from-port="0" to-layer="327" to-port="0"/>
		<edge from-layer="327" from-port="1" to-layer="328" to-port="1"/>
		<edge from-layer="328" from-port="2" to-layer="329" to-port="1"/>
		<edge from-layer="329" from-port="2" to-layer="330" to-port="0"/>
		<edge from-layer="329" from-port="2" to-layer="335" to-port="0"/>
		<edge from-layer="330" from-port="1" to-layer="338" to-port="0"/>
		<edge from-layer="331" from-port="0" to-layer="332" to-port="0"/>
		<edge from-layer="332" from-port="1" to-layer="337" to-port="0"/>
		<edge from-layer="333" from-port="0" to-layer="334" to-port="0"/>
		<edge from-layer="334" from-port="1" to-layer="335" to-port="1"/>
		<edge from-layer="335" from-port="2" to-layer="336" to-port="0"/>
		<edge from-layer="336" from-port="1" to-layer="337" to-port="1"/>
		<edge from-layer="337" from-port="2" to-layer="338" to-port="1"/>
		<edge from-layer="338" from-port="2" to-layer="341" to-port="0"/>
		<edge from-layer="338" from-port="2" to-layer="348" to-port="0"/>
		<edge from-layer="339" from-port="0" to-layer="340" to-port="0"/>
		<edge from-layer="340" from-port="1" to-layer="341" to-port="1"/>
		<edge from-layer="341" from-port="2" to-layer="344" to-port="0"/>
		<edge from-layer="342" from-port="0" to-layer="343" to-port="0"/>
		<edge from-layer="343" from-port="1" to-layer="344" to-port="1"/>
		<edge from-layer="344" from-port="2" to-layer="347" to-port="0"/>
		<edge from-layer="345" from-port="0" to-layer="346" to-port="0"/>
		<edge from-layer="346" from-port="1" to-layer="347" to-port="1"/>
		<edge from-layer="347" from-port="2" to-layer="348" to-port="1"/>
		<edge from-layer="348" from-port="2" to-layer="354" to-port="0"/>
		<edge from-layer="348" from-port="2" to-layer="349" to-port="0"/>
		<edge from-layer="349" from-port="1" to-layer="357" to-port="0"/>
		<edge from-layer="350" from-port="0" to-layer="351" to-port="0"/>
		<edge from-layer="351" from-port="1" to-layer="356" to-port="0"/>
		<edge from-layer="352" from-port="0" to-layer="353" to-port="0"/>
		<edge from-layer="353" from-port="1" to-layer="354" to-port="1"/>
		<edge from-layer="354" from-port="2" to-layer="355" to-port="0"/>
		<edge from-layer="355" from-port="1" to-layer="356" to-port="1"/>
		<edge from-layer="356" from-port="2" to-layer="357" to-port="1"/>
		<edge from-layer="357" from-port="2" to-layer="360" to-port="0"/>
		<edge from-layer="357" from-port="2" to-layer="367" to-port="0"/>
		<edge from-layer="358" from-port="0" to-layer="359" to-port="0"/>
		<edge from-layer="359" from-port="1" to-layer="360" to-port="1"/>
		<edge from-layer="360" from-port="2" to-layer="363" to-port="0"/>
		<edge from-layer="361" from-port="0" to-layer="362" to-port="0"/>
		<edge from-layer="362" from-port="1" to-layer="363" to-port="1"/>
		<edge from-layer="363" from-port="2" to-layer="366" to-port="0"/>
		<edge from-layer="364" from-port="0" to-layer="365" to-port="0"/>
		<edge from-layer="365" from-port="1" to-layer="366" to-port="1"/>
		<edge from-layer="366" from-port="2" to-layer="367" to-port="1"/>
		<edge from-layer="367" from-port="2" to-layer="368" to-port="0"/>
		<edge from-layer="367" from-port="2" to-layer="373" to-port="0"/>
		<edge from-layer="368" from-port="1" to-layer="376" to-port="0"/>
		<edge from-layer="369" from-port="0" to-layer="370" to-port="0"/>
		<edge from-layer="370" from-port="1" to-layer="375" to-port="0"/>
		<edge from-layer="371" from-port="0" to-layer="372" to-port="0"/>
		<edge from-layer="372" from-port="1" to-layer="373" to-port="1"/>
		<edge from-layer="373" from-port="2" to-layer="374" to-port="0"/>
		<edge from-layer="374" from-port="1" to-layer="375" to-port="1"/>
		<edge from-layer="375" from-port="2" to-layer="376" to-port="1"/>
		<edge from-layer="376" from-port="2" to-layer="386" to-port="0"/>
		<edge from-layer="376" from-port="2" to-layer="379" to-port="0"/>
		<edge from-layer="377" from-port="0" to-layer="378" to-port="0"/>
		<edge from-layer="378" from-port="1" to-layer="379" to-port="1"/>
		<edge from-layer="379" from-port="2" to-layer="382" to-port="0"/>
		<edge from-layer="380" from-port="0" to-layer="381" to-port="0"/>
		<edge from-layer="381" from-port="1" to-layer="382" to-port="1"/>
		<edge from-layer="382" from-port="2" to-layer="385" to-port="0"/>
		<edge from-layer="383" from-port="0" to-layer="384" to-port="0"/>
		<edge from-layer="384" from-port="1" to-layer="385" to-port="1"/>
		<edge from-layer="385" from-port="2" to-layer="386" to-port="1"/>
		<edge from-layer="386" from-port="2" to-layer="387" to-port="0"/>
		<edge from-layer="386" from-port="2" to-layer="392" to-port="0"/>
		<edge from-layer="387" from-port="1" to-layer="395" to-port="0"/>
		<edge from-layer="388" from-port="0" to-layer="389" to-port="0"/>
		<edge from-layer="389" from-port="1" to-layer="394" to-port="0"/>
		<edge from-layer="390" from-port="0" to-layer="391" to-port="0"/>
		<edge from-layer="391" from-port="1" to-layer="392" to-port="1"/>
		<edge from-layer="392" from-port="2" to-layer="393" to-port="0"/>
		<edge from-layer="393" from-port="1" to-layer="394" to-port="1"/>
		<edge from-layer="394" from-port="2" to-layer="395" to-port="1"/>
		<edge from-layer="395" from-port="2" to-layer="398" to-port="0"/>
		<edge from-layer="395" from-port="2" to-layer="409" to-port="0"/>
		<edge from-layer="396" from-port="0" to-layer="409" to-port="1"/>
		<edge from-layer="397" from-port="0" to-layer="407" to-port="0"/>
		<edge from-layer="398" from-port="1" to-layer="401" to-port="0"/>
		<edge from-layer="399" from-port="0" to-layer="401" to-port="1"/>
		<edge from-layer="400" from-port="0" to-layer="401" to-port="2"/>
		<edge from-layer="401" from-port="3" to-layer="405" to-port="0"/>
		<edge from-layer="402" from-port="0" to-layer="405" to-port="1"/>
		<edge from-layer="403" from-port="0" to-layer="405" to-port="2"/>
		<edge from-layer="404" from-port="0" to-layer="405" to-port="3"/>
		<edge from-layer="405" from-port="4" to-layer="406" to-port="0"/>
		<edge from-layer="406" from-port="1" to-layer="407" to-port="1"/>
		<edge from-layer="407" from-port="2" to-layer="409" to-port="2"/>
		<edge from-layer="408" from-port="0" to-layer="409" to-port="3"/>
		<edge from-layer="409" from-port="4" to-layer="412" to-port="0"/>
		<edge from-layer="410" from-port="0" to-layer="411" to-port="0"/>
		<edge from-layer="411" from-port="1" to-layer="412" to-port="1"/>
		<edge from-layer="412" from-port="2" to-layer="415" to-port="0"/>
		<edge from-layer="413" from-port="0" to-layer="414" to-port="0"/>
		<edge from-layer="414" from-port="1" to-layer="415" to-port="1"/>
		<edge from-layer="415" from-port="2" to-layer="416" to-port="0"/>
		<edge from-layer="415" from-port="2" to-layer="421" to-port="0"/>
		<edge from-layer="416" from-port="1" to-layer="424" to-port="0"/>
		<edge from-layer="417" from-port="0" to-layer="418" to-port="0"/>
		<edge from-layer="418" from-port="1" to-layer="423" to-port="0"/>
		<edge from-layer="419" from-port="0" to-layer="420" to-port="0"/>
		<edge from-layer="420" from-port="1" to-layer="421" to-port="1"/>
		<edge from-layer="421" from-port="2" to-layer="422" to-port="0"/>
		<edge from-layer="422" from-port="1" to-layer="423" to-port="1"/>
		<edge from-layer="423" from-port="2" to-layer="424" to-port="1"/>
		<edge from-layer="424" from-port="2" to-layer="425" to-port="1"/>
		<edge from-layer="425" from-port="2" to-layer="428" to-port="0"/>
		<edge from-layer="425" from-port="2" to-layer="435" to-port="0"/>
		<edge from-layer="426" from-port="0" to-layer="427" to-port="0"/>
		<edge from-layer="427" from-port="1" to-layer="428" to-port="1"/>
		<edge from-layer="428" from-port="2" to-layer="431" to-port="0"/>
		<edge from-layer="429" from-port="0" to-layer="430" to-port="0"/>
		<edge from-layer="430" from-port="1" to-layer="431" to-port="1"/>
		<edge from-layer="431" from-port="2" to-layer="434" to-port="0"/>
		<edge from-layer="432" from-port="0" to-layer="433" to-port="0"/>
		<edge from-layer="433" from-port="1" to-layer="434" to-port="1"/>
		<edge from-layer="434" from-port="2" to-layer="435" to-port="1"/>
		<edge from-layer="435" from-port="2" to-layer="436" to-port="0"/>
		<edge from-layer="435" from-port="2" to-layer="441" to-port="0"/>
		<edge from-layer="436" from-port="1" to-layer="444" to-port="0"/>
		<edge from-layer="437" from-port="0" to-layer="438" to-port="0"/>
		<edge from-layer="438" from-port="1" to-layer="443" to-port="0"/>
		<edge from-layer="439" from-port="0" to-layer="440" to-port="0"/>
		<edge from-layer="440" from-port="1" to-layer="441" to-port="1"/>
		<edge from-layer="441" from-port="2" to-layer="442" to-port="0"/>
		<edge from-layer="442" from-port="1" to-layer="443" to-port="1"/>
		<edge from-layer="443" from-port="2" to-layer="444" to-port="1"/>
		<edge from-layer="444" from-port="2" to-layer="447" to-port="0"/>
		<edge from-layer="444" from-port="2" to-layer="454" to-port="0"/>
		<edge from-layer="445" from-port="0" to-layer="446" to-port="0"/>
		<edge from-layer="446" from-port="1" to-layer="447" to-port="1"/>
		<edge from-layer="447" from-port="2" to-layer="450" to-port="0"/>
		<edge from-layer="448" from-port="0" to-layer="449" to-port="0"/>
		<edge from-layer="449" from-port="1" to-layer="450" to-port="1"/>
		<edge from-layer="450" from-port="2" to-layer="453" to-port="0"/>
		<edge from-layer="451" from-port="0" to-layer="452" to-port="0"/>
		<edge from-layer="452" from-port="1" to-layer="453" to-port="1"/>
		<edge from-layer="453" from-port="2" to-layer="454" to-port="1"/>
		<edge from-layer="454" from-port="2" to-layer="455" to-port="0"/>
		<edge from-layer="454" from-port="2" to-layer="460" to-port="0"/>
		<edge from-layer="455" from-port="1" to-layer="463" to-port="0"/>
		<edge from-layer="456" from-port="0" to-layer="457" to-port="0"/>
		<edge from-layer="457" from-port="1" to-layer="462" to-port="0"/>
		<edge from-layer="458" from-port="0" to-layer="459" to-port="0"/>
		<edge from-layer="459" from-port="1" to-layer="460" to-port="1"/>
		<edge from-layer="460" from-port="2" to-layer="461" to-port="0"/>
		<edge from-layer="461" from-port="1" to-layer="462" to-port="1"/>
		<edge from-layer="462" from-port="2" to-layer="463" to-port="1"/>
		<edge from-layer="463" from-port="2" to-layer="566" to-port="0"/>
		<edge from-layer="463" from-port="2" to-layer="544" to-port="0"/>
		<edge from-layer="463" from-port="2" to-layer="477" to-port="0"/>
		<edge from-layer="463" from-port="2" to-layer="466" to-port="0"/>
		<edge from-layer="464" from-port="0" to-layer="477" to-port="1"/>
		<edge from-layer="465" from-port="0" to-layer="475" to-port="0"/>
		<edge from-layer="466" from-port="1" to-layer="469" to-port="0"/>
		<edge from-layer="467" from-port="0" to-layer="469" to-port="1"/>
		<edge from-layer="468" from-port="0" to-layer="469" to-port="2"/>
		<edge from-layer="469" from-port="3" to-layer="473" to-port="0"/>
		<edge from-layer="470" from-port="0" to-layer="473" to-port="1"/>
		<edge from-layer="471" from-port="0" to-layer="473" to-port="2"/>
		<edge from-layer="472" from-port="0" to-layer="473" to-port="3"/>
		<edge from-layer="473" from-port="4" to-layer="474" to-port="0"/>
		<edge from-layer="474" from-port="1" to-layer="475" to-port="1"/>
		<edge from-layer="475" from-port="2" to-layer="477" to-port="2"/>
		<edge from-layer="476" from-port="0" to-layer="477" to-port="3"/>
		<edge from-layer="477" from-port="4" to-layer="480" to-port="0"/>
		<edge from-layer="478" from-port="0" to-layer="479" to-port="0"/>
		<edge from-layer="479" from-port="1" to-layer="480" to-port="1"/>
		<edge from-layer="480" from-port="2" to-layer="483" to-port="0"/>
		<edge from-layer="481" from-port="0" to-layer="482" to-port="0"/>
		<edge from-layer="482" from-port="1" to-layer="483" to-port="1"/>
		<edge from-layer="483" from-port="2" to-layer="484" to-port="0"/>
		<edge from-layer="483" from-port="2" to-layer="489" to-port="0"/>
		<edge from-layer="484" from-port="1" to-layer="492" to-port="0"/>
		<edge from-layer="485" from-port="0" to-layer="486" to-port="0"/>
		<edge from-layer="486" from-port="1" to-layer="491" to-port="0"/>
		<edge from-layer="487" from-port="0" to-layer="488" to-port="0"/>
		<edge from-layer="488" from-port="1" to-layer="489" to-port="1"/>
		<edge from-layer="489" from-port="2" to-layer="490" to-port="0"/>
		<edge from-layer="490" from-port="1" to-layer="491" to-port="1"/>
		<edge from-layer="491" from-port="2" to-layer="492" to-port="1"/>
		<edge from-layer="492" from-port="2" to-layer="493" to-port="1"/>
		<edge from-layer="493" from-port="2" to-layer="496" to-port="0"/>
		<edge from-layer="493" from-port="2" to-layer="503" to-port="0"/>
		<edge from-layer="494" from-port="0" to-layer="495" to-port="0"/>
		<edge from-layer="495" from-port="1" to-layer="496" to-port="1"/>
		<edge from-layer="496" from-port="2" to-layer="499" to-port="0"/>
		<edge from-layer="497" from-port="0" to-layer="498" to-port="0"/>
		<edge from-layer="498" from-port="1" to-layer="499" to-port="1"/>
		<edge from-layer="499" from-port="2" to-layer="502" to-port="0"/>
		<edge from-layer="500" from-port="0" to-layer="501" to-port="0"/>
		<edge from-layer="501" from-port="1" to-layer="502" to-port="1"/>
		<edge from-layer="502" from-port="2" to-layer="503" to-port="1"/>
		<edge from-layer="503" from-port="2" to-layer="504" to-port="0"/>
		<edge from-layer="503" from-port="2" to-layer="509" to-port="0"/>
		<edge from-layer="504" from-port="1" to-layer="512" to-port="0"/>
		<edge from-layer="505" from-port="0" to-layer="506" to-port="0"/>
		<edge from-layer="506" from-port="1" to-layer="511" to-port="0"/>
		<edge from-layer="507" from-port="0" to-layer="508" to-port="0"/>
		<edge from-layer="508" from-port="1" to-layer="509" to-port="1"/>
		<edge from-layer="509" from-port="2" to-layer="510" to-port="0"/>
		<edge from-layer="510" from-port="1" to-layer="511" to-port="1"/>
		<edge from-layer="511" from-port="2" to-layer="512" to-port="1"/>
		<edge from-layer="512" from-port="2" to-layer="515" to-port="0"/>
		<edge from-layer="512" from-port="2" to-layer="522" to-port="0"/>
		<edge from-layer="513" from-port="0" to-layer="514" to-port="0"/>
		<edge from-layer="514" from-port="1" to-layer="515" to-port="1"/>
		<edge from-layer="515" from-port="2" to-layer="518" to-port="0"/>
		<edge from-layer="516" from-port="0" to-layer="517" to-port="0"/>
		<edge from-layer="517" from-port="1" to-layer="518" to-port="1"/>
		<edge from-layer="518" from-port="2" to-layer="521" to-port="0"/>
		<edge from-layer="519" from-port="0" to-layer="520" to-port="0"/>
		<edge from-layer="520" from-port="1" to-layer="521" to-port="1"/>
		<edge from-layer="521" from-port="2" to-layer="522" to-port="1"/>
		<edge from-layer="522" from-port="2" to-layer="523" to-port="0"/>
		<edge from-layer="522" from-port="2" to-layer="528" to-port="0"/>
		<edge from-layer="523" from-port="1" to-layer="531" to-port="0"/>
		<edge from-layer="524" from-port="0" to-layer="525" to-port="0"/>
		<edge from-layer="525" from-port="1" to-layer="530" to-port="0"/>
		<edge from-layer="526" from-port="0" to-layer="527" to-port="0"/>
		<edge from-layer="527" from-port="1" to-layer="528" to-port="1"/>
		<edge from-layer="528" from-port="2" to-layer="529" to-port="0"/>
		<edge from-layer="529" from-port="1" to-layer="530" to-port="1"/>
		<edge from-layer="530" from-port="2" to-layer="531" to-port="1"/>
		<edge from-layer="531" from-port="2" to-layer="534" to-port="0"/>
		<edge from-layer="531" from-port="2" to-layer="556" to-port="0"/>
		<edge from-layer="532" from-port="0" to-layer="533" to-port="0"/>
		<edge from-layer="533" from-port="1" to-layer="534" to-port="1"/>
		<edge from-layer="534" from-port="2" to-layer="537" to-port="0"/>
		<edge from-layer="535" from-port="0" to-layer="536" to-port="0"/>
		<edge from-layer="536" from-port="1" to-layer="537" to-port="1"/>
		<edge from-layer="537" from-port="2" to-layer="539" to-port="0"/>
		<edge from-layer="538" from-port="0" to-layer="539" to-port="1"/>
		<edge from-layer="539" from-port="2" to-layer="541" to-port="0"/>
		<edge from-layer="540" from-port="0" to-layer="541" to-port="1"/>
		<edge from-layer="541" from-port="2" to-layer="552" to-port="0"/>
		<edge from-layer="542" from-port="0" to-layer="543" to-port="0"/>
		<edge from-layer="543" from-port="1" to-layer="544" to-port="1"/>
		<edge from-layer="544" from-port="2" to-layer="547" to-port="0"/>
		<edge from-layer="545" from-port="0" to-layer="546" to-port="0"/>
		<edge from-layer="546" from-port="1" to-layer="547" to-port="1"/>
		<edge from-layer="547" from-port="2" to-layer="549" to-port="0"/>
		<edge from-layer="548" from-port="0" to-layer="549" to-port="1"/>
		<edge from-layer="549" from-port="2" to-layer="551" to-port="0"/>
		<edge from-layer="550" from-port="0" to-layer="551" to-port="1"/>
		<edge from-layer="551" from-port="2" to-layer="552" to-port="1"/>
		<edge from-layer="552" from-port="2" to-layer="553" to-port="0"/>
		<edge from-layer="554" from-port="0" to-layer="555" to-port="0"/>
		<edge from-layer="555" from-port="1" to-layer="556" to-port="1"/>
		<edge from-layer="556" from-port="2" to-layer="559" to-port="0"/>
		<edge from-layer="557" from-port="0" to-layer="558" to-port="0"/>
		<edge from-layer="558" from-port="1" to-layer="559" to-port="1"/>
		<edge from-layer="559" from-port="2" to-layer="561" to-port="0"/>
		<edge from-layer="560" from-port="0" to-layer="561" to-port="1"/>
		<edge from-layer="561" from-port="2" to-layer="563" to-port="0"/>
		<edge from-layer="562" from-port="0" to-layer="563" to-port="1"/>
		<edge from-layer="563" from-port="2" to-layer="574" to-port="0"/>
		<edge from-layer="564" from-port="0" to-layer="565" to-port="0"/>
		<edge from-layer="565" from-port="1" to-layer="566" to-port="1"/>
		<edge from-layer="566" from-port="2" to-layer="569" to-port="0"/>
		<edge from-layer="567" from-port="0" to-layer="568" to-port="0"/>
		<edge from-layer="568" from-port="1" to-layer="569" to-port="1"/>
		<edge from-layer="569" from-port="2" to-layer="571" to-port="0"/>
		<edge from-layer="570" from-port="0" to-layer="571" to-port="1"/>
		<edge from-layer="571" from-port="2" to-layer="573" to-port="0"/>
		<edge from-layer="572" from-port="0" to-layer="573" to-port="1"/>
		<edge from-layer="573" from-port="2" to-layer="574" to-port="1"/>
		<edge from-layer="574" from-port="2" to-layer="575" to-port="0"/>
	</edges>
	<meta_data>
		<MO_version value="2022.1.0-7080-6582ec65d78-releases/2022/1"/>
		<Runtime_version value="2022.1.0-7080-6582ec65d78-releases/2022/1"/>
		<legacy_path value="True"/>
		<cli_parameters>
			<compress_fp16 value="True"/>
			<data_type value="FP16"/>
			<disable_nhwc_to_nchw value="False"/>
			<disable_resnet_optimization value="False"/>
			<disable_weights_compression value="False"/>
			<enable_concat_optimization value="False"/>
			<extensions value="DIR"/>
			<framework value="tf"/>
			<freeze_placeholder_with_value value="{}"/>
			<input_model value="DIR/palm_detection_192x192.pb"/>
			<input_model_is_text value="False"/>
			<layout value="nhwc-&gt;nchw"/>
			<layout_values value="{'': {'source_layout': 'nhwc', 'target_layout': 'nchw'}}"/>
			<log_level value="ERROR"/>
			<mean_scale_values value="{}"/>
			<mean_values value="()"/>
			<model_name value="palm_detection_192x192"/>
			<output_dir value="DIR"/>
			<placeholder_data_types value="{}"/>
			<progress value="False"/>
			<reverse_input_channels value="True"/>
			<scale value="255.0"/>
			<scale_values value="()"/>
			<silent value="False"/>
			<source_layout value="()"/>
			<static_shape value="False"/>
			<stream_output value="False"/>
			<target_layout value="()"/>
			<transform value=""/>
			<use_legacy_frontend value="False"/>
			<use_new_frontend value="False"/>
			<unset unset_cli_parameters="batch, disable_fusing, finegrain_fusing, input, input_checkpoint, input_meta_graph, input_shape, output, packed_user_shapes, placeholder_shapes, saved_model_dir, saved_model_tags, tensorboard_logdir, tensorflow_custom_layer_libraries, tensorflow_custom_operations_config_update, tensorflow_object_detection_api_pipeline_config, tensorflow_use_custom_operations_config, transformations_config"/>
		</cli_parameters>
	</meta_data>
</net>
