<?xml version="1.0" ?>
<net name="depth_estimation_mbnv2_480x640" version="10">
	<layers>
		<layer id="0" name="input.1" type="Parameter" version="opset1">
			<data element_type="f16" shape="1, 3, 480, 640"/>
			<output>
				<port id="0" precision="FP16">
					<dim>1</dim>
					<dim>3</dim>
					<dim>480</dim>
					<dim>640</dim>
				</port>
			</output>
		</layer>
		<layer id="1" name="input.1/scale_copy" type="Const" version="opset1">
			<data element_type="f16" offset="0" shape="32, 3, 3, 3" size="1728"/>
			<output>
				<port id="0" names="709" precision="FP16">
					<dim>32</dim>
					<dim>3</dim>
					<dim>3</dim>
					<dim>3</dim>
				</port>
			</output>
		</layer>
		<layer id="2" name="Conv_0/WithoutBiases" type="Convolution" version="opset1">
			<data auto_pad="explicit" dilations="1, 1" pads_begin="1, 1" pads_end="1, 1" strides="2, 2"/>
			<input>
				<port id="0" precision="FP16">
					<dim>1</dim>
					<dim>3</dim>
					<dim>480</dim>
					<dim>640</dim>
				</port>
				<port id="1" precision="FP16">
					<dim>32</dim>
					<dim>3</dim>
					<dim>3</dim>
					<dim>3</dim>
				</port>
			</input>
			<output>
				<port id="2" precision="FP16">
					<dim>1</dim>
					<dim>32</dim>
					<dim>240</dim>
					<dim>320</dim>
				</port>
			</output>
		</layer>
		<layer id="3" name="Conv_0/Dims3995" type="Const" version="opset1">
			<data element_type="f16" offset="1728" shape="1, 32, 1, 1" size="64"/>
			<output>
				<port id="0" precision="FP16">
					<dim>1</dim>
					<dim>32</dim>
					<dim>1</dim>
					<dim>1</dim>
				</port>
			</output>
		</layer>
		<layer id="4" name="Conv_0" type="Add" version="opset1">
			<data auto_broadcast="numpy"/>
			<input>
				<port id="0" precision="FP16">
					<dim>1</dim>
					<dim>32</dim>
					<dim>240</dim>
					<dim>320</dim>
				</port>
				<port id="1" precision="FP16">
					<dim>1</dim>
					<dim>32</dim>
					<dim>1</dim>
					<dim>1</dim>
				</port>
			</input>
			<output>
				<port id="2" names="708" precision="FP16">
					<dim>1</dim>
					<dim>32</dim>
					<dim>240</dim>
					<dim>320</dim>
				</port>
			</output>
		</layer>
		<layer id="5" name="Clip_3" type="Clamp" version="opset1">
			<data max="6" min="0"/>
			<input>
				<port id="0" precision="FP16">
					<dim>1</dim>
					<dim>32</dim>
					<dim>240</dim>
					<dim>320</dim>
				</port>
			</input>
			<output>
				<port id="1" names="347" precision="FP16">
					<dim>1</dim>
					<dim>32</dim>
					<dim>240</dim>
					<dim>320</dim>
				</port>
			</output>
		</layer>
		<layer id="6" name="712" type="Const" version="opset1">
			<data element_type="f16" offset="1792" shape="32, 1, 1, 3, 3" size="576"/>
			<output>
				<port id="0" names="712" precision="FP16">
					<dim>32</dim>
					<dim>1</dim>
					<dim>1</dim>
					<dim>3</dim>
					<dim>3</dim>
				</port>
			</output>
		</layer>
		<layer id="7" name="Conv_4/WithoutBiases" type="GroupConvolution" version="opset1">
			<data auto_pad="explicit" dilations="1, 1" pads_begin="1, 1" pads_end="1, 1" strides="1, 1"/>
			<input>
				<port id="0" precision="FP16">
					<dim>1</dim>
					<dim>32</dim>
					<dim>240</dim>
					<dim>320</dim>
				</port>
				<port id="1" precision="FP16">
					<dim>32</dim>
					<dim>1</dim>
					<dim>1</dim>
					<dim>3</dim>
					<dim>3</dim>
				</port>
			</input>
			<output>
				<port id="2" precision="FP16">
					<dim>1</dim>
					<dim>32</dim>
					<dim>240</dim>
					<dim>320</dim>
				</port>
			</output>
		</layer>
		<layer id="8" name="Conv_4/Dims3977" type="Const" version="opset1">
			<data element_type="f16" offset="2368" shape="1, 32, 1, 1" size="64"/>
			<output>
				<port id="0" precision="FP16">
					<dim>1</dim>
					<dim>32</dim>
					<dim>1</dim>
					<dim>1</dim>
				</port>
			</output>
		</layer>
		<layer id="9" name="Conv_4" type="Add" version="opset1">
			<data auto_broadcast="numpy"/>
			<input>
				<port id="0" precision="FP16">
					<dim>1</dim>
					<dim>32</dim>
					<dim>240</dim>
					<dim>320</dim>
				</port>
				<port id="1" precision="FP16">
					<dim>1</dim>
					<dim>32</dim>
					<dim>1</dim>
					<dim>1</dim>
				</port>
			</input>
			<output>
				<port id="2" names="711" precision="FP16">
					<dim>1</dim>
					<dim>32</dim>
					<dim>240</dim>
					<dim>320</dim>
				</port>
			</output>
		</layer>
		<layer id="10" name="Clip_7" type="Clamp" version="opset1">
			<data max="6" min="0"/>
			<input>
				<port id="0" precision="FP16">
					<dim>1</dim>
					<dim>32</dim>
					<dim>240</dim>
					<dim>320</dim>
				</port>
			</input>
			<output>
				<port id="1" names="352" precision="FP16">
					<dim>1</dim>
					<dim>32</dim>
					<dim>240</dim>
					<dim>320</dim>
				</port>
			</output>
		</layer>
		<layer id="11" name="715" type="Const" version="opset1">
			<data element_type="f16" offset="2432" shape="16, 32, 1, 1" size="1024"/>
			<output>
				<port id="0" names="715" precision="FP16">
					<dim>16</dim>
					<dim>32</dim>
					<dim>1</dim>
					<dim>1</dim>
				</port>
			</output>
		</layer>
		<layer id="12" name="Conv_8/WithoutBiases" type="Convolution" version="opset1">
			<data auto_pad="explicit" dilations="1, 1" pads_begin="0, 0" pads_end="0, 0" strides="1, 1"/>
			<input>
				<port id="0" precision="FP16">
					<dim>1</dim>
					<dim>32</dim>
					<dim>240</dim>
					<dim>320</dim>
				</port>
				<port id="1" precision="FP16">
					<dim>16</dim>
					<dim>32</dim>
					<dim>1</dim>
					<dim>1</dim>
				</port>
			</input>
			<output>
				<port id="2" precision="FP16">
					<dim>1</dim>
					<dim>16</dim>
					<dim>240</dim>
					<dim>320</dim>
				</port>
			</output>
		</layer>
		<layer id="13" name="Conv_8/Dims3899" type="Const" version="opset1">
			<data element_type="f16" offset="3456" shape="1, 16, 1, 1" size="32"/>
			<output>
				<port id="0" precision="FP16">
					<dim>1</dim>
					<dim>16</dim>
					<dim>1</dim>
					<dim>1</dim>
				</port>
			</output>
		</layer>
		<layer id="14" name="Conv_8" type="Add" version="opset1">
			<data auto_broadcast="numpy"/>
			<input>
				<port id="0" precision="FP16">
					<dim>1</dim>
					<dim>16</dim>
					<dim>240</dim>
					<dim>320</dim>
				</port>
				<port id="1" precision="FP16">
					<dim>1</dim>
					<dim>16</dim>
					<dim>1</dim>
					<dim>1</dim>
				</port>
			</input>
			<output>
				<port id="2" names="714" precision="FP16">
					<dim>1</dim>
					<dim>16</dim>
					<dim>240</dim>
					<dim>320</dim>
				</port>
			</output>
		</layer>
		<layer id="15" name="718" type="Const" version="opset1">
			<data element_type="f16" offset="3488" shape="96, 16, 1, 1" size="3072"/>
			<output>
				<port id="0" names="718" precision="FP16">
					<dim>96</dim>
					<dim>16</dim>
					<dim>1</dim>
					<dim>1</dim>
				</port>
			</output>
		</layer>
		<layer id="16" name="Conv_9/WithoutBiases" type="Convolution" version="opset1">
			<data auto_pad="explicit" dilations="1, 1" pads_begin="0, 0" pads_end="0, 0" strides="1, 1"/>
			<input>
				<port id="0" precision="FP16">
					<dim>1</dim>
					<dim>16</dim>
					<dim>240</dim>
					<dim>320</dim>
				</port>
				<port id="1" precision="FP16">
					<dim>96</dim>
					<dim>16</dim>
					<dim>1</dim>
					<dim>1</dim>
				</port>
			</input>
			<output>
				<port id="2" precision="FP16">
					<dim>1</dim>
					<dim>96</dim>
					<dim>240</dim>
					<dim>320</dim>
				</port>
			</output>
		</layer>
		<layer id="17" name="Conv_9/Dims4205" type="Const" version="opset1">
			<data element_type="f16" offset="6560" shape="1, 96, 1, 1" size="192"/>
			<output>
				<port id="0" precision="FP16">
					<dim>1</dim>
					<dim>96</dim>
					<dim>1</dim>
					<dim>1</dim>
				</port>
			</output>
		</layer>
		<layer id="18" name="Conv_9" type="Add" version="opset1">
			<data auto_broadcast="numpy"/>
			<input>
				<port id="0" precision="FP16">
					<dim>1</dim>
					<dim>96</dim>
					<dim>240</dim>
					<dim>320</dim>
				</port>
				<port id="1" precision="FP16">
					<dim>1</dim>
					<dim>96</dim>
					<dim>1</dim>
					<dim>1</dim>
				</port>
			</input>
			<output>
				<port id="2" names="717" precision="FP16">
					<dim>1</dim>
					<dim>96</dim>
					<dim>240</dim>
					<dim>320</dim>
				</port>
			</output>
		</layer>
		<layer id="19" name="Clip_12" type="Clamp" version="opset1">
			<data max="6" min="0"/>
			<input>
				<port id="0" precision="FP16">
					<dim>1</dim>
					<dim>96</dim>
					<dim>240</dim>
					<dim>320</dim>
				</port>
			</input>
			<output>
				<port id="1" names="359" precision="FP16">
					<dim>1</dim>
					<dim>96</dim>
					<dim>240</dim>
					<dim>320</dim>
				</port>
			</output>
		</layer>
		<layer id="20" name="721" type="Const" version="opset1">
			<data element_type="f16" offset="6752" shape="96, 1, 1, 3, 3" size="1728"/>
			<output>
				<port id="0" names="721" precision="FP16">
					<dim>96</dim>
					<dim>1</dim>
					<dim>1</dim>
					<dim>3</dim>
					<dim>3</dim>
				</port>
			</output>
		</layer>
		<layer id="21" name="Conv_13/WithoutBiases" type="GroupConvolution" version="opset1">
			<data auto_pad="explicit" dilations="1, 1" pads_begin="1, 1" pads_end="1, 1" strides="2, 2"/>
			<input>
				<port id="0" precision="FP16">
					<dim>1</dim>
					<dim>96</dim>
					<dim>240</dim>
					<dim>320</dim>
				</port>
				<port id="1" precision="FP16">
					<dim>96</dim>
					<dim>1</dim>
					<dim>1</dim>
					<dim>3</dim>
					<dim>3</dim>
				</port>
			</input>
			<output>
				<port id="2" precision="FP16">
					<dim>1</dim>
					<dim>96</dim>
					<dim>120</dim>
					<dim>160</dim>
				</port>
			</output>
		</layer>
		<layer id="22" name="Conv_13/Dims4103" type="Const" version="opset1">
			<data element_type="f16" offset="8480" shape="1, 96, 1, 1" size="192"/>
			<output>
				<port id="0" precision="FP16">
					<dim>1</dim>
					<dim>96</dim>
					<dim>1</dim>
					<dim>1</dim>
				</port>
			</output>
		</layer>
		<layer id="23" name="Conv_13" type="Add" version="opset1">
			<data auto_broadcast="numpy"/>
			<input>
				<port id="0" precision="FP16">
					<dim>1</dim>
					<dim>96</dim>
					<dim>120</dim>
					<dim>160</dim>
				</port>
				<port id="1" precision="FP16">
					<dim>1</dim>
					<dim>96</dim>
					<dim>1</dim>
					<dim>1</dim>
				</port>
			</input>
			<output>
				<port id="2" names="720" precision="FP16">
					<dim>1</dim>
					<dim>96</dim>
					<dim>120</dim>
					<dim>160</dim>
				</port>
			</output>
		</layer>
		<layer id="24" name="Clip_16" type="Clamp" version="opset1">
			<data max="6" min="0"/>
			<input>
				<port id="0" precision="FP16">
					<dim>1</dim>
					<dim>96</dim>
					<dim>120</dim>
					<dim>160</dim>
				</port>
			</input>
			<output>
				<port id="1" names="364" precision="FP16">
					<dim>1</dim>
					<dim>96</dim>
					<dim>120</dim>
					<dim>160</dim>
				</port>
			</output>
		</layer>
		<layer id="25" name="724" type="Const" version="opset1">
			<data element_type="f16" offset="8672" shape="24, 96, 1, 1" size="4608"/>
			<output>
				<port id="0" names="724" precision="FP16">
					<dim>24</dim>
					<dim>96</dim>
					<dim>1</dim>
					<dim>1</dim>
				</port>
			</output>
		</layer>
		<layer id="26" name="Conv_17/WithoutBiases" type="Convolution" version="opset1">
			<data auto_pad="explicit" dilations="1, 1" pads_begin="0, 0" pads_end="0, 0" strides="1, 1"/>
			<input>
				<port id="0" precision="FP16">
					<dim>1</dim>
					<dim>96</dim>
					<dim>120</dim>
					<dim>160</dim>
				</port>
				<port id="1" precision="FP16">
					<dim>24</dim>
					<dim>96</dim>
					<dim>1</dim>
					<dim>1</dim>
				</port>
			</input>
			<output>
				<port id="2" precision="FP16">
					<dim>1</dim>
					<dim>24</dim>
					<dim>120</dim>
					<dim>160</dim>
				</port>
			</output>
		</layer>
		<layer id="27" name="Conv_17/Dims4091" type="Const" version="opset1">
			<data element_type="f16" offset="13280" shape="1, 24, 1, 1" size="48"/>
			<output>
				<port id="0" precision="FP16">
					<dim>1</dim>
					<dim>24</dim>
					<dim>1</dim>
					<dim>1</dim>
				</port>
			</output>
		</layer>
		<layer id="28" name="Conv_17" type="Add" version="opset1">
			<data auto_broadcast="numpy"/>
			<input>
				<port id="0" precision="FP16">
					<dim>1</dim>
					<dim>24</dim>
					<dim>120</dim>
					<dim>160</dim>
				</port>
				<port id="1" precision="FP16">
					<dim>1</dim>
					<dim>24</dim>
					<dim>1</dim>
					<dim>1</dim>
				</port>
			</input>
			<output>
				<port id="2" names="723" precision="FP16">
					<dim>1</dim>
					<dim>24</dim>
					<dim>120</dim>
					<dim>160</dim>
				</port>
			</output>
		</layer>
		<layer id="29" name="727" type="Const" version="opset1">
			<data element_type="f16" offset="13328" shape="144, 24, 1, 1" size="6912"/>
			<output>
				<port id="0" names="727" precision="FP16">
					<dim>144</dim>
					<dim>24</dim>
					<dim>1</dim>
					<dim>1</dim>
				</port>
			</output>
		</layer>
		<layer id="30" name="Conv_18/WithoutBiases" type="Convolution" version="opset1">
			<data auto_pad="explicit" dilations="1, 1" pads_begin="0, 0" pads_end="0, 0" strides="1, 1"/>
			<input>
				<port id="0" precision="FP16">
					<dim>1</dim>
					<dim>24</dim>
					<dim>120</dim>
					<dim>160</dim>
				</port>
				<port id="1" precision="FP16">
					<dim>144</dim>
					<dim>24</dim>
					<dim>1</dim>
					<dim>1</dim>
				</port>
			</input>
			<output>
				<port id="2" precision="FP16">
					<dim>1</dim>
					<dim>144</dim>
					<dim>120</dim>
					<dim>160</dim>
				</port>
			</output>
		</layer>
		<layer id="31" name="Conv_18/Dims4169" type="Const" version="opset1">
			<data element_type="f16" offset="20240" shape="1, 144, 1, 1" size="288"/>
			<output>
				<port id="0" precision="FP16">
					<dim>1</dim>
					<dim>144</dim>
					<dim>1</dim>
					<dim>1</dim>
				</port>
			</output>
		</layer>
		<layer id="32" name="Conv_18" type="Add" version="opset1">
			<data auto_broadcast="numpy"/>
			<input>
				<port id="0" precision="FP16">
					<dim>1</dim>
					<dim>144</dim>
					<dim>120</dim>
					<dim>160</dim>
				</port>
				<port id="1" precision="FP16">
					<dim>1</dim>
					<dim>144</dim>
					<dim>1</dim>
					<dim>1</dim>
				</port>
			</input>
			<output>
				<port id="2" names="726" precision="FP16">
					<dim>1</dim>
					<dim>144</dim>
					<dim>120</dim>
					<dim>160</dim>
				</port>
			</output>
		</layer>
		<layer id="33" name="Clip_21" type="Clamp" version="opset1">
			<data max="6" min="0"/>
			<input>
				<port id="0" precision="FP16">
					<dim>1</dim>
					<dim>144</dim>
					<dim>120</dim>
					<dim>160</dim>
				</port>
			</input>
			<output>
				<port id="1" names="371" precision="FP16">
					<dim>1</dim>
					<dim>144</dim>
					<dim>120</dim>
					<dim>160</dim>
				</port>
			</output>
		</layer>
		<layer id="34" name="730" type="Const" version="opset1">
			<data element_type="f16" offset="20528" shape="144, 1, 1, 3, 3" size="2592"/>
			<output>
				<port id="0" names="730" precision="FP16">
					<dim>144</dim>
					<dim>1</dim>
					<dim>1</dim>
					<dim>3</dim>
					<dim>3</dim>
				</port>
			</output>
		</layer>
		<layer id="35" name="Conv_22/WithoutBiases" type="GroupConvolution" version="opset1">
			<data auto_pad="explicit" dilations="1, 1" pads_begin="1, 1" pads_end="1, 1" strides="1, 1"/>
			<input>
				<port id="0" precision="FP16">
					<dim>1</dim>
					<dim>144</dim>
					<dim>120</dim>
					<dim>160</dim>
				</port>
				<port id="1" precision="FP16">
					<dim>144</dim>
					<dim>1</dim>
					<dim>1</dim>
					<dim>3</dim>
					<dim>3</dim>
				</port>
			</input>
			<output>
				<port id="2" precision="FP16">
					<dim>1</dim>
					<dim>144</dim>
					<dim>120</dim>
					<dim>160</dim>
				</port>
			</output>
		</layer>
		<layer id="36" name="Conv_22/Dims4097" type="Const" version="opset1">
			<data element_type="f16" offset="23120" shape="1, 144, 1, 1" size="288"/>
			<output>
				<port id="0" precision="FP16">
					<dim>1</dim>
					<dim>144</dim>
					<dim>1</dim>
					<dim>1</dim>
				</port>
			</output>
		</layer>
		<layer id="37" name="Conv_22" type="Add" version="opset1">
			<data auto_broadcast="numpy"/>
			<input>
				<port id="0" precision="FP16">
					<dim>1</dim>
					<dim>144</dim>
					<dim>120</dim>
					<dim>160</dim>
				</port>
				<port id="1" precision="FP16">
					<dim>1</dim>
					<dim>144</dim>
					<dim>1</dim>
					<dim>1</dim>
				</port>
			</input>
			<output>
				<port id="2" names="729" precision="FP16">
					<dim>1</dim>
					<dim>144</dim>
					<dim>120</dim>
					<dim>160</dim>
				</port>
			</output>
		</layer>
		<layer id="38" name="Clip_25" type="Clamp" version="opset1">
			<data max="6" min="0"/>
			<input>
				<port id="0" precision="FP16">
					<dim>1</dim>
					<dim>144</dim>
					<dim>120</dim>
					<dim>160</dim>
				</port>
			</input>
			<output>
				<port id="1" names="376" precision="FP16">
					<dim>1</dim>
					<dim>144</dim>
					<dim>120</dim>
					<dim>160</dim>
				</port>
			</output>
		</layer>
		<layer id="39" name="733" type="Const" version="opset1">
			<data element_type="f16" offset="23408" shape="24, 144, 1, 1" size="6912"/>
			<output>
				<port id="0" names="733" precision="FP16">
					<dim>24</dim>
					<dim>144</dim>
					<dim>1</dim>
					<dim>1</dim>
				</port>
			</output>
		</layer>
		<layer id="40" name="Conv_26/WithoutBiases" type="Convolution" version="opset1">
			<data auto_pad="explicit" dilations="1, 1" pads_begin="0, 0" pads_end="0, 0" strides="1, 1"/>
			<input>
				<port id="0" precision="FP16">
					<dim>1</dim>
					<dim>144</dim>
					<dim>120</dim>
					<dim>160</dim>
				</port>
				<port id="1" precision="FP16">
					<dim>24</dim>
					<dim>144</dim>
					<dim>1</dim>
					<dim>1</dim>
				</port>
			</input>
			<output>
				<port id="2" precision="FP16">
					<dim>1</dim>
					<dim>24</dim>
					<dim>120</dim>
					<dim>160</dim>
				</port>
			</output>
		</layer>
		<layer id="41" name="Conv_26/Dims3929" type="Const" version="opset1">
			<data element_type="f16" offset="30320" shape="1, 24, 1, 1" size="48"/>
			<output>
				<port id="0" precision="FP16">
					<dim>1</dim>
					<dim>24</dim>
					<dim>1</dim>
					<dim>1</dim>
				</port>
			</output>
		</layer>
		<layer id="42" name="Conv_26" type="Add" version="opset1">
			<data auto_broadcast="numpy"/>
			<input>
				<port id="0" precision="FP16">
					<dim>1</dim>
					<dim>24</dim>
					<dim>120</dim>
					<dim>160</dim>
				</port>
				<port id="1" precision="FP16">
					<dim>1</dim>
					<dim>24</dim>
					<dim>1</dim>
					<dim>1</dim>
				</port>
			</input>
			<output>
				<port id="2" names="732" precision="FP16">
					<dim>1</dim>
					<dim>24</dim>
					<dim>120</dim>
					<dim>160</dim>
				</port>
			</output>
		</layer>
		<layer id="43" name="Add_27" type="Add" version="opset1">
			<data auto_broadcast="numpy"/>
			<input>
				<port id="0" precision="FP16">
					<dim>1</dim>
					<dim>24</dim>
					<dim>120</dim>
					<dim>160</dim>
				</port>
				<port id="1" precision="FP16">
					<dim>1</dim>
					<dim>24</dim>
					<dim>120</dim>
					<dim>160</dim>
				</port>
			</input>
			<output>
				<port id="2" names="379" precision="FP16">
					<dim>1</dim>
					<dim>24</dim>
					<dim>120</dim>
					<dim>160</dim>
				</port>
			</output>
		</layer>
		<layer id="44" name="736" type="Const" version="opset1">
			<data element_type="f16" offset="30368" shape="144, 24, 1, 1" size="6912"/>
			<output>
				<port id="0" names="736" precision="FP16">
					<dim>144</dim>
					<dim>24</dim>
					<dim>1</dim>
					<dim>1</dim>
				</port>
			</output>
		</layer>
		<layer id="45" name="Conv_28/WithoutBiases" type="Convolution" version="opset1">
			<data auto_pad="explicit" dilations="1, 1" pads_begin="0, 0" pads_end="0, 0" strides="1, 1"/>
			<input>
				<port id="0" precision="FP16">
					<dim>1</dim>
					<dim>24</dim>
					<dim>120</dim>
					<dim>160</dim>
				</port>
				<port id="1" precision="FP16">
					<dim>144</dim>
					<dim>24</dim>
					<dim>1</dim>
					<dim>1</dim>
				</port>
			</input>
			<output>
				<port id="2" precision="FP16">
					<dim>1</dim>
					<dim>144</dim>
					<dim>120</dim>
					<dim>160</dim>
				</port>
			</output>
		</layer>
		<layer id="46" name="Conv_28/Dims4175" type="Const" version="opset1">
			<data element_type="f16" offset="37280" shape="1, 144, 1, 1" size="288"/>
			<output>
				<port id="0" precision="FP16">
					<dim>1</dim>
					<dim>144</dim>
					<dim>1</dim>
					<dim>1</dim>
				</port>
			</output>
		</layer>
		<layer id="47" name="Conv_28" type="Add" version="opset1">
			<data auto_broadcast="numpy"/>
			<input>
				<port id="0" precision="FP16">
					<dim>1</dim>
					<dim>144</dim>
					<dim>120</dim>
					<dim>160</dim>
				</port>
				<port id="1" precision="FP16">
					<dim>1</dim>
					<dim>144</dim>
					<dim>1</dim>
					<dim>1</dim>
				</port>
			</input>
			<output>
				<port id="2" names="735" precision="FP16">
					<dim>1</dim>
					<dim>144</dim>
					<dim>120</dim>
					<dim>160</dim>
				</port>
			</output>
		</layer>
		<layer id="48" name="Clip_31" type="Clamp" version="opset1">
			<data max="6" min="0"/>
			<input>
				<port id="0" precision="FP16">
					<dim>1</dim>
					<dim>144</dim>
					<dim>120</dim>
					<dim>160</dim>
				</port>
			</input>
			<output>
				<port id="1" names="384" precision="FP16">
					<dim>1</dim>
					<dim>144</dim>
					<dim>120</dim>
					<dim>160</dim>
				</port>
			</output>
		</layer>
		<layer id="49" name="739" type="Const" version="opset1">
			<data element_type="f16" offset="37568" shape="144, 1, 1, 3, 3" size="2592"/>
			<output>
				<port id="0" names="739" precision="FP16">
					<dim>144</dim>
					<dim>1</dim>
					<dim>1</dim>
					<dim>3</dim>
					<dim>3</dim>
				</port>
			</output>
		</layer>
		<layer id="50" name="Conv_32/WithoutBiases" type="GroupConvolution" version="opset1">
			<data auto_pad="explicit" dilations="1, 1" pads_begin="1, 1" pads_end="1, 1" strides="2, 2"/>
			<input>
				<port id="0" precision="FP16">
					<dim>1</dim>
					<dim>144</dim>
					<dim>120</dim>
					<dim>160</dim>
				</port>
				<port id="1" precision="FP16">
					<dim>144</dim>
					<dim>1</dim>
					<dim>1</dim>
					<dim>3</dim>
					<dim>3</dim>
				</port>
			</input>
			<output>
				<port id="2" precision="FP16">
					<dim>1</dim>
					<dim>144</dim>
					<dim>60</dim>
					<dim>80</dim>
				</port>
			</output>
		</layer>
		<layer id="51" name="Conv_32/Dims3947" type="Const" version="opset1">
			<data element_type="f16" offset="40160" shape="1, 144, 1, 1" size="288"/>
			<output>
				<port id="0" precision="FP16">
					<dim>1</dim>
					<dim>144</dim>
					<dim>1</dim>
					<dim>1</dim>
				</port>
			</output>
		</layer>
		<layer id="52" name="Conv_32" type="Add" version="opset1">
			<data auto_broadcast="numpy"/>
			<input>
				<port id="0" precision="FP16">
					<dim>1</dim>
					<dim>144</dim>
					<dim>60</dim>
					<dim>80</dim>
				</port>
				<port id="1" precision="FP16">
					<dim>1</dim>
					<dim>144</dim>
					<dim>1</dim>
					<dim>1</dim>
				</port>
			</input>
			<output>
				<port id="2" names="738" precision="FP16">
					<dim>1</dim>
					<dim>144</dim>
					<dim>60</dim>
					<dim>80</dim>
				</port>
			</output>
		</layer>
		<layer id="53" name="Clip_35" type="Clamp" version="opset1">
			<data max="6" min="0"/>
			<input>
				<port id="0" precision="FP16">
					<dim>1</dim>
					<dim>144</dim>
					<dim>60</dim>
					<dim>80</dim>
				</port>
			</input>
			<output>
				<port id="1" names="389" precision="FP16">
					<dim>1</dim>
					<dim>144</dim>
					<dim>60</dim>
					<dim>80</dim>
				</port>
			</output>
		</layer>
		<layer id="54" name="742" type="Const" version="opset1">
			<data element_type="f16" offset="40448" shape="32, 144, 1, 1" size="9216"/>
			<output>
				<port id="0" names="742" precision="FP16">
					<dim>32</dim>
					<dim>144</dim>
					<dim>1</dim>
					<dim>1</dim>
				</port>
			</output>
		</layer>
		<layer id="55" name="Conv_36/WithoutBiases" type="Convolution" version="opset1">
			<data auto_pad="explicit" dilations="1, 1" pads_begin="0, 0" pads_end="0, 0" strides="1, 1"/>
			<input>
				<port id="0" precision="FP16">
					<dim>1</dim>
					<dim>144</dim>
					<dim>60</dim>
					<dim>80</dim>
				</port>
				<port id="1" precision="FP16">
					<dim>32</dim>
					<dim>144</dim>
					<dim>1</dim>
					<dim>1</dim>
				</port>
			</input>
			<output>
				<port id="2" precision="FP16">
					<dim>1</dim>
					<dim>32</dim>
					<dim>60</dim>
					<dim>80</dim>
				</port>
			</output>
		</layer>
		<layer id="56" name="Conv_36/Dims4121" type="Const" version="opset1">
			<data element_type="f16" offset="49664" shape="1, 32, 1, 1" size="64"/>
			<output>
				<port id="0" precision="FP16">
					<dim>1</dim>
					<dim>32</dim>
					<dim>1</dim>
					<dim>1</dim>
				</port>
			</output>
		</layer>
		<layer id="57" name="Conv_36" type="Add" version="opset1">
			<data auto_broadcast="numpy"/>
			<input>
				<port id="0" precision="FP16">
					<dim>1</dim>
					<dim>32</dim>
					<dim>60</dim>
					<dim>80</dim>
				</port>
				<port id="1" precision="FP16">
					<dim>1</dim>
					<dim>32</dim>
					<dim>1</dim>
					<dim>1</dim>
				</port>
			</input>
			<output>
				<port id="2" names="741" precision="FP16">
					<dim>1</dim>
					<dim>32</dim>
					<dim>60</dim>
					<dim>80</dim>
				</port>
			</output>
		</layer>
		<layer id="58" name="745" type="Const" version="opset1">
			<data element_type="f16" offset="49728" shape="192, 32, 1, 1" size="12288"/>
			<output>
				<port id="0" names="745" precision="FP16">
					<dim>192</dim>
					<dim>32</dim>
					<dim>1</dim>
					<dim>1</dim>
				</port>
			</output>
		</layer>
		<layer id="59" name="Conv_37/WithoutBiases" type="Convolution" version="opset1">
			<data auto_pad="explicit" dilations="1, 1" pads_begin="0, 0" pads_end="0, 0" strides="1, 1"/>
			<input>
				<port id="0" precision="FP16">
					<dim>1</dim>
					<dim>32</dim>
					<dim>60</dim>
					<dim>80</dim>
				</port>
				<port id="1" precision="FP16">
					<dim>192</dim>
					<dim>32</dim>
					<dim>1</dim>
					<dim>1</dim>
				</port>
			</input>
			<output>
				<port id="2" precision="FP16">
					<dim>1</dim>
					<dim>192</dim>
					<dim>60</dim>
					<dim>80</dim>
				</port>
			</output>
		</layer>
		<layer id="60" name="Conv_37/Dims3887" type="Const" version="opset1">
			<data element_type="f16" offset="62016" shape="1, 192, 1, 1" size="384"/>
			<output>
				<port id="0" precision="FP16">
					<dim>1</dim>
					<dim>192</dim>
					<dim>1</dim>
					<dim>1</dim>
				</port>
			</output>
		</layer>
		<layer id="61" name="Conv_37" type="Add" version="opset1">
			<data auto_broadcast="numpy"/>
			<input>
				<port id="0" precision="FP16">
					<dim>1</dim>
					<dim>192</dim>
					<dim>60</dim>
					<dim>80</dim>
				</port>
				<port id="1" precision="FP16">
					<dim>1</dim>
					<dim>192</dim>
					<dim>1</dim>
					<dim>1</dim>
				</port>
			</input>
			<output>
				<port id="2" names="744" precision="FP16">
					<dim>1</dim>
					<dim>192</dim>
					<dim>60</dim>
					<dim>80</dim>
				</port>
			</output>
		</layer>
		<layer id="62" name="Clip_40" type="Clamp" version="opset1">
			<data max="6" min="0"/>
			<input>
				<port id="0" precision="FP16">
					<dim>1</dim>
					<dim>192</dim>
					<dim>60</dim>
					<dim>80</dim>
				</port>
			</input>
			<output>
				<port id="1" names="396" precision="FP16">
					<dim>1</dim>
					<dim>192</dim>
					<dim>60</dim>
					<dim>80</dim>
				</port>
			</output>
		</layer>
		<layer id="63" name="748" type="Const" version="opset1">
			<data element_type="f16" offset="62400" shape="192, 1, 1, 3, 3" size="3456"/>
			<output>
				<port id="0" names="748" precision="FP16">
					<dim>192</dim>
					<dim>1</dim>
					<dim>1</dim>
					<dim>3</dim>
					<dim>3</dim>
				</port>
			</output>
		</layer>
		<layer id="64" name="Conv_41/WithoutBiases" type="GroupConvolution" version="opset1">
			<data auto_pad="explicit" dilations="1, 1" pads_begin="1, 1" pads_end="1, 1" strides="1, 1"/>
			<input>
				<port id="0" precision="FP16">
					<dim>1</dim>
					<dim>192</dim>
					<dim>60</dim>
					<dim>80</dim>
				</port>
				<port id="1" precision="FP16">
					<dim>192</dim>
					<dim>1</dim>
					<dim>1</dim>
					<dim>3</dim>
					<dim>3</dim>
				</port>
			</input>
			<output>
				<port id="2" precision="FP16">
					<dim>1</dim>
					<dim>192</dim>
					<dim>60</dim>
					<dim>80</dim>
				</port>
			</output>
		</layer>
		<layer id="65" name="Conv_41/Dims4025" type="Const" version="opset1">
			<data element_type="f16" offset="65856" shape="1, 192, 1, 1" size="384"/>
			<output>
				<port id="0" precision="FP16">
					<dim>1</dim>
					<dim>192</dim>
					<dim>1</dim>
					<dim>1</dim>
				</port>
			</output>
		</layer>
		<layer id="66" name="Conv_41" type="Add" version="opset1">
			<data auto_broadcast="numpy"/>
			<input>
				<port id="0" precision="FP16">
					<dim>1</dim>
					<dim>192</dim>
					<dim>60</dim>
					<dim>80</dim>
				</port>
				<port id="1" precision="FP16">
					<dim>1</dim>
					<dim>192</dim>
					<dim>1</dim>
					<dim>1</dim>
				</port>
			</input>
			<output>
				<port id="2" names="747" precision="FP16">
					<dim>1</dim>
					<dim>192</dim>
					<dim>60</dim>
					<dim>80</dim>
				</port>
			</output>
		</layer>
		<layer id="67" name="Clip_44" type="Clamp" version="opset1">
			<data max="6" min="0"/>
			<input>
				<port id="0" precision="FP16">
					<dim>1</dim>
					<dim>192</dim>
					<dim>60</dim>
					<dim>80</dim>
				</port>
			</input>
			<output>
				<port id="1" names="401" precision="FP16">
					<dim>1</dim>
					<dim>192</dim>
					<dim>60</dim>
					<dim>80</dim>
				</port>
			</output>
		</layer>
		<layer id="68" name="751" type="Const" version="opset1">
			<data element_type="f16" offset="66240" shape="32, 192, 1, 1" size="12288"/>
			<output>
				<port id="0" names="751" precision="FP16">
					<dim>32</dim>
					<dim>192</dim>
					<dim>1</dim>
					<dim>1</dim>
				</port>
			</output>
		</layer>
		<layer id="69" name="Conv_45/WithoutBiases" type="Convolution" version="opset1">
			<data auto_pad="explicit" dilations="1, 1" pads_begin="0, 0" pads_end="0, 0" strides="1, 1"/>
			<input>
				<port id="0" precision="FP16">
					<dim>1</dim>
					<dim>192</dim>
					<dim>60</dim>
					<dim>80</dim>
				</port>
				<port id="1" precision="FP16">
					<dim>32</dim>
					<dim>192</dim>
					<dim>1</dim>
					<dim>1</dim>
				</port>
			</input>
			<output>
				<port id="2" precision="FP16">
					<dim>1</dim>
					<dim>32</dim>
					<dim>60</dim>
					<dim>80</dim>
				</port>
			</output>
		</layer>
		<layer id="70" name="Conv_45/Dims3851" type="Const" version="opset1">
			<data element_type="f16" offset="78528" shape="1, 32, 1, 1" size="64"/>
			<output>
				<port id="0" precision="FP16">
					<dim>1</dim>
					<dim>32</dim>
					<dim>1</dim>
					<dim>1</dim>
				</port>
			</output>
		</layer>
		<layer id="71" name="Conv_45" type="Add" version="opset1">
			<data auto_broadcast="numpy"/>
			<input>
				<port id="0" precision="FP16">
					<dim>1</dim>
					<dim>32</dim>
					<dim>60</dim>
					<dim>80</dim>
				</port>
				<port id="1" precision="FP16">
					<dim>1</dim>
					<dim>32</dim>
					<dim>1</dim>
					<dim>1</dim>
				</port>
			</input>
			<output>
				<port id="2" names="750" precision="FP16">
					<dim>1</dim>
					<dim>32</dim>
					<dim>60</dim>
					<dim>80</dim>
				</port>
			</output>
		</layer>
		<layer id="72" name="Add_46" type="Add" version="opset1">
			<data auto_broadcast="numpy"/>
			<input>
				<port id="0" precision="FP16">
					<dim>1</dim>
					<dim>32</dim>
					<dim>60</dim>
					<dim>80</dim>
				</port>
				<port id="1" precision="FP16">
					<dim>1</dim>
					<dim>32</dim>
					<dim>60</dim>
					<dim>80</dim>
				</port>
			</input>
			<output>
				<port id="2" names="404" precision="FP16">
					<dim>1</dim>
					<dim>32</dim>
					<dim>60</dim>
					<dim>80</dim>
				</port>
			</output>
		</layer>
		<layer id="73" name="754" type="Const" version="opset1">
			<data element_type="f16" offset="78592" shape="192, 32, 1, 1" size="12288"/>
			<output>
				<port id="0" names="754" precision="FP16">
					<dim>192</dim>
					<dim>32</dim>
					<dim>1</dim>
					<dim>1</dim>
				</port>
			</output>
		</layer>
		<layer id="74" name="Conv_47/WithoutBiases" type="Convolution" version="opset1">
			<data auto_pad="explicit" dilations="1, 1" pads_begin="0, 0" pads_end="0, 0" strides="1, 1"/>
			<input>
				<port id="0" precision="FP16">
					<dim>1</dim>
					<dim>32</dim>
					<dim>60</dim>
					<dim>80</dim>
				</port>
				<port id="1" precision="FP16">
					<dim>192</dim>
					<dim>32</dim>
					<dim>1</dim>
					<dim>1</dim>
				</port>
			</input>
			<output>
				<port id="2" precision="FP16">
					<dim>1</dim>
					<dim>192</dim>
					<dim>60</dim>
					<dim>80</dim>
				</port>
			</output>
		</layer>
		<layer id="75" name="Conv_47/Dims3953" type="Const" version="opset1">
			<data element_type="f16" offset="90880" shape="1, 192, 1, 1" size="384"/>
			<output>
				<port id="0" precision="FP16">
					<dim>1</dim>
					<dim>192</dim>
					<dim>1</dim>
					<dim>1</dim>
				</port>
			</output>
		</layer>
		<layer id="76" name="Conv_47" type="Add" version="opset1">
			<data auto_broadcast="numpy"/>
			<input>
				<port id="0" precision="FP16">
					<dim>1</dim>
					<dim>192</dim>
					<dim>60</dim>
					<dim>80</dim>
				</port>
				<port id="1" precision="FP16">
					<dim>1</dim>
					<dim>192</dim>
					<dim>1</dim>
					<dim>1</dim>
				</port>
			</input>
			<output>
				<port id="2" names="753" precision="FP16">
					<dim>1</dim>
					<dim>192</dim>
					<dim>60</dim>
					<dim>80</dim>
				</port>
			</output>
		</layer>
		<layer id="77" name="Clip_50" type="Clamp" version="opset1">
			<data max="6" min="0"/>
			<input>
				<port id="0" precision="FP16">
					<dim>1</dim>
					<dim>192</dim>
					<dim>60</dim>
					<dim>80</dim>
				</port>
			</input>
			<output>
				<port id="1" names="409" precision="FP16">
					<dim>1</dim>
					<dim>192</dim>
					<dim>60</dim>
					<dim>80</dim>
				</port>
			</output>
		</layer>
		<layer id="78" name="757" type="Const" version="opset1">
			<data element_type="f16" offset="91264" shape="192, 1, 1, 3, 3" size="3456"/>
			<output>
				<port id="0" names="757" precision="FP16">
					<dim>192</dim>
					<dim>1</dim>
					<dim>1</dim>
					<dim>3</dim>
					<dim>3</dim>
				</port>
			</output>
		</layer>
		<layer id="79" name="Conv_51/WithoutBiases" type="GroupConvolution" version="opset1">
			<data auto_pad="explicit" dilations="1, 1" pads_begin="1, 1" pads_end="1, 1" strides="1, 1"/>
			<input>
				<port id="0" precision="FP16">
					<dim>1</dim>
					<dim>192</dim>
					<dim>60</dim>
					<dim>80</dim>
				</port>
				<port id="1" precision="FP16">
					<dim>192</dim>
					<dim>1</dim>
					<dim>1</dim>
					<dim>3</dim>
					<dim>3</dim>
				</port>
			</input>
			<output>
				<port id="2" precision="FP16">
					<dim>1</dim>
					<dim>192</dim>
					<dim>60</dim>
					<dim>80</dim>
				</port>
			</output>
		</layer>
		<layer id="80" name="Conv_51/Dims4235" type="Const" version="opset1">
			<data element_type="f16" offset="94720" shape="1, 192, 1, 1" size="384"/>
			<output>
				<port id="0" precision="FP16">
					<dim>1</dim>
					<dim>192</dim>
					<dim>1</dim>
					<dim>1</dim>
				</port>
			</output>
		</layer>
		<layer id="81" name="Conv_51" type="Add" version="opset1">
			<data auto_broadcast="numpy"/>
			<input>
				<port id="0" precision="FP16">
					<dim>1</dim>
					<dim>192</dim>
					<dim>60</dim>
					<dim>80</dim>
				</port>
				<port id="1" precision="FP16">
					<dim>1</dim>
					<dim>192</dim>
					<dim>1</dim>
					<dim>1</dim>
				</port>
			</input>
			<output>
				<port id="2" names="756" precision="FP16">
					<dim>1</dim>
					<dim>192</dim>
					<dim>60</dim>
					<dim>80</dim>
				</port>
			</output>
		</layer>
		<layer id="82" name="Clip_54" type="Clamp" version="opset1">
			<data max="6" min="0"/>
			<input>
				<port id="0" precision="FP16">
					<dim>1</dim>
					<dim>192</dim>
					<dim>60</dim>
					<dim>80</dim>
				</port>
			</input>
			<output>
				<port id="1" names="414" precision="FP16">
					<dim>1</dim>
					<dim>192</dim>
					<dim>60</dim>
					<dim>80</dim>
				</port>
			</output>
		</layer>
		<layer id="83" name="760" type="Const" version="opset1">
			<data element_type="f16" offset="95104" shape="32, 192, 1, 1" size="12288"/>
			<output>
				<port id="0" names="760" precision="FP16">
					<dim>32</dim>
					<dim>192</dim>
					<dim>1</dim>
					<dim>1</dim>
				</port>
			</output>
		</layer>
		<layer id="84" name="Conv_55/WithoutBiases" type="Convolution" version="opset1">
			<data auto_pad="explicit" dilations="1, 1" pads_begin="0, 0" pads_end="0, 0" strides="1, 1"/>
			<input>
				<port id="0" precision="FP16">
					<dim>1</dim>
					<dim>192</dim>
					<dim>60</dim>
					<dim>80</dim>
				</port>
				<port id="1" precision="FP16">
					<dim>32</dim>
					<dim>192</dim>
					<dim>1</dim>
					<dim>1</dim>
				</port>
			</input>
			<output>
				<port id="2" precision="FP16">
					<dim>1</dim>
					<dim>32</dim>
					<dim>60</dim>
					<dim>80</dim>
				</port>
			</output>
		</layer>
		<layer id="85" name="Conv_55/Dims4037" type="Const" version="opset1">
			<data element_type="f16" offset="107392" shape="1, 32, 1, 1" size="64"/>
			<output>
				<port id="0" precision="FP16">
					<dim>1</dim>
					<dim>32</dim>
					<dim>1</dim>
					<dim>1</dim>
				</port>
			</output>
		</layer>
		<layer id="86" name="Conv_55" type="Add" version="opset1">
			<data auto_broadcast="numpy"/>
			<input>
				<port id="0" precision="FP16">
					<dim>1</dim>
					<dim>32</dim>
					<dim>60</dim>
					<dim>80</dim>
				</port>
				<port id="1" precision="FP16">
					<dim>1</dim>
					<dim>32</dim>
					<dim>1</dim>
					<dim>1</dim>
				</port>
			</input>
			<output>
				<port id="2" names="759" precision="FP16">
					<dim>1</dim>
					<dim>32</dim>
					<dim>60</dim>
					<dim>80</dim>
				</port>
			</output>
		</layer>
		<layer id="87" name="Add_56" type="Add" version="opset1">
			<data auto_broadcast="numpy"/>
			<input>
				<port id="0" precision="FP16">
					<dim>1</dim>
					<dim>32</dim>
					<dim>60</dim>
					<dim>80</dim>
				</port>
				<port id="1" precision="FP16">
					<dim>1</dim>
					<dim>32</dim>
					<dim>60</dim>
					<dim>80</dim>
				</port>
			</input>
			<output>
				<port id="2" names="417" precision="FP16">
					<dim>1</dim>
					<dim>32</dim>
					<dim>60</dim>
					<dim>80</dim>
				</port>
			</output>
		</layer>
		<layer id="88" name="763" type="Const" version="opset1">
			<data element_type="f16" offset="107456" shape="192, 32, 1, 1" size="12288"/>
			<output>
				<port id="0" names="763" precision="FP16">
					<dim>192</dim>
					<dim>32</dim>
					<dim>1</dim>
					<dim>1</dim>
				</port>
			</output>
		</layer>
		<layer id="89" name="Conv_57/WithoutBiases" type="Convolution" version="opset1">
			<data auto_pad="explicit" dilations="1, 1" pads_begin="0, 0" pads_end="0, 0" strides="1, 1"/>
			<input>
				<port id="0" precision="FP16">
					<dim>1</dim>
					<dim>32</dim>
					<dim>60</dim>
					<dim>80</dim>
				</port>
				<port id="1" precision="FP16">
					<dim>192</dim>
					<dim>32</dim>
					<dim>1</dim>
					<dim>1</dim>
				</port>
			</input>
			<output>
				<port id="2" precision="FP16">
					<dim>1</dim>
					<dim>192</dim>
					<dim>60</dim>
					<dim>80</dim>
				</port>
			</output>
		</layer>
		<layer id="90" name="Conv_57/Dims4013" type="Const" version="opset1">
			<data element_type="f16" offset="119744" shape="1, 192, 1, 1" size="384"/>
			<output>
				<port id="0" precision="FP16">
					<dim>1</dim>
					<dim>192</dim>
					<dim>1</dim>
					<dim>1</dim>
				</port>
			</output>
		</layer>
		<layer id="91" name="Conv_57" type="Add" version="opset1">
			<data auto_broadcast="numpy"/>
			<input>
				<port id="0" precision="FP16">
					<dim>1</dim>
					<dim>192</dim>
					<dim>60</dim>
					<dim>80</dim>
				</port>
				<port id="1" precision="FP16">
					<dim>1</dim>
					<dim>192</dim>
					<dim>1</dim>
					<dim>1</dim>
				</port>
			</input>
			<output>
				<port id="2" names="762" precision="FP16">
					<dim>1</dim>
					<dim>192</dim>
					<dim>60</dim>
					<dim>80</dim>
				</port>
			</output>
		</layer>
		<layer id="92" name="Clip_60" type="Clamp" version="opset1">
			<data max="6" min="0"/>
			<input>
				<port id="0" precision="FP16">
					<dim>1</dim>
					<dim>192</dim>
					<dim>60</dim>
					<dim>80</dim>
				</port>
			</input>
			<output>
				<port id="1" names="422" precision="FP16">
					<dim>1</dim>
					<dim>192</dim>
					<dim>60</dim>
					<dim>80</dim>
				</port>
			</output>
		</layer>
		<layer id="93" name="766" type="Const" version="opset1">
			<data element_type="f16" offset="120128" shape="192, 1, 1, 3, 3" size="3456"/>
			<output>
				<port id="0" names="766" precision="FP16">
					<dim>192</dim>
					<dim>1</dim>
					<dim>1</dim>
					<dim>3</dim>
					<dim>3</dim>
				</port>
			</output>
		</layer>
		<layer id="94" name="Conv_61/WithoutBiases" type="GroupConvolution" version="opset1">
			<data auto_pad="explicit" dilations="1, 1" pads_begin="1, 1" pads_end="1, 1" strides="2, 2"/>
			<input>
				<port id="0" precision="FP16">
					<dim>1</dim>
					<dim>192</dim>
					<dim>60</dim>
					<dim>80</dim>
				</port>
				<port id="1" precision="FP16">
					<dim>192</dim>
					<dim>1</dim>
					<dim>1</dim>
					<dim>3</dim>
					<dim>3</dim>
				</port>
			</input>
			<output>
				<port id="2" precision="FP16">
					<dim>1</dim>
					<dim>192</dim>
					<dim>30</dim>
					<dim>40</dim>
				</port>
			</output>
		</layer>
		<layer id="95" name="Conv_61/Dims4073" type="Const" version="opset1">
			<data element_type="f16" offset="123584" shape="1, 192, 1, 1" size="384"/>
			<output>
				<port id="0" precision="FP16">
					<dim>1</dim>
					<dim>192</dim>
					<dim>1</dim>
					<dim>1</dim>
				</port>
			</output>
		</layer>
		<layer id="96" name="Conv_61" type="Add" version="opset1">
			<data auto_broadcast="numpy"/>
			<input>
				<port id="0" precision="FP16">
					<dim>1</dim>
					<dim>192</dim>
					<dim>30</dim>
					<dim>40</dim>
				</port>
				<port id="1" precision="FP16">
					<dim>1</dim>
					<dim>192</dim>
					<dim>1</dim>
					<dim>1</dim>
				</port>
			</input>
			<output>
				<port id="2" names="765" precision="FP16">
					<dim>1</dim>
					<dim>192</dim>
					<dim>30</dim>
					<dim>40</dim>
				</port>
			</output>
		</layer>
		<layer id="97" name="Clip_64" type="Clamp" version="opset1">
			<data max="6" min="0"/>
			<input>
				<port id="0" precision="FP16">
					<dim>1</dim>
					<dim>192</dim>
					<dim>30</dim>
					<dim>40</dim>
				</port>
			</input>
			<output>
				<port id="1" names="427" precision="FP16">
					<dim>1</dim>
					<dim>192</dim>
					<dim>30</dim>
					<dim>40</dim>
				</port>
			</output>
		</layer>
		<layer id="98" name="769" type="Const" version="opset1">
			<data element_type="f16" offset="123968" shape="64, 192, 1, 1" size="24576"/>
			<output>
				<port id="0" names="769" precision="FP16">
					<dim>64</dim>
					<dim>192</dim>
					<dim>1</dim>
					<dim>1</dim>
				</port>
			</output>
		</layer>
		<layer id="99" name="Conv_65/WithoutBiases" type="Convolution" version="opset1">
			<data auto_pad="explicit" dilations="1, 1" pads_begin="0, 0" pads_end="0, 0" strides="1, 1"/>
			<input>
				<port id="0" precision="FP16">
					<dim>1</dim>
					<dim>192</dim>
					<dim>30</dim>
					<dim>40</dim>
				</port>
				<port id="1" precision="FP16">
					<dim>64</dim>
					<dim>192</dim>
					<dim>1</dim>
					<dim>1</dim>
				</port>
			</input>
			<output>
				<port id="2" precision="FP16">
					<dim>1</dim>
					<dim>64</dim>
					<dim>30</dim>
					<dim>40</dim>
				</port>
			</output>
		</layer>
		<layer id="100" name="Conv_65/Dims4049" type="Const" version="opset1">
			<data element_type="f16" offset="148544" shape="1, 64, 1, 1" size="128"/>
			<output>
				<port id="0" precision="FP16">
					<dim>1</dim>
					<dim>64</dim>
					<dim>1</dim>
					<dim>1</dim>
				</port>
			</output>
		</layer>
		<layer id="101" name="Conv_65" type="Add" version="opset1">
			<data auto_broadcast="numpy"/>
			<input>
				<port id="0" precision="FP16">
					<dim>1</dim>
					<dim>64</dim>
					<dim>30</dim>
					<dim>40</dim>
				</port>
				<port id="1" precision="FP16">
					<dim>1</dim>
					<dim>64</dim>
					<dim>1</dim>
					<dim>1</dim>
				</port>
			</input>
			<output>
				<port id="2" names="768" precision="FP16">
					<dim>1</dim>
					<dim>64</dim>
					<dim>30</dim>
					<dim>40</dim>
				</port>
			</output>
		</layer>
		<layer id="102" name="772" type="Const" version="opset1">
			<data element_type="f16" offset="148672" shape="384, 64, 1, 1" size="49152"/>
			<output>
				<port id="0" names="772" precision="FP16">
					<dim>384</dim>
					<dim>64</dim>
					<dim>1</dim>
					<dim>1</dim>
				</port>
			</output>
		</layer>
		<layer id="103" name="Conv_66/WithoutBiases" type="Convolution" version="opset1">
			<data auto_pad="explicit" dilations="1, 1" pads_begin="0, 0" pads_end="0, 0" strides="1, 1"/>
			<input>
				<port id="0" precision="FP16">
					<dim>1</dim>
					<dim>64</dim>
					<dim>30</dim>
					<dim>40</dim>
				</port>
				<port id="1" precision="FP16">
					<dim>384</dim>
					<dim>64</dim>
					<dim>1</dim>
					<dim>1</dim>
				</port>
			</input>
			<output>
				<port id="2" precision="FP16">
					<dim>1</dim>
					<dim>384</dim>
					<dim>30</dim>
					<dim>40</dim>
				</port>
			</output>
		</layer>
		<layer id="104" name="Conv_66/Dims4199" type="Const" version="opset1">
			<data element_type="f16" offset="197824" shape="1, 384, 1, 1" size="768"/>
			<output>
				<port id="0" precision="FP16">
					<dim>1</dim>
					<dim>384</dim>
					<dim>1</dim>
					<dim>1</dim>
				</port>
			</output>
		</layer>
		<layer id="105" name="Conv_66" type="Add" version="opset1">
			<data auto_broadcast="numpy"/>
			<input>
				<port id="0" precision="FP16">
					<dim>1</dim>
					<dim>384</dim>
					<dim>30</dim>
					<dim>40</dim>
				</port>
				<port id="1" precision="FP16">
					<dim>1</dim>
					<dim>384</dim>
					<dim>1</dim>
					<dim>1</dim>
				</port>
			</input>
			<output>
				<port id="2" names="771" precision="FP16">
					<dim>1</dim>
					<dim>384</dim>
					<dim>30</dim>
					<dim>40</dim>
				</port>
			</output>
		</layer>
		<layer id="106" name="Clip_69" type="Clamp" version="opset1">
			<data max="6" min="0"/>
			<input>
				<port id="0" precision="FP16">
					<dim>1</dim>
					<dim>384</dim>
					<dim>30</dim>
					<dim>40</dim>
				</port>
			</input>
			<output>
				<port id="1" names="434" precision="FP16">
					<dim>1</dim>
					<dim>384</dim>
					<dim>30</dim>
					<dim>40</dim>
				</port>
			</output>
		</layer>
		<layer id="107" name="775" type="Const" version="opset1">
			<data element_type="f16" offset="198592" shape="384, 1, 1, 3, 3" size="6912"/>
			<output>
				<port id="0" names="775" precision="FP16">
					<dim>384</dim>
					<dim>1</dim>
					<dim>1</dim>
					<dim>3</dim>
					<dim>3</dim>
				</port>
			</output>
		</layer>
		<layer id="108" name="Conv_70/WithoutBiases" type="GroupConvolution" version="opset1">
			<data auto_pad="explicit" dilations="1, 1" pads_begin="1, 1" pads_end="1, 1" strides="1, 1"/>
			<input>
				<port id="0" precision="FP16">
					<dim>1</dim>
					<dim>384</dim>
					<dim>30</dim>
					<dim>40</dim>
				</port>
				<port id="1" precision="FP16">
					<dim>384</dim>
					<dim>1</dim>
					<dim>1</dim>
					<dim>3</dim>
					<dim>3</dim>
				</port>
			</input>
			<output>
				<port id="2" precision="FP16">
					<dim>1</dim>
					<dim>384</dim>
					<dim>30</dim>
					<dim>40</dim>
				</port>
			</output>
		</layer>
		<layer id="109" name="Conv_70/Dims4007" type="Const" version="opset1">
			<data element_type="f16" offset="205504" shape="1, 384, 1, 1" size="768"/>
			<output>
				<port id="0" precision="FP16">
					<dim>1</dim>
					<dim>384</dim>
					<dim>1</dim>
					<dim>1</dim>
				</port>
			</output>
		</layer>
		<layer id="110" name="Conv_70" type="Add" version="opset1">
			<data auto_broadcast="numpy"/>
			<input>
				<port id="0" precision="FP16">
					<dim>1</dim>
					<dim>384</dim>
					<dim>30</dim>
					<dim>40</dim>
				</port>
				<port id="1" precision="FP16">
					<dim>1</dim>
					<dim>384</dim>
					<dim>1</dim>
					<dim>1</dim>
				</port>
			</input>
			<output>
				<port id="2" names="774" precision="FP16">
					<dim>1</dim>
					<dim>384</dim>
					<dim>30</dim>
					<dim>40</dim>
				</port>
			</output>
		</layer>
		<layer id="111" name="Clip_73" type="Clamp" version="opset1">
			<data max="6" min="0"/>
			<input>
				<port id="0" precision="FP16">
					<dim>1</dim>
					<dim>384</dim>
					<dim>30</dim>
					<dim>40</dim>
				</port>
			</input>
			<output>
				<port id="1" names="439" precision="FP16">
					<dim>1</dim>
					<dim>384</dim>
					<dim>30</dim>
					<dim>40</dim>
				</port>
			</output>
		</layer>
		<layer id="112" name="778" type="Const" version="opset1">
			<data element_type="f16" offset="206272" shape="64, 384, 1, 1" size="49152"/>
			<output>
				<port id="0" names="778" precision="FP16">
					<dim>64</dim>
					<dim>384</dim>
					<dim>1</dim>
					<dim>1</dim>
				</port>
			</output>
		</layer>
		<layer id="113" name="Conv_74/WithoutBiases" type="Convolution" version="opset1">
			<data auto_pad="explicit" dilations="1, 1" pads_begin="0, 0" pads_end="0, 0" strides="1, 1"/>
			<input>
				<port id="0" precision="FP16">
					<dim>1</dim>
					<dim>384</dim>
					<dim>30</dim>
					<dim>40</dim>
				</port>
				<port id="1" precision="FP16">
					<dim>64</dim>
					<dim>384</dim>
					<dim>1</dim>
					<dim>1</dim>
				</port>
			</input>
			<output>
				<port id="2" precision="FP16">
					<dim>1</dim>
					<dim>64</dim>
					<dim>30</dim>
					<dim>40</dim>
				</port>
			</output>
		</layer>
		<layer id="114" name="Conv_74/Dims4109" type="Const" version="opset1">
			<data element_type="f16" offset="255424" shape="1, 64, 1, 1" size="128"/>
			<output>
				<port id="0" precision="FP16">
					<dim>1</dim>
					<dim>64</dim>
					<dim>1</dim>
					<dim>1</dim>
				</port>
			</output>
		</layer>
		<layer id="115" name="Conv_74" type="Add" version="opset1">
			<data auto_broadcast="numpy"/>
			<input>
				<port id="0" precision="FP16">
					<dim>1</dim>
					<dim>64</dim>
					<dim>30</dim>
					<dim>40</dim>
				</port>
				<port id="1" precision="FP16">
					<dim>1</dim>
					<dim>64</dim>
					<dim>1</dim>
					<dim>1</dim>
				</port>
			</input>
			<output>
				<port id="2" names="777" precision="FP16">
					<dim>1</dim>
					<dim>64</dim>
					<dim>30</dim>
					<dim>40</dim>
				</port>
			</output>
		</layer>
		<layer id="116" name="Add_75" type="Add" version="opset1">
			<data auto_broadcast="numpy"/>
			<input>
				<port id="0" precision="FP16">
					<dim>1</dim>
					<dim>64</dim>
					<dim>30</dim>
					<dim>40</dim>
				</port>
				<port id="1" precision="FP16">
					<dim>1</dim>
					<dim>64</dim>
					<dim>30</dim>
					<dim>40</dim>
				</port>
			</input>
			<output>
				<port id="2" names="442" precision="FP16">
					<dim>1</dim>
					<dim>64</dim>
					<dim>30</dim>
					<dim>40</dim>
				</port>
			</output>
		</layer>
		<layer id="117" name="781" type="Const" version="opset1">
			<data element_type="f16" offset="255552" shape="384, 64, 1, 1" size="49152"/>
			<output>
				<port id="0" names="781" precision="FP16">
					<dim>384</dim>
					<dim>64</dim>
					<dim>1</dim>
					<dim>1</dim>
				</port>
			</output>
		</layer>
		<layer id="118" name="Conv_76/WithoutBiases" type="Convolution" version="opset1">
			<data auto_pad="explicit" dilations="1, 1" pads_begin="0, 0" pads_end="0, 0" strides="1, 1"/>
			<input>
				<port id="0" precision="FP16">
					<dim>1</dim>
					<dim>64</dim>
					<dim>30</dim>
					<dim>40</dim>
				</port>
				<port id="1" precision="FP16">
					<dim>384</dim>
					<dim>64</dim>
					<dim>1</dim>
					<dim>1</dim>
				</port>
			</input>
			<output>
				<port id="2" precision="FP16">
					<dim>1</dim>
					<dim>384</dim>
					<dim>30</dim>
					<dim>40</dim>
				</port>
			</output>
		</layer>
		<layer id="119" name="Conv_76/Dims3905" type="Const" version="opset1">
			<data element_type="f16" offset="304704" shape="1, 384, 1, 1" size="768"/>
			<output>
				<port id="0" precision="FP16">
					<dim>1</dim>
					<dim>384</dim>
					<dim>1</dim>
					<dim>1</dim>
				</port>
			</output>
		</layer>
		<layer id="120" name="Conv_76" type="Add" version="opset1">
			<data auto_broadcast="numpy"/>
			<input>
				<port id="0" precision="FP16">
					<dim>1</dim>
					<dim>384</dim>
					<dim>30</dim>
					<dim>40</dim>
				</port>
				<port id="1" precision="FP16">
					<dim>1</dim>
					<dim>384</dim>
					<dim>1</dim>
					<dim>1</dim>
				</port>
			</input>
			<output>
				<port id="2" names="780" precision="FP16">
					<dim>1</dim>
					<dim>384</dim>
					<dim>30</dim>
					<dim>40</dim>
				</port>
			</output>
		</layer>
		<layer id="121" name="Clip_79" type="Clamp" version="opset1">
			<data max="6" min="0"/>
			<input>
				<port id="0" precision="FP16">
					<dim>1</dim>
					<dim>384</dim>
					<dim>30</dim>
					<dim>40</dim>
				</port>
			</input>
			<output>
				<port id="1" names="447" precision="FP16">
					<dim>1</dim>
					<dim>384</dim>
					<dim>30</dim>
					<dim>40</dim>
				</port>
			</output>
		</layer>
		<layer id="122" name="784" type="Const" version="opset1">
			<data element_type="f16" offset="305472" shape="384, 1, 1, 3, 3" size="6912"/>
			<output>
				<port id="0" names="784" precision="FP16">
					<dim>384</dim>
					<dim>1</dim>
					<dim>1</dim>
					<dim>3</dim>
					<dim>3</dim>
				</port>
			</output>
		</layer>
		<layer id="123" name="Conv_80/WithoutBiases" type="GroupConvolution" version="opset1">
			<data auto_pad="explicit" dilations="1, 1" pads_begin="1, 1" pads_end="1, 1" strides="1, 1"/>
			<input>
				<port id="0" precision="FP16">
					<dim>1</dim>
					<dim>384</dim>
					<dim>30</dim>
					<dim>40</dim>
				</port>
				<port id="1" precision="FP16">
					<dim>384</dim>
					<dim>1</dim>
					<dim>1</dim>
					<dim>3</dim>
					<dim>3</dim>
				</port>
			</input>
			<output>
				<port id="2" precision="FP16">
					<dim>1</dim>
					<dim>384</dim>
					<dim>30</dim>
					<dim>40</dim>
				</port>
			</output>
		</layer>
		<layer id="124" name="Conv_80/Dims3845" type="Const" version="opset1">
			<data element_type="f16" offset="312384" shape="1, 384, 1, 1" size="768"/>
			<output>
				<port id="0" precision="FP16">
					<dim>1</dim>
					<dim>384</dim>
					<dim>1</dim>
					<dim>1</dim>
				</port>
			</output>
		</layer>
		<layer id="125" name="Conv_80" type="Add" version="opset1">
			<data auto_broadcast="numpy"/>
			<input>
				<port id="0" precision="FP16">
					<dim>1</dim>
					<dim>384</dim>
					<dim>30</dim>
					<dim>40</dim>
				</port>
				<port id="1" precision="FP16">
					<dim>1</dim>
					<dim>384</dim>
					<dim>1</dim>
					<dim>1</dim>
				</port>
			</input>
			<output>
				<port id="2" names="783" precision="FP16">
					<dim>1</dim>
					<dim>384</dim>
					<dim>30</dim>
					<dim>40</dim>
				</port>
			</output>
		</layer>
		<layer id="126" name="Clip_83" type="Clamp" version="opset1">
			<data max="6" min="0"/>
			<input>
				<port id="0" precision="FP16">
					<dim>1</dim>
					<dim>384</dim>
					<dim>30</dim>
					<dim>40</dim>
				</port>
			</input>
			<output>
				<port id="1" names="452" precision="FP16">
					<dim>1</dim>
					<dim>384</dim>
					<dim>30</dim>
					<dim>40</dim>
				</port>
			</output>
		</layer>
		<layer id="127" name="787" type="Const" version="opset1">
			<data element_type="f16" offset="313152" shape="64, 384, 1, 1" size="49152"/>
			<output>
				<port id="0" names="787" precision="FP16">
					<dim>64</dim>
					<dim>384</dim>
					<dim>1</dim>
					<dim>1</dim>
				</port>
			</output>
		</layer>
		<layer id="128" name="Conv_84/WithoutBiases" type="Convolution" version="opset1">
			<data auto_pad="explicit" dilations="1, 1" pads_begin="0, 0" pads_end="0, 0" strides="1, 1"/>
			<input>
				<port id="0" precision="FP16">
					<dim>1</dim>
					<dim>384</dim>
					<dim>30</dim>
					<dim>40</dim>
				</port>
				<port id="1" precision="FP16">
					<dim>64</dim>
					<dim>384</dim>
					<dim>1</dim>
					<dim>1</dim>
				</port>
			</input>
			<output>
				<port id="2" precision="FP16">
					<dim>1</dim>
					<dim>64</dim>
					<dim>30</dim>
					<dim>40</dim>
				</port>
			</output>
		</layer>
		<layer id="129" name="Conv_84/Dims3965" type="Const" version="opset1">
			<data element_type="f16" offset="362304" shape="1, 64, 1, 1" size="128"/>
			<output>
				<port id="0" precision="FP16">
					<dim>1</dim>
					<dim>64</dim>
					<dim>1</dim>
					<dim>1</dim>
				</port>
			</output>
		</layer>
		<layer id="130" name="Conv_84" type="Add" version="opset1">
			<data auto_broadcast="numpy"/>
			<input>
				<port id="0" precision="FP16">
					<dim>1</dim>
					<dim>64</dim>
					<dim>30</dim>
					<dim>40</dim>
				</port>
				<port id="1" precision="FP16">
					<dim>1</dim>
					<dim>64</dim>
					<dim>1</dim>
					<dim>1</dim>
				</port>
			</input>
			<output>
				<port id="2" names="786" precision="FP16">
					<dim>1</dim>
					<dim>64</dim>
					<dim>30</dim>
					<dim>40</dim>
				</port>
			</output>
		</layer>
		<layer id="131" name="Add_85" type="Add" version="opset1">
			<data auto_broadcast="numpy"/>
			<input>
				<port id="0" precision="FP16">
					<dim>1</dim>
					<dim>64</dim>
					<dim>30</dim>
					<dim>40</dim>
				</port>
				<port id="1" precision="FP16">
					<dim>1</dim>
					<dim>64</dim>
					<dim>30</dim>
					<dim>40</dim>
				</port>
			</input>
			<output>
				<port id="2" names="455" precision="FP16">
					<dim>1</dim>
					<dim>64</dim>
					<dim>30</dim>
					<dim>40</dim>
				</port>
			</output>
		</layer>
		<layer id="132" name="790" type="Const" version="opset1">
			<data element_type="f16" offset="362432" shape="384, 64, 1, 1" size="49152"/>
			<output>
				<port id="0" names="790" precision="FP16">
					<dim>384</dim>
					<dim>64</dim>
					<dim>1</dim>
					<dim>1</dim>
				</port>
			</output>
		</layer>
		<layer id="133" name="Conv_86/WithoutBiases" type="Convolution" version="opset1">
			<data auto_pad="explicit" dilations="1, 1" pads_begin="0, 0" pads_end="0, 0" strides="1, 1"/>
			<input>
				<port id="0" precision="FP16">
					<dim>1</dim>
					<dim>64</dim>
					<dim>30</dim>
					<dim>40</dim>
				</port>
				<port id="1" precision="FP16">
					<dim>384</dim>
					<dim>64</dim>
					<dim>1</dim>
					<dim>1</dim>
				</port>
			</input>
			<output>
				<port id="2" precision="FP16">
					<dim>1</dim>
					<dim>384</dim>
					<dim>30</dim>
					<dim>40</dim>
				</port>
			</output>
		</layer>
		<layer id="134" name="Conv_86/Dims4157" type="Const" version="opset1">
			<data element_type="f16" offset="411584" shape="1, 384, 1, 1" size="768"/>
			<output>
				<port id="0" precision="FP16">
					<dim>1</dim>
					<dim>384</dim>
					<dim>1</dim>
					<dim>1</dim>
				</port>
			</output>
		</layer>
		<layer id="135" name="Conv_86" type="Add" version="opset1">
			<data auto_broadcast="numpy"/>
			<input>
				<port id="0" precision="FP16">
					<dim>1</dim>
					<dim>384</dim>
					<dim>30</dim>
					<dim>40</dim>
				</port>
				<port id="1" precision="FP16">
					<dim>1</dim>
					<dim>384</dim>
					<dim>1</dim>
					<dim>1</dim>
				</port>
			</input>
			<output>
				<port id="2" names="789" precision="FP16">
					<dim>1</dim>
					<dim>384</dim>
					<dim>30</dim>
					<dim>40</dim>
				</port>
			</output>
		</layer>
		<layer id="136" name="Clip_89" type="Clamp" version="opset1">
			<data max="6" min="0"/>
			<input>
				<port id="0" precision="FP16">
					<dim>1</dim>
					<dim>384</dim>
					<dim>30</dim>
					<dim>40</dim>
				</port>
			</input>
			<output>
				<port id="1" names="460" precision="FP16">
					<dim>1</dim>
					<dim>384</dim>
					<dim>30</dim>
					<dim>40</dim>
				</port>
			</output>
		</layer>
		<layer id="137" name="793" type="Const" version="opset1">
			<data element_type="f16" offset="412352" shape="384, 1, 1, 3, 3" size="6912"/>
			<output>
				<port id="0" names="793" precision="FP16">
					<dim>384</dim>
					<dim>1</dim>
					<dim>1</dim>
					<dim>3</dim>
					<dim>3</dim>
				</port>
			</output>
		</layer>
		<layer id="138" name="Conv_90/WithoutBiases" type="GroupConvolution" version="opset1">
			<data auto_pad="explicit" dilations="1, 1" pads_begin="1, 1" pads_end="1, 1" strides="1, 1"/>
			<input>
				<port id="0" precision="FP16">
					<dim>1</dim>
					<dim>384</dim>
					<dim>30</dim>
					<dim>40</dim>
				</port>
				<port id="1" precision="FP16">
					<dim>384</dim>
					<dim>1</dim>
					<dim>1</dim>
					<dim>3</dim>
					<dim>3</dim>
				</port>
			</input>
			<output>
				<port id="2" precision="FP16">
					<dim>1</dim>
					<dim>384</dim>
					<dim>30</dim>
					<dim>40</dim>
				</port>
			</output>
		</layer>
		<layer id="139" name="Conv_90/Dims4019" type="Const" version="opset1">
			<data element_type="f16" offset="419264" shape="1, 384, 1, 1" size="768"/>
			<output>
				<port id="0" precision="FP16">
					<dim>1</dim>
					<dim>384</dim>
					<dim>1</dim>
					<dim>1</dim>
				</port>
			</output>
		</layer>
		<layer id="140" name="Conv_90" type="Add" version="opset1">
			<data auto_broadcast="numpy"/>
			<input>
				<port id="0" precision="FP16">
					<dim>1</dim>
					<dim>384</dim>
					<dim>30</dim>
					<dim>40</dim>
				</port>
				<port id="1" precision="FP16">
					<dim>1</dim>
					<dim>384</dim>
					<dim>1</dim>
					<dim>1</dim>
				</port>
			</input>
			<output>
				<port id="2" names="792" precision="FP16">
					<dim>1</dim>
					<dim>384</dim>
					<dim>30</dim>
					<dim>40</dim>
				</port>
			</output>
		</layer>
		<layer id="141" name="Clip_93" type="Clamp" version="opset1">
			<data max="6" min="0"/>
			<input>
				<port id="0" precision="FP16">
					<dim>1</dim>
					<dim>384</dim>
					<dim>30</dim>
					<dim>40</dim>
				</port>
			</input>
			<output>
				<port id="1" names="465" precision="FP16">
					<dim>1</dim>
					<dim>384</dim>
					<dim>30</dim>
					<dim>40</dim>
				</port>
			</output>
		</layer>
		<layer id="142" name="796" type="Const" version="opset1">
			<data element_type="f16" offset="420032" shape="64, 384, 1, 1" size="49152"/>
			<output>
				<port id="0" names="796" precision="FP16">
					<dim>64</dim>
					<dim>384</dim>
					<dim>1</dim>
					<dim>1</dim>
				</port>
			</output>
		</layer>
		<layer id="143" name="Conv_94/WithoutBiases" type="Convolution" version="opset1">
			<data auto_pad="explicit" dilations="1, 1" pads_begin="0, 0" pads_end="0, 0" strides="1, 1"/>
			<input>
				<port id="0" precision="FP16">
					<dim>1</dim>
					<dim>384</dim>
					<dim>30</dim>
					<dim>40</dim>
				</port>
				<port id="1" precision="FP16">
					<dim>64</dim>
					<dim>384</dim>
					<dim>1</dim>
					<dim>1</dim>
				</port>
			</input>
			<output>
				<port id="2" precision="FP16">
					<dim>1</dim>
					<dim>64</dim>
					<dim>30</dim>
					<dim>40</dim>
				</port>
			</output>
		</layer>
		<layer id="144" name="Conv_94/Dims4139" type="Const" version="opset1">
			<data element_type="f16" offset="469184" shape="1, 64, 1, 1" size="128"/>
			<output>
				<port id="0" precision="FP16">
					<dim>1</dim>
					<dim>64</dim>
					<dim>1</dim>
					<dim>1</dim>
				</port>
			</output>
		</layer>
		<layer id="145" name="Conv_94" type="Add" version="opset1">
			<data auto_broadcast="numpy"/>
			<input>
				<port id="0" precision="FP16">
					<dim>1</dim>
					<dim>64</dim>
					<dim>30</dim>
					<dim>40</dim>
				</port>
				<port id="1" precision="FP16">
					<dim>1</dim>
					<dim>64</dim>
					<dim>1</dim>
					<dim>1</dim>
				</port>
			</input>
			<output>
				<port id="2" names="795" precision="FP16">
					<dim>1</dim>
					<dim>64</dim>
					<dim>30</dim>
					<dim>40</dim>
				</port>
			</output>
		</layer>
		<layer id="146" name="Add_95" type="Add" version="opset1">
			<data auto_broadcast="numpy"/>
			<input>
				<port id="0" precision="FP16">
					<dim>1</dim>
					<dim>64</dim>
					<dim>30</dim>
					<dim>40</dim>
				</port>
				<port id="1" precision="FP16">
					<dim>1</dim>
					<dim>64</dim>
					<dim>30</dim>
					<dim>40</dim>
				</port>
			</input>
			<output>
				<port id="2" names="468" precision="FP16">
					<dim>1</dim>
					<dim>64</dim>
					<dim>30</dim>
					<dim>40</dim>
				</port>
			</output>
		</layer>
		<layer id="147" name="799" type="Const" version="opset1">
			<data element_type="f16" offset="469312" shape="384, 64, 1, 1" size="49152"/>
			<output>
				<port id="0" names="799" precision="FP16">
					<dim>384</dim>
					<dim>64</dim>
					<dim>1</dim>
					<dim>1</dim>
				</port>
			</output>
		</layer>
		<layer id="148" name="Conv_96/WithoutBiases" type="Convolution" version="opset1">
			<data auto_pad="explicit" dilations="1, 1" pads_begin="0, 0" pads_end="0, 0" strides="1, 1"/>
			<input>
				<port id="0" precision="FP16">
					<dim>1</dim>
					<dim>64</dim>
					<dim>30</dim>
					<dim>40</dim>
				</port>
				<port id="1" precision="FP16">
					<dim>384</dim>
					<dim>64</dim>
					<dim>1</dim>
					<dim>1</dim>
				</port>
			</input>
			<output>
				<port id="2" precision="FP16">
					<dim>1</dim>
					<dim>384</dim>
					<dim>30</dim>
					<dim>40</dim>
				</port>
			</output>
		</layer>
		<layer id="149" name="Conv_96/Dims3959" type="Const" version="opset1">
			<data element_type="f16" offset="518464" shape="1, 384, 1, 1" size="768"/>
			<output>
				<port id="0" precision="FP16">
					<dim>1</dim>
					<dim>384</dim>
					<dim>1</dim>
					<dim>1</dim>
				</port>
			</output>
		</layer>
		<layer id="150" name="Conv_96" type="Add" version="opset1">
			<data auto_broadcast="numpy"/>
			<input>
				<port id="0" precision="FP16">
					<dim>1</dim>
					<dim>384</dim>
					<dim>30</dim>
					<dim>40</dim>
				</port>
				<port id="1" precision="FP16">
					<dim>1</dim>
					<dim>384</dim>
					<dim>1</dim>
					<dim>1</dim>
				</port>
			</input>
			<output>
				<port id="2" names="798" precision="FP16">
					<dim>1</dim>
					<dim>384</dim>
					<dim>30</dim>
					<dim>40</dim>
				</port>
			</output>
		</layer>
		<layer id="151" name="Clip_99" type="Clamp" version="opset1">
			<data max="6" min="0"/>
			<input>
				<port id="0" precision="FP16">
					<dim>1</dim>
					<dim>384</dim>
					<dim>30</dim>
					<dim>40</dim>
				</port>
			</input>
			<output>
				<port id="1" names="473" precision="FP16">
					<dim>1</dim>
					<dim>384</dim>
					<dim>30</dim>
					<dim>40</dim>
				</port>
			</output>
		</layer>
		<layer id="152" name="802" type="Const" version="opset1">
			<data element_type="f16" offset="519232" shape="384, 1, 1, 3, 3" size="6912"/>
			<output>
				<port id="0" names="802" precision="FP16">
					<dim>384</dim>
					<dim>1</dim>
					<dim>1</dim>
					<dim>3</dim>
					<dim>3</dim>
				</port>
			</output>
		</layer>
		<layer id="153" name="Conv_100/WithoutBiases" type="GroupConvolution" version="opset1">
			<data auto_pad="explicit" dilations="1, 1" pads_begin="1, 1" pads_end="1, 1" strides="1, 1"/>
			<input>
				<port id="0" precision="FP16">
					<dim>1</dim>
					<dim>384</dim>
					<dim>30</dim>
					<dim>40</dim>
				</port>
				<port id="1" precision="FP16">
					<dim>384</dim>
					<dim>1</dim>
					<dim>1</dim>
					<dim>3</dim>
					<dim>3</dim>
				</port>
			</input>
			<output>
				<port id="2" precision="FP16">
					<dim>1</dim>
					<dim>384</dim>
					<dim>30</dim>
					<dim>40</dim>
				</port>
			</output>
		</layer>
		<layer id="154" name="Conv_100/Dims4181" type="Const" version="opset1">
			<data element_type="f16" offset="526144" shape="1, 384, 1, 1" size="768"/>
			<output>
				<port id="0" precision="FP16">
					<dim>1</dim>
					<dim>384</dim>
					<dim>1</dim>
					<dim>1</dim>
				</port>
			</output>
		</layer>
		<layer id="155" name="Conv_100" type="Add" version="opset1">
			<data auto_broadcast="numpy"/>
			<input>
				<port id="0" precision="FP16">
					<dim>1</dim>
					<dim>384</dim>
					<dim>30</dim>
					<dim>40</dim>
				</port>
				<port id="1" precision="FP16">
					<dim>1</dim>
					<dim>384</dim>
					<dim>1</dim>
					<dim>1</dim>
				</port>
			</input>
			<output>
				<port id="2" names="801" precision="FP16">
					<dim>1</dim>
					<dim>384</dim>
					<dim>30</dim>
					<dim>40</dim>
				</port>
			</output>
		</layer>
		<layer id="156" name="Clip_103" type="Clamp" version="opset1">
			<data max="6" min="0"/>
			<input>
				<port id="0" precision="FP16">
					<dim>1</dim>
					<dim>384</dim>
					<dim>30</dim>
					<dim>40</dim>
				</port>
			</input>
			<output>
				<port id="1" names="478" precision="FP16">
					<dim>1</dim>
					<dim>384</dim>
					<dim>30</dim>
					<dim>40</dim>
				</port>
			</output>
		</layer>
		<layer id="157" name="805" type="Const" version="opset1">
			<data element_type="f16" offset="526912" shape="96, 384, 1, 1" size="73728"/>
			<output>
				<port id="0" names="805" precision="FP16">
					<dim>96</dim>
					<dim>384</dim>
					<dim>1</dim>
					<dim>1</dim>
				</port>
			</output>
		</layer>
		<layer id="158" name="Conv_104/WithoutBiases" type="Convolution" version="opset1">
			<data auto_pad="explicit" dilations="1, 1" pads_begin="0, 0" pads_end="0, 0" strides="1, 1"/>
			<input>
				<port id="0" precision="FP16">
					<dim>1</dim>
					<dim>384</dim>
					<dim>30</dim>
					<dim>40</dim>
				</port>
				<port id="1" precision="FP16">
					<dim>96</dim>
					<dim>384</dim>
					<dim>1</dim>
					<dim>1</dim>
				</port>
			</input>
			<output>
				<port id="2" precision="FP16">
					<dim>1</dim>
					<dim>96</dim>
					<dim>30</dim>
					<dim>40</dim>
				</port>
			</output>
		</layer>
		<layer id="159" name="Conv_104/Dims3893" type="Const" version="opset1">
			<data element_type="f16" offset="600640" shape="1, 96, 1, 1" size="192"/>
			<output>
				<port id="0" precision="FP16">
					<dim>1</dim>
					<dim>96</dim>
					<dim>1</dim>
					<dim>1</dim>
				</port>
			</output>
		</layer>
		<layer id="160" name="Conv_104" type="Add" version="opset1">
			<data auto_broadcast="numpy"/>
			<input>
				<port id="0" precision="FP16">
					<dim>1</dim>
					<dim>96</dim>
					<dim>30</dim>
					<dim>40</dim>
				</port>
				<port id="1" precision="FP16">
					<dim>1</dim>
					<dim>96</dim>
					<dim>1</dim>
					<dim>1</dim>
				</port>
			</input>
			<output>
				<port id="2" names="804" precision="FP16">
					<dim>1</dim>
					<dim>96</dim>
					<dim>30</dim>
					<dim>40</dim>
				</port>
			</output>
		</layer>
		<layer id="161" name="808" type="Const" version="opset1">
			<data element_type="f16" offset="600832" shape="576, 96, 1, 1" size="110592"/>
			<output>
				<port id="0" names="808" precision="FP16">
					<dim>576</dim>
					<dim>96</dim>
					<dim>1</dim>
					<dim>1</dim>
				</port>
			</output>
		</layer>
		<layer id="162" name="Conv_105/WithoutBiases" type="Convolution" version="opset1">
			<data auto_pad="explicit" dilations="1, 1" pads_begin="0, 0" pads_end="0, 0" strides="1, 1"/>
			<input>
				<port id="0" precision="FP16">
					<dim>1</dim>
					<dim>96</dim>
					<dim>30</dim>
					<dim>40</dim>
				</port>
				<port id="1" precision="FP16">
					<dim>576</dim>
					<dim>96</dim>
					<dim>1</dim>
					<dim>1</dim>
				</port>
			</input>
			<output>
				<port id="2" precision="FP16">
					<dim>1</dim>
					<dim>576</dim>
					<dim>30</dim>
					<dim>40</dim>
				</port>
			</output>
		</layer>
		<layer id="163" name="Conv_105/Dims4055" type="Const" version="opset1">
			<data element_type="f16" offset="711424" shape="1, 576, 1, 1" size="1152"/>
			<output>
				<port id="0" precision="FP16">
					<dim>1</dim>
					<dim>576</dim>
					<dim>1</dim>
					<dim>1</dim>
				</port>
			</output>
		</layer>
		<layer id="164" name="Conv_105" type="Add" version="opset1">
			<data auto_broadcast="numpy"/>
			<input>
				<port id="0" precision="FP16">
					<dim>1</dim>
					<dim>576</dim>
					<dim>30</dim>
					<dim>40</dim>
				</port>
				<port id="1" precision="FP16">
					<dim>1</dim>
					<dim>576</dim>
					<dim>1</dim>
					<dim>1</dim>
				</port>
			</input>
			<output>
				<port id="2" names="807" precision="FP16">
					<dim>1</dim>
					<dim>576</dim>
					<dim>30</dim>
					<dim>40</dim>
				</port>
			</output>
		</layer>
		<layer id="165" name="Clip_108" type="Clamp" version="opset1">
			<data max="6" min="0"/>
			<input>
				<port id="0" precision="FP16">
					<dim>1</dim>
					<dim>576</dim>
					<dim>30</dim>
					<dim>40</dim>
				</port>
			</input>
			<output>
				<port id="1" names="485" precision="FP16">
					<dim>1</dim>
					<dim>576</dim>
					<dim>30</dim>
					<dim>40</dim>
				</port>
			</output>
		</layer>
		<layer id="166" name="811" type="Const" version="opset1">
			<data element_type="f16" offset="712576" shape="576, 1, 1, 3, 3" size="10368"/>
			<output>
				<port id="0" names="811" precision="FP16">
					<dim>576</dim>
					<dim>1</dim>
					<dim>1</dim>
					<dim>3</dim>
					<dim>3</dim>
				</port>
			</output>
		</layer>
		<layer id="167" name="Conv_109/WithoutBiases" type="GroupConvolution" version="opset1">
			<data auto_pad="explicit" dilations="1, 1" pads_begin="1, 1" pads_end="1, 1" strides="1, 1"/>
			<input>
				<port id="0" precision="FP16">
					<dim>1</dim>
					<dim>576</dim>
					<dim>30</dim>
					<dim>40</dim>
				</port>
				<port id="1" precision="FP16">
					<dim>576</dim>
					<dim>1</dim>
					<dim>1</dim>
					<dim>3</dim>
					<dim>3</dim>
				</port>
			</input>
			<output>
				<port id="2" precision="FP16">
					<dim>1</dim>
					<dim>576</dim>
					<dim>30</dim>
					<dim>40</dim>
				</port>
			</output>
		</layer>
		<layer id="168" name="Conv_109/Dims4223" type="Const" version="opset1">
			<data element_type="f16" offset="722944" shape="1, 576, 1, 1" size="1152"/>
			<output>
				<port id="0" precision="FP16">
					<dim>1</dim>
					<dim>576</dim>
					<dim>1</dim>
					<dim>1</dim>
				</port>
			</output>
		</layer>
		<layer id="169" name="Conv_109" type="Add" version="opset1">
			<data auto_broadcast="numpy"/>
			<input>
				<port id="0" precision="FP16">
					<dim>1</dim>
					<dim>576</dim>
					<dim>30</dim>
					<dim>40</dim>
				</port>
				<port id="1" precision="FP16">
					<dim>1</dim>
					<dim>576</dim>
					<dim>1</dim>
					<dim>1</dim>
				</port>
			</input>
			<output>
				<port id="2" names="810" precision="FP16">
					<dim>1</dim>
					<dim>576</dim>
					<dim>30</dim>
					<dim>40</dim>
				</port>
			</output>
		</layer>
		<layer id="170" name="Clip_112" type="Clamp" version="opset1">
			<data max="6" min="0"/>
			<input>
				<port id="0" precision="FP16">
					<dim>1</dim>
					<dim>576</dim>
					<dim>30</dim>
					<dim>40</dim>
				</port>
			</input>
			<output>
				<port id="1" names="490" precision="FP16">
					<dim>1</dim>
					<dim>576</dim>
					<dim>30</dim>
					<dim>40</dim>
				</port>
			</output>
		</layer>
		<layer id="171" name="814" type="Const" version="opset1">
			<data element_type="f16" offset="724096" shape="96, 576, 1, 1" size="110592"/>
			<output>
				<port id="0" names="814" precision="FP16">
					<dim>96</dim>
					<dim>576</dim>
					<dim>1</dim>
					<dim>1</dim>
				</port>
			</output>
		</layer>
		<layer id="172" name="Conv_113/WithoutBiases" type="Convolution" version="opset1">
			<data auto_pad="explicit" dilations="1, 1" pads_begin="0, 0" pads_end="0, 0" strides="1, 1"/>
			<input>
				<port id="0" precision="FP16">
					<dim>1</dim>
					<dim>576</dim>
					<dim>30</dim>
					<dim>40</dim>
				</port>
				<port id="1" precision="FP16">
					<dim>96</dim>
					<dim>576</dim>
					<dim>1</dim>
					<dim>1</dim>
				</port>
			</input>
			<output>
				<port id="2" precision="FP16">
					<dim>1</dim>
					<dim>96</dim>
					<dim>30</dim>
					<dim>40</dim>
				</port>
			</output>
		</layer>
		<layer id="173" name="Conv_113/Dims4079" type="Const" version="opset1">
			<data element_type="f16" offset="834688" shape="1, 96, 1, 1" size="192"/>
			<output>
				<port id="0" precision="FP16">
					<dim>1</dim>
					<dim>96</dim>
					<dim>1</dim>
					<dim>1</dim>
				</port>
			</output>
		</layer>
		<layer id="174" name="Conv_113" type="Add" version="opset1">
			<data auto_broadcast="numpy"/>
			<input>
				<port id="0" precision="FP16">
					<dim>1</dim>
					<dim>96</dim>
					<dim>30</dim>
					<dim>40</dim>
				</port>
				<port id="1" precision="FP16">
					<dim>1</dim>
					<dim>96</dim>
					<dim>1</dim>
					<dim>1</dim>
				</port>
			</input>
			<output>
				<port id="2" names="813" precision="FP16">
					<dim>1</dim>
					<dim>96</dim>
					<dim>30</dim>
					<dim>40</dim>
				</port>
			</output>
		</layer>
		<layer id="175" name="Add_114" type="Add" version="opset1">
			<data auto_broadcast="numpy"/>
			<input>
				<port id="0" precision="FP16">
					<dim>1</dim>
					<dim>96</dim>
					<dim>30</dim>
					<dim>40</dim>
				</port>
				<port id="1" precision="FP16">
					<dim>1</dim>
					<dim>96</dim>
					<dim>30</dim>
					<dim>40</dim>
				</port>
			</input>
			<output>
				<port id="2" names="493" precision="FP16">
					<dim>1</dim>
					<dim>96</dim>
					<dim>30</dim>
					<dim>40</dim>
				</port>
			</output>
		</layer>
		<layer id="176" name="817" type="Const" version="opset1">
			<data element_type="f16" offset="834880" shape="576, 96, 1, 1" size="110592"/>
			<output>
				<port id="0" names="817" precision="FP16">
					<dim>576</dim>
					<dim>96</dim>
					<dim>1</dim>
					<dim>1</dim>
				</port>
			</output>
		</layer>
		<layer id="177" name="Conv_115/WithoutBiases" type="Convolution" version="opset1">
			<data auto_pad="explicit" dilations="1, 1" pads_begin="0, 0" pads_end="0, 0" strides="1, 1"/>
			<input>
				<port id="0" precision="FP16">
					<dim>1</dim>
					<dim>96</dim>
					<dim>30</dim>
					<dim>40</dim>
				</port>
				<port id="1" precision="FP16">
					<dim>576</dim>
					<dim>96</dim>
					<dim>1</dim>
					<dim>1</dim>
				</port>
			</input>
			<output>
				<port id="2" precision="FP16">
					<dim>1</dim>
					<dim>576</dim>
					<dim>30</dim>
					<dim>40</dim>
				</port>
			</output>
		</layer>
		<layer id="178" name="Conv_115/Dims4061" type="Const" version="opset1">
			<data element_type="f16" offset="945472" shape="1, 576, 1, 1" size="1152"/>
			<output>
				<port id="0" precision="FP16">
					<dim>1</dim>
					<dim>576</dim>
					<dim>1</dim>
					<dim>1</dim>
				</port>
			</output>
		</layer>
		<layer id="179" name="Conv_115" type="Add" version="opset1">
			<data auto_broadcast="numpy"/>
			<input>
				<port id="0" precision="FP16">
					<dim>1</dim>
					<dim>576</dim>
					<dim>30</dim>
					<dim>40</dim>
				</port>
				<port id="1" precision="FP16">
					<dim>1</dim>
					<dim>576</dim>
					<dim>1</dim>
					<dim>1</dim>
				</port>
			</input>
			<output>
				<port id="2" names="816" precision="FP16">
					<dim>1</dim>
					<dim>576</dim>
					<dim>30</dim>
					<dim>40</dim>
				</port>
			</output>
		</layer>
		<layer id="180" name="Clip_118" type="Clamp" version="opset1">
			<data max="6" min="0"/>
			<input>
				<port id="0" precision="FP16">
					<dim>1</dim>
					<dim>576</dim>
					<dim>30</dim>
					<dim>40</dim>
				</port>
			</input>
			<output>
				<port id="1" names="498" precision="FP16">
					<dim>1</dim>
					<dim>576</dim>
					<dim>30</dim>
					<dim>40</dim>
				</port>
			</output>
		</layer>
		<layer id="181" name="820" type="Const" version="opset1">
			<data element_type="f16" offset="946624" shape="576, 1, 1, 3, 3" size="10368"/>
			<output>
				<port id="0" names="820" precision="FP16">
					<dim>576</dim>
					<dim>1</dim>
					<dim>1</dim>
					<dim>3</dim>
					<dim>3</dim>
				</port>
			</output>
		</layer>
		<layer id="182" name="Conv_119/WithoutBiases" type="GroupConvolution" version="opset1">
			<data auto_pad="explicit" dilations="1, 1" pads_begin="1, 1" pads_end="1, 1" strides="1, 1"/>
			<input>
				<port id="0" precision="FP16">
					<dim>1</dim>
					<dim>576</dim>
					<dim>30</dim>
					<dim>40</dim>
				</port>
				<port id="1" precision="FP16">
					<dim>576</dim>
					<dim>1</dim>
					<dim>1</dim>
					<dim>3</dim>
					<dim>3</dim>
				</port>
			</input>
			<output>
				<port id="2" precision="FP16">
					<dim>1</dim>
					<dim>576</dim>
					<dim>30</dim>
					<dim>40</dim>
				</port>
			</output>
		</layer>
		<layer id="183" name="Conv_119/Dims4085" type="Const" version="opset1">
			<data element_type="f16" offset="956992" shape="1, 576, 1, 1" size="1152"/>
			<output>
				<port id="0" precision="FP16">
					<dim>1</dim>
					<dim>576</dim>
					<dim>1</dim>
					<dim>1</dim>
				</port>
			</output>
		</layer>
		<layer id="184" name="Conv_119" type="Add" version="opset1">
			<data auto_broadcast="numpy"/>
			<input>
				<port id="0" precision="FP16">
					<dim>1</dim>
					<dim>576</dim>
					<dim>30</dim>
					<dim>40</dim>
				</port>
				<port id="1" precision="FP16">
					<dim>1</dim>
					<dim>576</dim>
					<dim>1</dim>
					<dim>1</dim>
				</port>
			</input>
			<output>
				<port id="2" names="819" precision="FP16">
					<dim>1</dim>
					<dim>576</dim>
					<dim>30</dim>
					<dim>40</dim>
				</port>
			</output>
		</layer>
		<layer id="185" name="Clip_122" type="Clamp" version="opset1">
			<data max="6" min="0"/>
			<input>
				<port id="0" precision="FP16">
					<dim>1</dim>
					<dim>576</dim>
					<dim>30</dim>
					<dim>40</dim>
				</port>
			</input>
			<output>
				<port id="1" names="503" precision="FP16">
					<dim>1</dim>
					<dim>576</dim>
					<dim>30</dim>
					<dim>40</dim>
				</port>
			</output>
		</layer>
		<layer id="186" name="823" type="Const" version="opset1">
			<data element_type="f16" offset="958144" shape="96, 576, 1, 1" size="110592"/>
			<output>
				<port id="0" names="823" precision="FP16">
					<dim>96</dim>
					<dim>576</dim>
					<dim>1</dim>
					<dim>1</dim>
				</port>
			</output>
		</layer>
		<layer id="187" name="Conv_123/WithoutBiases" type="Convolution" version="opset1">
			<data auto_pad="explicit" dilations="1, 1" pads_begin="0, 0" pads_end="0, 0" strides="1, 1"/>
			<input>
				<port id="0" precision="FP16">
					<dim>1</dim>
					<dim>576</dim>
					<dim>30</dim>
					<dim>40</dim>
				</port>
				<port id="1" precision="FP16">
					<dim>96</dim>
					<dim>576</dim>
					<dim>1</dim>
					<dim>1</dim>
				</port>
			</input>
			<output>
				<port id="2" precision="FP16">
					<dim>1</dim>
					<dim>96</dim>
					<dim>30</dim>
					<dim>40</dim>
				</port>
			</output>
		</layer>
		<layer id="188" name="Conv_123/Dims4151" type="Const" version="opset1">
			<data element_type="f16" offset="1068736" shape="1, 96, 1, 1" size="192"/>
			<output>
				<port id="0" precision="FP16">
					<dim>1</dim>
					<dim>96</dim>
					<dim>1</dim>
					<dim>1</dim>
				</port>
			</output>
		</layer>
		<layer id="189" name="Conv_123" type="Add" version="opset1">
			<data auto_broadcast="numpy"/>
			<input>
				<port id="0" precision="FP16">
					<dim>1</dim>
					<dim>96</dim>
					<dim>30</dim>
					<dim>40</dim>
				</port>
				<port id="1" precision="FP16">
					<dim>1</dim>
					<dim>96</dim>
					<dim>1</dim>
					<dim>1</dim>
				</port>
			</input>
			<output>
				<port id="2" names="822" precision="FP16">
					<dim>1</dim>
					<dim>96</dim>
					<dim>30</dim>
					<dim>40</dim>
				</port>
			</output>
		</layer>
		<layer id="190" name="Add_124" type="Add" version="opset1">
			<data auto_broadcast="numpy"/>
			<input>
				<port id="0" precision="FP16">
					<dim>1</dim>
					<dim>96</dim>
					<dim>30</dim>
					<dim>40</dim>
				</port>
				<port id="1" precision="FP16">
					<dim>1</dim>
					<dim>96</dim>
					<dim>30</dim>
					<dim>40</dim>
				</port>
			</input>
			<output>
				<port id="2" names="506" precision="FP16">
					<dim>1</dim>
					<dim>96</dim>
					<dim>30</dim>
					<dim>40</dim>
				</port>
			</output>
		</layer>
		<layer id="191" name="826" type="Const" version="opset1">
			<data element_type="f16" offset="1068928" shape="576, 96, 1, 1" size="110592"/>
			<output>
				<port id="0" names="826" precision="FP16">
					<dim>576</dim>
					<dim>96</dim>
					<dim>1</dim>
					<dim>1</dim>
				</port>
			</output>
		</layer>
		<layer id="192" name="Conv_125/WithoutBiases" type="Convolution" version="opset1">
			<data auto_pad="explicit" dilations="1, 1" pads_begin="0, 0" pads_end="0, 0" strides="1, 1"/>
			<input>
				<port id="0" precision="FP16">
					<dim>1</dim>
					<dim>96</dim>
					<dim>30</dim>
					<dim>40</dim>
				</port>
				<port id="1" precision="FP16">
					<dim>576</dim>
					<dim>96</dim>
					<dim>1</dim>
					<dim>1</dim>
				</port>
			</input>
			<output>
				<port id="2" precision="FP16">
					<dim>1</dim>
					<dim>576</dim>
					<dim>30</dim>
					<dim>40</dim>
				</port>
			</output>
		</layer>
		<layer id="193" name="Conv_125/Dims4067" type="Const" version="opset1">
			<data element_type="f16" offset="1179520" shape="1, 576, 1, 1" size="1152"/>
			<output>
				<port id="0" precision="FP16">
					<dim>1</dim>
					<dim>576</dim>
					<dim>1</dim>
					<dim>1</dim>
				</port>
			</output>
		</layer>
		<layer id="194" name="Conv_125" type="Add" version="opset1">
			<data auto_broadcast="numpy"/>
			<input>
				<port id="0" precision="FP16">
					<dim>1</dim>
					<dim>576</dim>
					<dim>30</dim>
					<dim>40</dim>
				</port>
				<port id="1" precision="FP16">
					<dim>1</dim>
					<dim>576</dim>
					<dim>1</dim>
					<dim>1</dim>
				</port>
			</input>
			<output>
				<port id="2" names="825" precision="FP16">
					<dim>1</dim>
					<dim>576</dim>
					<dim>30</dim>
					<dim>40</dim>
				</port>
			</output>
		</layer>
		<layer id="195" name="Clip_128" type="Clamp" version="opset1">
			<data max="6" min="0"/>
			<input>
				<port id="0" precision="FP16">
					<dim>1</dim>
					<dim>576</dim>
					<dim>30</dim>
					<dim>40</dim>
				</port>
			</input>
			<output>
				<port id="1" names="511" precision="FP16">
					<dim>1</dim>
					<dim>576</dim>
					<dim>30</dim>
					<dim>40</dim>
				</port>
			</output>
		</layer>
		<layer id="196" name="829" type="Const" version="opset1">
			<data element_type="f16" offset="1180672" shape="576, 1, 1, 3, 3" size="10368"/>
			<output>
				<port id="0" names="829" precision="FP16">
					<dim>576</dim>
					<dim>1</dim>
					<dim>1</dim>
					<dim>3</dim>
					<dim>3</dim>
				</port>
			</output>
		</layer>
		<layer id="197" name="Conv_129/WithoutBiases" type="GroupConvolution" version="opset1">
			<data auto_pad="explicit" dilations="1, 1" pads_begin="1, 1" pads_end="1, 1" strides="2, 2"/>
			<input>
				<port id="0" precision="FP16">
					<dim>1</dim>
					<dim>576</dim>
					<dim>30</dim>
					<dim>40</dim>
				</port>
				<port id="1" precision="FP16">
					<dim>576</dim>
					<dim>1</dim>
					<dim>1</dim>
					<dim>3</dim>
					<dim>3</dim>
				</port>
			</input>
			<output>
				<port id="2" precision="FP16">
					<dim>1</dim>
					<dim>576</dim>
					<dim>15</dim>
					<dim>20</dim>
				</port>
			</output>
		</layer>
		<layer id="198" name="Conv_129/Dims4217" type="Const" version="opset1">
			<data element_type="f16" offset="1191040" shape="1, 576, 1, 1" size="1152"/>
			<output>
				<port id="0" precision="FP16">
					<dim>1</dim>
					<dim>576</dim>
					<dim>1</dim>
					<dim>1</dim>
				</port>
			</output>
		</layer>
		<layer id="199" name="Conv_129" type="Add" version="opset1">
			<data auto_broadcast="numpy"/>
			<input>
				<port id="0" precision="FP16">
					<dim>1</dim>
					<dim>576</dim>
					<dim>15</dim>
					<dim>20</dim>
				</port>
				<port id="1" precision="FP16">
					<dim>1</dim>
					<dim>576</dim>
					<dim>1</dim>
					<dim>1</dim>
				</port>
			</input>
			<output>
				<port id="2" names="828" precision="FP16">
					<dim>1</dim>
					<dim>576</dim>
					<dim>15</dim>
					<dim>20</dim>
				</port>
			</output>
		</layer>
		<layer id="200" name="Clip_132" type="Clamp" version="opset1">
			<data max="6" min="0"/>
			<input>
				<port id="0" precision="FP16">
					<dim>1</dim>
					<dim>576</dim>
					<dim>15</dim>
					<dim>20</dim>
				</port>
			</input>
			<output>
				<port id="1" names="516" precision="FP16">
					<dim>1</dim>
					<dim>576</dim>
					<dim>15</dim>
					<dim>20</dim>
				</port>
			</output>
		</layer>
		<layer id="201" name="832" type="Const" version="opset1">
			<data element_type="f16" offset="1192192" shape="160, 576, 1, 1" size="184320"/>
			<output>
				<port id="0" names="832" precision="FP16">
					<dim>160</dim>
					<dim>576</dim>
					<dim>1</dim>
					<dim>1</dim>
				</port>
			</output>
		</layer>
		<layer id="202" name="Conv_133/WithoutBiases" type="Convolution" version="opset1">
			<data auto_pad="explicit" dilations="1, 1" pads_begin="0, 0" pads_end="0, 0" strides="1, 1"/>
			<input>
				<port id="0" precision="FP16">
					<dim>1</dim>
					<dim>576</dim>
					<dim>15</dim>
					<dim>20</dim>
				</port>
				<port id="1" precision="FP16">
					<dim>160</dim>
					<dim>576</dim>
					<dim>1</dim>
					<dim>1</dim>
				</port>
			</input>
			<output>
				<port id="2" precision="FP16">
					<dim>1</dim>
					<dim>160</dim>
					<dim>15</dim>
					<dim>20</dim>
				</port>
			</output>
		</layer>
		<layer id="203" name="Conv_133/Dims4211" type="Const" version="opset1">
			<data element_type="f16" offset="1376512" shape="1, 160, 1, 1" size="320"/>
			<output>
				<port id="0" precision="FP16">
					<dim>1</dim>
					<dim>160</dim>
					<dim>1</dim>
					<dim>1</dim>
				</port>
			</output>
		</layer>
		<layer id="204" name="Conv_133" type="Add" version="opset1">
			<data auto_broadcast="numpy"/>
			<input>
				<port id="0" precision="FP16">
					<dim>1</dim>
					<dim>160</dim>
					<dim>15</dim>
					<dim>20</dim>
				</port>
				<port id="1" precision="FP16">
					<dim>1</dim>
					<dim>160</dim>
					<dim>1</dim>
					<dim>1</dim>
				</port>
			</input>
			<output>
				<port id="2" names="831" precision="FP16">
					<dim>1</dim>
					<dim>160</dim>
					<dim>15</dim>
					<dim>20</dim>
				</port>
			</output>
		</layer>
		<layer id="205" name="835" type="Const" version="opset1">
			<data element_type="f16" offset="1376832" shape="960, 160, 1, 1" size="307200"/>
			<output>
				<port id="0" names="835" precision="FP16">
					<dim>960</dim>
					<dim>160</dim>
					<dim>1</dim>
					<dim>1</dim>
				</port>
			</output>
		</layer>
		<layer id="206" name="Conv_134/WithoutBiases" type="Convolution" version="opset1">
			<data auto_pad="explicit" dilations="1, 1" pads_begin="0, 0" pads_end="0, 0" strides="1, 1"/>
			<input>
				<port id="0" precision="FP16">
					<dim>1</dim>
					<dim>160</dim>
					<dim>15</dim>
					<dim>20</dim>
				</port>
				<port id="1" precision="FP16">
					<dim>960</dim>
					<dim>160</dim>
					<dim>1</dim>
					<dim>1</dim>
				</port>
			</input>
			<output>
				<port id="2" precision="FP16">
					<dim>1</dim>
					<dim>960</dim>
					<dim>15</dim>
					<dim>20</dim>
				</port>
			</output>
		</layer>
		<layer id="207" name="Conv_134/Dims4115" type="Const" version="opset1">
			<data element_type="f16" offset="1684032" shape="1, 960, 1, 1" size="1920"/>
			<output>
				<port id="0" precision="FP16">
					<dim>1</dim>
					<dim>960</dim>
					<dim>1</dim>
					<dim>1</dim>
				</port>
			</output>
		</layer>
		<layer id="208" name="Conv_134" type="Add" version="opset1">
			<data auto_broadcast="numpy"/>
			<input>
				<port id="0" precision="FP16">
					<dim>1</dim>
					<dim>960</dim>
					<dim>15</dim>
					<dim>20</dim>
				</port>
				<port id="1" precision="FP16">
					<dim>1</dim>
					<dim>960</dim>
					<dim>1</dim>
					<dim>1</dim>
				</port>
			</input>
			<output>
				<port id="2" names="834" precision="FP16">
					<dim>1</dim>
					<dim>960</dim>
					<dim>15</dim>
					<dim>20</dim>
				</port>
			</output>
		</layer>
		<layer id="209" name="Clip_137" type="Clamp" version="opset1">
			<data max="6" min="0"/>
			<input>
				<port id="0" precision="FP16">
					<dim>1</dim>
					<dim>960</dim>
					<dim>15</dim>
					<dim>20</dim>
				</port>
			</input>
			<output>
				<port id="1" names="523" precision="FP16">
					<dim>1</dim>
					<dim>960</dim>
					<dim>15</dim>
					<dim>20</dim>
				</port>
			</output>
		</layer>
		<layer id="210" name="838" type="Const" version="opset1">
			<data element_type="f16" offset="1685952" shape="960, 1, 1, 3, 3" size="17280"/>
			<output>
				<port id="0" names="838" precision="FP16">
					<dim>960</dim>
					<dim>1</dim>
					<dim>1</dim>
					<dim>3</dim>
					<dim>3</dim>
				</port>
			</output>
		</layer>
		<layer id="211" name="Conv_138/WithoutBiases" type="GroupConvolution" version="opset1">
			<data auto_pad="explicit" dilations="1, 1" pads_begin="1, 1" pads_end="1, 1" strides="1, 1"/>
			<input>
				<port id="0" precision="FP16">
					<dim>1</dim>
					<dim>960</dim>
					<dim>15</dim>
					<dim>20</dim>
				</port>
				<port id="1" precision="FP16">
					<dim>960</dim>
					<dim>1</dim>
					<dim>1</dim>
					<dim>3</dim>
					<dim>3</dim>
				</port>
			</input>
			<output>
				<port id="2" precision="FP16">
					<dim>1</dim>
					<dim>960</dim>
					<dim>15</dim>
					<dim>20</dim>
				</port>
			</output>
		</layer>
		<layer id="212" name="Conv_138/Dims3863" type="Const" version="opset1">
			<data element_type="f16" offset="1703232" shape="1, 960, 1, 1" size="1920"/>
			<output>
				<port id="0" precision="FP16">
					<dim>1</dim>
					<dim>960</dim>
					<dim>1</dim>
					<dim>1</dim>
				</port>
			</output>
		</layer>
		<layer id="213" name="Conv_138" type="Add" version="opset1">
			<data auto_broadcast="numpy"/>
			<input>
				<port id="0" precision="FP16">
					<dim>1</dim>
					<dim>960</dim>
					<dim>15</dim>
					<dim>20</dim>
				</port>
				<port id="1" precision="FP16">
					<dim>1</dim>
					<dim>960</dim>
					<dim>1</dim>
					<dim>1</dim>
				</port>
			</input>
			<output>
				<port id="2" names="837" precision="FP16">
					<dim>1</dim>
					<dim>960</dim>
					<dim>15</dim>
					<dim>20</dim>
				</port>
			</output>
		</layer>
		<layer id="214" name="Clip_141" type="Clamp" version="opset1">
			<data max="6" min="0"/>
			<input>
				<port id="0" precision="FP16">
					<dim>1</dim>
					<dim>960</dim>
					<dim>15</dim>
					<dim>20</dim>
				</port>
			</input>
			<output>
				<port id="1" names="528" precision="FP16">
					<dim>1</dim>
					<dim>960</dim>
					<dim>15</dim>
					<dim>20</dim>
				</port>
			</output>
		</layer>
		<layer id="215" name="841" type="Const" version="opset1">
			<data element_type="f16" offset="1705152" shape="160, 960, 1, 1" size="307200"/>
			<output>
				<port id="0" names="841" precision="FP16">
					<dim>160</dim>
					<dim>960</dim>
					<dim>1</dim>
					<dim>1</dim>
				</port>
			</output>
		</layer>
		<layer id="216" name="Conv_142/WithoutBiases" type="Convolution" version="opset1">
			<data auto_pad="explicit" dilations="1, 1" pads_begin="0, 0" pads_end="0, 0" strides="1, 1"/>
			<input>
				<port id="0" precision="FP16">
					<dim>1</dim>
					<dim>960</dim>
					<dim>15</dim>
					<dim>20</dim>
				</port>
				<port id="1" precision="FP16">
					<dim>160</dim>
					<dim>960</dim>
					<dim>1</dim>
					<dim>1</dim>
				</port>
			</input>
			<output>
				<port id="2" precision="FP16">
					<dim>1</dim>
					<dim>160</dim>
					<dim>15</dim>
					<dim>20</dim>
				</port>
			</output>
		</layer>
		<layer id="217" name="Conv_142/Dims3881" type="Const" version="opset1">
			<data element_type="f16" offset="2012352" shape="1, 160, 1, 1" size="320"/>
			<output>
				<port id="0" precision="FP16">
					<dim>1</dim>
					<dim>160</dim>
					<dim>1</dim>
					<dim>1</dim>
				</port>
			</output>
		</layer>
		<layer id="218" name="Conv_142" type="Add" version="opset1">
			<data auto_broadcast="numpy"/>
			<input>
				<port id="0" precision="FP16">
					<dim>1</dim>
					<dim>160</dim>
					<dim>15</dim>
					<dim>20</dim>
				</port>
				<port id="1" precision="FP16">
					<dim>1</dim>
					<dim>160</dim>
					<dim>1</dim>
					<dim>1</dim>
				</port>
			</input>
			<output>
				<port id="2" names="840" precision="FP16">
					<dim>1</dim>
					<dim>160</dim>
					<dim>15</dim>
					<dim>20</dim>
				</port>
			</output>
		</layer>
		<layer id="219" name="Add_143" type="Add" version="opset1">
			<data auto_broadcast="numpy"/>
			<input>
				<port id="0" precision="FP16">
					<dim>1</dim>
					<dim>160</dim>
					<dim>15</dim>
					<dim>20</dim>
				</port>
				<port id="1" precision="FP16">
					<dim>1</dim>
					<dim>160</dim>
					<dim>15</dim>
					<dim>20</dim>
				</port>
			</input>
			<output>
				<port id="2" names="531" precision="FP16">
					<dim>1</dim>
					<dim>160</dim>
					<dim>15</dim>
					<dim>20</dim>
				</port>
			</output>
		</layer>
		<layer id="220" name="844" type="Const" version="opset1">
			<data element_type="f16" offset="2012672" shape="960, 160, 1, 1" size="307200"/>
			<output>
				<port id="0" names="844" precision="FP16">
					<dim>960</dim>
					<dim>160</dim>
					<dim>1</dim>
					<dim>1</dim>
				</port>
			</output>
		</layer>
		<layer id="221" name="Conv_144/WithoutBiases" type="Convolution" version="opset1">
			<data auto_pad="explicit" dilations="1, 1" pads_begin="0, 0" pads_end="0, 0" strides="1, 1"/>
			<input>
				<port id="0" precision="FP16">
					<dim>1</dim>
					<dim>160</dim>
					<dim>15</dim>
					<dim>20</dim>
				</port>
				<port id="1" precision="FP16">
					<dim>960</dim>
					<dim>160</dim>
					<dim>1</dim>
					<dim>1</dim>
				</port>
			</input>
			<output>
				<port id="2" precision="FP16">
					<dim>1</dim>
					<dim>960</dim>
					<dim>15</dim>
					<dim>20</dim>
				</port>
			</output>
		</layer>
		<layer id="222" name="Conv_144/Dims3869" type="Const" version="opset1">
			<data element_type="f16" offset="2319872" shape="1, 960, 1, 1" size="1920"/>
			<output>
				<port id="0" precision="FP16">
					<dim>1</dim>
					<dim>960</dim>
					<dim>1</dim>
					<dim>1</dim>
				</port>
			</output>
		</layer>
		<layer id="223" name="Conv_144" type="Add" version="opset1">
			<data auto_broadcast="numpy"/>
			<input>
				<port id="0" precision="FP16">
					<dim>1</dim>
					<dim>960</dim>
					<dim>15</dim>
					<dim>20</dim>
				</port>
				<port id="1" precision="FP16">
					<dim>1</dim>
					<dim>960</dim>
					<dim>1</dim>
					<dim>1</dim>
				</port>
			</input>
			<output>
				<port id="2" names="843" precision="FP16">
					<dim>1</dim>
					<dim>960</dim>
					<dim>15</dim>
					<dim>20</dim>
				</port>
			</output>
		</layer>
		<layer id="224" name="Clip_147" type="Clamp" version="opset1">
			<data max="6" min="0"/>
			<input>
				<port id="0" precision="FP16">
					<dim>1</dim>
					<dim>960</dim>
					<dim>15</dim>
					<dim>20</dim>
				</port>
			</input>
			<output>
				<port id="1" names="536" precision="FP16">
					<dim>1</dim>
					<dim>960</dim>
					<dim>15</dim>
					<dim>20</dim>
				</port>
			</output>
		</layer>
		<layer id="225" name="847" type="Const" version="opset1">
			<data element_type="f16" offset="2321792" shape="960, 1, 1, 3, 3" size="17280"/>
			<output>
				<port id="0" names="847" precision="FP16">
					<dim>960</dim>
					<dim>1</dim>
					<dim>1</dim>
					<dim>3</dim>
					<dim>3</dim>
				</port>
			</output>
		</layer>
		<layer id="226" name="Conv_148/WithoutBiases" type="GroupConvolution" version="opset1">
			<data auto_pad="explicit" dilations="1, 1" pads_begin="1, 1" pads_end="1, 1" strides="1, 1"/>
			<input>
				<port id="0" precision="FP16">
					<dim>1</dim>
					<dim>960</dim>
					<dim>15</dim>
					<dim>20</dim>
				</port>
				<port id="1" precision="FP16">
					<dim>960</dim>
					<dim>1</dim>
					<dim>1</dim>
					<dim>3</dim>
					<dim>3</dim>
				</port>
			</input>
			<output>
				<port id="2" precision="FP16">
					<dim>1</dim>
					<dim>960</dim>
					<dim>15</dim>
					<dim>20</dim>
				</port>
			</output>
		</layer>
		<layer id="227" name="Conv_148/Dims4133" type="Const" version="opset1">
			<data element_type="f16" offset="2339072" shape="1, 960, 1, 1" size="1920"/>
			<output>
				<port id="0" precision="FP16">
					<dim>1</dim>
					<dim>960</dim>
					<dim>1</dim>
					<dim>1</dim>
				</port>
			</output>
		</layer>
		<layer id="228" name="Conv_148" type="Add" version="opset1">
			<data auto_broadcast="numpy"/>
			<input>
				<port id="0" precision="FP16">
					<dim>1</dim>
					<dim>960</dim>
					<dim>15</dim>
					<dim>20</dim>
				</port>
				<port id="1" precision="FP16">
					<dim>1</dim>
					<dim>960</dim>
					<dim>1</dim>
					<dim>1</dim>
				</port>
			</input>
			<output>
				<port id="2" names="846" precision="FP16">
					<dim>1</dim>
					<dim>960</dim>
					<dim>15</dim>
					<dim>20</dim>
				</port>
			</output>
		</layer>
		<layer id="229" name="Clip_151" type="Clamp" version="opset1">
			<data max="6" min="0"/>
			<input>
				<port id="0" precision="FP16">
					<dim>1</dim>
					<dim>960</dim>
					<dim>15</dim>
					<dim>20</dim>
				</port>
			</input>
			<output>
				<port id="1" names="541" precision="FP16">
					<dim>1</dim>
					<dim>960</dim>
					<dim>15</dim>
					<dim>20</dim>
				</port>
			</output>
		</layer>
		<layer id="230" name="850" type="Const" version="opset1">
			<data element_type="f16" offset="2340992" shape="160, 960, 1, 1" size="307200"/>
			<output>
				<port id="0" names="850" precision="FP16">
					<dim>160</dim>
					<dim>960</dim>
					<dim>1</dim>
					<dim>1</dim>
				</port>
			</output>
		</layer>
		<layer id="231" name="Conv_152/WithoutBiases" type="Convolution" version="opset1">
			<data auto_pad="explicit" dilations="1, 1" pads_begin="0, 0" pads_end="0, 0" strides="1, 1"/>
			<input>
				<port id="0" precision="FP16">
					<dim>1</dim>
					<dim>960</dim>
					<dim>15</dim>
					<dim>20</dim>
				</port>
				<port id="1" precision="FP16">
					<dim>160</dim>
					<dim>960</dim>
					<dim>1</dim>
					<dim>1</dim>
				</port>
			</input>
			<output>
				<port id="2" precision="FP16">
					<dim>1</dim>
					<dim>160</dim>
					<dim>15</dim>
					<dim>20</dim>
				</port>
			</output>
		</layer>
		<layer id="232" name="Conv_152/Dims3971" type="Const" version="opset1">
			<data element_type="f16" offset="2648192" shape="1, 160, 1, 1" size="320"/>
			<output>
				<port id="0" precision="FP16">
					<dim>1</dim>
					<dim>160</dim>
					<dim>1</dim>
					<dim>1</dim>
				</port>
			</output>
		</layer>
		<layer id="233" name="Conv_152" type="Add" version="opset1">
			<data auto_broadcast="numpy"/>
			<input>
				<port id="0" precision="FP16">
					<dim>1</dim>
					<dim>160</dim>
					<dim>15</dim>
					<dim>20</dim>
				</port>
				<port id="1" precision="FP16">
					<dim>1</dim>
					<dim>160</dim>
					<dim>1</dim>
					<dim>1</dim>
				</port>
			</input>
			<output>
				<port id="2" names="849" precision="FP16">
					<dim>1</dim>
					<dim>160</dim>
					<dim>15</dim>
					<dim>20</dim>
				</port>
			</output>
		</layer>
		<layer id="234" name="Add_153" type="Add" version="opset1">
			<data auto_broadcast="numpy"/>
			<input>
				<port id="0" precision="FP16">
					<dim>1</dim>
					<dim>160</dim>
					<dim>15</dim>
					<dim>20</dim>
				</port>
				<port id="1" precision="FP16">
					<dim>1</dim>
					<dim>160</dim>
					<dim>15</dim>
					<dim>20</dim>
				</port>
			</input>
			<output>
				<port id="2" names="544" precision="FP16">
					<dim>1</dim>
					<dim>160</dim>
					<dim>15</dim>
					<dim>20</dim>
				</port>
			</output>
		</layer>
		<layer id="235" name="853" type="Const" version="opset1">
			<data element_type="f16" offset="2648512" shape="960, 160, 1, 1" size="307200"/>
			<output>
				<port id="0" names="853" precision="FP16">
					<dim>960</dim>
					<dim>160</dim>
					<dim>1</dim>
					<dim>1</dim>
				</port>
			</output>
		</layer>
		<layer id="236" name="Conv_154/WithoutBiases" type="Convolution" version="opset1">
			<data auto_pad="explicit" dilations="1, 1" pads_begin="0, 0" pads_end="0, 0" strides="1, 1"/>
			<input>
				<port id="0" precision="FP16">
					<dim>1</dim>
					<dim>160</dim>
					<dim>15</dim>
					<dim>20</dim>
				</port>
				<port id="1" precision="FP16">
					<dim>960</dim>
					<dim>160</dim>
					<dim>1</dim>
					<dim>1</dim>
				</port>
			</input>
			<output>
				<port id="2" precision="FP16">
					<dim>1</dim>
					<dim>960</dim>
					<dim>15</dim>
					<dim>20</dim>
				</port>
			</output>
		</layer>
		<layer id="237" name="Conv_154/Dims4043" type="Const" version="opset1">
			<data element_type="f16" offset="2955712" shape="1, 960, 1, 1" size="1920"/>
			<output>
				<port id="0" precision="FP16">
					<dim>1</dim>
					<dim>960</dim>
					<dim>1</dim>
					<dim>1</dim>
				</port>
			</output>
		</layer>
		<layer id="238" name="Conv_154" type="Add" version="opset1">
			<data auto_broadcast="numpy"/>
			<input>
				<port id="0" precision="FP16">
					<dim>1</dim>
					<dim>960</dim>
					<dim>15</dim>
					<dim>20</dim>
				</port>
				<port id="1" precision="FP16">
					<dim>1</dim>
					<dim>960</dim>
					<dim>1</dim>
					<dim>1</dim>
				</port>
			</input>
			<output>
				<port id="2" names="852" precision="FP16">
					<dim>1</dim>
					<dim>960</dim>
					<dim>15</dim>
					<dim>20</dim>
				</port>
			</output>
		</layer>
		<layer id="239" name="Clip_157" type="Clamp" version="opset1">
			<data max="6" min="0"/>
			<input>
				<port id="0" precision="FP16">
					<dim>1</dim>
					<dim>960</dim>
					<dim>15</dim>
					<dim>20</dim>
				</port>
			</input>
			<output>
				<port id="1" names="549" precision="FP16">
					<dim>1</dim>
					<dim>960</dim>
					<dim>15</dim>
					<dim>20</dim>
				</port>
			</output>
		</layer>
		<layer id="240" name="856" type="Const" version="opset1">
			<data element_type="f16" offset="2957632" shape="960, 1, 1, 3, 3" size="17280"/>
			<output>
				<port id="0" names="856" precision="FP16">
					<dim>960</dim>
					<dim>1</dim>
					<dim>1</dim>
					<dim>3</dim>
					<dim>3</dim>
				</port>
			</output>
		</layer>
		<layer id="241" name="Conv_158/WithoutBiases" type="GroupConvolution" version="opset1">
			<data auto_pad="explicit" dilations="1, 1" pads_begin="1, 1" pads_end="1, 1" strides="1, 1"/>
			<input>
				<port id="0" precision="FP16">
					<dim>1</dim>
					<dim>960</dim>
					<dim>15</dim>
					<dim>20</dim>
				</port>
				<port id="1" precision="FP16">
					<dim>960</dim>
					<dim>1</dim>
					<dim>1</dim>
					<dim>3</dim>
					<dim>3</dim>
				</port>
			</input>
			<output>
				<port id="2" precision="FP16">
					<dim>1</dim>
					<dim>960</dim>
					<dim>15</dim>
					<dim>20</dim>
				</port>
			</output>
		</layer>
		<layer id="242" name="Conv_158/Dims4001" type="Const" version="opset1">
			<data element_type="f16" offset="2974912" shape="1, 960, 1, 1" size="1920"/>
			<output>
				<port id="0" precision="FP16">
					<dim>1</dim>
					<dim>960</dim>
					<dim>1</dim>
					<dim>1</dim>
				</port>
			</output>
		</layer>
		<layer id="243" name="Conv_158" type="Add" version="opset1">
			<data auto_broadcast="numpy"/>
			<input>
				<port id="0" precision="FP16">
					<dim>1</dim>
					<dim>960</dim>
					<dim>15</dim>
					<dim>20</dim>
				</port>
				<port id="1" precision="FP16">
					<dim>1</dim>
					<dim>960</dim>
					<dim>1</dim>
					<dim>1</dim>
				</port>
			</input>
			<output>
				<port id="2" names="855" precision="FP16">
					<dim>1</dim>
					<dim>960</dim>
					<dim>15</dim>
					<dim>20</dim>
				</port>
			</output>
		</layer>
		<layer id="244" name="Clip_161" type="Clamp" version="opset1">
			<data max="6" min="0"/>
			<input>
				<port id="0" precision="FP16">
					<dim>1</dim>
					<dim>960</dim>
					<dim>15</dim>
					<dim>20</dim>
				</port>
			</input>
			<output>
				<port id="1" names="554" precision="FP16">
					<dim>1</dim>
					<dim>960</dim>
					<dim>15</dim>
					<dim>20</dim>
				</port>
			</output>
		</layer>
		<layer id="245" name="859" type="Const" version="opset1">
			<data element_type="f16" offset="2976832" shape="320, 960, 1, 1" size="614400"/>
			<output>
				<port id="0" names="859" precision="FP16">
					<dim>320</dim>
					<dim>960</dim>
					<dim>1</dim>
					<dim>1</dim>
				</port>
			</output>
		</layer>
		<layer id="246" name="Conv_162/WithoutBiases" type="Convolution" version="opset1">
			<data auto_pad="explicit" dilations="1, 1" pads_begin="0, 0" pads_end="0, 0" strides="1, 1"/>
			<input>
				<port id="0" precision="FP16">
					<dim>1</dim>
					<dim>960</dim>
					<dim>15</dim>
					<dim>20</dim>
				</port>
				<port id="1" precision="FP16">
					<dim>320</dim>
					<dim>960</dim>
					<dim>1</dim>
					<dim>1</dim>
				</port>
			</input>
			<output>
				<port id="2" precision="FP16">
					<dim>1</dim>
					<dim>320</dim>
					<dim>15</dim>
					<dim>20</dim>
				</port>
			</output>
		</layer>
		<layer id="247" name="Conv_162/Dims3941" type="Const" version="opset1">
			<data element_type="f16" offset="3591232" shape="1, 320, 1, 1" size="640"/>
			<output>
				<port id="0" precision="FP16">
					<dim>1</dim>
					<dim>320</dim>
					<dim>1</dim>
					<dim>1</dim>
				</port>
			</output>
		</layer>
		<layer id="248" name="Conv_162" type="Add" version="opset1">
			<data auto_broadcast="numpy"/>
			<input>
				<port id="0" precision="FP16">
					<dim>1</dim>
					<dim>320</dim>
					<dim>15</dim>
					<dim>20</dim>
				</port>
				<port id="1" precision="FP16">
					<dim>1</dim>
					<dim>320</dim>
					<dim>1</dim>
					<dim>1</dim>
				</port>
			</input>
			<output>
				<port id="2" names="858" precision="FP16">
					<dim>1</dim>
					<dim>320</dim>
					<dim>15</dim>
					<dim>20</dim>
				</port>
			</output>
		</layer>
		<layer id="249" name="862" type="Const" version="opset1">
			<data element_type="f16" offset="3591872" shape="1280, 320, 1, 1" size="819200"/>
			<output>
				<port id="0" names="862" precision="FP16">
					<dim>1280</dim>
					<dim>320</dim>
					<dim>1</dim>
					<dim>1</dim>
				</port>
			</output>
		</layer>
		<layer id="250" name="Conv_163/WithoutBiases" type="Convolution" version="opset1">
			<data auto_pad="explicit" dilations="1, 1" pads_begin="0, 0" pads_end="0, 0" strides="1, 1"/>
			<input>
				<port id="0" precision="FP16">
					<dim>1</dim>
					<dim>320</dim>
					<dim>15</dim>
					<dim>20</dim>
				</port>
				<port id="1" precision="FP16">
					<dim>1280</dim>
					<dim>320</dim>
					<dim>1</dim>
					<dim>1</dim>
				</port>
			</input>
			<output>
				<port id="2" precision="FP16">
					<dim>1</dim>
					<dim>1280</dim>
					<dim>15</dim>
					<dim>20</dim>
				</port>
			</output>
		</layer>
		<layer id="251" name="Conv_163/Dims3917" type="Const" version="opset1">
			<data element_type="f16" offset="4411072" shape="1, 1280, 1, 1" size="2560"/>
			<output>
				<port id="0" precision="FP16">
					<dim>1</dim>
					<dim>1280</dim>
					<dim>1</dim>
					<dim>1</dim>
				</port>
			</output>
		</layer>
		<layer id="252" name="Conv_163" type="Add" version="opset1">
			<data auto_broadcast="numpy"/>
			<input>
				<port id="0" precision="FP16">
					<dim>1</dim>
					<dim>1280</dim>
					<dim>15</dim>
					<dim>20</dim>
				</port>
				<port id="1" precision="FP16">
					<dim>1</dim>
					<dim>1280</dim>
					<dim>1</dim>
					<dim>1</dim>
				</port>
			</input>
			<output>
				<port id="2" names="861" precision="FP16">
					<dim>1</dim>
					<dim>1280</dim>
					<dim>15</dim>
					<dim>20</dim>
				</port>
			</output>
		</layer>
		<layer id="253" name="Clip_166" type="Clamp" version="opset1">
			<data max="6" min="0"/>
			<input>
				<port id="0" precision="FP16">
					<dim>1</dim>
					<dim>1280</dim>
					<dim>15</dim>
					<dim>20</dim>
				</port>
			</input>
			<output>
				<port id="1" names="561" precision="FP16">
					<dim>1</dim>
					<dim>1280</dim>
					<dim>15</dim>
					<dim>20</dim>
				</port>
			</output>
		</layer>
		<layer id="254" name="decoder.conv2.weight" type="Const" version="opset1">
			<data element_type="f16" offset="4413632" shape="768, 1280, 1, 1" size="1966080"/>
			<output>
				<port id="0" names="decoder.conv2.weight" precision="FP16">
					<dim>768</dim>
					<dim>1280</dim>
					<dim>1</dim>
					<dim>1</dim>
				</port>
			</output>
		</layer>
		<layer id="255" name="Conv_167/WithoutBiases" type="Convolution" version="opset1">
			<data auto_pad="explicit" dilations="1, 1" pads_begin="1, 1" pads_end="1, 1" strides="1, 1"/>
			<input>
				<port id="0" precision="FP16">
					<dim>1</dim>
					<dim>1280</dim>
					<dim>15</dim>
					<dim>20</dim>
				</port>
				<port id="1" precision="FP16">
					<dim>768</dim>
					<dim>1280</dim>
					<dim>1</dim>
					<dim>1</dim>
				</port>
			</input>
			<output>
				<port id="2" precision="FP16">
					<dim>1</dim>
					<dim>768</dim>
					<dim>17</dim>
					<dim>22</dim>
				</port>
			</output>
		</layer>
		<layer id="256" name="Conv_167/Dims3857" type="Const" version="opset1">
			<data element_type="f16" offset="6379712" shape="1, 768, 1, 1" size="1536"/>
			<output>
				<port id="0" precision="FP16">
					<dim>1</dim>
					<dim>768</dim>
					<dim>1</dim>
					<dim>1</dim>
				</port>
			</output>
		</layer>
		<layer id="257" name="Conv_167" type="Add" version="opset1">
			<data auto_broadcast="numpy"/>
			<input>
				<port id="0" precision="FP16">
					<dim>1</dim>
					<dim>768</dim>
					<dim>17</dim>
					<dim>22</dim>
				</port>
				<port id="1" precision="FP16">
					<dim>1</dim>
					<dim>768</dim>
					<dim>1</dim>
					<dim>1</dim>
				</port>
			</input>
			<output>
				<port id="2" names="562" precision="FP16">
					<dim>1</dim>
					<dim>768</dim>
					<dim>17</dim>
					<dim>22</dim>
				</port>
			</output>
		</layer>
		<layer id="258" name="Conv_162/Shape" type="ShapeOf" version="opset3">
			<data output_type="i64"/>
			<input>
				<port id="0" precision="FP16">
					<dim>1</dim>
					<dim>320</dim>
					<dim>15</dim>
					<dim>20</dim>
				</port>
			</input>
			<output>
				<port id="1" precision="I64">
					<dim>4</dim>
				</port>
			</output>
		</layer>
		<layer id="259" name="Conv_162/Shape/Gathered_input_port_1/value1190217715" type="Const" version="opset1">
			<data element_type="i32" offset="6381248" shape="2" size="8"/>
			<output>
				<port id="0" precision="I32">
					<dim>2</dim>
				</port>
			</output>
		</layer>
		<layer id="260" name="Conv_162/Shape/Gathered_input_port_2/value1190417448" type="Const" version="opset1">
			<data element_type="i64" offset="6381256" shape="" size="8"/>
			<output>
				<port id="0" precision="I64"/>
			</output>
		</layer>
		<layer id="261" name="Conv_162/Shape/Gathered" type="Gather" version="opset7">
			<data batch_dims="0"/>
			<input>
				<port id="0" precision="I64">
					<dim>4</dim>
				</port>
				<port id="1" precision="I32">
					<dim>2</dim>
				</port>
				<port id="2" precision="I64"/>
			</input>
			<output>
				<port id="3" precision="I64">
					<dim>2</dim>
				</port>
			</output>
		</layer>
		<layer id="262" name="2935293717787" type="Const" version="opset1">
			<data element_type="f32" offset="6381264" shape="4" size="16"/>
			<output>
				<port id="0" precision="FP32">
					<dim>4</dim>
				</port>
			</output>
		</layer>
		<layer id="263" name="Resize_186/ShapeOf" type="ShapeOf" version="opset3">
			<data output_type="i64"/>
			<input>
				<port id="0" precision="FP16">
					<dim>1</dim>
					<dim>768</dim>
					<dim>17</dim>
					<dim>22</dim>
				</port>
			</input>
			<output>
				<port id="1" precision="I64">
					<dim>4</dim>
				</port>
			</output>
		</layer>
		<layer id="264" name="2934" type="Convert" version="opset1">
			<data destination_type="f32"/>
			<input>
				<port id="0" precision="I64">
					<dim>4</dim>
				</port>
			</input>
			<output>
				<port id="1" precision="FP32">
					<dim>4</dim>
				</port>
			</output>
		</layer>
		<layer id="265" name="Resize_186/Div" type="Divide" version="opset1">
			<data auto_broadcast="numpy" m_pythondiv="true"/>
			<input>
				<port id="0" precision="FP32">
					<dim>4</dim>
				</port>
				<port id="1" precision="FP32">
					<dim>4</dim>
				</port>
			</input>
			<output>
				<port id="2" precision="FP32">
					<dim>4</dim>
				</port>
			</output>
		</layer>
		<layer id="266" name="Resize_186/Add_input_port_1/value293317892" type="Const" version="opset1">
			<data element_type="f32" offset="6381280" shape="1" size="4"/>
			<output>
				<port id="0" precision="FP32">
					<dim>1</dim>
				</port>
			</output>
		</layer>
		<layer id="267" name="Resize_186/Add" type="Add" version="opset1">
			<data auto_broadcast="numpy"/>
			<input>
				<port id="0" precision="FP32">
					<dim>4</dim>
				</port>
				<port id="1" precision="FP32">
					<dim>1</dim>
				</port>
			</input>
			<output>
				<port id="2" precision="FP32">
					<dim>4</dim>
				</port>
			</output>
		</layer>
		<layer id="268" name="Resize_186/StridedSlice_scales_input_port_1/value292217373" type="Const" version="opset1">
			<data element_type="i64" offset="6381284" shape="1" size="8"/>
			<output>
				<port id="0" precision="I64">
					<dim>1</dim>
				</port>
			</output>
		</layer>
		<layer id="269" name="Resize_186/StridedSlice_scales_input_port_2/value292417595" type="Const" version="opset1">
			<data element_type="i64" offset="6381292" shape="1" size="8"/>
			<output>
				<port id="0" precision="I64">
					<dim>1</dim>
				</port>
			</output>
		</layer>
		<layer id="270" name="Resize_186/StridedSlice_scales_input_port_3/value292617868" type="Const" version="opset1">
			<data element_type="i64" offset="6381300" shape="1" size="8"/>
			<output>
				<port id="0" precision="I64">
					<dim>1</dim>
				</port>
			</output>
		</layer>
		<layer id="271" name="Resize_186/StridedSlice_scales" type="StridedSlice" version="opset1">
			<data begin_mask="0" ellipsis_mask="0" end_mask="0" new_axis_mask="0" shrink_axis_mask="0"/>
			<input>
				<port id="0" precision="FP32">
					<dim>4</dim>
				</port>
				<port id="1" precision="I64">
					<dim>1</dim>
				</port>
				<port id="2" precision="I64">
					<dim>1</dim>
				</port>
				<port id="3" precision="I64">
					<dim>1</dim>
				</port>
			</input>
			<output>
				<port id="4" precision="FP32">
					<dim>2</dim>
				</port>
			</output>
		</layer>
		<layer id="272" name="Resize_186/axis292917484" type="Const" version="opset1">
			<data element_type="i64" offset="6381308" shape="2" size="16"/>
			<output>
				<port id="0" precision="I64">
					<dim>2</dim>
				</port>
			</output>
		</layer>
		<layer id="273" name="Resize_186" type="Interpolate" version="opset4">
			<data antialias="false" coordinate_transformation_mode="align_corners" cube_coeff="-0.75" mode="linear_onnx" nearest_mode="floor" pads_begin="0, 0, 0, 0" pads_end="0, 0, 0, 0" shape_calculation_mode="sizes"/>
			<input>
				<port id="0" precision="FP16">
					<dim>1</dim>
					<dim>768</dim>
					<dim>17</dim>
					<dim>22</dim>
				</port>
				<port id="1" precision="I64">
					<dim>2</dim>
				</port>
				<port id="2" precision="FP32">
					<dim>2</dim>
				</port>
				<port id="3" precision="I64">
					<dim>2</dim>
				</port>
			</input>
			<output>
				<port id="4" names="581" precision="FP16">
					<dim>1</dim>
					<dim>768</dim>
					<dim>15</dim>
					<dim>20</dim>
				</port>
			</output>
		</layer>
		<layer id="274" name="Concat_187" type="Concat" version="opset1">
			<data axis="1"/>
			<input>
				<port id="0" precision="FP16">
					<dim>1</dim>
					<dim>768</dim>
					<dim>15</dim>
					<dim>20</dim>
				</port>
				<port id="1" precision="FP16">
					<dim>1</dim>
					<dim>320</dim>
					<dim>15</dim>
					<dim>20</dim>
				</port>
			</input>
			<output>
				<port id="2" names="582" precision="FP16">
					<dim>1</dim>
					<dim>1088</dim>
					<dim>15</dim>
					<dim>20</dim>
				</port>
			</output>
		</layer>
		<layer id="275" name="decoder.up0.convA.weight" type="Const" version="opset1">
			<data element_type="f16" offset="6381324" shape="384, 1088, 3, 3" size="7520256"/>
			<output>
				<port id="0" names="decoder.up0.convA.weight" precision="FP16">
					<dim>384</dim>
					<dim>1088</dim>
					<dim>3</dim>
					<dim>3</dim>
				</port>
			</output>
		</layer>
		<layer id="276" name="Conv_188/WithoutBiases" type="Convolution" version="opset1">
			<data auto_pad="explicit" dilations="1, 1" pads_begin="1, 1" pads_end="1, 1" strides="1, 1"/>
			<input>
				<port id="0" precision="FP16">
					<dim>1</dim>
					<dim>1088</dim>
					<dim>15</dim>
					<dim>20</dim>
				</port>
				<port id="1" precision="FP16">
					<dim>384</dim>
					<dim>1088</dim>
					<dim>3</dim>
					<dim>3</dim>
				</port>
			</input>
			<output>
				<port id="2" precision="FP16">
					<dim>1</dim>
					<dim>384</dim>
					<dim>15</dim>
					<dim>20</dim>
				</port>
			</output>
		</layer>
		<layer id="277" name="Conv_188/Dims4187" type="Const" version="opset1">
			<data element_type="f16" offset="13901580" shape="1, 384, 1, 1" size="768"/>
			<output>
				<port id="0" precision="FP16">
					<dim>1</dim>
					<dim>384</dim>
					<dim>1</dim>
					<dim>1</dim>
				</port>
			</output>
		</layer>
		<layer id="278" name="Conv_188" type="Add" version="opset1">
			<data auto_broadcast="numpy"/>
			<input>
				<port id="0" precision="FP16">
					<dim>1</dim>
					<dim>384</dim>
					<dim>15</dim>
					<dim>20</dim>
				</port>
				<port id="1" precision="FP16">
					<dim>1</dim>
					<dim>384</dim>
					<dim>1</dim>
					<dim>1</dim>
				</port>
			</input>
			<output>
				<port id="2" names="583" precision="FP16">
					<dim>1</dim>
					<dim>384</dim>
					<dim>15</dim>
					<dim>20</dim>
				</port>
			</output>
		</layer>
		<layer id="279" name="LeakyRelu_189/weights1163617523" type="Const" version="opset1">
			<data element_type="f32" offset="13902348" shape="1" size="4"/>
			<output>
				<port id="0" precision="FP32">
					<dim>1</dim>
				</port>
			</output>
		</layer>
		<layer id="280" name="LeakyRelu_189" type="PReLU" version="opset1">
			<input>
				<port id="0" precision="FP16">
					<dim>1</dim>
					<dim>384</dim>
					<dim>15</dim>
					<dim>20</dim>
				</port>
				<port id="1" precision="FP32">
					<dim>1</dim>
				</port>
			</input>
			<output>
				<port id="2" names="584" precision="FP16">
					<dim>1</dim>
					<dim>384</dim>
					<dim>15</dim>
					<dim>20</dim>
				</port>
			</output>
		</layer>
		<layer id="281" name="decoder.up0.convB.weight" type="Const" version="opset1">
			<data element_type="f16" offset="13902352" shape="384, 384, 3, 3" size="2654208"/>
			<output>
				<port id="0" names="decoder.up0.convB.weight" precision="FP16">
					<dim>384</dim>
					<dim>384</dim>
					<dim>3</dim>
					<dim>3</dim>
				</port>
			</output>
		</layer>
		<layer id="282" name="Conv_190/WithoutBiases" type="Convolution" version="opset1">
			<data auto_pad="explicit" dilations="1, 1" pads_begin="1, 1" pads_end="1, 1" strides="1, 1"/>
			<input>
				<port id="0" precision="FP16">
					<dim>1</dim>
					<dim>384</dim>
					<dim>15</dim>
					<dim>20</dim>
				</port>
				<port id="1" precision="FP16">
					<dim>384</dim>
					<dim>384</dim>
					<dim>3</dim>
					<dim>3</dim>
				</port>
			</input>
			<output>
				<port id="2" precision="FP16">
					<dim>1</dim>
					<dim>384</dim>
					<dim>15</dim>
					<dim>20</dim>
				</port>
			</output>
		</layer>
		<layer id="283" name="Conv_190/Dims4193" type="Const" version="opset1">
			<data element_type="f16" offset="16556560" shape="1, 384, 1, 1" size="768"/>
			<output>
				<port id="0" precision="FP16">
					<dim>1</dim>
					<dim>384</dim>
					<dim>1</dim>
					<dim>1</dim>
				</port>
			</output>
		</layer>
		<layer id="284" name="Conv_190" type="Add" version="opset1">
			<data auto_broadcast="numpy"/>
			<input>
				<port id="0" precision="FP16">
					<dim>1</dim>
					<dim>384</dim>
					<dim>15</dim>
					<dim>20</dim>
				</port>
				<port id="1" precision="FP16">
					<dim>1</dim>
					<dim>384</dim>
					<dim>1</dim>
					<dim>1</dim>
				</port>
			</input>
			<output>
				<port id="2" names="585" precision="FP16">
					<dim>1</dim>
					<dim>384</dim>
					<dim>15</dim>
					<dim>20</dim>
				</port>
			</output>
		</layer>
		<layer id="285" name="LeakyRelu_191/weights1160817898" type="Const" version="opset1">
			<data element_type="f32" offset="13902348" shape="1" size="4"/>
			<output>
				<port id="0" precision="FP32">
					<dim>1</dim>
				</port>
			</output>
		</layer>
		<layer id="286" name="LeakyRelu_191" type="PReLU" version="opset1">
			<input>
				<port id="0" precision="FP16">
					<dim>1</dim>
					<dim>384</dim>
					<dim>15</dim>
					<dim>20</dim>
				</port>
				<port id="1" precision="FP32">
					<dim>1</dim>
				</port>
			</input>
			<output>
				<port id="2" names="586" precision="FP16">
					<dim>1</dim>
					<dim>384</dim>
					<dim>15</dim>
					<dim>20</dim>
				</port>
			</output>
		</layer>
		<layer id="287" name="Conv_133/Shape" type="ShapeOf" version="opset3">
			<data output_type="i64"/>
			<input>
				<port id="0" precision="FP16">
					<dim>1</dim>
					<dim>160</dim>
					<dim>15</dim>
					<dim>20</dim>
				</port>
			</input>
			<output>
				<port id="1" precision="I64">
					<dim>4</dim>
				</port>
			</output>
		</layer>
		<layer id="288" name="Conv_133/Shape/Gathered_input_port_1/value1191017583" type="Const" version="opset1">
			<data element_type="i32" offset="6381248" shape="2" size="8"/>
			<output>
				<port id="0" precision="I32">
					<dim>2</dim>
				</port>
			</output>
		</layer>
		<layer id="289" name="Conv_133/Shape/Gathered_input_port_2/value1191217577" type="Const" version="opset1">
			<data element_type="i64" offset="6381256" shape="" size="8"/>
			<output>
				<port id="0" precision="I64"/>
			</output>
		</layer>
		<layer id="290" name="Conv_133/Shape/Gathered" type="Gather" version="opset7">
			<data batch_dims="0"/>
			<input>
				<port id="0" precision="I64">
					<dim>4</dim>
				</port>
				<port id="1" precision="I32">
					<dim>2</dim>
				</port>
				<port id="2" precision="I64"/>
			</input>
			<output>
				<port id="3" precision="I64">
					<dim>2</dim>
				</port>
			</output>
		</layer>
		<layer id="291" name="2967296917586" type="Const" version="opset1">
			<data element_type="f32" offset="16557328" shape="4" size="16"/>
			<output>
				<port id="0" precision="FP32">
					<dim>4</dim>
				</port>
			</output>
		</layer>
		<layer id="292" name="Resize_210/ShapeOf" type="ShapeOf" version="opset3">
			<data output_type="i64"/>
			<input>
				<port id="0" precision="FP16">
					<dim>1</dim>
					<dim>384</dim>
					<dim>15</dim>
					<dim>20</dim>
				</port>
			</input>
			<output>
				<port id="1" precision="I64">
					<dim>4</dim>
				</port>
			</output>
		</layer>
		<layer id="293" name="2966" type="Convert" version="opset1">
			<data destination_type="f32"/>
			<input>
				<port id="0" precision="I64">
					<dim>4</dim>
				</port>
			</input>
			<output>
				<port id="1" precision="FP32">
					<dim>4</dim>
				</port>
			</output>
		</layer>
		<layer id="294" name="Resize_210/Div" type="Divide" version="opset1">
			<data auto_broadcast="numpy" m_pythondiv="true"/>
			<input>
				<port id="0" precision="FP32">
					<dim>4</dim>
				</port>
				<port id="1" precision="FP32">
					<dim>4</dim>
				</port>
			</input>
			<output>
				<port id="2" precision="FP32">
					<dim>4</dim>
				</port>
			</output>
		</layer>
		<layer id="295" name="Resize_210/Add_input_port_1/value296517592" type="Const" version="opset1">
			<data element_type="f32" offset="6381280" shape="1" size="4"/>
			<output>
				<port id="0" precision="FP32">
					<dim>1</dim>
				</port>
			</output>
		</layer>
		<layer id="296" name="Resize_210/Add" type="Add" version="opset1">
			<data auto_broadcast="numpy"/>
			<input>
				<port id="0" precision="FP32">
					<dim>4</dim>
				</port>
				<port id="1" precision="FP32">
					<dim>1</dim>
				</port>
			</input>
			<output>
				<port id="2" precision="FP32">
					<dim>4</dim>
				</port>
			</output>
		</layer>
		<layer id="297" name="Resize_210/StridedSlice_scales_input_port_1/value295417910" type="Const" version="opset1">
			<data element_type="i64" offset="6381284" shape="1" size="8"/>
			<output>
				<port id="0" precision="I64">
					<dim>1</dim>
				</port>
			</output>
		</layer>
		<layer id="298" name="Resize_210/StridedSlice_scales_input_port_2/value295617802" type="Const" version="opset1">
			<data element_type="i64" offset="6381292" shape="1" size="8"/>
			<output>
				<port id="0" precision="I64">
					<dim>1</dim>
				</port>
			</output>
		</layer>
		<layer id="299" name="Resize_210/StridedSlice_scales_input_port_3/value295817412" type="Const" version="opset1">
			<data element_type="i64" offset="6381300" shape="1" size="8"/>
			<output>
				<port id="0" precision="I64">
					<dim>1</dim>
				</port>
			</output>
		</layer>
		<layer id="300" name="Resize_210/StridedSlice_scales" type="StridedSlice" version="opset1">
			<data begin_mask="0" ellipsis_mask="0" end_mask="0" new_axis_mask="0" shrink_axis_mask="0"/>
			<input>
				<port id="0" precision="FP32">
					<dim>4</dim>
				</port>
				<port id="1" precision="I64">
					<dim>1</dim>
				</port>
				<port id="2" precision="I64">
					<dim>1</dim>
				</port>
				<port id="3" precision="I64">
					<dim>1</dim>
				</port>
			</input>
			<output>
				<port id="4" precision="FP32">
					<dim>2</dim>
				</port>
			</output>
		</layer>
		<layer id="301" name="Resize_210/axis296117883" type="Const" version="opset1">
			<data element_type="i64" offset="6381308" shape="2" size="16"/>
			<output>
				<port id="0" precision="I64">
					<dim>2</dim>
				</port>
			</output>
		</layer>
		<layer id="302" name="Resize_210" type="Interpolate" version="opset4">
			<data antialias="false" coordinate_transformation_mode="align_corners" cube_coeff="-0.75" mode="linear_onnx" nearest_mode="floor" pads_begin="0, 0, 0, 0" pads_end="0, 0, 0, 0" shape_calculation_mode="sizes"/>
			<input>
				<port id="0" precision="FP16">
					<dim>1</dim>
					<dim>384</dim>
					<dim>15</dim>
					<dim>20</dim>
				</port>
				<port id="1" precision="I64">
					<dim>2</dim>
				</port>
				<port id="2" precision="FP32">
					<dim>2</dim>
				</port>
				<port id="3" precision="I64">
					<dim>2</dim>
				</port>
			</input>
			<output>
				<port id="4" names="605" precision="FP16">
					<dim>1</dim>
					<dim>384</dim>
					<dim>15</dim>
					<dim>20</dim>
				</port>
			</output>
		</layer>
		<layer id="303" name="Concat_211" type="Concat" version="opset1">
			<data axis="1"/>
			<input>
				<port id="0" precision="FP16">
					<dim>1</dim>
					<dim>384</dim>
					<dim>15</dim>
					<dim>20</dim>
				</port>
				<port id="1" precision="FP16">
					<dim>1</dim>
					<dim>160</dim>
					<dim>15</dim>
					<dim>20</dim>
				</port>
			</input>
			<output>
				<port id="2" names="606" precision="FP16">
					<dim>1</dim>
					<dim>544</dim>
					<dim>15</dim>
					<dim>20</dim>
				</port>
			</output>
		</layer>
		<layer id="304" name="decoder.up1.convA.weight" type="Const" version="opset1">
			<data element_type="f16" offset="16557344" shape="384, 544, 3, 3" size="3760128"/>
			<output>
				<port id="0" names="decoder.up1.convA.weight" precision="FP16">
					<dim>384</dim>
					<dim>544</dim>
					<dim>3</dim>
					<dim>3</dim>
				</port>
			</output>
		</layer>
		<layer id="305" name="Conv_212/WithoutBiases" type="Convolution" version="opset1">
			<data auto_pad="explicit" dilations="1, 1" pads_begin="1, 1" pads_end="1, 1" strides="1, 1"/>
			<input>
				<port id="0" precision="FP16">
					<dim>1</dim>
					<dim>544</dim>
					<dim>15</dim>
					<dim>20</dim>
				</port>
				<port id="1" precision="FP16">
					<dim>384</dim>
					<dim>544</dim>
					<dim>3</dim>
					<dim>3</dim>
				</port>
			</input>
			<output>
				<port id="2" precision="FP16">
					<dim>1</dim>
					<dim>384</dim>
					<dim>15</dim>
					<dim>20</dim>
				</port>
			</output>
		</layer>
		<layer id="306" name="Conv_212/Dims3911" type="Const" version="opset1">
			<data element_type="f16" offset="20317472" shape="1, 384, 1, 1" size="768"/>
			<output>
				<port id="0" precision="FP16">
					<dim>1</dim>
					<dim>384</dim>
					<dim>1</dim>
					<dim>1</dim>
				</port>
			</output>
		</layer>
		<layer id="307" name="Conv_212" type="Add" version="opset1">
			<data auto_broadcast="numpy"/>
			<input>
				<port id="0" precision="FP16">
					<dim>1</dim>
					<dim>384</dim>
					<dim>15</dim>
					<dim>20</dim>
				</port>
				<port id="1" precision="FP16">
					<dim>1</dim>
					<dim>384</dim>
					<dim>1</dim>
					<dim>1</dim>
				</port>
			</input>
			<output>
				<port id="2" names="607" precision="FP16">
					<dim>1</dim>
					<dim>384</dim>
					<dim>15</dim>
					<dim>20</dim>
				</port>
			</output>
		</layer>
		<layer id="308" name="LeakyRelu_213/weights1159617709" type="Const" version="opset1">
			<data element_type="f32" offset="13902348" shape="1" size="4"/>
			<output>
				<port id="0" precision="FP32">
					<dim>1</dim>
				</port>
			</output>
		</layer>
		<layer id="309" name="LeakyRelu_213" type="PReLU" version="opset1">
			<input>
				<port id="0" precision="FP16">
					<dim>1</dim>
					<dim>384</dim>
					<dim>15</dim>
					<dim>20</dim>
				</port>
				<port id="1" precision="FP32">
					<dim>1</dim>
				</port>
			</input>
			<output>
				<port id="2" names="608" precision="FP16">
					<dim>1</dim>
					<dim>384</dim>
					<dim>15</dim>
					<dim>20</dim>
				</port>
			</output>
		</layer>
		<layer id="310" name="decoder.up1.convB.weight" type="Const" version="opset1">
			<data element_type="f16" offset="20318240" shape="384, 384, 3, 3" size="2654208"/>
			<output>
				<port id="0" names="decoder.up1.convB.weight" precision="FP16">
					<dim>384</dim>
					<dim>384</dim>
					<dim>3</dim>
					<dim>3</dim>
				</port>
			</output>
		</layer>
		<layer id="311" name="Conv_214/WithoutBiases" type="Convolution" version="opset1">
			<data auto_pad="explicit" dilations="1, 1" pads_begin="1, 1" pads_end="1, 1" strides="1, 1"/>
			<input>
				<port id="0" precision="FP16">
					<dim>1</dim>
					<dim>384</dim>
					<dim>15</dim>
					<dim>20</dim>
				</port>
				<port id="1" precision="FP16">
					<dim>384</dim>
					<dim>384</dim>
					<dim>3</dim>
					<dim>3</dim>
				</port>
			</input>
			<output>
				<port id="2" precision="FP16">
					<dim>1</dim>
					<dim>384</dim>
					<dim>15</dim>
					<dim>20</dim>
				</port>
			</output>
		</layer>
		<layer id="312" name="Conv_214/Dims3875" type="Const" version="opset1">
			<data element_type="f16" offset="22972448" shape="1, 384, 1, 1" size="768"/>
			<output>
				<port id="0" precision="FP16">
					<dim>1</dim>
					<dim>384</dim>
					<dim>1</dim>
					<dim>1</dim>
				</port>
			</output>
		</layer>
		<layer id="313" name="Conv_214" type="Add" version="opset1">
			<data auto_broadcast="numpy"/>
			<input>
				<port id="0" precision="FP16">
					<dim>1</dim>
					<dim>384</dim>
					<dim>15</dim>
					<dim>20</dim>
				</port>
				<port id="1" precision="FP16">
					<dim>1</dim>
					<dim>384</dim>
					<dim>1</dim>
					<dim>1</dim>
				</port>
			</input>
			<output>
				<port id="2" names="609" precision="FP16">
					<dim>1</dim>
					<dim>384</dim>
					<dim>15</dim>
					<dim>20</dim>
				</port>
			</output>
		</layer>
		<layer id="314" name="LeakyRelu_215/weights1160417790" type="Const" version="opset1">
			<data element_type="f32" offset="13902348" shape="1" size="4"/>
			<output>
				<port id="0" precision="FP32">
					<dim>1</dim>
				</port>
			</output>
		</layer>
		<layer id="315" name="LeakyRelu_215" type="PReLU" version="opset1">
			<input>
				<port id="0" precision="FP16">
					<dim>1</dim>
					<dim>384</dim>
					<dim>15</dim>
					<dim>20</dim>
				</port>
				<port id="1" precision="FP32">
					<dim>1</dim>
				</port>
			</input>
			<output>
				<port id="2" names="610" precision="FP16">
					<dim>1</dim>
					<dim>384</dim>
					<dim>15</dim>
					<dim>20</dim>
				</port>
			</output>
		</layer>
		<layer id="316" name="Add_75/Shape" type="ShapeOf" version="opset3">
			<data output_type="i64"/>
			<input>
				<port id="0" precision="FP16">
					<dim>1</dim>
					<dim>64</dim>
					<dim>30</dim>
					<dim>40</dim>
				</port>
			</input>
			<output>
				<port id="1" precision="I64">
					<dim>4</dim>
				</port>
			</output>
		</layer>
		<layer id="317" name="Add_75/Shape/Gathered_input_port_1/value1191817499" type="Const" version="opset1">
			<data element_type="i32" offset="6381248" shape="2" size="8"/>
			<output>
				<port id="0" precision="I32">
					<dim>2</dim>
				</port>
			</output>
		</layer>
		<layer id="318" name="Add_75/Shape/Gathered_input_port_2/value1192017874" type="Const" version="opset1">
			<data element_type="i64" offset="6381256" shape="" size="8"/>
			<output>
				<port id="0" precision="I64"/>
			</output>
		</layer>
		<layer id="319" name="Add_75/Shape/Gathered" type="Gather" version="opset7">
			<data batch_dims="0"/>
			<input>
				<port id="0" precision="I64">
					<dim>4</dim>
				</port>
				<port id="1" precision="I32">
					<dim>2</dim>
				</port>
				<port id="2" precision="I64"/>
			</input>
			<output>
				<port id="3" precision="I64">
					<dim>2</dim>
				</port>
			</output>
		</layer>
		<layer id="320" name="2999300117739" type="Const" version="opset1">
			<data element_type="f32" offset="22973216" shape="4" size="16"/>
			<output>
				<port id="0" precision="FP32">
					<dim>4</dim>
				</port>
			</output>
		</layer>
		<layer id="321" name="Resize_234/ShapeOf" type="ShapeOf" version="opset3">
			<data output_type="i64"/>
			<input>
				<port id="0" precision="FP16">
					<dim>1</dim>
					<dim>384</dim>
					<dim>15</dim>
					<dim>20</dim>
				</port>
			</input>
			<output>
				<port id="1" precision="I64">
					<dim>4</dim>
				</port>
			</output>
		</layer>
		<layer id="322" name="2998" type="Convert" version="opset1">
			<data destination_type="f32"/>
			<input>
				<port id="0" precision="I64">
					<dim>4</dim>
				</port>
			</input>
			<output>
				<port id="1" precision="FP32">
					<dim>4</dim>
				</port>
			</output>
		</layer>
		<layer id="323" name="Resize_234/Div" type="Divide" version="opset1">
			<data auto_broadcast="numpy" m_pythondiv="true"/>
			<input>
				<port id="0" precision="FP32">
					<dim>4</dim>
				</port>
				<port id="1" precision="FP32">
					<dim>4</dim>
				</port>
			</input>
			<output>
				<port id="2" precision="FP32">
					<dim>4</dim>
				</port>
			</output>
		</layer>
		<layer id="324" name="Resize_234/Add_input_port_1/value299717916" type="Const" version="opset1">
			<data element_type="f32" offset="6381280" shape="1" size="4"/>
			<output>
				<port id="0" precision="FP32">
					<dim>1</dim>
				</port>
			</output>
		</layer>
		<layer id="325" name="Resize_234/Add" type="Add" version="opset1">
			<data auto_broadcast="numpy"/>
			<input>
				<port id="0" precision="FP32">
					<dim>4</dim>
				</port>
				<port id="1" precision="FP32">
					<dim>1</dim>
				</port>
			</input>
			<output>
				<port id="2" precision="FP32">
					<dim>4</dim>
				</port>
			</output>
		</layer>
		<layer id="326" name="Resize_234/StridedSlice_scales_input_port_1/value298617904" type="Const" version="opset1">
			<data element_type="i64" offset="6381284" shape="1" size="8"/>
			<output>
				<port id="0" precision="I64">
					<dim>1</dim>
				</port>
			</output>
		</layer>
		<layer id="327" name="Resize_234/StridedSlice_scales_input_port_2/value298817508" type="Const" version="opset1">
			<data element_type="i64" offset="6381292" shape="1" size="8"/>
			<output>
				<port id="0" precision="I64">
					<dim>1</dim>
				</port>
			</output>
		</layer>
		<layer id="328" name="Resize_234/StridedSlice_scales_input_port_3/value299017667" type="Const" version="opset1">
			<data element_type="i64" offset="6381300" shape="1" size="8"/>
			<output>
				<port id="0" precision="I64">
					<dim>1</dim>
				</port>
			</output>
		</layer>
		<layer id="329" name="Resize_234/StridedSlice_scales" type="StridedSlice" version="opset1">
			<data begin_mask="0" ellipsis_mask="0" end_mask="0" new_axis_mask="0" shrink_axis_mask="0"/>
			<input>
				<port id="0" precision="FP32">
					<dim>4</dim>
				</port>
				<port id="1" precision="I64">
					<dim>1</dim>
				</port>
				<port id="2" precision="I64">
					<dim>1</dim>
				</port>
				<port id="3" precision="I64">
					<dim>1</dim>
				</port>
			</input>
			<output>
				<port id="4" precision="FP32">
					<dim>2</dim>
				</port>
			</output>
		</layer>
		<layer id="330" name="Resize_234/axis299317436" type="Const" version="opset1">
			<data element_type="i64" offset="6381308" shape="2" size="16"/>
			<output>
				<port id="0" precision="I64">
					<dim>2</dim>
				</port>
			</output>
		</layer>
		<layer id="331" name="Resize_234" type="Interpolate" version="opset4">
			<data antialias="false" coordinate_transformation_mode="align_corners" cube_coeff="-0.75" mode="linear_onnx" nearest_mode="floor" pads_begin="0, 0, 0, 0" pads_end="0, 0, 0, 0" shape_calculation_mode="sizes"/>
			<input>
				<port id="0" precision="FP16">
					<dim>1</dim>
					<dim>384</dim>
					<dim>15</dim>
					<dim>20</dim>
				</port>
				<port id="1" precision="I64">
					<dim>2</dim>
				</port>
				<port id="2" precision="FP32">
					<dim>2</dim>
				</port>
				<port id="3" precision="I64">
					<dim>2</dim>
				</port>
			</input>
			<output>
				<port id="4" names="629" precision="FP16">
					<dim>1</dim>
					<dim>384</dim>
					<dim>30</dim>
					<dim>40</dim>
				</port>
			</output>
		</layer>
		<layer id="332" name="Concat_235" type="Concat" version="opset1">
			<data axis="1"/>
			<input>
				<port id="0" precision="FP16">
					<dim>1</dim>
					<dim>384</dim>
					<dim>30</dim>
					<dim>40</dim>
				</port>
				<port id="1" precision="FP16">
					<dim>1</dim>
					<dim>64</dim>
					<dim>30</dim>
					<dim>40</dim>
				</port>
			</input>
			<output>
				<port id="2" names="630" precision="FP16">
					<dim>1</dim>
					<dim>448</dim>
					<dim>30</dim>
					<dim>40</dim>
				</port>
			</output>
		</layer>
		<layer id="333" name="decoder.up2.convA.weight" type="Const" version="opset1">
			<data element_type="f16" offset="22973232" shape="192, 448, 3, 3" size="1548288"/>
			<output>
				<port id="0" names="decoder.up2.convA.weight" precision="FP16">
					<dim>192</dim>
					<dim>448</dim>
					<dim>3</dim>
					<dim>3</dim>
				</port>
			</output>
		</layer>
		<layer id="334" name="Conv_236/WithoutBiases" type="Convolution" version="opset1">
			<data auto_pad="explicit" dilations="1, 1" pads_begin="1, 1" pads_end="1, 1" strides="1, 1"/>
			<input>
				<port id="0" precision="FP16">
					<dim>1</dim>
					<dim>448</dim>
					<dim>30</dim>
					<dim>40</dim>
				</port>
				<port id="1" precision="FP16">
					<dim>192</dim>
					<dim>448</dim>
					<dim>3</dim>
					<dim>3</dim>
				</port>
			</input>
			<output>
				<port id="2" precision="FP16">
					<dim>1</dim>
					<dim>192</dim>
					<dim>30</dim>
					<dim>40</dim>
				</port>
			</output>
		</layer>
		<layer id="335" name="Conv_236/Dims4031" type="Const" version="opset1">
			<data element_type="f16" offset="24521520" shape="1, 192, 1, 1" size="384"/>
			<output>
				<port id="0" precision="FP16">
					<dim>1</dim>
					<dim>192</dim>
					<dim>1</dim>
					<dim>1</dim>
				</port>
			</output>
		</layer>
		<layer id="336" name="Conv_236" type="Add" version="opset1">
			<data auto_broadcast="numpy"/>
			<input>
				<port id="0" precision="FP16">
					<dim>1</dim>
					<dim>192</dim>
					<dim>30</dim>
					<dim>40</dim>
				</port>
				<port id="1" precision="FP16">
					<dim>1</dim>
					<dim>192</dim>
					<dim>1</dim>
					<dim>1</dim>
				</port>
			</input>
			<output>
				<port id="2" names="631" precision="FP16">
					<dim>1</dim>
					<dim>192</dim>
					<dim>30</dim>
					<dim>40</dim>
				</port>
			</output>
		</layer>
		<layer id="337" name="LeakyRelu_237/weights1161617613" type="Const" version="opset1">
			<data element_type="f32" offset="13902348" shape="1" size="4"/>
			<output>
				<port id="0" precision="FP32">
					<dim>1</dim>
				</port>
			</output>
		</layer>
		<layer id="338" name="LeakyRelu_237" type="PReLU" version="opset1">
			<input>
				<port id="0" precision="FP16">
					<dim>1</dim>
					<dim>192</dim>
					<dim>30</dim>
					<dim>40</dim>
				</port>
				<port id="1" precision="FP32">
					<dim>1</dim>
				</port>
			</input>
			<output>
				<port id="2" names="632" precision="FP16">
					<dim>1</dim>
					<dim>192</dim>
					<dim>30</dim>
					<dim>40</dim>
				</port>
			</output>
		</layer>
		<layer id="339" name="decoder.up2.convB.weight" type="Const" version="opset1">
			<data element_type="f16" offset="24521904" shape="192, 192, 3, 3" size="663552"/>
			<output>
				<port id="0" names="decoder.up2.convB.weight" precision="FP16">
					<dim>192</dim>
					<dim>192</dim>
					<dim>3</dim>
					<dim>3</dim>
				</port>
			</output>
		</layer>
		<layer id="340" name="Conv_238/WithoutBiases" type="Convolution" version="opset1">
			<data auto_pad="explicit" dilations="1, 1" pads_begin="1, 1" pads_end="1, 1" strides="1, 1"/>
			<input>
				<port id="0" precision="FP16">
					<dim>1</dim>
					<dim>192</dim>
					<dim>30</dim>
					<dim>40</dim>
				</port>
				<port id="1" precision="FP16">
					<dim>192</dim>
					<dim>192</dim>
					<dim>3</dim>
					<dim>3</dim>
				</port>
			</input>
			<output>
				<port id="2" precision="FP16">
					<dim>1</dim>
					<dim>192</dim>
					<dim>30</dim>
					<dim>40</dim>
				</port>
			</output>
		</layer>
		<layer id="341" name="Conv_238/Dims3983" type="Const" version="opset1">
			<data element_type="f16" offset="25185456" shape="1, 192, 1, 1" size="384"/>
			<output>
				<port id="0" precision="FP16">
					<dim>1</dim>
					<dim>192</dim>
					<dim>1</dim>
					<dim>1</dim>
				</port>
			</output>
		</layer>
		<layer id="342" name="Conv_238" type="Add" version="opset1">
			<data auto_broadcast="numpy"/>
			<input>
				<port id="0" precision="FP16">
					<dim>1</dim>
					<dim>192</dim>
					<dim>30</dim>
					<dim>40</dim>
				</port>
				<port id="1" precision="FP16">
					<dim>1</dim>
					<dim>192</dim>
					<dim>1</dim>
					<dim>1</dim>
				</port>
			</input>
			<output>
				<port id="2" names="633" precision="FP16">
					<dim>1</dim>
					<dim>192</dim>
					<dim>30</dim>
					<dim>40</dim>
				</port>
			</output>
		</layer>
		<layer id="343" name="LeakyRelu_239/weights1160017565" type="Const" version="opset1">
			<data element_type="f32" offset="13902348" shape="1" size="4"/>
			<output>
				<port id="0" precision="FP32">
					<dim>1</dim>
				</port>
			</output>
		</layer>
		<layer id="344" name="LeakyRelu_239" type="PReLU" version="opset1">
			<input>
				<port id="0" precision="FP16">
					<dim>1</dim>
					<dim>192</dim>
					<dim>30</dim>
					<dim>40</dim>
				</port>
				<port id="1" precision="FP32">
					<dim>1</dim>
				</port>
			</input>
			<output>
				<port id="2" names="634" precision="FP16">
					<dim>1</dim>
					<dim>192</dim>
					<dim>30</dim>
					<dim>40</dim>
				</port>
			</output>
		</layer>
		<layer id="345" name="Add_46/Shape" type="ShapeOf" version="opset3">
			<data output_type="i64"/>
			<input>
				<port id="0" precision="FP16">
					<dim>1</dim>
					<dim>32</dim>
					<dim>60</dim>
					<dim>80</dim>
				</port>
			</input>
			<output>
				<port id="1" precision="I64">
					<dim>4</dim>
				</port>
			</output>
		</layer>
		<layer id="346" name="Add_46/Shape/Gathered_input_port_1/value1192617772" type="Const" version="opset1">
			<data element_type="i32" offset="6381248" shape="2" size="8"/>
			<output>
				<port id="0" precision="I32">
					<dim>2</dim>
				</port>
			</output>
		</layer>
		<layer id="347" name="Add_46/Shape/Gathered_input_port_2/value1192817553" type="Const" version="opset1">
			<data element_type="i64" offset="6381256" shape="" size="8"/>
			<output>
				<port id="0" precision="I64"/>
			</output>
		</layer>
		<layer id="348" name="Add_46/Shape/Gathered" type="Gather" version="opset7">
			<data batch_dims="0"/>
			<input>
				<port id="0" precision="I64">
					<dim>4</dim>
				</port>
				<port id="1" precision="I32">
					<dim>2</dim>
				</port>
				<port id="2" precision="I64"/>
			</input>
			<output>
				<port id="3" precision="I64">
					<dim>2</dim>
				</port>
			</output>
		</layer>
		<layer id="349" name="3031303317664" type="Const" version="opset1">
			<data element_type="f32" offset="25185840" shape="4" size="16"/>
			<output>
				<port id="0" precision="FP32">
					<dim>4</dim>
				</port>
			</output>
		</layer>
		<layer id="350" name="Resize_258/ShapeOf" type="ShapeOf" version="opset3">
			<data output_type="i64"/>
			<input>
				<port id="0" precision="FP16">
					<dim>1</dim>
					<dim>192</dim>
					<dim>30</dim>
					<dim>40</dim>
				</port>
			</input>
			<output>
				<port id="1" precision="I64">
					<dim>4</dim>
				</port>
			</output>
		</layer>
		<layer id="351" name="3030" type="Convert" version="opset1">
			<data destination_type="f32"/>
			<input>
				<port id="0" precision="I64">
					<dim>4</dim>
				</port>
			</input>
			<output>
				<port id="1" precision="FP32">
					<dim>4</dim>
				</port>
			</output>
		</layer>
		<layer id="352" name="Resize_258/Div" type="Divide" version="opset1">
			<data auto_broadcast="numpy" m_pythondiv="true"/>
			<input>
				<port id="0" precision="FP32">
					<dim>4</dim>
				</port>
				<port id="1" precision="FP32">
					<dim>4</dim>
				</port>
			</input>
			<output>
				<port id="2" precision="FP32">
					<dim>4</dim>
				</port>
…
				<port id="2" names="679" precision="FP16">
					<dim>1</dim>
					<dim>96</dim>
					<dim>120</dim>
					<dim>160</dim>
				</port>
			</output>
		</layer>
		<layer id="395" name="LeakyRelu_285/weights1161217700" type="Const" version="opset1">
			<data element_type="f32" offset="13902348" shape="1" size="4"/>
			<output>
				<port id="0" precision="FP32">
					<dim>1</dim>
				</port>
			</output>
		</layer>
		<layer id="396" name="LeakyRelu_285" type="PReLU" version="opset1">
			<input>
				<port id="0" precision="FP16">
					<dim>1</dim>
					<dim>96</dim>
					<dim>120</dim>
					<dim>160</dim>
				</port>
				<port id="1" precision="FP32">
					<dim>1</dim>
				</port>
			</input>
			<output>
				<port id="2" names="680" precision="FP16">
					<dim>1</dim>
					<dim>96</dim>
					<dim>120</dim>
					<dim>160</dim>
				</port>
			</output>
		</layer>
		<layer id="397" name="decoder.up4.convB.weight" type="Const" version="opset1">
			<data element_type="f16" offset="25946768" shape="96, 96, 3, 3" size="165888"/>
			<output>
				<port id="0" names="decoder.up4.convB.weight" precision="FP16">
					<dim>96</dim>
					<dim>96</dim>
					<dim>3</dim>
					<dim>3</dim>
				</port>
			</output>
		</layer>
		<layer id="398" name="Conv_286/WithoutBiases" type="Convolution" version="opset1">
			<data auto_pad="explicit" dilations="1, 1" pads_begin="1, 1" pads_end="1, 1" strides="1, 1"/>
			<input>
				<port id="0" precision="FP16">
					<dim>1</dim>
					<dim>96</dim>
					<dim>120</dim>
					<dim>160</dim>
				</port>
				<port id="1" precision="FP16">
					<dim>96</dim>
					<dim>96</dim>
					<dim>3</dim>
					<dim>3</dim>
				</port>
			</input>
			<output>
				<port id="2" precision="FP16">
					<dim>1</dim>
					<dim>96</dim>
					<dim>120</dim>
					<dim>160</dim>
				</port>
			</output>
		</layer>
		<layer id="399" name="Conv_286/Dims4229" type="Const" version="opset1">
			<data element_type="f16" offset="26112656" shape="1, 96, 1, 1" size="192"/>
			<output>
				<port id="0" precision="FP16">
					<dim>1</dim>
					<dim>96</dim>
					<dim>1</dim>
					<dim>1</dim>
				</port>
			</output>
		</layer>
		<layer id="400" name="Conv_286" type="Add" version="opset1">
			<data auto_broadcast="numpy"/>
			<input>
				<port id="0" precision="FP16">
					<dim>1</dim>
					<dim>96</dim>
					<dim>120</dim>
					<dim>160</dim>
				</port>
				<port id="1" precision="FP16">
					<dim>1</dim>
					<dim>96</dim>
					<dim>1</dim>
					<dim>1</dim>
				</port>
			</input>
			<output>
				<port id="2" names="681" precision="FP16">
					<dim>1</dim>
					<dim>96</dim>
					<dim>120</dim>
					<dim>160</dim>
				</port>
			</output>
		</layer>
		<layer id="401" name="LeakyRelu_287/weights1163217490" type="Const" version="opset1">
			<data element_type="f32" offset="13902348" shape="1" size="4"/>
			<output>
				<port id="0" precision="FP32">
					<dim>1</dim>
				</port>
			</output>
		</layer>
		<layer id="402" name="LeakyRelu_287" type="PReLU" version="opset1">
			<input>
				<port id="0" precision="FP16">
					<dim>1</dim>
					<dim>96</dim>
					<dim>120</dim>
					<dim>160</dim>
				</port>
				<port id="1" precision="FP32">
					<dim>1</dim>
				</port>
			</input>
			<output>
				<port id="2" names="682" precision="FP16">
					<dim>1</dim>
					<dim>96</dim>
					<dim>120</dim>
					<dim>160</dim>
				</port>
			</output>
		</layer>
		<layer id="403" name="Conv_8/Shape" type="ShapeOf" version="opset3">
			<data output_type="i64"/>
			<input>
				<port id="0" precision="FP16">
					<dim>1</dim>
					<dim>16</dim>
					<dim>240</dim>
					<dim>320</dim>
				</port>
			</input>
			<output>
				<port id="1" precision="I64">
					<dim>4</dim>
				</port>
			</output>
		</layer>
		<layer id="404" name="Conv_8/Shape/Gathered_input_port_1/value1194217688" type="Const" version="opset1">
			<data element_type="i32" offset="6381248" shape="2" size="8"/>
			<output>
				<port id="0" precision="I32">
					<dim>2</dim>
				</port>
			</output>
		</layer>
		<layer id="405" name="Conv_8/Shape/Gathered_input_port_2/value1194417580" type="Const" version="opset1">
			<data element_type="i64" offset="6381256" shape="" size="8"/>
			<output>
				<port id="0" precision="I64"/>
			</output>
		</layer>
		<layer id="406" name="Conv_8/Shape/Gathered" type="Gather" version="opset7">
			<data batch_dims="0"/>
			<input>
				<port id="0" precision="I64">
					<dim>4</dim>
				</port>
				<port id="1" precision="I32">
					<dim>2</dim>
				</port>
				<port id="2" precision="I64"/>
			</input>
			<output>
				<port id="3" precision="I64">
					<dim>2</dim>
				</port>
			</output>
		</layer>
		<layer id="407" name="3095309717811" type="Const" version="opset1">
			<data element_type="f32" offset="26112848" shape="4" size="16"/>
			<output>
				<port id="0" precision="FP32">
					<dim>4</dim>
				</port>
			</output>
		</layer>
		<layer id="408" name="Resize_306/ShapeOf" type="ShapeOf" version="opset3">
			<data output_type="i64"/>
			<input>
				<port id="0" precision="FP16">
					<dim>1</dim>
					<dim>96</dim>
					<dim>120</dim>
					<dim>160</dim>
				</port>
			</input>
			<output>
				<port id="1" precision="I64">
					<dim>4</dim>
				</port>
			</output>
		</layer>
		<layer id="409" name="3094" type="Convert" version="opset1">
			<data destination_type="f32"/>
			<input>
				<port id="0" precision="I64">
					<dim>4</dim>
				</port>
			</input>
			<output>
				<port id="1" precision="FP32">
					<dim>4</dim>
				</port>
			</output>
		</layer>
		<layer id="410" name="Resize_306/Div" type="Divide" version="opset1">
			<data auto_broadcast="numpy" m_pythondiv="true"/>
			<input>
				<port id="0" precision="FP32">
					<dim>4</dim>
				</port>
				<port id="1" precision="FP32">
					<dim>4</dim>
				</port>
			</input>
			<output>
				<port id="2" precision="FP32">
					<dim>4</dim>
				</port>
			</output>
		</layer>
		<layer id="411" name="Resize_306/Add_input_port_1/value309317886" type="Const" version="opset1">
			<data element_type="f32" offset="6381280" shape="1" size="4"/>
			<output>
				<port id="0" precision="FP32">
					<dim>1</dim>
				</port>
			</output>
		</layer>
		<layer id="412" name="Resize_306/Add" type="Add" version="opset1">
			<data auto_broadcast="numpy"/>
			<input>
				<port id="0" precision="FP32">
					<dim>4</dim>
				</port>
				<port id="1" precision="FP32">
					<dim>1</dim>
				</port>
			</input>
			<output>
				<port id="2" precision="FP32">
					<dim>4</dim>
				</port>
			</output>
		</layer>
		<layer id="413" name="Resize_306/StridedSlice_scales_input_port_1/value308217658" type="Const" version="opset1">
			<data element_type="i64" offset="6381284" shape="1" size="8"/>
			<output>
				<port id="0" precision="I64">
					<dim>1</dim>
				</port>
			</output>
		</layer>
		<layer id="414" name="Resize_306/StridedSlice_scales_input_port_2/value308417460" type="Const" version="opset1">
			<data element_type="i64" offset="6381292" shape="1" size="8"/>
			<output>
				<port id="0" precision="I64">
					<dim>1</dim>
				</port>
			</output>
		</layer>
		<layer id="415" name="Resize_306/StridedSlice_scales_input_port_3/value308617430" type="Const" version="opset1">
			<data element_type="i64" offset="6381300" shape="1" size="8"/>
			<output>
				<port id="0" precision="I64">
					<dim>1</dim>
				</port>
			</output>
		</layer>
		<layer id="416" name="Resize_306/StridedSlice_scales" type="StridedSlice" version="opset1">
			<data begin_mask="0" ellipsis_mask="0" end_mask="0" new_axis_mask="0" shrink_axis_mask="0"/>
			<input>
				<port id="0" precision="FP32">
					<dim>4</dim>
				</port>
				<port id="1" precision="I64">
					<dim>1</dim>
				</port>
				<port id="2" precision="I64">
					<dim>1</dim>
				</port>
				<port id="3" precision="I64">
					<dim>1</dim>
				</port>
			</input>
			<output>
				<port id="4" precision="FP32">
					<dim>2</dim>
				</port>
			</output>
		</layer>
		<layer id="417" name="Resize_306/axis308917781" type="Const" version="opset1">
			<data element_type="i64" offset="6381308" shape="2" size="16"/>
			<output>
				<port id="0" precision="I64">
					<dim>2</dim>
				</port>
			</output>
		</layer>
		<layer id="418" name="Resize_306" type="Interpolate" version="opset4">
			<data antialias="false" coordinate_transformation_mode="align_corners" cube_coeff="-0.75" mode="linear_onnx" nearest_mode="floor" pads_begin="0, 0, 0, 0" pads_end="0, 0, 0, 0" shape_calculation_mode="sizes"/>
			<input>
				<port id="0" precision="FP16">
					<dim>1</dim>
					<dim>96</dim>
					<dim>120</dim>
					<dim>160</dim>
				</port>
				<port id="1" precision="I64">
					<dim>2</dim>
				</port>
				<port id="2" precision="FP32">
					<dim>2</dim>
				</port>
				<port id="3" precision="I64">
					<dim>2</dim>
				</port>
			</input>
			<output>
				<port id="4" names="701" precision="FP16">
					<dim>1</dim>
					<dim>96</dim>
					<dim>240</dim>
					<dim>320</dim>
				</port>
			</output>
		</layer>
		<layer id="419" name="Concat_307" type="Concat" version="opset1">
			<data axis="1"/>
			<input>
				<port id="0" precision="FP16">
					<dim>1</dim>
					<dim>96</dim>
					<dim>240</dim>
					<dim>320</dim>
				</port>
				<port id="1" precision="FP16">
					<dim>1</dim>
					<dim>16</dim>
					<dim>240</dim>
					<dim>320</dim>
				</port>
			</input>
			<output>
				<port id="2" names="702" precision="FP16">
					<dim>1</dim>
					<dim>112</dim>
					<dim>240</dim>
					<dim>320</dim>
				</port>
			</output>
		</layer>
		<layer id="420" name="decoder.up5.convA.weight" type="Const" version="opset1">
			<data element_type="f16" offset="26112864" shape="48, 112, 3, 3" size="96768"/>
			<output>
				<port id="0" names="decoder.up5.convA.weight" precision="FP16">
					<dim>48</dim>
					<dim>112</dim>
					<dim>3</dim>
					<dim>3</dim>
				</port>
			</output>
		</layer>
		<layer id="421" name="Conv_308/WithoutBiases" type="Convolution" version="opset1">
			<data auto_pad="explicit" dilations="1, 1" pads_begin="1, 1" pads_end="1, 1" strides="1, 1"/>
			<input>
				<port id="0" precision="FP16">
					<dim>1</dim>
					<dim>112</dim>
					<dim>240</dim>
					<dim>320</dim>
				</port>
				<port id="1" precision="FP16">
					<dim>48</dim>
					<dim>112</dim>
					<dim>3</dim>
					<dim>3</dim>
				</port>
			</input>
			<output>
				<port id="2" precision="FP16">
					<dim>1</dim>
					<dim>48</dim>
					<dim>240</dim>
					<dim>320</dim>
				</port>
			</output>
		</layer>
		<layer id="422" name="Conv_308/Dims3989" type="Const" version="opset1">
			<data element_type="f16" offset="26209632" shape="1, 48, 1, 1" size="96"/>
			<output>
				<port id="0" precision="FP16">
					<dim>1</dim>
					<dim>48</dim>
					<dim>1</dim>
					<dim>1</dim>
				</port>
			</output>
		</layer>
		<layer id="423" name="Conv_308" type="Add" version="opset1">
			<data auto_broadcast="numpy"/>
			<input>
				<port id="0" precision="FP16">
					<dim>1</dim>
					<dim>48</dim>
					<dim>240</dim>
					<dim>320</dim>
				</port>
				<port id="1" precision="FP16">
					<dim>1</dim>
					<dim>48</dim>
					<dim>1</dim>
					<dim>1</dim>
				</port>
			</input>
			<output>
				<port id="2" names="703" precision="FP16">
					<dim>1</dim>
					<dim>48</dim>
					<dim>240</dim>
					<dim>320</dim>
				</port>
			</output>
		</layer>
		<layer id="424" name="LeakyRelu_309/weights1162817466" type="Const" version="opset1">
			<data element_type="f32" offset="13902348" shape="1" size="4"/>
			<output>
				<port id="0" precision="FP32">
					<dim>1</dim>
				</port>
			</output>
		</layer>
		<layer id="425" name="LeakyRelu_309" type="PReLU" version="opset1">
			<input>
				<port id="0" precision="FP16">
					<dim>1</dim>
					<dim>48</dim>
					<dim>240</dim>
					<dim>320</dim>
				</port>
				<port id="1" precision="FP32">
					<dim>1</dim>
				</port>
			</input>
			<output>
				<port id="2" names="704" precision="FP16">
					<dim>1</dim>
					<dim>48</dim>
					<dim>240</dim>
					<dim>320</dim>
				</port>
			</output>
		</layer>
		<layer id="426" name="decoder.up5.convB.weight" type="Const" version="opset1">
			<data element_type="f16" offset="26209728" shape="48, 48, 3, 3" size="41472"/>
			<output>
				<port id="0" names="decoder.up5.convB.weight" precision="FP16">
					<dim>48</dim>
					<dim>48</dim>
					<dim>3</dim>
					<dim>3</dim>
				</port>
			</output>
		</layer>
		<layer id="427" name="Conv_310/WithoutBiases" type="Convolution" version="opset1">
			<data auto_pad="explicit" dilations="1, 1" pads_begin="1, 1" pads_end="1, 1" strides="1, 1"/>
			<input>
				<port id="0" precision="FP16">
					<dim>1</dim>
					<dim>48</dim>
					<dim>240</dim>
					<dim>320</dim>
				</port>
				<port id="1" precision="FP16">
					<dim>48</dim>
					<dim>48</dim>
					<dim>3</dim>
					<dim>3</dim>
				</port>
			</input>
			<output>
				<port id="2" precision="FP16">
					<dim>1</dim>
					<dim>48</dim>
					<dim>240</dim>
					<dim>320</dim>
				</port>
			</output>
		</layer>
		<layer id="428" name="Conv_310/Dims4163" type="Const" version="opset1">
			<data element_type="f16" offset="26251200" shape="1, 48, 1, 1" size="96"/>
			<output>
				<port id="0" precision="FP16">
					<dim>1</dim>
					<dim>48</dim>
					<dim>1</dim>
					<dim>1</dim>
				</port>
			</output>
		</layer>
		<layer id="429" name="Conv_310" type="Add" version="opset1">
			<data auto_broadcast="numpy"/>
			<input>
				<port id="0" precision="FP16">
					<dim>1</dim>
					<dim>48</dim>
					<dim>240</dim>
					<dim>320</dim>
				</port>
				<port id="1" precision="FP16">
					<dim>1</dim>
					<dim>48</dim>
					<dim>1</dim>
					<dim>1</dim>
				</port>
			</input>
			<output>
				<port id="2" names="705" precision="FP16">
					<dim>1</dim>
					<dim>48</dim>
					<dim>240</dim>
					<dim>320</dim>
				</port>
			</output>
		</layer>
		<layer id="430" name="LeakyRelu_311/weights1164017433" type="Const" version="opset1">
			<data element_type="f32" offset="13902348" shape="1" size="4"/>
			<output>
				<port id="0" precision="FP32">
					<dim>1</dim>
				</port>
			</output>
		</layer>
		<layer id="431" name="LeakyRelu_311" type="PReLU" version="opset1">
			<input>
				<port id="0" precision="FP16">
					<dim>1</dim>
					<dim>48</dim>
					<dim>240</dim>
					<dim>320</dim>
				</port>
				<port id="1" precision="FP32">
					<dim>1</dim>
				</port>
			</input>
			<output>
				<port id="2" names="706" precision="FP16">
					<dim>1</dim>
					<dim>48</dim>
					<dim>240</dim>
					<dim>320</dim>
				</port>
			</output>
		</layer>
		<layer id="432" name="decoder.conv3.weight" type="Const" version="opset1">
			<data element_type="f16" offset="26251296" shape="1, 48, 3, 3" size="864"/>
			<output>
				<port id="0" names="decoder.conv3.weight" precision="FP16">
					<dim>1</dim>
					<dim>48</dim>
					<dim>3</dim>
					<dim>3</dim>
				</port>
			</output>
		</layer>
		<layer id="433" name="Conv_312/WithoutBiases" type="Convolution" version="opset1">
			<data auto_pad="explicit" dilations="1, 1" pads_begin="1, 1" pads_end="1, 1" strides="1, 1"/>
			<input>
				<port id="0" precision="FP16">
					<dim>1</dim>
					<dim>48</dim>
					<dim>240</dim>
					<dim>320</dim>
				</port>
				<port id="1" precision="FP16">
					<dim>1</dim>
					<dim>48</dim>
					<dim>3</dim>
					<dim>3</dim>
				</port>
			</input>
			<output>
				<port id="2" precision="FP16">
					<dim>1</dim>
					<dim>1</dim>
					<dim>240</dim>
					<dim>320</dim>
				</port>
			</output>
		</layer>
		<layer id="434" name="Conv_312/Dims3935" type="Const" version="opset1">
			<data element_type="f16" offset="26252160" shape="1, 1, 1, 1" size="2"/>
			<output>
				<port id="0" precision="FP16">
					<dim>1</dim>
					<dim>1</dim>
					<dim>1</dim>
					<dim>1</dim>
				</port>
			</output>
		</layer>
		<layer id="435" name="707" type="Add" version="opset1">
			<data auto_broadcast="numpy"/>
			<input>
				<port id="0" precision="FP16">
					<dim>1</dim>
					<dim>1</dim>
					<dim>240</dim>
					<dim>320</dim>
				</port>
				<port id="1" precision="FP16">
					<dim>1</dim>
					<dim>1</dim>
					<dim>1</dim>
					<dim>1</dim>
				</port>
			</input>
			<output>
				<port id="2" names="707" precision="FP16">
					<dim>1</dim>
					<dim>1</dim>
					<dim>240</dim>
					<dim>320</dim>
				</port>
			</output>
		</layer>
		<layer id="436" name="707/sink_port_0" type="Result" version="opset1">
			<input>
				<port id="0" precision="FP16">
					<dim>1</dim>
					<dim>1</dim>
					<dim>240</dim>
					<dim>320</dim>
				</port>
			</input>
		</layer>
	</layers>
	<edges>
		<edge from-layer="0" from-port="0" to-layer="2" to-port="0"/>
		<edge from-layer="1" from-port="0" to-layer="2" to-port="1"/>
		<edge from-layer="2" from-port="2" to-layer="4" to-port="0"/>
		<edge from-layer="3" from-port="0" to-layer="4" to-port="1"/>
		<edge from-layer="4" from-port="2" to-layer="5" to-port="0"/>
		<edge from-layer="5" from-port="1" to-layer="7" to-port="0"/>
		<edge from-layer="6" from-port="0" to-layer="7" to-port="1"/>
		<edge from-layer="7" from-port="2" to-layer="9" to-port="0"/>
		<edge from-layer="8" from-port="0" to-layer="9" to-port="1"/>
		<edge from-layer="9" from-port="2" to-layer="10" to-port="0"/>
		<edge from-layer="10" from-port="1" to-layer="12" to-port="0"/>
		<edge from-layer="11" from-port="0" to-layer="12" to-port="1"/>
		<edge from-layer="12" from-port="2" to-layer="14" to-port="0"/>
		<edge from-layer="13" from-port="0" to-layer="14" to-port="1"/>
		<edge from-layer="14" from-port="2" to-layer="16" to-port="0"/>
		<edge from-layer="14" from-port="2" to-layer="419" to-port="1"/>
		<edge from-layer="14" from-port="2" to-layer="403" to-port="0"/>
		<edge from-layer="15" from-port="0" to-layer="16" to-port="1"/>
		<edge from-layer="16" from-port="2" to-layer="18" to-port="0"/>
		<edge from-layer="17" from-port="0" to-layer="18" to-port="1"/>
		<edge from-layer="18" from-port="2" to-layer="19" to-port="0"/>
		<edge from-layer="19" from-port="1" to-layer="21" to-port="0"/>
		<edge from-layer="20" from-port="0" to-layer="21" to-port="1"/>
		<edge from-layer="21" from-port="2" to-layer="23" to-port="0"/>
		<edge from-layer="22" from-port="0" to-layer="23" to-port="1"/>
		<edge from-layer="23" from-port="2" to-layer="24" to-port="0"/>
		<edge from-layer="24" from-port="1" to-layer="26" to-port="0"/>
		<edge from-layer="25" from-port="0" to-layer="26" to-port="1"/>
		<edge from-layer="26" from-port="2" to-layer="28" to-port="0"/>
		<edge from-layer="27" from-port="0" to-layer="28" to-port="1"/>
		<edge from-layer="28" from-port="2" to-layer="43" to-port="0"/>
		<edge from-layer="28" from-port="2" to-layer="30" to-port="0"/>
		<edge from-layer="29" from-port="0" to-layer="30" to-port="1"/>
		<edge from-layer="30" from-port="2" to-layer="32" to-port="0"/>
		<edge from-layer="31" from-port="0" to-layer="32" to-port="1"/>
		<edge from-layer="32" from-port="2" to-layer="33" to-port="0"/>
		<edge from-layer="33" from-port="1" to-layer="35" to-port="0"/>
		<edge from-layer="34" from-port="0" to-layer="35" to-port="1"/>
		<edge from-layer="35" from-port="2" to-layer="37" to-port="0"/>
		<edge from-layer="36" from-port="0" to-layer="37" to-port="1"/>
		<edge from-layer="37" from-port="2" to-layer="38" to-port="0"/>
		<edge from-layer="38" from-port="1" to-layer="40" to-port="0"/>
		<edge from-layer="39" from-port="0" to-layer="40" to-port="1"/>
		<edge from-layer="40" from-port="2" to-layer="42" to-port="0"/>
		<edge from-layer="41" from-port="0" to-layer="42" to-port="1"/>
		<edge from-layer="42" from-port="2" to-layer="43" to-port="1"/>
		<edge from-layer="43" from-port="2" to-layer="45" to-port="0"/>
		<edge from-layer="43" from-port="2" to-layer="374" to-port="0"/>
		<edge from-layer="43" from-port="2" to-layer="390" to-port="1"/>
		<edge from-layer="44" from-port="0" to-layer="45" to-port="1"/>
		<edge from-layer="45" from-port="2" to-layer="47" to-port="0"/>
		<edge from-layer="46" from-port="0" to-layer="47" to-port="1"/>
		<edge from-layer="47" from-port="2" to-layer="48" to-port="0"/>
		<edge from-layer="48" from-port="1" to-layer="50" to-port="0"/>
		<edge from-layer="49" from-port="0" to-layer="50" to-port="1"/>
		<edge from-layer="50" from-port="2" to-layer="52" to-port="0"/>
		<edge from-layer="51" from-port="0" to-layer="52" to-port="1"/>
		<edge from-layer="52" from-port="2" to-layer="53" to-port="0"/>
		<edge from-layer="53" from-port="1" to-layer="55" to-port="0"/>
		<edge from-layer="54" from-port="0" to-layer="55" to-port="1"/>
		<edge from-layer="55" from-port="2" to-layer="57" to-port="0"/>
		<edge from-layer="56" from-port="0" to-layer="57" to-port="1"/>
		<edge from-layer="57" from-port="2" to-layer="59" to-port="0"/>
		<edge from-layer="57" from-port="2" to-layer="72" to-port="0"/>
		<edge from-layer="58" from-port="0" to-layer="59" to-port="1"/>
		<edge from-layer="59" from-port="2" to-layer="61" to-port="0"/>
		<edge from-layer="60" from-port="0" to-layer="61" to-port="1"/>
		<edge from-layer="61" from-port="2" to-layer="62" to-port="0"/>
		<edge from-layer="62" from-port="1" to-layer="64" to-port="0"/>
		<edge from-layer="63" from-port="0" to-layer="64" to-port="1"/>
		<edge from-layer="64" from-port="2" to-layer="66" to-port="0"/>
		<edge from-layer="65" from-port="0" to-layer="66" to-port="1"/>
		<edge from-layer="66" from-port="2" to-layer="67" to-port="0"/>
		<edge from-layer="67" from-port="1" to-layer="69" to-port="0"/>
		<edge from-layer="68" from-port="0" to-layer="69" to-port="1"/>
		<edge from-layer="69" from-port="2" to-layer="71" to-port="0"/>
		<edge from-layer="70" from-port="0" to-layer="71" to-port="1"/>
		<edge from-layer="71" from-port="2" to-layer="72" to-port="1"/>
		<edge from-layer="72" from-port="2" to-layer="345" to-port="0"/>
		<edge from-layer="72" from-port="2" to-layer="361" to-port="1"/>
		<edge from-layer="72" from-port="2" to-layer="87" to-port="0"/>
		<edge from-layer="72" from-port="2" to-layer="74" to-port="0"/>
		<edge from-layer="73" from-port="0" to-layer="74" to-port="1"/>
		<edge from-layer="74" from-port="2" to-layer="76" to-port="0"/>
		<edge from-layer="75" from-port="0" to-layer="76" to-port="1"/>
		<edge from-layer="76" from-port="2" to-layer="77" to-port="0"/>
		<edge from-layer="77" from-port="1" to-layer="79" to-port="0"/>
		<edge from-layer="78" from-port="0" to-layer="79" to-port="1"/>
		<edge from-layer="79" from-port="2" to-layer="81" to-port="0"/>
		<edge from-layer="80" from-port="0" to-layer="81" to-port="1"/>
		<edge from-layer="81" from-port="2" to-layer="82" to-port="0"/>
		<edge from-layer="82" from-port="1" to-layer="84" to-port="0"/>
		<edge from-layer="83" from-port="0" to-layer="84" to-port="1"/>
		<edge from-layer="84" from-port="2" to-layer="86" to-port="0"/>
		<edge from-layer="85" from-port="0" to-layer="86" to-port="1"/>
		<edge from-layer="86" from-port="2" to-layer="87" to-port="1"/>
		<edge from-layer="87" from-port="2" to-layer="89" to-port="0"/>
		<edge from-layer="88" from-port="0" to-layer="89" to-port="1"/>
		<edge from-layer="89" from-port="2" to-layer="91" to-port="0"/>
		<edge from-layer="90" from-port="0" to-layer="91" to-port="1"/>
		<edge from-layer="91" from-port="2" to-layer="92" to-port="0"/>
		<edge from-layer="92" from-port="1" to-layer="94" to-port="0"/>
		<edge from-layer="93" from-port="0" to-layer="94" to-port="1"/>
		<edge from-layer="94" from-port="2" to-layer="96" to-port="0"/>
		<edge from-layer="95" from-port="0" to-layer="96" to-port="1"/>
		<edge from-layer="96" from-port="2" to-layer="97" to-port="0"/>
		<edge from-layer="97" from-port="1" to-layer="99" to-port="0"/>
		<edge from-layer="98" from-port="0" to-layer="99" to-port="1"/>
		<edge from-layer="99" from-port="2" to-layer="101" to-port="0"/>
		<edge from-layer="100" from-port="0" to-layer="101" to-port="1"/>
		<edge from-layer="101" from-port="2" to-layer="103" to-port="0"/>
		<edge from-layer="101" from-port="2" to-layer="116" to-port="0"/>
		<edge from-layer="102" from-port="0" to-layer="103" to-port="1"/>
		<edge from-layer="103" from-port="2" to-layer="105" to-port="0"/>
		<edge from-layer="104" from-port="0" to-layer="105" to-port="1"/>
		<edge from-layer="105" from-port="2" to-layer="106" to-port="0"/>
		<edge from-layer="106" from-port="1" to-layer="108" to-port="0"/>
		<edge from-layer="107" from-port="0" to-layer="108" to-port="1"/>
		<edge from-layer="108" from-port="2" to-layer="110" to-port="0"/>
		<edge from-layer="109" from-port="0" to-layer="110" to-port="1"/>
		<edge from-layer="110" from-port="2" to-layer="111" to-port="0"/>
		<edge from-layer="111" from-port="1" to-layer="113" to-port="0"/>
		<edge from-layer="112" from-port="0" to-layer="113" to-port="1"/>
		<edge from-layer="113" from-port="2" to-layer="115" to-port="0"/>
		<edge from-layer="114" from-port="0" to-layer="115" to-port="1"/>
		<edge from-layer="115" from-port="2" to-layer="116" to-port="1"/>
		<edge from-layer="116" from-port="2" to-layer="131" to-port="0"/>
		<edge from-layer="116" from-port="2" to-layer="332" to-port="1"/>
		<edge from-layer="116" from-port="2" to-layer="316" to-port="0"/>
		<edge from-layer="116" from-port="2" to-layer="118" to-port="0"/>
		<edge from-layer="117" from-port="0" to-layer="118" to-port="1"/>
		<edge from-layer="118" from-port="2" to-layer="120" to-port="0"/>
		<edge from-layer="119" from-port="0" to-layer="120" to-port="1"/>
		<edge from-layer="120" from-port="2" to-layer="121" to-port="0"/>
		<edge from-layer="121" from-port="1" to-layer="123" to-port="0"/>
		<edge from-layer="122" from-port="0" to-layer="123" to-port="1"/>
		<edge from-layer="123" from-port="2" to-layer="125" to-port="0"/>
		<edge from-layer="124" from-port="0" to-layer="125" to-port="1"/>
		<edge from-layer="125" from-port="2" to-layer="126" to-port="0"/>
		<edge from-layer="126" from-port="1" to-layer="128" to-port="0"/>
		<edge from-layer="127" from-port="0" to-layer="128" to-port="1"/>
		<edge from-layer="128" from-port="2" to-layer="130" to-port="0"/>
		<edge from-layer="129" from-port="0" to-layer="130" to-port="1"/>
		<edge from-layer="130" from-port="2" to-layer="131" to-port="1"/>
		<edge from-layer="131" from-port="2" to-layer="133" to-port="0"/>
		<edge from-layer="131" from-port="2" to-layer="146" to-port="0"/>
		<edge from-layer="132" from-port="0" to-layer="133" to-port="1"/>
		<edge from-layer="133" from-port="2" to-layer="135" to-port="0"/>
		<edge from-layer="134" from-port="0" to-layer="135" to-port="1"/>
		<edge from-layer="135" from-port="2" to-layer="136" to-port="0"/>
		<edge from-layer="136" from-port="1" to-layer="138" to-port="0"/>
		<edge from-layer="137" from-port="0" to-layer="138" to-port="1"/>
		<edge from-layer="138" from-port="2" to-layer="140" to-port="0"/>
		<edge from-layer="139" from-port="0" to-layer="140" to-port="1"/>
		<edge from-layer="140" from-port="2" to-layer="141" to-port="0"/>
		<edge from-layer="141" from-port="1" to-layer="143" to-port="0"/>
		<edge from-layer="142" from-port="0" to-layer="143" to-port="1"/>
		<edge from-layer="143" from-port="2" to-layer="145" to-port="0"/>
		<edge from-layer="144" from-port="0" to-layer="145" to-port="1"/>
		<edge from-layer="145" from-port="2" to-layer="146" to-port="1"/>
		<edge from-layer="146" from-port="2" to-layer="148" to-port="0"/>
		<edge from-layer="147" from-port="0" to-layer="148" to-port="1"/>
		<edge from-layer="148" from-port="2" to-layer="150" to-port="0"/>
		<edge from-layer="149" from-port="0" to-layer="150" to-port="1"/>
		<edge from-layer="150" from-port="2" to-layer="151" to-port="0"/>
		<edge from-layer="151" from-port="1" to-layer="153" to-port="0"/>
		<edge from-layer="152" from-port="0" to-layer="153" to-port="1"/>
		<edge from-layer="153" from-port="2" to-layer="155" to-port="0"/>
		<edge from-layer="154" from-port="0" to-layer="155" to-port="1"/>
		<edge from-layer="155" from-port="2" to-layer="156" to-port="0"/>
		<edge from-layer="156" from-port="1" to-layer="158" to-port="0"/>
		<edge from-layer="157" from-port="0" to-layer="158" to-port="1"/>
		<edge from-layer="158" from-port="2" to-layer="160" to-port="0"/>
		<edge from-layer="159" from-port="0" to-layer="160" to-port="1"/>
		<edge from-layer="160" from-port="2" to-layer="162" to-port="0"/>
		<edge from-layer="160" from-port="2" to-layer="175" to-port="0"/>
		<edge from-layer="161" from-port="0" to-layer="162" to-port="1"/>
		<edge from-layer="162" from-port="2" to-layer="164" to-port="0"/>
		<edge from-layer="163" from-port="0" to-layer="164" to-port="1"/>
		<edge from-layer="164" from-port="2" to-layer="165" to-port="0"/>
		<edge from-layer="165" from-port="1" to-layer="167" to-port="0"/>
		<edge from-layer="166" from-port="0" to-layer="167" to-port="1"/>
		<edge from-layer="167" from-port="2" to-layer="169" to-port="0"/>
		<edge from-layer="168" from-port="0" to-layer="169" to-port="1"/>
		<edge from-layer="169" from-port="2" to-layer="170" to-port="0"/>
		<edge from-layer="170" from-port="1" to-layer="172" to-port="0"/>
		<edge from-layer="171" from-port="0" to-layer="172" to-port="1"/>
		<edge from-layer="172" from-port="2" to-layer="174" to-port="0"/>
		<edge from-layer="173" from-port="0" to-layer="174" to-port="1"/>
		<edge from-layer="174" from-port="2" to-layer="175" to-port="1"/>
		<edge from-layer="175" from-port="2" to-layer="177" to-port="0"/>
		<edge from-layer="175" from-port="2" to-layer="190" to-port="0"/>
		<edge from-layer="176" from-port="0" to-layer="177" to-port="1"/>
		<edge from-layer="177" from-port="2" to-layer="179" to-port="0"/>
		<edge from-layer="178" from-port="0" to-layer="179" to-port="1"/>
		<edge from-layer="179" from-port="2" to-layer="180" to-port="0"/>
		<edge from-layer="180" from-port="1" to-layer="182" to-port="0"/>
		<edge from-layer="181" from-port="0" to-layer="182" to-port="1"/>
		<edge from-layer="182" from-port="2" to-layer="184" to-port="0"/>
		<edge from-layer="183" from-port="0" to-layer="184" to-port="1"/>
		<edge from-layer="184" from-port="2" to-layer="185" to-port="0"/>
		<edge from-layer="185" from-port="1" to-layer="187" to-port="0"/>
		<edge from-layer="186" from-port="0" to-layer="187" to-port="1"/>
		<edge from-layer="187" from-port="2" to-layer="189" to-port="0"/>
		<edge from-layer="188" from-port="0" to-layer="189" to-port="1"/>
		<edge from-layer="189" from-port="2" to-layer="190" to-port="1"/>
		<edge from-layer="190" from-port="2" to-layer="192" to-port="0"/>
		<edge from-layer="191" from-port="0" to-layer="192" to-port="1"/>
		<edge from-layer="192" from-port="2" to-layer="194" to-port="0"/>
		<edge from-layer="193" from-port="0" to-layer="194" to-port="1"/>
		<edge from-layer="194" from-port="2" to-layer="195" to-port="0"/>
		<edge from-layer="195" from-port="1" to-layer="197" to-port="0"/>
		<edge from-layer="196" from-port="0" to-layer="197" to-port="1"/>
		<edge from-layer="197" from-port="2" to-layer="199" to-port="0"/>
		<edge from-layer="198" from-port="0" to-layer="199" to-port="1"/>
		<edge from-layer="199" from-port="2" to-layer="200" to-port="0"/>
		<edge from-layer="200" from-port="1" to-layer="202" to-port="0"/>
		<edge from-layer="201" from-port="0" to-layer="202" to-port="1"/>
		<edge from-layer="202" from-port="2" to-layer="204" to-port="0"/>
		<edge from-layer="203" from-port="0" to-layer="204" to-port="1"/>
		<edge from-layer="204" from-port="2" to-layer="303" to-port="1"/>
		<edge from-layer="204" from-port="2" to-layer="287" to-port="0"/>
		<edge from-layer="204" from-port="2" to-layer="219" to-port="0"/>
		<edge from-layer="204" from-port="2" to-layer="206" to-port="0"/>
		<edge from-layer="205" from-port="0" to-layer="206" to-port="1"/>
		<edge from-layer="206" from-port="2" to-layer="208" to-port="0"/>
		<edge from-layer="207" from-port="0" to-layer="208" to-port="1"/>
		<edge from-layer="208" from-port="2" to-layer="209" to-port="0"/>
		<edge from-layer="209" from-port="1" to-layer="211" to-port="0"/>
		<edge from-layer="210" from-port="0" to-layer="211" to-port="1"/>
		<edge from-layer="211" from-port="2" to-layer="213" to-port="0"/>
		<edge from-layer="212" from-port="0" to-layer="213" to-port="1"/>
		<edge from-layer="213" from-port="2" to-layer="214" to-port="0"/>
		<edge from-layer="214" from-port="1" to-layer="216" to-port="0"/>
		<edge from-layer="215" from-port="0" to-layer="216" to-port="1"/>
		<edge from-layer="216" from-port="2" to-layer="218" to-port="0"/>
		<edge from-layer="217" from-port="0" to-layer="218" to-port="1"/>
		<edge from-layer="218" from-port="2" to-layer="219" to-port="1"/>
		<edge from-layer="219" from-port="2" to-layer="221" to-port="0"/>
		<edge from-layer="219" from-port="2" to-layer="234" to-port="0"/>
		<edge from-layer="220" from-port="0" to-layer="221" to-port="1"/>
		<edge from-layer="221" from-port="2" to-layer="223" to-port="0"/>
		<edge from-layer="222" from-port="0" to-layer="223" to-port="1"/>
		<edge from-layer="223" from-port="2" to-layer="224" to-port="0"/>
		<edge from-layer="224" from-port="1" to-layer="226" to-port="0"/>
		<edge from-layer="225" from-port="0" to-layer="226" to-port="1"/>
		<edge from-layer="226" from-port="2" to-layer="228" to-port="0"/>
		<edge from-layer="227" from-port="0" to-layer="228" to-port="1"/>
		<edge from-layer="228" from-port="2" to-layer="229" to-port="0"/>
		<edge from-layer="229" from-port="1" to-layer="231" to-port="0"/>
		<edge from-layer="230" from-port="0" to-layer="231" to-port="1"/>
		<edge from-layer="231" from-port="2" to-layer="233" to-port="0"/>
		<edge from-layer="232" from-port="0" to-layer="233" to-port="1"/>
		<edge from-layer="233" from-port="2" to-layer="234" to-port="1"/>
		<edge from-layer="234" from-port="2" to-layer="236" to-port="0"/>
		<edge from-layer="235" from-port="0" to-layer="236" to-port="1"/>
		<edge from-layer="236" from-port="2" to-layer="238" to-port="0"/>
		<edge from-layer="237" from-port="0" to-layer="238" to-port="1"/>
		<edge from-layer="238" from-port="2" to-layer="239" to-port="0"/>
		<edge from-layer="239" from-port="1" to-layer="241" to-port="0"/>
		<edge from-layer="240" from-port="0" to-layer="241" to-port="1"/>
		<edge from-layer="241" from-port="2" to-layer="243" to-port="0"/>
		<edge from-layer="242" from-port="0" to-layer="243" to-port="1"/>
		<edge from-layer="243" from-port="2" to-layer="244" to-port="0"/>
		<edge from-layer="244" from-port="1" to-layer="246" to-port="0"/>
		<edge from-layer="245" from-port="0" to-layer="246" to-port="1"/>
		<edge from-layer="246" from-port="2" to-layer="248" to-port="0"/>
		<edge from-layer="247" from-port="0" to-layer="248" to-port="1"/>
		<edge from-layer="248" from-port="2" to-layer="258" to-port="0"/>
		<edge from-layer="248" from-port="2" to-layer="250" to-port="0"/>
		<edge from-layer="248" from-port="2" to-layer="274" to-port="1"/>
		<edge from-layer="249" from-port="0" to-layer="250" to-port="1"/>
		<edge from-layer="250" from-port="2" to-layer="252" to-port="0"/>
		<edge from-layer="251" from-port="0" to-layer="252" to-port="1"/>
		<edge from-layer="252" from-port="2" to-layer="253" to-port="0"/>
		<edge from-layer="253" from-port="1" to-layer="255" to-port="0"/>
		<edge from-layer="254" from-port="0" to-layer="255" to-port="1"/>
		<edge from-layer="255" from-port="2" to-layer="257" to-port="0"/>
		<edge from-layer="256" from-port="0" to-layer="257" to-port="1"/>
		<edge from-layer="257" from-port="2" to-layer="273" to-port="0"/>
		<edge from-layer="257" from-port="2" to-layer="263" to-port="0"/>
		<edge from-layer="258" from-port="1" to-layer="261" to-port="0"/>
		<edge from-layer="259" from-port="0" to-layer="261" to-port="1"/>
		<edge from-layer="260" from-port="0" to-layer="261" to-port="2"/>
		<edge from-layer="261" from-port="3" to-layer="273" to-port="1"/>
		<edge from-layer="262" from-port="0" to-layer="265" to-port="0"/>
		<edge from-layer="263" from-port="1" to-layer="264" to-port="0"/>
		<edge from-layer="264" from-port="1" to-layer="265" to-port="1"/>
		<edge from-layer="265" from-port="2" to-layer="267" to-port="0"/>
		<edge from-layer="266" from-port="0" to-layer="267" to-port="1"/>
		<edge from-layer="267" from-port="2" to-layer="271" to-port="0"/>
		<edge from-layer="268" from-port="0" to-layer="271" to-port="1"/>
		<edge from-layer="269" from-port="0" to-layer="271" to-port="2"/>
		<edge from-layer="270" from-port="0" to-layer="271" to-port="3"/>
		<edge from-layer="271" from-port="4" to-layer="273" to-port="2"/>
		<edge from-layer="272" from-port="0" to-layer="273" to-port="3"/>
		<edge from-layer="273" from-port="4" to-layer="274" to-port="0"/>
		<edge from-layer="274" from-port="2" to-layer="276" to-port="0"/>
		<edge from-layer="275" from-port="0" to-layer="276" to-port="1"/>
		<edge from-layer="276" from-port="2" to-layer="278" to-port="0"/>
		<edge from-layer="277" from-port="0" to-layer="278" to-port="1"/>
		<edge from-layer="278" from-port="2" to-layer="280" to-port="0"/>
		<edge from-layer="279" from-port="0" to-layer="280" to-port="1"/>
		<edge from-layer="280" from-port="2" to-layer="282" to-port="0"/>
		<edge from-layer="281" from-port="0" to-layer="282" to-port="1"/>
		<edge from-layer="282" from-port="2" to-layer="284" to-port="0"/>
		<edge from-layer="283" from-port="0" to-layer="284" to-port="1"/>
		<edge from-layer="284" from-port="2" to-layer="286" to-port="0"/>
		<edge from-layer="285" from-port="0" to-layer="286" to-port="1"/>
		<edge from-layer="286" from-port="2" to-layer="292" to-port="0"/>
		<edge from-layer="286" from-port="2" to-layer="302" to-port="0"/>
		<edge from-layer="287" from-port="1" to-layer="290" to-port="0"/>
		<edge from-layer="288" from-port="0" to-layer="290" to-port="1"/>
		<edge from-layer="289" from-port="0" to-layer="290" to-port="2"/>
		<edge from-layer="290" from-port="3" to-layer="302" to-port="1"/>
		<edge from-layer="291" from-port="0" to-layer="294" to-port="0"/>
		<edge from-layer="292" from-port="1" to-layer="293" to-port="0"/>
		<edge from-layer="293" from-port="1" to-layer="294" to-port="1"/>
		<edge from-layer="294" from-port="2" to-layer="296" to-port="0"/>
		<edge from-layer="295" from-port="0" to-layer="296" to-port="1"/>
		<edge from-layer="296" from-port="2" to-layer="300" to-port="0"/>
		<edge from-layer="297" from-port="0" to-layer="300" to-port="1"/>
		<edge from-layer="298" from-port="0" to-layer="300" to-port="2"/>
		<edge from-layer="299" from-port="0" to-layer="300" to-port="3"/>
		<edge from-layer="300" from-port="4" to-layer="302" to-port="2"/>
		<edge from-layer="301" from-port="0" to-layer="302" to-port="3"/>
		<edge from-layer="302" from-port="4" to-layer="303" to-port="0"/>
		<edge from-layer="303" from-port="2" to-layer="305" to-port="0"/>
		<edge from-layer="304" from-port="0" to-layer="305" to-port="1"/>
		<edge from-layer="305" from-port="2" to-layer="307" to-port="0"/>
		<edge from-layer="306" from-port="0" to-layer="307" to-port="1"/>
		<edge from-layer="307" from-port="2" to-layer="309" to-port="0"/>
		<edge from-layer="308" from-port="0" to-layer="309" to-port="1"/>
		<edge from-layer="309" from-port="2" to-layer="311" to-port="0"/>
		<edge from-layer="310" from-port="0" to-layer="311" to-port="1"/>
		<edge from-layer="311" from-port="2" to-layer="313" to-port="0"/>
		<edge from-layer="312" from-port="0" to-layer="313" to-port="1"/>
		<edge from-layer="313" from-port="2" to-layer="315" to-port="0"/>
		<edge from-layer="314" from-port="0" to-layer="315" to-port="1"/>
		<edge from-layer="315" from-port="2" to-layer="321" to-port="0"/>
		<edge from-layer="315" from-port="2" to-layer="331" to-port="0"/>
		<edge from-layer="316" from-port="1" to-layer="319" to-port="0"/>
		<edge from-layer="317" from-port="0" to-layer="319" to-port="1"/>
		<edge from-layer="318" from-port="0" to-layer="319" to-port="2"/>
		<edge from-layer="319" from-port="3" to-layer="331" to-port="1"/>
		<edge from-layer="320" from-port="0" to-layer="323" to-port="0"/>
		<edge from-layer="321" from-port="1" to-layer="322" to-port="0"/>
		<edge from-layer="322" from-port="1" to-layer="323" to-port="1"/>
		<edge from-layer="323" from-port="2" to-layer="325" to-port="0"/>
		<edge from-layer="324" from-port="0" to-layer="325" to-port="1"/>
		<edge from-layer="325" from-port="2" to-layer="329" to-port="0"/>
		<edge from-layer="326" from-port="0" to-layer="329" to-port="1"/>
		<edge from-layer="327" from-port="0" to-layer="329" to-port="2"/>
		<edge from-layer="328" from-port="0" to-layer="329" to-port="3"/>
		<edge from-layer="329" from-port="4" to-layer="331" to-port="2"/>
		<edge from-layer="330" from-port="0" to-layer="331" to-port="3"/>
		<edge from-layer="331" from-port="4" to-layer="332" to-port="0"/>
		<edge from-layer="332" from-port="2" to-layer="334" to-port="0"/>
		<edge from-layer="333" from-port="0" to-layer="334" to-port="1"/>
		<edge from-layer="334" from-port="2" to-layer="336" to-port="0"/>
		<edge from-layer="335" from-port="0" to-layer="336" to-port="1"/>
		<edge from-layer="336" from-port="2" to-layer="338" to-port="0"/>
		<edge from-layer="337" from-port="0" to-layer="338" to-port="1"/>
		<edge from-layer="338" from-port="2" to-layer="340" to-port="0"/>
		<edge from-layer="339" from-port="0" to-layer="340" to-port="1"/>
		<edge from-layer="340" from-port="2" to-layer="342" to-port="0"/>
		<edge from-layer="341" from-port="0" to-layer="342" to-port="1"/>
		<edge from-layer="342" from-port="2" to-layer="344" to-port="0"/>
		<edge from-layer="343" from-port="0" to-layer="344" to-port="1"/>
		<edge from-layer="344" from-port="2" to-layer="350" to-port="0"/>
		<edge from-layer="344" from-port="2" to-layer="360" to-port="0"/>
		<edge from-layer="345" from-port="1" to-layer="348" to-port="0"/>
		<edge from-layer="346" from-port="0" to-layer="348" to-port="1"/>
		<edge from-layer="347" from-port="0" to-layer="348" to-port="2"/>
		<edge from-layer="348" from-port="3" to-layer="360" to-port="1"/>
		<edge from-layer="349" from-port="0" to-layer="352" to-port="0"/>
		<edge from-layer="350" from-port="1" to-layer="351" to-port="0"/>
		<edge from-layer="351" from-port="1" to-layer="352" to-port="1"/>
		<edge from-layer="352" from-port="2" to-layer="354" to-port="0"/>
		<edge from-layer="353" from-port="0" to-layer="354" to-port="1"/>
		<edge from-layer="354" from-port="2" to-layer="358" to-port="0"/>
		<edge from-layer="355" from-port="0" to-layer="358" to-port="1"/>
		<edge from-layer="356" from-port="0" to-layer="358" to-port="2"/>
		<edge from-layer="357" from-port="0" to-layer="358" to-port="3"/>
		<edge from-layer="358" from-port="4" to-layer="360" to-port="2"/>
		<edge from-layer="359" from-port="0" to-layer="360" to-port="3"/>
		<edge from-layer="360" from-port="4" to-layer="361" to-port="0"/>
		<edge from-layer="361" from-port="2" to-layer="363" to-port="0"/>
		<edge from-layer="362" from-port="0" to-layer="363" to-port="1"/>
		<edge from-layer="363" from-port="2" to-layer="365" to-port="0"/>
		<edge from-layer="364" from-port="0" to-layer="365" to-port="1"/>
		<edge from-layer="365" from-port="2" to-layer="367" to-port="0"/>
		<edge from-layer="366" from-port="0" to-layer="367" to-port="1"/>
		<edge from-layer="367" from-port="2" to-layer="369" to-port="0"/>
		<edge from-layer="368" from-port="0" to-layer="369" to-port="1"/>
		<edge from-layer="369" from-port="2" to-layer="371" to-port="0"/>
		<edge from-layer="370" from-port="0" to-layer="371" to-port="1"/>
		<edge from-layer="371" from-port="2" to-layer="373" to-port="0"/>
		<edge from-layer="372" from-port="0" to-layer="373" to-port="1"/>
		<edge from-layer="373" from-port="2" to-layer="379" to-port="0"/>
		<edge from-layer="373" from-port="2" to-layer="389" to-port="0"/>
		<edge from-layer="374" from-port="1" to-layer="377" to-port="0"/>
		<edge from-layer="375" from-port="0" to-layer="377" to-port="1"/>
		<edge from-layer="376" from-port="0" to-layer="377" to-port="2"/>
		<edge from-layer="377" from-port="3" to-layer="389" to-port="1"/>
		<edge from-layer="378" from-port="0" to-layer="381" to-port="0"/>
		<edge from-layer="379" from-port="1" to-layer="380" to-port="0"/>
		<edge from-layer="380" from-port="1" to-layer="381" to-port="1"/>
		<edge from-layer="381" from-port="2" to-layer="383" to-port="0"/>
		<edge from-layer="382" from-port="0" to-layer="383" to-port="1"/>
		<edge from-layer="383" from-port="2" to-layer="387" to-port="0"/>
		<edge from-layer="384" from-port="0" to-layer="387" to-port="1"/>
		<edge from-layer="385" from-port="0" to-layer="387" to-port="2"/>
		<edge from-layer="386" from-port="0" to-layer="387" to-port="3"/>
		<edge from-layer="387" from-port="4" to-layer="389" to-port="2"/>
		<edge from-layer="388" from-port="0" to-layer="389" to-port="3"/>
		<edge from-layer="389" from-port="4" to-layer="390" to-port="0"/>
		<edge from-layer="390" from-port="2" to-layer="392" to-port="0"/>
		<edge from-layer="391" from-port="0" to-layer="392" to-port="1"/>
		<edge from-layer="392" from-port="2" to-layer="394" to-port="0"/>
		<edge from-layer="393" from-port="0" to-layer="394" to-port="1"/>
		<edge from-layer="394" from-port="2" to-layer="396" to-port="0"/>
		<edge from-layer="395" from-port="0" to-layer="396" to-port="1"/>
		<edge from-layer="396" from-port="2" to-layer="398" to-port="0"/>
		<edge from-layer="397" from-port="0" to-layer="398" to-port="1"/>
		<edge from-layer="398" from-port="2" to-layer="400" to-port="0"/>
		<edge from-layer="399" from-port="0" to-layer="400" to-port="1"/>
		<edge from-layer="400" from-port="2" to-layer="402" to-port="0"/>
		<edge from-layer="401" from-port="0" to-layer="402" to-port="1"/>
		<edge from-layer="402" from-port="2" to-layer="408" to-port="0"/>
		<edge from-layer="402" from-port="2" to-layer="418" to-port="0"/>
		<edge from-layer="403" from-port="1" to-layer="406" to-port="0"/>
		<edge from-layer="404" from-port="0" to-layer="406" to-port="1"/>
		<edge from-layer="405" from-port="0" to-layer="406" to-port="2"/>
		<edge from-layer="406" from-port="3" to-layer="418" to-port="1"/>
		<edge from-layer="407" from-port="0" to-layer="410" to-port="0"/>
		<edge from-layer="408" from-port="1" to-layer="409" to-port="0"/>
		<edge from-layer="409" from-port="1" to-layer="410" to-port="1"/>
		<edge from-layer="410" from-port="2" to-layer="412" to-port="0"/>
		<edge from-layer="411" from-port="0" to-layer="412" to-port="1"/>
		<edge from-layer="412" from-port="2" to-layer="416" to-port="0"/>
		<edge from-layer="413" from-port="0" to-layer="416" to-port="1"/>
		<edge from-layer="414" from-port="0" to-layer="416" to-port="2"/>
		<edge from-layer="415" from-port="0" to-layer="416" to-port="3"/>
		<edge from-layer="416" from-port="4" to-layer="418" to-port="2"/>
		<edge from-layer="417" from-port="0" to-layer="418" to-port="3"/>
		<edge from-layer="418" from-port="4" to-layer="419" to-port="0"/>
		<edge from-layer="419" from-port="2" to-layer="421" to-port="0"/>
		<edge from-layer="420" from-port="0" to-layer="421" to-port="1"/>
		<edge from-layer="421" from-port="2" to-layer="423" to-port="0"/>
		<edge from-layer="422" from-port="0" to-layer="423" to-port="1"/>
		<edge from-layer="423" from-port="2" to-layer="425" to-port="0"/>
		<edge from-layer="424" from-port="0" to-layer="425" to-port="1"/>
		<edge from-layer="425" from-port="2" to-layer="427" to-port="0"/>
		<edge from-layer="426" from-port="0" to-layer="427" to-port="1"/>
		<edge from-layer="427" from-port="2" to-layer="429" to-port="0"/>
		<edge from-layer="428" from-port="0" to-layer="429" to-port="1"/>
		<edge from-layer="429" from-port="2" to-layer="431" to-port="0"/>
		<edge from-layer="430" from-port="0" to-layer="431" to-port="1"/>
		<edge from-layer="431" from-port="2" to-layer="433" to-port="0"/>
		<edge from-layer="432" from-port="0" to-layer="433" to-port="1"/>
		<edge from-layer="433" from-port="2" to-layer="435" to-port="0"/>
		<edge from-layer="434" from-port="0" to-layer="435" to-port="1"/>
		<edge from-layer="435" from-port="2" to-layer="436" to-port="0"/>
	</edges>
	<meta_data>
		<MO_version value="2021.4.0-3839-cd81789d294-releases/2021/4"/>
		<cli_parameters>
			<caffe_parser_path value="DIR"/>
			<data_type value="FP16"/>
			<disable_nhwc_to_nchw value="False"/>
			<disable_omitting_optional value="False"/>
			<disable_resnet_optimization value="False"/>
			<disable_weights_compression value="False"/>
			<enable_concat_optimization value="False"/>
			<enable_flattening_nested_params value="False"/>
			<enable_ssd_gluoncv value="False"/>
			<extensions value="DIR"/>
			<framework value="onnx"/>
			<freeze_placeholder_with_value value="{}"/>
			<generate_deprecated_IR_V7 value="False"/>
			<input_model value="DIR/depth_estimation_mbnv2_480x640.onnx"/>
			<input_model_is_text value="False"/>
			<input_shape value="[1,3,480,640]"/>
			<k value="DIR/CustomLayersMapping.xml"/>
			<keep_shape_ops value="True"/>
			<legacy_ir_generation value="False"/>
			<legacy_mxnet_model value="False"/>
			<log_level value="ERROR"/>
			<mean_scale_values value="{}"/>
			<mean_values value="()"/>
			<model_name value="depth_estimation_mbnv2_480x640"/>
			<output_dir value="DIR"/>
			<placeholder_data_types value="{}"/>
			<placeholder_shapes value="[  1   3 480 640]"/>
			<progress value="False"/>
			<remove_memory value="False"/>
			<remove_output_softmax value="False"/>
			<reverse_input_channels value="True"/>
			<save_params_from_nd value="False"/>
			<scale value="255.0"/>
			<scale_values value="()"/>
			<silent value="False"/>
			<static_shape value="False"/>
			<stream_output value="False"/>
			<transform value=""/>
			<unset unset_cli_parameters="batch, counts, disable_fusing, disable_gfusing, finegrain_fusing, input, input_checkpoint, input_meta_graph, input_proto, input_symbol, mean_file, mean_file_offsets, move_to_preprocess, nd_prefix_name, output, pretrained_model_name, saved_model_dir, saved_model_tags, tensorboard_logdir, tensorflow_custom_layer_libraries, tensorflow_custom_operations_config_update, tensorflow_object_detection_api_pipeline_config, tensorflow_use_custom_operations_config, transformations_config"/>
		</cli_parameters>
	</meta_data>
</net>
