<?xml version="1.0" ?>
<net name="face_landmark_160x160" version="10">
	<layers>
		<layer id="0" name="images" type="Parameter" version="opset1">
			<data element_type="f16" shape="1,3,160,160"/>
			<output>
				<port id="0" precision="FP16">
					<dim>1</dim>
					<dim>3</dim>
					<dim>160</dim>
					<dim>160</dim>
				</port>
			</output>
		</layer>
		<layer id="1" name="data_mul_12853/copy_const" type="Const" version="opset1">
			<data element_type="f16" offset="0" shape="1,3,1,1" size="6"/>
			<output>
				<port id="1" precision="FP16">
					<dim>1</dim>
					<dim>3</dim>
					<dim>1</dim>
					<dim>1</dim>
				</port>
			</output>
		</layer>
		<layer id="2" name="StatefulPartitionedCall/truediv/Fused_Mul_" type="Multiply" version="opset1">
			<input>
				<port id="0">
					<dim>1</dim>
					<dim>3</dim>
					<dim>160</dim>
					<dim>160</dim>
				</port>
				<port id="1">
					<dim>1</dim>
					<dim>3</dim>
					<dim>1</dim>
					<dim>1</dim>
				</port>
			</input>
			<output>
				<port id="2" precision="FP16">
					<dim>1</dim>
					<dim>3</dim>
					<dim>160</dim>
					<dim>160</dim>
				</port>
			</output>
		</layer>
		<layer id="3" name="data_add_12855/copy_const" type="Const" version="opset1">
			<data element_type="f16" offset="6" shape="1,3,1,1" size="6"/>
			<output>
				<port id="1" precision="FP16">
					<dim>1</dim>
					<dim>3</dim>
					<dim>1</dim>
					<dim>1</dim>
				</port>
			</output>
		</layer>
		<layer id="4" name="StatefulPartitionedCall/sub/Fused_Add_" type="Add" version="opset1">
			<input>
				<port id="0">
					<dim>1</dim>
					<dim>3</dim>
					<dim>160</dim>
					<dim>160</dim>
				</port>
				<port id="1">
					<dim>1</dim>
					<dim>3</dim>
					<dim>1</dim>
					<dim>1</dim>
				</port>
			</input>
			<output>
				<port id="2" precision="FP16">
					<dim>1</dim>
					<dim>3</dim>
					<dim>160</dim>
					<dim>160</dim>
				</port>
			</output>
		</layer>
		<layer id="5" name="StatefulPartitionedCall/shufflenet/sequential/batch_normalization/FusedBatchNormV3/mean/Fused_Mul_1380513807_const" type="Const" version="opset1">
			<data element_type="f16" offset="12" shape="24,3,3,3" size="1296"/>
			<output>
				<port id="1" precision="FP16">
					<dim>24</dim>
					<dim>3</dim>
					<dim>3</dim>
					<dim>3</dim>
				</port>
			</output>
		</layer>
		<layer id="6" name="StatefulPartitionedCall/shufflenet/sequential/conv2d/Conv2D" type="Convolution" version="opset1">
			<data auto_pad="same_upper" dilations="1,1" output_padding="0,0" pads_begin="0,0" pads_end="0,0" strides="2,2"/>
			<input>
				<port id="0">
					<dim>1</dim>
					<dim>3</dim>
					<dim>160</dim>
					<dim>160</dim>
				</port>
				<port id="1">
					<dim>24</dim>
					<dim>3</dim>
					<dim>3</dim>
					<dim>3</dim>
				</port>
			</input>
			<output>
				<port id="2" precision="FP16">
					<dim>1</dim>
					<dim>24</dim>
					<dim>80</dim>
					<dim>80</dim>
				</port>
			</output>
		</layer>
		<layer id="7" name="data_add_1285812863/copy_const" type="Const" version="opset1">
			<data element_type="f16" offset="1308" shape="1,24,1,1" size="48"/>
			<output>
				<port id="1" precision="FP16">
					<dim>1</dim>
					<dim>24</dim>
					<dim>1</dim>
					<dim>1</dim>
				</port>
			</output>
		</layer>
		<layer id="8" name="StatefulPartitionedCall/shufflenet/sequential/batch_normalization/FusedBatchNormV3/variance/Fused_Add_" type="Add" version="opset1">
			<input>
				<port id="0">
					<dim>1</dim>
					<dim>24</dim>
					<dim>80</dim>
					<dim>80</dim>
				</port>
				<port id="1">
					<dim>1</dim>
					<dim>24</dim>
					<dim>1</dim>
					<dim>1</dim>
				</port>
			</input>
			<output>
				<port id="2" precision="FP16">
					<dim>1</dim>
					<dim>24</dim>
					<dim>80</dim>
					<dim>80</dim>
				</port>
			</output>
		</layer>
		<layer id="9" name="StatefulPartitionedCall/shufflenet/sequential/re_lu/Relu" type="ReLU" version="opset1">
			<input>
				<port id="0">
					<dim>1</dim>
					<dim>24</dim>
					<dim>80</dim>
					<dim>80</dim>
				</port>
			</input>
			<output>
				<port id="1" precision="FP16">
					<dim>1</dim>
					<dim>24</dim>
					<dim>80</dim>
					<dim>80</dim>
				</port>
			</output>
		</layer>
		<layer id="10" name="StatefulPartitionedCall/shufflenet/sequential/max_pooling2d/MaxPool" type="MaxPool" version="opset1">
			<data auto_pad="valid" kernel="3,3" pads_begin="0,0" pads_end="0,0" strides="2,2"/>
			<input>
				<port id="0">
					<dim>1</dim>
					<dim>24</dim>
					<dim>80</dim>
					<dim>80</dim>
				</port>
			</input>
			<output>
				<port id="1" precision="FP16">
					<dim>1</dim>
					<dim>24</dim>
					<dim>39</dim>
					<dim>39</dim>
				</port>
			</output>
		</layer>
		<layer id="11" name="StatefulPartitionedCall/shufflenet/shufflenet_block/basic_unit_with_downsampling/sequential_1/batch_normalization_1/FusedBatchNormV3/mean/Fused_Mul_1381313815_const" type="Const" version="opset1">
			<data element_type="f16" offset="1356" shape="48,24,1,1" size="2304"/>
			<output>
				<port id="1" precision="FP16">
					<dim>48</dim>
					<dim>24</dim>
					<dim>1</dim>
					<dim>1</dim>
				</port>
			</output>
		</layer>
		<layer id="12" name="StatefulPartitionedCall/shufflenet/shufflenet_block/basic_unit_with_downsampling/sequential_1/conv2d_1/Conv2D" type="Convolution" version="opset1">
			<data auto_pad="same_upper" dilations="1,1" output_padding="0,0" pads_begin="0,0" pads_end="0,0" strides="1,1"/>
			<input>
				<port id="0">
					<dim>1</dim>
					<dim>24</dim>
					<dim>39</dim>
					<dim>39</dim>
				</port>
				<port id="1">
					<dim>48</dim>
					<dim>24</dim>
					<dim>1</dim>
					<dim>1</dim>
				</port>
			</input>
			<output>
				<port id="2" precision="FP16">
					<dim>1</dim>
					<dim>48</dim>
					<dim>39</dim>
					<dim>39</dim>
				</port>
			</output>
		</layer>
		<layer id="13" name="data_add_1287412879/copy_const" type="Const" version="opset1">
			<data element_type="f16" offset="3660" shape="1,48,1,1" size="96"/>
			<output>
				<port id="1" precision="FP16">
					<dim>1</dim>
					<dim>48</dim>
					<dim>1</dim>
					<dim>1</dim>
				</port>
			</output>
		</layer>
		<layer id="14" name="StatefulPartitionedCall/shufflenet/shufflenet_block/basic_unit_with_downsampling/sequential_1/batch_normalization_1/FusedBatchNormV3/variance/Fused_Add_" type="Add" version="opset1">
			<input>
				<port id="0">
					<dim>1</dim>
					<dim>48</dim>
					<dim>39</dim>
					<dim>39</dim>
				</port>
				<port id="1">
					<dim>1</dim>
					<dim>48</dim>
					<dim>1</dim>
					<dim>1</dim>
				</port>
			</input>
			<output>
				<port id="2" precision="FP16">
					<dim>1</dim>
					<dim>48</dim>
					<dim>39</dim>
					<dim>39</dim>
				</port>
			</output>
		</layer>
		<layer id="15" name="StatefulPartitionedCall/shufflenet/shufflenet_block/basic_unit_with_downsampling/sequential_1/re_lu_1/Relu" type="ReLU" version="opset1">
			<input>
				<port id="0">
					<dim>1</dim>
					<dim>48</dim>
					<dim>39</dim>
					<dim>39</dim>
				</port>
			</input>
			<output>
				<port id="1" precision="FP16">
					<dim>1</dim>
					<dim>48</dim>
					<dim>39</dim>
					<dim>39</dim>
				</port>
			</output>
		</layer>
		<layer id="16" name="2352823531_const" type="Const" version="opset1">
			<data element_type="f16" offset="3756" shape="48,1,1,3,3" size="864"/>
			<output>
				<port id="1" precision="FP16">
					<dim>48</dim>
					<dim>1</dim>
					<dim>1</dim>
					<dim>3</dim>
					<dim>3</dim>
				</port>
			</output>
		</layer>
		<layer id="17" name="StatefulPartitionedCall/shufflenet/shufflenet_block/basic_unit_with_downsampling/sequential_1/separable_conv2d/separable_conv2d/depthwise" type="GroupConvolution" version="opset1">
			<data auto_pad="same_upper" dilations="1,1" output_padding="0,0" pads_begin="0,0" pads_end="0,0" strides="2,2"/>
			<input>
				<port id="0">
					<dim>1</dim>
					<dim>48</dim>
					<dim>39</dim>
					<dim>39</dim>
				</port>
				<port id="1">
					<dim>48</dim>
					<dim>1</dim>
					<dim>1</dim>
					<dim>3</dim>
					<dim>3</dim>
				</port>
			</input>
			<output>
				<port id="2" precision="FP16">
					<dim>1</dim>
					<dim>48</dim>
					<dim>20</dim>
					<dim>20</dim>
				</port>
			</output>
		</layer>
		<layer id="18" name="StatefulPartitionedCall/shufflenet/shufflenet_block/basic_unit_with_downsampling/sequential_1/batch_normalization_2/FusedBatchNormV3/mean/Fused_Mul_1381713819_const" type="Const" version="opset1">
			<data element_type="f16" offset="4620" shape="48,48,1,1" size="4608"/>
			<output>
				<port id="1" precision="FP16">
					<dim>48</dim>
					<dim>48</dim>
					<dim>1</dim>
					<dim>1</dim>
				</port>
			</output>
		</layer>
		<layer id="19" name="StatefulPartitionedCall/shufflenet/shufflenet_block/basic_unit_with_downsampling/sequential_1/separable_conv2d/separable_conv2d" type="Convolution" version="opset1">
			<data auto_pad="valid" dilations="1,1" output_padding="0,0" pads_begin="0,0" pads_end="0,0" strides="1,1"/>
			<input>
				<port id="0">
					<dim>1</dim>
					<dim>48</dim>
					<dim>20</dim>
					<dim>20</dim>
				</port>
				<port id="1">
					<dim>48</dim>
					<dim>48</dim>
					<dim>1</dim>
					<dim>1</dim>
				</port>
			</input>
			<output>
				<port id="2" precision="FP16">
					<dim>1</dim>
					<dim>48</dim>
					<dim>20</dim>
					<dim>20</dim>
				</port>
			</output>
		</layer>
		<layer id="20" name="data_add_1288212887/copy_const" type="Const" version="opset1">
			<data element_type="f16" offset="9228" shape="1,48,1,1" size="96"/>
			<output>
				<port id="1" precision="FP16">
					<dim>1</dim>
					<dim>48</dim>
					<dim>1</dim>
					<dim>1</dim>
				</port>
			</output>
		</layer>
		<layer id="21" name="StatefulPartitionedCall/shufflenet/shufflenet_block/basic_unit_with_downsampling/sequential_1/batch_normalization_2/FusedBatchNormV3/variance/Fused_Add_" type="Add" version="opset1">
			<input>
				<port id="0">
					<dim>1</dim>
					<dim>48</dim>
					<dim>20</dim>
					<dim>20</dim>
				</port>
				<port id="1">
					<dim>1</dim>
					<dim>48</dim>
					<dim>1</dim>
					<dim>1</dim>
				</port>
			</input>
			<output>
				<port id="2" precision="FP16">
					<dim>1</dim>
					<dim>48</dim>
					<dim>20</dim>
					<dim>20</dim>
				</port>
			</output>
		</layer>
		<layer id="22" name="StatefulPartitionedCall/shufflenet/shufflenet_block/basic_unit_with_downsampling/sequential_1/re_lu_2/Relu" type="ReLU" version="opset1">
			<input>
				<port id="0">
					<dim>1</dim>
					<dim>48</dim>
					<dim>20</dim>
					<dim>20</dim>
				</port>
			</input>
			<output>
				<port id="1" precision="FP16">
					<dim>1</dim>
					<dim>48</dim>
					<dim>20</dim>
					<dim>20</dim>
				</port>
			</output>
		</layer>
		<layer id="23" name="StatefulPartitionedCall/shufflenet/shufflenet_block/strided_slice/Cast_124197_const" type="Const" version="opset1">
			<data element_type="i64" offset="9324" shape="4" size="32"/>
			<output>
				<port id="1" precision="I64">
					<dim>4</dim>
				</port>
			</output>
		</layer>
		<layer id="24" name="StatefulPartitionedCall/shufflenet/shufflenet_block/strided_slice/Cast_224199_const" type="Const" version="opset1">
			<data element_type="i64" offset="9324" shape="4" size="32"/>
			<output>
				<port id="1" precision="I64">
					<dim>4</dim>
				</port>
			</output>
		</layer>
		<layer id="25" name="StatefulPartitionedCall/shufflenet/shufflenet_block/strided_slice/Cast_324201_const" type="Const" version="opset1">
			<data element_type="i64" offset="9356" shape="4" size="32"/>
			<output>
				<port id="1" precision="I64">
					<dim>4</dim>
				</port>
			</output>
		</layer>
		<layer id="26" name="StatefulPartitionedCall/shufflenet/shufflenet_block/strided_slice" type="StridedSlice" version="opset1">
			<data begin_mask="1,0,1,1" ellipsis_mask="0,0,0,0" end_mask="1,1,1,1" new_axis_mask="0,0,0,0" shrink_axis_mask="0,0,0,0"/>
			<input>
				<port id="0">
					<dim>1</dim>
					<dim>48</dim>
					<dim>20</dim>
					<dim>20</dim>
				</port>
				<port id="1">
					<dim>4</dim>
				</port>
				<port id="2">
					<dim>4</dim>
				</port>
				<port id="3">
					<dim>4</dim>
				</port>
			</input>
			<output>
				<port id="4" precision="FP16">
					<dim>1</dim>
					<dim>24</dim>
					<dim>20</dim>
					<dim>20</dim>
				</port>
			</output>
		</layer>
		<layer id="27" name="2355623559_const" type="Const" version="opset1">
			<data element_type="f16" offset="9388" shape="24,1,1,3,3" size="432"/>
			<output>
				<port id="1" precision="FP16">
					<dim>24</dim>
					<dim>1</dim>
					<dim>1</dim>
					<dim>3</dim>
					<dim>3</dim>
				</port>
			</output>
		</layer>
		<layer id="28" name="StatefulPartitionedCall/shufflenet/shufflenet_block/basic_unit_with_downsampling/sequential_2/separable_conv2d_1/separable_conv2d/depthwise" type="GroupConvolution" version="opset1">
			<data auto_pad="same_upper" dilations="1,1" output_padding="0,0" pads_begin="0,0" pads_end="0,0" strides="2,2"/>
			<input>
				<port id="0">
					<dim>1</dim>
					<dim>24</dim>
					<dim>39</dim>
					<dim>39</dim>
				</port>
				<port id="1">
					<dim>24</dim>
					<dim>1</dim>
					<dim>1</dim>
					<dim>3</dim>
					<dim>3</dim>
				</port>
			</input>
			<output>
				<port id="2" precision="FP16">
					<dim>1</dim>
					<dim>24</dim>
					<dim>20</dim>
					<dim>20</dim>
				</port>
			</output>
		</layer>
		<layer id="29" name="StatefulPartitionedCall/shufflenet/shufflenet_block/basic_unit_with_downsampling/sequential_2/batch_normalization_3/FusedBatchNormV3/mean/Fused_Mul_1380913811_const" type="Const" version="opset1">
			<data element_type="f16" offset="9820" shape="48,24,1,1" size="2304"/>
			<output>
				<port id="1" precision="FP16">
					<dim>48</dim>
					<dim>24</dim>
					<dim>1</dim>
					<dim>1</dim>
				</port>
			</output>
		</layer>
		<layer id="30" name="StatefulPartitionedCall/shufflenet/shufflenet_block/basic_unit_with_downsampling/sequential_2/separable_conv2d_1/separable_conv2d" type="Convolution" version="opset1">
			<data auto_pad="valid" dilations="1,1" output_padding="0,0" pads_begin="0,0" pads_end="0,0" strides="1,1"/>
			<input>
				<port id="0">
					<dim>1</dim>
					<dim>24</dim>
					<dim>20</dim>
					<dim>20</dim>
				</port>
				<port id="1">
					<dim>48</dim>
					<dim>24</dim>
					<dim>1</dim>
					<dim>1</dim>
				</port>
			</input>
			<output>
				<port id="2" precision="FP16">
					<dim>1</dim>
					<dim>48</dim>
					<dim>20</dim>
					<dim>20</dim>
				</port>
			</output>
		</layer>
		<layer id="31" name="data_add_1286612871/copy_const" type="Const" version="opset1">
			<data element_type="f16" offset="12124" shape="1,48,1,1" size="96"/>
			<output>
				<port id="1" precision="FP16">
					<dim>1</dim>
					<dim>48</dim>
					<dim>1</dim>
					<dim>1</dim>
				</port>
			</output>
		</layer>
		<layer id="32" name="StatefulPartitionedCall/shufflenet/shufflenet_block/basic_unit_with_downsampling/sequential_2/batch_normalization_3/FusedBatchNormV3/variance/Fused_Add_" type="Add" version="opset1">
			<input>
				<port id="0">
					<dim>1</dim>
					<dim>48</dim>
					<dim>20</dim>
					<dim>20</dim>
				</port>
				<port id="1">
					<dim>1</dim>
					<dim>48</dim>
					<dim>1</dim>
					<dim>1</dim>
				</port>
			</input>
			<output>
				<port id="2" precision="FP16">
					<dim>1</dim>
					<dim>48</dim>
					<dim>20</dim>
					<dim>20</dim>
				</port>
			</output>
		</layer>
		<layer id="33" name="StatefulPartitionedCall/shufflenet/shufflenet_block/basic_unit_with_downsampling/sequential_2/re_lu_3/Relu" type="ReLU" version="opset1">
			<input>
				<port id="0">
					<dim>1</dim>
					<dim>48</dim>
					<dim>20</dim>
					<dim>20</dim>
				</port>
			</input>
			<output>
				<port id="1" precision="FP16">
					<dim>1</dim>
					<dim>48</dim>
					<dim>20</dim>
					<dim>20</dim>
				</port>
			</output>
		</layer>
		<layer id="34" name="StatefulPartitionedCall/shufflenet/shufflenet_block/strided_slice_1/Cast_124319_const" type="Const" version="opset1">
			<data element_type="i64" offset="9324" shape="4" size="32"/>
			<output>
				<port id="1" precision="I64">
					<dim>4</dim>
				</port>
			</output>
		</layer>
		<layer id="35" name="StatefulPartitionedCall/shufflenet/shufflenet_block/strided_slice_1/Cast_224321_const" type="Const" version="opset1">
			<data element_type="i64" offset="9324" shape="4" size="32"/>
			<output>
				<port id="1" precision="I64">
					<dim>4</dim>
				</port>
			</output>
		</layer>
		<layer id="36" name="StatefulPartitionedCall/shufflenet/shufflenet_block/strided_slice_1/Cast_324323_const" type="Const" version="opset1">
			<data element_type="i64" offset="9356" shape="4" size="32"/>
			<output>
				<port id="1" precision="I64">
					<dim>4</dim>
				</port>
			</output>
		</layer>
		<layer id="37" name="StatefulPartitionedCall/shufflenet/shufflenet_block/strided_slice_1" type="StridedSlice" version="opset1">
			<data begin_mask="1,0,1,1" ellipsis_mask="0,0,0,0" end_mask="1,1,1,1" new_axis_mask="0,0,0,0" shrink_axis_mask="0,0,0,0"/>
			<input>
				<port id="0">
					<dim>1</dim>
					<dim>48</dim>
					<dim>20</dim>
					<dim>20</dim>
				</port>
				<port id="1">
					<dim>4</dim>
				</port>
				<port id="2">
					<dim>4</dim>
				</port>
				<port id="3">
					<dim>4</dim>
				</port>
			</input>
			<output>
				<port id="4" precision="FP16">
					<dim>1</dim>
					<dim>24</dim>
					<dim>20</dim>
					<dim>20</dim>
				</port>
			</output>
		</layer>
		<layer id="38" name="StatefulPartitionedCall/shufflenet/shufflenet_block/concat" type="Concat" version="opset1">
			<data axis="1"/>
			<input>
				<port id="0">
					<dim>1</dim>
					<dim>24</dim>
					<dim>20</dim>
					<dim>20</dim>
				</port>
				<port id="1">
					<dim>1</dim>
					<dim>24</dim>
					<dim>20</dim>
					<dim>20</dim>
				</port>
			</input>
			<output>
				<port id="2" precision="FP16">
					<dim>1</dim>
					<dim>48</dim>
					<dim>20</dim>
					<dim>20</dim>
				</port>
			</output>
		</layer>
		<layer id="39" name="StatefulPartitionedCall/shufflenet/shufflenet_block/basic_unit/sequential_3/batch_normalization_4/FusedBatchNormV3/mean/Fused_Mul_1382113823_const" type="Const" version="opset1">
			<data element_type="f16" offset="12220" shape="48,48,1,1" size="4608"/>
			<output>
				<port id="1" precision="FP16">
					<dim>48</dim>
					<dim>48</dim>
					<dim>1</dim>
					<dim>1</dim>
				</port>
			</output>
		</layer>
		<layer id="40" name="StatefulPartitionedCall/shufflenet/shufflenet_block/basic_unit/sequential_3/conv2d_2/Conv2D" type="Convolution" version="opset1">
			<data auto_pad="same_upper" dilations="1,1" output_padding="0,0" pads_begin="0,0" pads_end="0,0" strides="1,1"/>
			<input>
				<port id="0">
					<dim>1</dim>
					<dim>48</dim>
					<dim>20</dim>
					<dim>20</dim>
				</port>
				<port id="1">
					<dim>48</dim>
					<dim>48</dim>
					<dim>1</dim>
					<dim>1</dim>
				</port>
			</input>
			<output>
				<port id="2" precision="FP16">
					<dim>1</dim>
					<dim>48</dim>
					<dim>20</dim>
					<dim>20</dim>
				</port>
			</output>
		</layer>
		<layer id="41" name="data_add_1289012895/copy_const" type="Const" version="opset1">
			<data element_type="f16" offset="16828" shape="1,48,1,1" size="96"/>
			<output>
				<port id="1" precision="FP16">
					<dim>1</dim>
					<dim>48</dim>
					<dim>1</dim>
					<dim>1</dim>
				</port>
			</output>
		</layer>
		<layer id="42" name="StatefulPartitionedCall/shufflenet/shufflenet_block/basic_unit/sequential_3/batch_normalization_4/FusedBatchNormV3/variance/Fused_Add_" type="Add" version="opset1">
			<input>
				<port id="0">
					<dim>1</dim>
					<dim>48</dim>
					<dim>20</dim>
					<dim>20</dim>
				</port>
				<port id="1">
					<dim>1</dim>
					<dim>48</dim>
					<dim>1</dim>
					<dim>1</dim>
				</port>
			</input>
			<output>
				<port id="2" precision="FP16">
					<dim>1</dim>
					<dim>48</dim>
					<dim>20</dim>
					<dim>20</dim>
				</port>
			</output>
		</layer>
		<layer id="43" name="StatefulPartitionedCall/shufflenet/shufflenet_block/basic_unit/sequential_3/re_lu_4/Relu" type="ReLU" version="opset1">
			<input>
				<port id="0">
					<dim>1</dim>
					<dim>48</dim>
					<dim>20</dim>
					<dim>20</dim>
				</port>
			</input>
			<output>
				<port id="1" precision="FP16">
					<dim>1</dim>
					<dim>48</dim>
					<dim>20</dim>
					<dim>20</dim>
				</port>
			</output>
		</layer>
		<layer id="44" name="2352423527_const" type="Const" version="opset1">
			<data element_type="f16" offset="16924" shape="48,1,1,3,3" size="864"/>
			<output>
				<port id="1" precision="FP16">
					<dim>48</dim>
					<dim>1</dim>
					<dim>1</dim>
					<dim>3</dim>
					<dim>3</dim>
				</port>
			</output>
		</layer>
		<layer id="45" name="StatefulPartitionedCall/shufflenet/shufflenet_block/basic_unit/sequential_3/separable_conv2d_2/separable_conv2d/depthwise" type="GroupConvolution" version="opset1">
			<data auto_pad="same_upper" dilations="1,1" output_padding="0,0" pads_begin="0,0" pads_end="0,0" strides="1,1"/>
			<input>
				<port id="0">
					<dim>1</dim>
					<dim>48</dim>
					<dim>20</dim>
					<dim>20</dim>
				</port>
				<port id="1">
					<dim>48</dim>
					<dim>1</dim>
					<dim>1</dim>
					<dim>3</dim>
					<dim>3</dim>
				</port>
			</input>
			<output>
				<port id="2" precision="FP16">
					<dim>1</dim>
					<dim>48</dim>
					<dim>20</dim>
					<dim>20</dim>
				</port>
			</output>
		</layer>
		<layer id="46" name="StatefulPartitionedCall/shufflenet/shufflenet_block/basic_unit/sequential_3/batch_normalization_5/FusedBatchNormV3/mean/Fused_Mul_1382513827_const" type="Const" version="opset1">
			<data element_type="f16" offset="17788" shape="48,48,1,1" size="4608"/>
			<output>
				<port id="1" precision="FP16">
					<dim>48</dim>
					<dim>48</dim>
					<dim>1</dim>
					<dim>1</dim>
				</port>
			</output>
		</layer>
		<layer id="47" name="StatefulPartitionedCall/shufflenet/shufflenet_block/basic_unit/sequential_3/separable_conv2d_2/separable_conv2d" type="Convolution" version="opset1">
			<data auto_pad="valid" dilations="1,1" output_padding="0,0" pads_begin="0,0" pads_end="0,0" strides="1,1"/>
			<input>
				<port id="0">
					<dim>1</dim>
					<dim>48</dim>
					<dim>20</dim>
					<dim>20</dim>
				</port>
				<port id="1">
					<dim>48</dim>
					<dim>48</dim>
					<dim>1</dim>
					<dim>1</dim>
				</port>
			</input>
			<output>
				<port id="2" precision="FP16">
					<dim>1</dim>
					<dim>48</dim>
					<dim>20</dim>
					<dim>20</dim>
				</port>
			</output>
		</layer>
		<layer id="48" name="data_add_1289812903/copy_const" type="Const" version="opset1">
			<data element_type="f16" offset="22396" shape="1,48,1,1" size="96"/>
			<output>
				<port id="1" precision="FP16">
					<dim>1</dim>
					<dim>48</dim>
					<dim>1</dim>
					<dim>1</dim>
				</port>
			</output>
		</layer>
		<layer id="49" name="StatefulPartitionedCall/shufflenet/shufflenet_block/basic_unit/sequential_3/batch_normalization_5/FusedBatchNormV3/variance/Fused_Add_" type="Add" version="opset1">
			<input>
				<port id="0">
					<dim>1</dim>
					<dim>48</dim>
					<dim>20</dim>
					<dim>20</dim>
				</port>
				<port id="1">
					<dim>1</dim>
					<dim>48</dim>
					<dim>1</dim>
					<dim>1</dim>
				</port>
			</input>
			<output>
				<port id="2" precision="FP16">
					<dim>1</dim>
					<dim>48</dim>
					<dim>20</dim>
					<dim>20</dim>
				</port>
			</output>
		</layer>
		<layer id="50" name="StatefulPartitionedCall/shufflenet/shufflenet_block/basic_unit/sequential_3/re_lu_5/Relu" type="ReLU" version="opset1">
			<input>
				<port id="0">
					<dim>1</dim>
					<dim>48</dim>
					<dim>20</dim>
					<dim>20</dim>
				</port>
			</input>
			<output>
				<port id="1" precision="FP16">
					<dim>1</dim>
					<dim>48</dim>
					<dim>20</dim>
					<dim>20</dim>
				</port>
			</output>
		</layer>
		<layer id="51" name="StatefulPartitionedCall/shufflenet/shufflenet_block/strided_slice_4/Cast_124391_const" type="Const" version="opset1">
			<data element_type="i64" offset="9324" shape="4" size="32"/>
			<output>
				<port id="1" precision="I64">
					<dim>4</dim>
				</port>
			</output>
		</layer>
		<layer id="52" name="StatefulPartitionedCall/shufflenet/shufflenet_block/strided_slice_4/Cast_224393_const" type="Const" version="opset1">
			<data element_type="i64" offset="9324" shape="4" size="32"/>
			<output>
				<port id="1" precision="I64">
					<dim>4</dim>
				</port>
			</output>
		</layer>
		<layer id="53" name="StatefulPartitionedCall/shufflenet/shufflenet_block/strided_slice_4/Cast_324395_const" type="Const" version="opset1">
			<data element_type="i64" offset="9356" shape="4" size="32"/>
			<output>
				<port id="1" precision="I64">
					<dim>4</dim>
				</port>
			</output>
		</layer>
		<layer id="54" name="StatefulPartitionedCall/shufflenet/shufflenet_block/strided_slice_4" type="StridedSlice" version="opset1">
			<data begin_mask="1,0,1,1" ellipsis_mask="0,0,0,0" end_mask="1,1,1,1" new_axis_mask="0,0,0,0" shrink_axis_mask="0,0,0,0"/>
			<input>
				<port id="0">
					<dim>1</dim>
					<dim>48</dim>
					<dim>20</dim>
					<dim>20</dim>
				</port>
				<port id="1">
					<dim>4</dim>
				</port>
				<port id="2">
					<dim>4</dim>
				</port>
				<port id="3">
					<dim>4</dim>
				</port>
			</input>
			<output>
				<port id="4" precision="FP16">
					<dim>1</dim>
					<dim>24</dim>
					<dim>20</dim>
					<dim>20</dim>
				</port>
			</output>
		</layer>
		<layer id="55" name="StatefulPartitionedCall/shufflenet/shufflenet_block/strided_slice_2/Cast_124379_const" type="Const" version="opset1">
			<data element_type="i64" offset="22492" shape="4" size="32"/>
			<output>
				<port id="1" precision="I64">
					<dim>4</dim>
				</port>
			</output>
		</layer>
		<layer id="56" name="StatefulPartitionedCall/shufflenet/shufflenet_block/strided_slice_2/Cast_224381_const" type="Const" version="opset1">
			<data element_type="i64" offset="9324" shape="4" size="32"/>
			<output>
				<port id="1" precision="I64">
					<dim>4</dim>
				</port>
			</output>
		</layer>
		<layer id="57" name="StatefulPartitionedCall/shufflenet/shufflenet_block/strided_slice_2/Cast_324383_const" type="Const" version="opset1">
			<data element_type="i64" offset="9356" shape="4" size="32"/>
			<output>
				<port id="1" precision="I64">
					<dim>4</dim>
				</port>
			</output>
		</layer>
		<layer id="58" name="StatefulPartitionedCall/shufflenet/shufflenet_block/strided_slice_2" type="StridedSlice" version="opset1">
			<data begin_mask="1,0,1,1" ellipsis_mask="0,0,0,0" end_mask="1,1,1,1" new_axis_mask="0,0,0,0" shrink_axis_mask="0,0,0,0"/>
			<input>
				<port id="0">
					<dim>1</dim>
					<dim>48</dim>
					<dim>20</dim>
					<dim>20</dim>
				</port>
				<port id="1">
					<dim>4</dim>
				</port>
				<port id="2">
					<dim>4</dim>
				</port>
				<port id="3">
					<dim>4</dim>
				</port>
			</input>
			<output>
				<port id="4" precision="FP16">
					<dim>1</dim>
					<dim>24</dim>
					<dim>20</dim>
					<dim>20</dim>
				</port>
			</output>
		</layer>
		<layer id="59" name="StatefulPartitionedCall/shufflenet/shufflenet_block/strided_slice_3/Cast_124129_const" type="Const" version="opset1">
			<data element_type="i64" offset="22492" shape="4" size="32"/>
			<output>
				<port id="1" precision="I64">
					<dim>4</dim>
				</port>
			</output>
		</layer>
		<layer id="60" name="StatefulPartitionedCall/shufflenet/shufflenet_block/strided_slice_3/Cast_224131_const" type="Const" version="opset1">
			<data element_type="i64" offset="9324" shape="4" size="32"/>
			<output>
				<port id="1" precision="I64">
					<dim>4</dim>
				</port>
			</output>
		</layer>
		<layer id="61" name="StatefulPartitionedCall/shufflenet/shufflenet_block/strided_slice_3/Cast_324133_const" type="Const" version="opset1">
			<data element_type="i64" offset="9356" shape="4" size="32"/>
			<output>
				<port id="1" precision="I64">
					<dim>4</dim>
				</port>
			</output>
		</layer>
		<layer id="62" name="StatefulPartitionedCall/shufflenet/shufflenet_block/strided_slice_3" type="StridedSlice" version="opset1">
			<data begin_mask="1,0,1,1" ellipsis_mask="0,0,0,0" end_mask="1,1,1,1" new_axis_mask="0,0,0,0" shrink_axis_mask="0,0,0,0"/>
			<input>
				<port id="0">
					<dim>1</dim>
					<dim>48</dim>
					<dim>20</dim>
					<dim>20</dim>
				</port>
				<port id="1">
					<dim>4</dim>
				</port>
				<port id="2">
					<dim>4</dim>
				</port>
				<port id="3">
					<dim>4</dim>
				</port>
			</input>
			<output>
				<port id="4" precision="FP16">
					<dim>1</dim>
					<dim>24</dim>
					<dim>20</dim>
					<dim>20</dim>
				</port>
			</output>
		</layer>
		<layer id="63" name="StatefulPartitionedCall/shufflenet/shufflenet_block/concat_1" type="Concat" version="opset1">
			<data axis="1"/>
			<input>
				<port id="0">
					<dim>1</dim>
					<dim>24</dim>
					<dim>20</dim>
					<dim>20</dim>
				</port>
				<port id="1">
					<dim>1</dim>
					<dim>24</dim>
					<dim>20</dim>
					<dim>20</dim>
				</port>
			</input>
			<output>
				<port id="2" precision="FP16">
					<dim>1</dim>
					<dim>48</dim>
					<dim>20</dim>
					<dim>20</dim>
				</port>
			</output>
		</layer>
		<layer id="64" name="StatefulPartitionedCall/shufflenet/shufflenet_block/strided_slice_5/Cast_124221_const" type="Const" version="opset1">
			<data element_type="i64" offset="9324" shape="4" size="32"/>
			<output>
				<port id="1" precision="I64">
					<dim>4</dim>
				</port>
			</output>
		</layer>
		<layer id="65" name="StatefulPartitionedCall/shufflenet/shufflenet_block/strided_slice_5/Cast_224223_const" type="Const" version="opset1">
			<data element_type="i64" offset="9324" shape="4" size="32"/>
			<output>
				<port id="1" precision="I64">
					<dim>4</dim>
				</port>
			</output>
		</layer>
		<layer id="66" name="StatefulPartitionedCall/shufflenet/shufflenet_block/strided_slice_5/Cast_324225_const" type="Const" version="opset1">
			<data element_type="i64" offset="9356" shape="4" size="32"/>
			<output>
				<port id="1" precision="I64">
					<dim>4</dim>
				</port>
			</output>
		</layer>
		<layer id="67" name="StatefulPartitionedCall/shufflenet/shufflenet_block/strided_slice_5" type="StridedSlice" version="opset1">
			<data begin_mask="1,0,1,1" ellipsis_mask="0,0,0,0" end_mask="1,1,1,1" new_axis_mask="0,0,0,0" shrink_axis_mask="0,0,0,0"/>
			<input>
				<port id="0">
					<dim>1</dim>
					<dim>48</dim>
					<dim>20</dim>
					<dim>20</dim>
				</port>
				<port id="1">
					<dim>4</dim>
				</port>
				<port id="2">
					<dim>4</dim>
				</port>
				<port id="3">
					<dim>4</dim>
				</port>
			</input>
			<output>
				<port id="4" precision="FP16">
					<dim>1</dim>
					<dim>24</dim>
					<dim>20</dim>
					<dim>20</dim>
				</port>
			</output>
		</layer>
		<layer id="68" name="StatefulPartitionedCall/shufflenet/shufflenet_block/concat_2" type="Concat" version="opset1">
			<data axis="1"/>
			<input>
				<port id="0">
					<dim>1</dim>
					<dim>24</dim>
					<dim>20</dim>
					<dim>20</dim>
				</port>
				<port id="1">
					<dim>1</dim>
					<dim>24</dim>
					<dim>20</dim>
					<dim>20</dim>
				</port>
			</input>
			<output>
				<port id="2" precision="FP16">
					<dim>1</dim>
					<dim>48</dim>
					<dim>20</dim>
					<dim>20</dim>
				</port>
			</output>
		</layer>
		<layer id="69" name="StatefulPartitionedCall/shufflenet/shufflenet_block/basic_unit_1/sequential_4/batch_normalization_6/FusedBatchNormV3/mean/Fused_Mul_1382913831_const" type="Const" version="opset1">
			<data element_type="f16" offset="22524" shape="48,48,1,1" size="4608"/>
			<output>
				<port id="1" precision="FP16">
					<dim>48</dim>
					<dim>48</dim>
					<dim>1</dim>
					<dim>1</dim>
				</port>
			</output>
		</layer>
		<layer id="70" name="StatefulPartitionedCall/shufflenet/shufflenet_block/basic_unit_1/sequential_4/conv2d_3/Conv2D" type="Convolution" version="opset1">
			<data auto_pad="same_upper" dilations="1,1" output_padding="0,0" pads_begin="0,0" pads_end="0,0" strides="1,1"/>
			<input>
				<port id="0">
					<dim>1</dim>
					<dim>48</dim>
					<dim>20</dim>
					<dim>20</dim>
				</port>
				<port id="1">
					<dim>48</dim>
					<dim>48</dim>
					<dim>1</dim>
					<dim>1</dim>
				</port>
			</input>
			<output>
				<port id="2" precision="FP16">
					<dim>1</dim>
					<dim>48</dim>
					<dim>20</dim>
					<dim>20</dim>
				</port>
			</output>
		</layer>
		<layer id="71" name="data_add_1290612911/copy_const" type="Const" version="opset1">
			<data element_type="f16" offset="27132" shape="1,48,1,1" size="96"/>
			<output>
				<port id="1" precision="FP16">
					<dim>1</dim>
					<dim>48</dim>
					<dim>1</dim>
					<dim>1</dim>
				</port>
			</output>
		</layer>
		<layer id="72" name="StatefulPartitionedCall/shufflenet/shufflenet_block/basic_unit_1/sequential_4/batch_normalization_6/FusedBatchNormV3/variance/Fused_Add_" type="Add" version="opset1">
			<input>
				<port id="0">
					<dim>1</dim>
					<dim>48</dim>
					<dim>20</dim>
					<dim>20</dim>
				</port>
				<port id="1">
					<dim>1</dim>
					<dim>48</dim>
					<dim>1</dim>
					<dim>1</dim>
				</port>
			</input>
			<output>
				<port id="2" precision="FP16">
					<dim>1</dim>
					<dim>48</dim>
					<dim>20</dim>
					<dim>20</dim>
				</port>
			</output>
		</layer>
		<layer id="73" name="StatefulPartitionedCall/shufflenet/shufflenet_block/basic_unit_1/sequential_4/re_lu_6/Relu" type="ReLU" version="opset1">
			<input>
				<port id="0">
					<dim>1</dim>
					<dim>48</dim>
					<dim>20</dim>
					<dim>20</dim>
				</port>
			</input>
			<output>
				<port id="1" precision="FP16">
					<dim>1</dim>
					<dim>48</dim>
					<dim>20</dim>
					<dim>20</dim>
				</port>
			</output>
		</layer>
		<layer id="74" name="2357623579_const" type="Const" version="opset1">
			<data element_type="f16" offset="27228" shape="48,1,1,3,3" size="864"/>
			<output>
				<port id="1" precision="FP16">
					<dim>48</dim>
					<dim>1</dim>
					<dim>1</dim>
					<dim>3</dim>
					<dim>3</dim>
				</port>
			</output>
		</layer>
		<layer id="75" name="StatefulPartitionedCall/shufflenet/shufflenet_block/basic_unit_1/sequential_4/separable_conv2d_3/separable_conv2d/depthwise" type="GroupConvolution" version="opset1">
			<data auto_pad="same_upper" dilations="1,1" output_padding="0,0" pads_begin="0,0" pads_end="0,0" strides="1,1"/>
			<input>
				<port id="0">
					<dim>1</dim>
					<dim>48</dim>
					<dim>20</dim>
					<dim>20</dim>
				</port>
				<port id="1">
					<dim>48</dim>
					<dim>1</dim>
					<dim>1</dim>
					<dim>3</dim>
					<dim>3</dim>
				</port>
			</input>
			<output>
				<port id="2" precision="FP16">
					<dim>1</dim>
					<dim>48</dim>
					<dim>20</dim>
					<dim>20</dim>
				</port>
			</output>
		</layer>
		<layer id="76" name="StatefulPartitionedCall/shufflenet/shufflenet_block/basic_unit_1/sequential_4/batch_normalization_7/FusedBatchNormV3/mean/Fused_Mul_1383313835_const" type="Const" version="opset1">
			<data element_type="f16" offset="28092" shape="48,48,1,1" size="4608"/>
			<output>
				<port id="1" precision="FP16">
					<dim>48</dim>
					<dim>48</dim>
					<dim>1</dim>
					<dim>1</dim>
				</port>
			</output>
		</layer>
		<layer id="77" name="StatefulPartitionedCall/shufflenet/shufflenet_block/basic_unit_1/sequential_4/separable_conv2d_3/separable_conv2d" type="Convolution" version="opset1">
			<data auto_pad="valid" dilations="1,1" output_padding="0,0" pads_begin="0,0" pads_end="0,0" strides="1,1"/>
			<input>
				<port id="0">
					<dim>1</dim>
					<dim>48</dim>
					<dim>20</dim>
					<dim>20</dim>
				</port>
				<port id="1">
					<dim>48</dim>
					<dim>48</dim>
					<dim>1</dim>
					<dim>1</dim>
				</port>
			</input>
			<output>
				<port id="2" precision="FP16">
					<dim>1</dim>
					<dim>48</dim>
					<dim>20</dim>
					<dim>20</dim>
				</port>
			</output>
		</layer>
		<layer id="78" name="data_add_1291412919/copy_const" type="Const" version="opset1">
			<data element_type="f16" offset="32700" shape="1,48,1,1" size="96"/>
			<output>
				<port id="1" precision="FP16">
					<dim>1</dim>
					<dim>48</dim>
					<dim>1</dim>
					<dim>1</dim>
				</port>
			</output>
		</layer>
		<layer id="79" name="StatefulPartitionedCall/shufflenet/shufflenet_block/basic_unit_1/sequential_4/batch_normalization_7/FusedBatchNormV3/variance/Fused_Add_" type="Add" version="opset1">
			<input>
				<port id="0">
					<dim>1</dim>
					<dim>48</dim>
					<dim>20</dim>
					<dim>20</dim>
				</port>
				<port id="1">
					<dim>1</dim>
					<dim>48</dim>
					<dim>1</dim>
					<dim>1</dim>
				</port>
			</input>
			<output>
				<port id="2" precision="FP16">
					<dim>1</dim>
					<dim>48</dim>
					<dim>20</dim>
					<dim>20</dim>
				</port>
			</output>
		</layer>
		<layer id="80" name="StatefulPartitionedCall/shufflenet/shufflenet_block/basic_unit_1/sequential_4/re_lu_7/Relu" type="ReLU" version="opset1">
			<input>
				<port id="0">
					<dim>1</dim>
					<dim>48</dim>
					<dim>20</dim>
					<dim>20</dim>
				</port>
			</input>
			<output>
				<port id="1" precision="FP16">
					<dim>1</dim>
					<dim>48</dim>
					<dim>20</dim>
					<dim>20</dim>
				</port>
			</output>
		</layer>
		<layer id="81" name="StatefulPartitionedCall/shufflenet/shufflenet_block/strided_slice_8/Cast_124105_const" type="Const" version="opset1">
			<data element_type="i64" offset="9324" shape="4" size="32"/>
			<output>
				<port id="1" precision="I64">
					<dim>4</dim>
				</port>
			</output>
		</layer>
		<layer id="82" name="StatefulPartitionedCall/shufflenet/shufflenet_block/strided_slice_8/Cast_224107_const" type="Const" version="opset1">
			<data element_type="i64" offset="9324" shape="4" size="32"/>
			<output>
				<port id="1" precision="I64">
					<dim>4</dim>
				</port>
			</output>
		</layer>
		<layer id="83" name="StatefulPartitionedCall/shufflenet/shufflenet_block/strided_slice_8/Cast_324109_const" type="Const" version="opset1">
			<data element_type="i64" offset="9356" shape="4" size="32"/>
			<output>
				<port id="1" precision="I64">
					<dim>4</dim>
				</port>
			</output>
		</layer>
		<layer id="84" name="StatefulPartitionedCall/shufflenet/shufflenet_block/strided_slice_8" type="StridedSlice" version="opset1">
			<data begin_mask="1,0,1,1" ellipsis_mask="0,0,0,0" end_mask="1,1,1,1" new_axis_mask="0,0,0,0" shrink_axis_mask="0,0,0,0"/>
			<input>
				<port id="0">
					<dim>1</dim>
					<dim>48</dim>
					<dim>20</dim>
					<dim>20</dim>
				</port>
				<port id="1">
					<dim>4</dim>
				</port>
				<port id="2">
					<dim>4</dim>
				</port>
				<port id="3">
					<dim>4</dim>
				</port>
			</input>
			<output>
				<port id="4" precision="FP16">
					<dim>1</dim>
					<dim>24</dim>
					<dim>20</dim>
					<dim>20</dim>
				</port>
			</output>
		</layer>
		<layer id="85" name="StatefulPartitionedCall/shufflenet/shufflenet_block/strided_slice_6/Cast_124385_const" type="Const" version="opset1">
			<data element_type="i64" offset="22492" shape="4" size="32"/>
			<output>
				<port id="1" precision="I64">
					<dim>4</dim>
				</port>
			</output>
		</layer>
		<layer id="86" name="StatefulPartitionedCall/shufflenet/shufflenet_block/strided_slice_6/Cast_224387_const" type="Const" version="opset1">
			<data element_type="i64" offset="9324" shape="4" size="32"/>
			<output>
				<port id="1" precision="I64">
					<dim>4</dim>
				</port>
			</output>
		</layer>
		<layer id="87" name="StatefulPartitionedCall/shufflenet/shufflenet_block/strided_slice_6/Cast_324389_const" type="Const" version="opset1">
			<data element_type="i64" offset="9356" shape="4" size="32"/>
			<output>
				<port id="1" precision="I64">
					<dim>4</dim>
				</port>
			</output>
		</layer>
		<layer id="88" name="StatefulPartitionedCall/shufflenet/shufflenet_block/strided_slice_6" type="StridedSlice" version="opset1">
			<data begin_mask="1,0,1,1" ellipsis_mask="0,0,0,0" end_mask="1,1,1,1" new_axis_mask="0,0,0,0" shrink_axis_mask="0,0,0,0"/>
			<input>
				<port id="0">
					<dim>1</dim>
					<dim>48</dim>
					<dim>20</dim>
					<dim>20</dim>
				</port>
				<port id="1">
					<dim>4</dim>
				</port>
				<port id="2">
					<dim>4</dim>
				</port>
				<port id="3">
					<dim>4</dim>
				</port>
			</input>
			<output>
				<port id="4" precision="FP16">
					<dim>1</dim>
					<dim>24</dim>
					<dim>20</dim>
					<dim>20</dim>
				</port>
			</output>
		</layer>
		<layer id="89" name="StatefulPartitionedCall/shufflenet/shufflenet_block/strided_slice_7/Cast_124349_const" type="Const" version="opset1">
			<data element_type="i64" offset="22492" shape="4" size="32"/>
			<output>
				<port id="1" precision="I64">
					<dim>4</dim>
				</port>
			</output>
		</layer>
		<layer id="90" name="StatefulPartitionedCall/shufflenet/shufflenet_block/strided_slice_7/Cast_224351_const" type="Const" version="opset1">
			<data element_type="i64" offset="9324" shape="4" size="32"/>
			<output>
				<port id="1" precision="I64">
					<dim>4</dim>
				</port>
			</output>
		</layer>
		<layer id="91" name="StatefulPartitionedCall/shufflenet/shufflenet_block/strided_slice_7/Cast_324353_const" type="Const" version="opset1">
			<data element_type="i64" offset="9356" shape="4" size="32"/>
			<output>
				<port id="1" precision="I64">
					<dim>4</dim>
				</port>
			</output>
		</layer>
		<layer id="92" name="StatefulPartitionedCall/shufflenet/shufflenet_block/strided_slice_7" type="StridedSlice" version="opset1">
			<data begin_mask="1,0,1,1" ellipsis_mask="0,0,0,0" end_mask="1,1,1,1" new_axis_mask="0,0,0,0" shrink_axis_mask="0,0,0,0"/>
			<input>
				<port id="0">
					<dim>1</dim>
					<dim>48</dim>
					<dim>20</dim>
					<dim>20</dim>
				</port>
				<port id="1">
					<dim>4</dim>
				</port>
				<port id="2">
					<dim>4</dim>
				</port>
				<port id="3">
					<dim>4</dim>
				</port>
			</input>
			<output>
				<port id="4" precision="FP16">
					<dim>1</dim>
					<dim>24</dim>
					<dim>20</dim>
					<dim>20</dim>
				</port>
			</output>
		</layer>
		<layer id="93" name="StatefulPartitionedCall/shufflenet/shufflenet_block/concat_3" type="Concat" version="opset1">
			<data axis="1"/>
			<input>
				<port id="0">
					<dim>1</dim>
					<dim>24</dim>
					<dim>20</dim>
					<dim>20</dim>
				</port>
				<port id="1">
					<dim>1</dim>
					<dim>24</dim>
					<dim>20</dim>
					<dim>20</dim>
				</port>
			</input>
			<output>
				<port id="2" precision="FP16">
					<dim>1</dim>
					<dim>48</dim>
					<dim>20</dim>
					<dim>20</dim>
				</port>
			</output>
		</layer>
		<layer id="94" name="StatefulPartitionedCall/shufflenet/shufflenet_block/strided_slice_9/Cast_124111_const" type="Const" version="opset1">
			<data element_type="i64" offset="9324" shape="4" size="32"/>
			<output>
				<port id="1" precision="I64">
					<dim>4</dim>
				</port>
			</output>
		</layer>
		<layer id="95" name="StatefulPartitionedCall/shufflenet/shufflenet_block/strided_slice_9/Cast_224113_const" type="Const" version="opset1">
			<data element_type="i64" offset="9324" shape="4" size="32"/>
			<output>
				<port id="1" precision="I64">
					<dim>4</dim>
				</port>
			</output>
		</layer>
		<layer id="96" name="StatefulPartitionedCall/shufflenet/shufflenet_block/strided_slice_9/Cast_324115_const" type="Const" version="opset1">
			<data element_type="i64" offset="9356" shape="4" size="32"/>
			<output>
				<port id="1" precision="I64">
					<dim>4</dim>
				</port>
			</output>
		</layer>
		<layer id="97" name="StatefulPartitionedCall/shufflenet/shufflenet_block/strided_slice_9" type="StridedSlice" version="opset1">
			<data begin_mask="1,0,1,1" ellipsis_mask="0,0,0,0" end_mask="1,1,1,1" new_axis_mask="0,0,0,0" shrink_axis_mask="0,0,0,0"/>
			<input>
				<port id="0">
					<dim>1</dim>
					<dim>48</dim>
					<dim>20</dim>
					<dim>20</dim>
				</port>
				<port id="1">
					<dim>4</dim>
				</port>
				<port id="2">
					<dim>4</dim>
				</port>
				<port id="3">
					<dim>4</dim>
				</port>
			</input>
			<output>
				<port id="4" precision="FP16">
					<dim>1</dim>
					<dim>24</dim>
					<dim>20</dim>
					<dim>20</dim>
				</port>
			</output>
		</layer>
		<layer id="98" name="StatefulPartitionedCall/shufflenet/shufflenet_block/concat_4" type="Concat" version="opset1">
			<data axis="1"/>
			<input>
				<port id="0">
					<dim>1</dim>
					<dim>24</dim>
					<dim>20</dim>
					<dim>20</dim>
				</port>
				<port id="1">
					<dim>1</dim>
					<dim>24</dim>
					<dim>20</dim>
					<dim>20</dim>
				</port>
			</input>
			<output>
				<port id="2" precision="FP16">
					<dim>1</dim>
					<dim>48</dim>
					<dim>20</dim>
					<dim>20</dim>
				</port>
			</output>
		</layer>
		<layer id="99" name="StatefulPartitionedCall/shufflenet/shufflenet_block/basic_unit_2/sequential_5/batch_normalization_8/FusedBatchNormV3/mean/Fused_Mul_1383713839_const" type="Const" version="opset1">
			<data element_type="f16" offset="32796" shape="48,48,1,1" size="4608"/>
			<output>
				<port id="1" precision="FP16">
					<dim>48</dim>
					<dim>48</dim>
					<dim>1</dim>
					<dim>1</dim>
				</port>
			</output>
		</layer>
		<layer id="100" name="StatefulPartitionedCall/shufflenet/shufflenet_block/basic_unit_2/sequential_5/conv2d_4/Conv2D" type="Convolution" version="opset1">
			<data auto_pad="same_upper" dilations="1,1" output_padding="0,0" pads_begin="0,0" pads_end="0,0" strides="1,1"/>
			<input>
				<port id="0">
					<dim>1</dim>
					<dim>48</dim>
					<dim>20</dim>
					<dim>20</dim>
				</port>
				<port id="1">
					<dim>48</dim>
					<dim>48</dim>
					<dim>1</dim>
					<dim>1</dim>
				</port>
			</input>
			<output>
				<port id="2" precision="FP16">
					<dim>1</dim>
					<dim>48</dim>
					<dim>20</dim>
					<dim>20</dim>
				</port>
			</output>
		</layer>
		<layer id="101" name="data_add_1292212927/copy_const" type="Const" version="opset1">
			<data element_type="f16" offset="37404" shape="1,48,1,1" size="96"/>
			<output>
				<port id="1" precision="FP16">
					<dim>1</dim>
					<dim>48</dim>
					<dim>1</dim>
					<dim>1</dim>
				</port>
			</output>
		</layer>
		<layer id="102" name="StatefulPartitionedCall/shufflenet/shufflenet_block/basic_unit_2/sequential_5/batch_normalization_8/FusedBatchNormV3/variance/Fused_Add_" type="Add" version="opset1">
			<input>
				<port id="0">
					<dim>1</dim>
					<dim>48</dim>
					<dim>20</dim>
					<dim>20</dim>
				</port>
				<port id="1">
					<dim>1</dim>
					<dim>48</dim>
					<dim>1</dim>
					<dim>1</dim>
				</port>
			</input>
			<output>
				<port id="2" precision="FP16">
					<dim>1</dim>
					<dim>48</dim>
					<dim>20</dim>
					<dim>20</dim>
				</port>
			</output>
		</layer>
		<layer id="103" name="StatefulPartitionedCall/shufflenet/shufflenet_block/basic_unit_2/sequential_5/re_lu_8/Relu" type="ReLU" version="opset1">
			<input>
				<port id="0">
					<dim>1</dim>
					<dim>48</dim>
					<dim>20</dim>
					<dim>20</dim>
				</port>
			</input>
			<output>
				<port id="1" precision="FP16">
					<dim>1</dim>
					<dim>48</dim>
					<dim>20</dim>
					<dim>20</dim>
				</port>
			</output>
		</layer>
		<layer id="104" name="2354023543_const" type="Const" version="opset1">
			<data element_type="f16" offset="37500" shape="48,1,1,3,3" size="864"/>
			<output>
				<port id="1" precision="FP16">
					<dim>48</dim>
					<dim>1</dim>
					<dim>1</dim>
					<dim>3</dim>
					<dim>3</dim>
				</port>
			</output>
		</layer>
		<layer id="105" name="StatefulPartitionedCall/shufflenet/shufflenet_block/basic_unit_2/sequential_5/separable_conv2d_4/separable_conv2d/depthwise" type="GroupConvolution" version="opset1">
			<data auto_pad="same_upper" dilations="1,1" output_padding="0,0" pads_begin="0,0" pads_end="0,0" strides="1,1"/>
			<input>
				<port id="0">
					<dim>1</dim>
					<dim>48</dim>
					<dim>20</dim>
					<dim>20</dim>
				</port>
				<port id="1">
					<dim>48</dim>
					<dim>1</dim>
					<dim>1</dim>
					<dim>3</dim>
					<dim>3</dim>
				</port>
			</input>
			<output>
				<port id="2" precision="FP16">
					<dim>1</dim>
					<dim>48</dim>
					<dim>20</dim>
					<dim>20</dim>
				</port>
			</output>
		</layer>
		<layer id="106" name="StatefulPartitionedCall/shufflenet/shufflenet_block/basic_unit_2/sequential_5/batch_normalization_9/FusedBatchNormV3/mean/Fused_Mul_1384113843_const" type="Const" version="opset1">
			<data element_type="f16" offset="38364" shape="48,48,1,1" size="4608"/>
			<output>
				<port id="1" precision="FP16">
					<dim>48</dim>
					<dim>48</dim>
					<dim>1</dim>
					<dim>1</dim>
				</port>
			</output>
		</layer>
		<layer id="107" name="StatefulPartitionedCall/shufflenet/shufflenet_block/basic_unit_2/sequential_5/separable_conv2d_4/separable_conv2d" type="Convolution" version="opset1">
			<data auto_pad="valid" dilations="1,1" output_padding="0,0" pads_begin="0,0" pads_end="0,0" strides="1,1"/>
			<input>
				<port id="0">
					<dim>1</dim>
					<dim>48</dim>
					<dim>20</dim>
					<dim>20</dim>
				</port>
				<port id="1">
					<dim>48</dim>
					<dim>48</dim>
					<dim>1</dim>
					<dim>1</dim>
				</port>
			</input>
			<output>
				<port id="2" precision="FP16">
					<dim>1</dim>
					<dim>48</dim>
					<dim>20</dim>
					<dim>20</dim>
				</port>
			</output>
		</layer>
		<layer id="108" name="data_add_1293012935/copy_const" type="Const" version="opset1">
			<data element_type="f16" offset="42972" shape="1,48,1,1" size="96"/>
			<output>
				<port id="1" precision="FP16">
					<dim>1</dim>
					<dim>48</dim>
					<dim>1</dim>
					<dim>1</dim>
				</port>
			</output>
		</layer>
		<layer id="109" name="StatefulPartitionedCall/shufflenet/shufflenet_block/basic_unit_2/sequential_5/batch_normalization_9/FusedBatchNormV3/variance/Fused_Add_" type="Add" version="opset1">
			<input>
				<port id="0">
					<dim>1</dim>
					<dim>48</dim>
					<dim>20</dim>
					<dim>20</dim>
				</port>
				<port id="1">
					<dim>1</dim>
					<dim>48</dim>
					<dim>1</dim>
					<dim>1</dim>
				</port>
			</input>
			<output>
				<port id="2" precision="FP16">
					<dim>1</dim>
					<dim>48</dim>
					<dim>20</dim>
					<dim>20</dim>
				</port>
			</output>
		</layer>
		<layer id="110" name="StatefulPartitionedCall/shufflenet/shufflenet_block/basic_unit_2/sequential_5/re_lu_9/Relu" type="ReLU" version="opset1">
			<input>
				<port id="0">
					<dim>1</dim>
					<dim>48</dim>
					<dim>20</dim>
					<dim>20</dim>
				</port>
			</input>
			<output>
				<port id="1" precision="FP16">
					<dim>1</dim>
					<dim>48</dim>
					<dim>20</dim>
					<dim>20</dim>
				</port>
			</output>
		</layer>
		<layer id="111" name="StatefulPartitionedCall/shufflenet/shufflenet_block/strided_slice_10/Cast_124149_const" type="Const" version="opset1">
			<data element_type="i64" offset="22492" shape="4" size="32"/>
			<output>
				<port id="1" precision="I64">
					<dim>4</dim>
				</port>
			</output>
		</layer>
		<layer id="112" name="StatefulPartitionedCall/shufflenet/shufflenet_block/strided_slice_10/Cast_224151_const" type="Const" version="opset1">
			<data element_type="i64" offset="9324" shape="4" size="32"/>
			<output>
				<port id="1" precision="I64">
					<dim>4</dim>
				</port>
			</output>
		</layer>
		<layer id="113" name="StatefulPartitionedCall/shufflenet/shufflenet_block/strided_slice_10/Cast_324153_const" type="Const" version="opset1">
			<data element_type="i64" offset="9356" shape="4" size="32"/>
			<output>
				<port id="1" precision="I64">
					<dim>4</dim>
				</port>
			</output>
		</layer>
		<layer id="114" name="StatefulPartitionedCall/shufflenet/shufflenet_block/strided_slice_10" type="StridedSlice" version="opset1">
			<data begin_mask="1,0,1,1" ellipsis_mask="0,0,0,0" end_mask="1,1,1,1" new_axis_mask="0,0,0,0" shrink_axis_mask="0,0,0,0"/>
			<input>
				<port id="0">
					<dim>1</dim>
					<dim>48</dim>
					<dim>20</dim>
					<dim>20</dim>
				</port>
				<port id="1">
					<dim>4</dim>
				</port>
				<port id="2">
					<dim>4</dim>
				</port>
				<port id="3">
					<dim>4</dim>
				</port>
			</input>
			<output>
				<port id="4" precision="FP16">
					<dim>1</dim>
					<dim>24</dim>
					<dim>20</dim>
					<dim>20</dim>
				</port>
			</output>
		</layer>
		<layer id="115" name="StatefulPartitionedCall/shufflenet/shufflenet_block/strided_slice_11/Cast_124293_const" type="Const" version="opset1">
			<data element_type="i64" offset="22492" shape="4" size="32"/>
			<output>
				<port id="1" precision="I64">
					<dim>4</dim>
				</port>
			</output>
		</layer>
		<layer id="116" name="StatefulPartitionedCall/shufflenet/shufflenet_block/strided_slice_11/Cast_224295_const" type="Const" version="opset1">
			<data element_type="i64" offset="9324" shape="4" size="32"/>
			<output>
				<port id="1" precision="I64">
					<dim>4</dim>
				</port>
			</output>
		</layer>
		<layer id="117" name="StatefulPartitionedCall/shufflenet/shufflenet_block/strided_slice_11/Cast_324297_const" type="Const" version="opset1">
			<data element_type="i64" offset="9356" shape="4" size="32"/>
			<output>
				<port id="1" precision="I64">
					<dim>4</dim>
				</port>
			</output>
		</layer>
		<layer id="118" name="StatefulPartitionedCall/shufflenet/shufflenet_block/strided_slice_11" type="StridedSlice" version="opset1">
			<data begin_mask="1,0,1,1" ellipsis_mask="0,0,0,0" end_mask="1,1,1,1" new_axis_mask="0,0,0,0" shrink_axis_mask="0,0,0,0"/>
			<input>
				<port id="0">
					<dim>1</dim>
					<dim>48</dim>
					<dim>20</dim>
					<dim>20</dim>
				</port>
				<port id="1">
					<dim>4</dim>
				</port>
				<port id="2">
					<dim>4</dim>
				</port>
				<port id="3">
					<dim>4</dim>
				</port>
			</input>
			<output>
				<port id="4" precision="FP16">
					<dim>1</dim>
					<dim>24</dim>
					<dim>20</dim>
					<dim>20</dim>
				</port>
			</output>
		</layer>
		<layer id="119" name="StatefulPartitionedCall/shufflenet/shufflenet_block/concat_5" type="Concat" version="opset1">
			<data axis="1"/>
			<input>
				<port id="0">
					<dim>1</dim>
					<dim>24</dim>
					<dim>20</dim>
					<dim>20</dim>
				</port>
				<port id="1">
					<dim>1</dim>
					<dim>24</dim>
					<dim>20</dim>
					<dim>20</dim>
				</port>
			</input>
			<output>
				<port id="2" precision="FP16">
					<dim>1</dim>
					<dim>48</dim>
					<dim>20</dim>
					<dim>20</dim>
				</port>
			</output>
		</layer>
		<layer id="120" name="StatefulPartitionedCall/shufflenet/shufflenet_block/concat_6" type="Concat" version="opset1">
			<data axis="1"/>
			<input>
				<port id="0">
					<dim>1</dim>
					<dim>48</dim>
					<dim>20</dim>
					<dim>20</dim>
				</port>
				<port id="1">
					<dim>1</dim>
					<dim>48</dim>
					<dim>20</dim>
					<dim>20</dim>
				</port>
			</input>
			<output>
				<port id="2" precision="FP16">
					<dim>1</dim>
					<dim>96</dim>
					<dim>20</dim>
					<dim>20</dim>
				</port>
			</output>
		</layer>
		<layer id="121" name="StatefulPartitionedCall/global_average_pooling2d/Mean/Cast_124311_const" type="Const" version="opset1">
			<data element_type="i64" offset="43068" shape="2" size="16"/>
			<output>
				<port id="1" precision="I64">
					<dim>2</dim>
				</port>
			</output>
		</layer>
		<layer id="122" name="StatefulPartitionedCall/global_average_pooling2d/Mean" type="ReduceMean" version="opset1">
			<data keep_dims="False"/>
			<input>
				<port id="0">
					<dim>1</dim>
					<dim>96</dim>
					<dim>20</dim>
					<dim>20</dim>
				</port>
				<port id="1">
					<dim>2</dim>
				</port>
			</input>
			<output>
				<port id="2" precision="FP16">
					<dim>1</dim>
					<dim>96</dim>
				</port>
			</output>
		</layer>
		<layer id="123" name="StatefulPartitionedCall/shufflenet/shufflenet_block_1/basic_unit_with_downsampling_1/sequential_6/batch_normalization_10/FusedBatchNormV3/mean/Fused_Mul_1384913851_const" type="Const" version="opset1">
			<data element_type="f16" offset="43084" shape="96,96,1,1" size="18432"/>
			<output>
				<port id="1" precision="FP16">
					<dim>96</dim>
					<dim>96</dim>
					<dim>1</dim>
					<dim>1</dim>
				</port>
			</output>
		</layer>
		<layer id="124" name="StatefulPartitionedCall/shufflenet/shufflenet_block_1/basic_unit_with_downsampling_1/sequential_6/conv2d_5/Conv2D" type="Convolution" version="opset1">
			<data auto_pad="same_upper" dilations="1,1" output_padding="0,0" pads_begin="0,0" pads_end="0,0" strides="1,1"/>
			<input>
				<port id="0">
					<dim>1</dim>
					<dim>96</dim>
					<dim>20</dim>
					<dim>20</dim>
				</port>
				<port id="1">
					<dim>96</dim>
					<dim>96</dim>
					<dim>1</dim>
					<dim>1</dim>
				</port>
			</input>
			<output>
				<port id="2" precision="FP16">
					<dim>1</dim>
					<dim>96</dim>
					<dim>20</dim>
					<dim>20</dim>
				</port>
			</output>
		</layer>
		<layer id="125" name="data_add_1294612951/copy_const" type="Const" version="opset1">
			<data element_type="f16" offset="61516" shape="1,96,1,1" size="192"/>
			<output>
				<port id="1" precision="FP16">
					<dim>1</dim>
					<dim>96</dim>
					<dim>1</dim>
					<dim>1</dim>
				</port>
			</output>
		</layer>
		<layer id="126" name="StatefulPartitionedCall/shufflenet/shufflenet_block_1/basic_unit_with_downsampling_1/sequential_6/batch_normalization_10/FusedBatchNormV3/variance/Fused_Add_" type="Add" version="opset1">
			<input>
				<port id="0">
					<dim>1</dim>
					<dim>96</dim>
					<dim>20</dim>
					<dim>20</dim>
				</port>
				<port id="1">
					<dim>1</dim>
					<dim>96</dim>
					<dim>1</dim>
					<dim>1</dim>
				</port>
			</input>
			<output>
				<port id="2" precision="FP16">
					<dim>1</dim>
					<dim>96</dim>
					<dim>20</dim>
					<dim>20</dim>
				</port>
			</output>
		</layer>
		<layer id="127" name="StatefulPartitionedCall/shufflenet/shufflenet_block_1/basic_unit_with_downsampling_1/sequential_6/re_lu_10/Relu" type="ReLU" version="opset1">
			<input>
				<port id="0">
					<dim>1</dim>
					<dim>96</dim>
					<dim>20</dim>
					<dim>20</dim>
				</port>
			</input>
			<output>
				<port id="1" precision="FP16">
					<dim>1</dim>
					<dim>96</dim>
					<dim>20</dim>
					<dim>20</dim>
				</port>
			</output>
		</layer>
		<layer id="128" name="2358023583_const" type="Const" version="opset1">
			<data element_type="f16" offset="61708" shape="96,1,1,3,3" size="1728"/>
			<output>
				<port id="1" precision="FP16">
					<dim>96</dim>
					<dim>1</dim>
					<dim>1</dim>
					<dim>3</dim>
					<dim>3</dim>
				</port>
			</output>
		</layer>
		<layer id="129" name="StatefulPartitionedCall/shufflenet/shufflenet_block_1/basic_unit_with_downsampling_1/sequential_6/separable_conv2d_5/separable_conv2d/depthwise" type="GroupConvolution" version="opset1">
			<data auto_pad="same_upper" dilations="1,1" output_padding="0,0" pads_begin="0,0" pads_end="0,0" strides="2,2"/>
			<input>
				<port id="0">
					<dim>1</dim>
					<dim>96</dim>
					<dim>20</dim>
					<dim>20</dim>
				</port>
				<port id="1">
					<dim>96</dim>
					<dim>1</dim>
					<dim>1</dim>
					<dim>3</dim>
					<dim>3</dim>
				</port>
			</input>
			<output>
				<port id="2" precision="FP16">
					<dim>1</dim>
					<dim>96</dim>
					<dim>10</dim>
					<dim>10</dim>
				</port>
			</output>
		</layer>
		<layer id="130" name="StatefulPartitionedCall/shufflenet/shufflenet_block_1/basic_unit_with_downsampling_1/sequential_6/batch_normalization_11/FusedBatchNormV3/mean/Fused_Mul_1385313855_const" type="Const" version="opset1">
			<data element_type="f16" offset="63436" shape="96,96,1,1" size="18432"/>
			<output>
				<port id="1" precision="FP16">
					<dim>96</dim>
					<dim>96</dim>
					<dim>1</dim>
					<dim>1</dim>
				</port>
			</output>
		</layer>
		<layer id="131" name="StatefulPartitionedCall/shufflenet/shufflenet_block_1/basic_unit_with_downsampling_1/sequential_6/separable_conv2d_5/separable_conv2d" type="Convolution" version="opset1">
			<data auto_pad="valid" dilations="1,1" output_padding="0,0" pads_begin="0,0" pads_end="0,0" strides="1,1"/>
			<input>
				<port id="0">
					<dim>1</dim>
					<dim>96</dim>
					<dim>10</dim>
					<dim>10</dim>
				</port>
				<port id="1">
					<dim>96</dim>
					<dim>96</dim>
					<dim>1</dim>
					<dim>1</dim>
				</port>
			</input>
			<output>
				<port id="2" precision="FP16">
					<dim>1</dim>
					<dim>96</dim>
					<dim>10</dim>
					<dim>10</dim>
				</port>
			</output>
		</layer>
		<layer id="132" name="data_add_1295412959/copy_const" type="Const" version="opset1">
			<data element_type="f16" offset="81868" shape="1,96,1,1" size="192"/>
			<output>
				<port id="1" precision="FP16">
					<dim>1</dim>
					<dim>96</dim>
					<dim>1</dim>
					<dim>1</dim>
				</port>
			</output>
		</layer>
		<layer id="133" name="StatefulPartitionedCall/shufflenet/shufflenet_block_1/basic_unit_with_downsampling_1/sequential_6/batch_normalization_11/FusedBatchNormV3/variance/Fused_Add_" type="Add" version="opset1">
			<input>
				<port id="0">
					<dim>1</dim>
					<dim>96</dim>
					<dim>10</dim>
					<dim>10</dim>
				</port>
				<port id="1">
					<dim>1</dim>
					<dim>96</dim>
					<dim>1</dim>
					<dim>1</dim>
				</port>
			</input>
			<output>
				<port id="2" precision="FP16">
					<dim>1</dim>
					<dim>96</dim>
					<dim>10</dim>
					<dim>10</dim>
				</port>
			</output>
		</layer>
		<layer id="134" name="StatefulPartitionedCall/shufflenet/shufflenet_block_1/basic_unit_with_downsampling_1/sequential_6/re_lu_11/Relu" type="ReLU" version="opset1">
			<input>
				<port id="0">
					<dim>1</dim>
					<dim>96</dim>
					<dim>10</dim>
					<dim>10</dim>
				</port>
			</input>
			<output>
				<port id="1" precision="FP16">
					<dim>1</dim>
					<dim>96</dim>
					<dim>10</dim>
					<dim>10</dim>
				</port>
			</output>
		</layer>
		<layer id="135" name="StatefulPartitionedCall/shufflenet/shufflenet_block_1/strided_slice/Cast_124287_const" type="Const" version="opset1">
			<data element_type="i64" offset="9324" shape="4" size="32"/>
			<output>
				<port id="1" precision="I64">
					<dim>4</dim>
				</port>
			</output>
		</layer>
		<layer id="136" name="StatefulPartitionedCall/shufflenet/shufflenet_block_1/strided_slice/Cast_224289_const" type="Const" version="opset1">
			<data element_type="i64" offset="9324" shape="4" size="32"/>
			<output>
				<port id="1" precision="I64">
					<dim>4</dim>
				</port>
			</output>
		</layer>
		<layer id="137" name="StatefulPartitionedCall/shufflenet/shufflenet_block_1/strided_slice/Cast_324291_const" type="Const" version="opset1">
			<data element_type="i64" offset="9356" shape="4" size="32"/>
			<output>
				<port id="1" precision="I64">
					<dim>4</dim>
				</port>
			</output>
		</layer>
		<layer id="138" name="StatefulPartitionedCall/shufflenet/shufflenet_block_1/strided_slice" type="StridedSlice" version="opset1">
			<data begin_mask="1,0,1,1" ellipsis_mask="0,0,0,0" end_mask="1,1,1,1" new_axis_mask="0,0,0,0" shrink_axis_mask="0,0,0,0"/>
			<input>
				<port id="0">
					<dim>1</dim>
					<dim>96</dim>
					<dim>10</dim>
					<dim>10</dim>
				</port>
				<port id="1">
					<dim>4</dim>
				</port>
				<port id="2">
					<dim>4</dim>
				</port>
				<port id="3">
					<dim>4</dim>
				</port>
			</input>
			<output>
				<port id="4" precision="FP16">
					<dim>1</dim>
					<dim>48</dim>
					<dim>10</dim>
					<dim>10</dim>
				</port>
			</output>
		</layer>
		<layer id="139" name="2353623539_const" type="Const" version="opset1">
			<data element_type="f16" offset="82060" shape="96,1,1,3,3" size="1728"/>
			<output>
				<port id="1" precision="FP16">
					<dim>96</dim>
					<dim>1</dim>
					<dim>1</dim>
					<dim>3</dim>
					<dim>3</dim>
				</port>
			</output>
		</layer>
		<layer id="140" name="StatefulPartitionedCall/shufflenet/shufflenet_block_1/basic_unit_with_downsampling_1/sequential_7/separable_conv2d_6/separable_conv2d/depthwise" type="GroupConvolution" version="opset1">
			<data auto_pad="same_upper" dilations="1,1" output_padding="0,0" pads_begin="0,0" pads_end="0,0" strides="2,2"/>
			<input>
				<port id="0">
					<dim>1</dim>
					<dim>96</dim>
					<dim>20</dim>
					<dim>20</dim>
				</port>
				<port id="1">
					<dim>96</dim>
					<dim>1</dim>
					<dim>1</dim>
					<dim>3</dim>
					<dim>3</dim>
				</port>
			</input>
			<output>
				<port id="2" precision="FP16">
					<dim>1</dim>
					<dim>96</dim>
					<dim>10</dim>
					<dim>10</dim>
				</port>
			</output>
		</layer>
		<layer id="141" name="StatefulPartitionedCall/shufflenet/shufflenet_block_1/basic_unit_with_downsampling_1/sequential_7/batch_normalization_12/FusedBatchNormV3/mean/Fused_Mul_1384513847_const" type="Const" version="opset1">
			<data element_type="f16" offset="83788" shape="96,96,1,1" size="18432"/>
			<output>
				<port id="1" precision="FP16">
					<dim>96</dim>
					<dim>96</dim>
					<dim>1</dim>
					<dim>1</dim>
				</port>
			</output>
		</layer>
		<layer id="142" name="StatefulPartitionedCall/shufflenet/shufflenet_block_1/basic_unit_with_downsampling_1/sequential_7/separable_conv2d_6/separable_conv2d" type="Convolution" version="opset1">
			<data auto_pad="valid" dilations="1,1" output_padding="0,0" pads_begin="0,0" pads_end="0,0" strides="1,1"/>
			<input>
				<port id="0">
					<dim>1</dim>
					<dim>96</dim>
					<dim>10</dim>
					<dim>10</dim>
				</port>
				<port id="1">
					<dim>96</dim>
					<dim>96</dim>
					<dim>1</dim>
					<dim>1</dim>
				</port>
			</input>
			<output>
				<port id="2" precision="FP16">
					<dim>1</dim>
					<dim>96</dim>
					<dim>10</dim>
					<dim>10</dim>
				</port>
			</output>
		</layer>
		<layer id="143" name="data_add_1293812943/copy_const" type="Const" version="opset1">
			<data element_type="f16" offset="102220" shape="1,96,1,1" size="192"/>
			<output>
				<port id="1" precision="FP16">
					<dim>1</dim>
					<dim>96</dim>
					<dim>1</dim>
					<dim>1</dim>
				</port>
			</output>
		</layer>
		<layer id="144" name="StatefulPartitionedCall/shufflenet/shufflenet_block_1/basic_unit_with_downsampling_1/sequential_7/batch_normalization_12/FusedBatchNormV3/variance/Fused_Add_" type="Add" version="opset1">
			<input>
				<port id="0">
					<dim>1</dim>
					<dim>96</dim>
					<dim>10</dim>
					<dim>10</dim>
				</port>
				<port id="1">
					<dim>1</dim>
					<dim>96</dim>
					<dim>1</dim>
					<dim>1</dim>
				</port>
			</input>
			<output>
				<port id="2" precision="FP16">
					<dim>1</dim>
					<dim>96</dim>
					<dim>10</dim>
					<dim>10</dim>
				</port>
			</output>
		</layer>
		<layer id="145" name="StatefulPartitionedCall/shufflenet/shufflenet_block_1/basic_unit_with_downsampling_1/sequential_7/re_lu_12/Relu" type="ReLU" version="opset1">
			<input>
				<port id="0">
					<dim>1</dim>
					<dim>96</dim>
					<dim>10</dim>
					<dim>10</dim>
				</port>
			</input>
			<output>
				<port id="1" precision="FP16">
					<dim>1</dim>
					<dim>96</dim>
					<dim>10</dim>
					<dim>10</dim>
				</port>
			</output>
		</layer>
		<layer id="146" name="StatefulPartitionedCall/shufflenet/shufflenet_block_1/strided_slice_1/Cast_124239_const" type="Const" version="opset1">
			<data element_type="i64" offset="9324" shape="4" size="32"/>
			<output>
				<port id="1" precision="I64">
					<dim>4</dim>
				</port>
			</output>
		</layer>
		<layer id="147" name="StatefulPartitionedCall/shufflenet/shufflenet_block_1/strided_slice_1/Cast_224241_const" type="Const" version="opset1">
			<data element_type="i64" offset="9324" shape="4" size="32"/>
			<output>
				<port id="1" precision="I64">
					<dim>4</dim>
				</port>
			</output>
		</layer>
		<layer id="148" name="StatefulPartitionedCall/shufflenet/shufflenet_block_1/strided_slice_1/Cast_324243_const" type="Const" version="opset1">
			<data element_type="i64" offset="9356" shape="4" size="32"/>
			<output>
				<port id="1" precision="I64">
					<dim>4</dim>
				</port>
			</output>
		</layer>
		<layer id="149" name="StatefulPartitionedCall/shufflenet/shufflenet_block_1/strided_slice_1" type="StridedSlice" version="opset1">
			<data begin_mask="1,0,1,1" ellipsis_mask="0,0,0,0" end_mask="1,1,1,1" new_axis_mask="0,0,0,0" shrink_axis_mask="0,0,0,0"/>
			<input>
				<port id="0">
					<dim>1</dim>
					<dim>96</dim>
					<dim>10</dim>
					<dim>10</dim>
				</port>
				<port id="1">
					<dim>4</dim>
				</port>
				<port id="2">
					<dim>4</dim>
				</port>
				<port id="3">
					<dim>4</dim>
				</port>
			</input>
			<output>
				<port id="4" precision="FP16">
					<dim>1</dim>
					<dim>48</dim>
					<dim>10</dim>
					<dim>10</dim>
				</port>
			</output>
		</layer>
		<layer id="150" name="StatefulPartitionedCall/shufflenet/shufflenet_block_1/concat" type="Concat" version="opset1">
			<data axis="1"/>
			<input>
				<port id="0">
					<dim>1</dim>
					<dim>48</dim>
					<dim>10</dim>
					<dim>10</dim>
				</port>
				<port id="1">
					<dim>1</dim>
					<dim>48</dim>
					<dim>10</dim>
					<dim>10</dim>
				</port>
			</input>
			<output>
				<port id="2" precision="FP16">
					<dim>1</dim>
					<dim>96</dim>
					<dim>10</dim>
					<dim>10</dim>
				</port>
			</output>
		</layer>
		<layer id="151" name="StatefulPartitionedCall/shufflenet/shufflenet_block_1/basic_unit_3/sequential_8/batch_normalization_13/FusedBatchNormV3/mean/Fused_Mul_1385713859_const" type="Const" version="opset1">
			<data element_type="f16" offset="102412" shape="96,96,1,1" size="18432"/>
			<output>
				<port id="1" precision="FP16">
					<dim>96</dim>
					<dim>96</dim>
					<dim>1</dim>
					<dim>1</dim>
				</port>
			</output>
		</layer>
		<layer id="152" name="StatefulPartitionedCall/shufflenet/shufflenet_block_1/basic_unit_3/sequential_8/conv2d_6/Conv2D" type="Convolution" version="opset1">
			<data auto_pad="same_upper" dilations="1,1" output_padding="0,0" pads_begin="0,0" pads_end="0,0" strides="1,1"/>
			<input>
				<port id="0">
					<dim>1</dim>
					<dim>96</dim>
					<dim>10</dim>
					<dim>10</dim>
				</port>
				<port id="1">
					<dim>96</dim>
					<dim>96</dim>
					<dim>1</dim>
					<dim>1</dim>
				</port>
			</input>
			<output>
				<port id="2" precision="FP16">
					<dim>1</dim>
					<dim>96</dim>
					<dim>10</dim>
					<dim>10</dim>
				</port>
			</output>
		</layer>
		<layer id="153" name="data_add_1296212967/copy_const" type="Const" version="opset1">
			<data element_type="f16" offset="120844" shape="1,96,1,1" size="192"/>
			<output>
				<port id="1" precision="FP16">
					<dim>1</dim>
					<dim>96</dim>
					<dim>1</dim>
					<dim>1</dim>
				</port>
			</output>
		</layer>
		<layer id="154" name="StatefulPartitionedCall/shufflenet/shufflenet_block_1/basic_unit_3/sequential_8/batch_normalization_13/FusedBatchNormV3/variance/Fused_Add_" type="Add" version="opset1">
			<input>
				<port id="0">
					<dim>1</dim>
					<dim>96</dim>
					<dim>10</dim>
					<dim>10</dim>
				</port>
				<port id="1">
					<dim>1</dim>
					<dim>96</dim>
					<dim>1</dim>
					<dim>1</dim>
				</port>
			</input>
			<output>
				<port id="2" precision="FP16">
					<dim>1</dim>
					<dim>96</dim>
					<dim>10</dim>
					<dim>10</dim>
				</port>
			</output>
		</layer>
		<layer id="155" name="StatefulPartitionedCall/shufflenet/shufflenet_block_1/basic_unit_3/sequential_8/re_lu_13/Relu" type="ReLU" version="opset1">
			<input>
				<port id="0">
					<dim>1</dim>
					<dim>96</dim>
					<dim>10</dim>
					<dim>10</dim>
				</port>
			</input>
			<output>
				<port id="1" precision="FP16">
					<dim>1</dim>
					<dim>96</dim>
					<dim>10</dim>
					<dim>10</dim>
				</port>
			</output>
		</layer>
		<layer id="156" name="2352023523_const" type="Const" version="opset1">
			<data element_type="f16" offset="121036" shape="96,1,1,3,3" size="1728"/>
			<output>
				<port id="1" precision="FP16">
					<dim>96</dim>
					<dim>1</dim>
					<dim>1</dim>
					<dim>3</dim>
					<dim>3</dim>
				</port>
			</output>
		</layer>
		<layer id="157" name="StatefulPartitionedCall/shufflenet/shufflenet_block_1/basic_unit_3/sequential_8/separable_conv2d_7/separable_conv2d/depthwise" type="GroupConvolution" version="opset1">
			<data auto_pad="same_upper" dilations="1,1" output_padding="0,0" pads_begin="0,0" pads_end="0,0" strides="1,1"/>
			<input>
				<port id="0">
					<dim>1</dim>
					<dim>96</dim>
					<dim>10</dim>
					<dim>10</dim>
				</port>
				<port id="1">
					<dim>96</dim>
					<dim>1</dim>
					<dim>1</dim>
					<dim>3</dim>
					<dim>3</dim>
				</port>
			</input>
			<output>
				<port id="2" precision="FP16">
					<dim>1</dim>
					<dim>96</dim>
					<dim>10</dim>
					<dim>10</dim>
				</port>
			</output>
		</layer>
		<layer id="158" name="StatefulPartitionedCall/shufflenet/shufflenet_block_1/basic_unit_3/sequential_8/batch_normalization_14/FusedBatchNormV3/mean/Fused_Mul_1386113863_const" type="Const" version="opset1">
			<data element_type="f16" offset="122764" shape="96,96,1,1" size="18432"/>
			<output>
				<port id="1" precision="FP16">
					<dim>96</dim>
					<dim>96</dim>
					<dim>1</dim>
					<dim>1</dim>
				</port>
			</output>
		</layer>
		<layer id="159" name="StatefulPartitionedCall/shufflenet/shufflenet_block_1/basic_unit_3/sequential_8/separable_conv2d_7/separable_conv2d" type="Convolution" version="opset1">
			<data auto_pad="valid" dilations="1,1" output_padding="0,0" pads_begin="0,0" pads_end="0,0" strides="1,1"/>
			<input>
				<port id="0">
					<dim>1</dim>
					<dim>96</dim>
					<dim>10</dim>
					<dim>10</dim>
				</port>
				<port id="1">
					<dim>96</dim>
					<dim>96</dim>
					<dim>1</dim>
					<dim>1</dim>
				</port>
			</input>
			<output>
				<port id="2" precision="FP16">
					<dim>1</dim>
					<dim>96</dim>
					<dim>10</dim>
					<dim>10</dim>
				</port>
			</output>
		</layer>
		<layer id="160" name="data_add_1297012975/copy_const" type="Const" version="opset1">
			<data element_type="f16" offset="141196" shape="1,96,1,1" size="192"/>
			<output>
				<port id="1" precision="FP16">
					<dim>1</dim>
					<dim>96</dim>
					<dim>1</dim>
					<dim>1</dim>
				</port>
			</output>
		</layer>
		<layer id="161" name="StatefulPartitionedCall/shufflenet/shufflenet_block_1/basic_unit_3/sequential_8/batch_normalization_14/FusedBatchNormV3/variance/Fused_Add_" type="Add" version="opset1">
			<input>
				<port id="0">
					<dim>1</dim>
					<dim>96</dim>
					<dim>10</dim>
					<dim>10</dim>
				</port>
				<port id="1">
					<dim>1</dim>
					<dim>96</dim>
					<dim>1</dim>
					<dim>1</dim>
				</port>
			</input>
			<output>
				<port id="2" precision="FP16">
					<dim>1</dim>
					<dim>96</dim>
					<dim>10</dim>
					<dim>10</dim>
				</port>
			</output>
		</layer>
		<layer id="162" name="StatefulPartitionedCall/shufflenet/shufflenet_block_1/basic_unit_3/sequential_8/re_lu_14/Relu" type="ReLU" version="opset1">
			<input>
				<port id="0">
					<dim>1</dim>
					<dim>96</dim>
					<dim>10</dim>
					<dim>10</dim>
				</port>
			</input>
			<output>
				<port id="1" precision="FP16">
					<dim>1</dim>
					<dim>96</dim>
					<dim>10</dim>
					<dim>10</dim>
				</port>
			</output>
		</layer>
		<layer id="163" name="StatefulPartitionedCall/shufflenet/shufflenet_block_1/strided_slice_4/Cast_124257_const" type="Const" version="opset1">
			<data element_type="i64" offset="9324" shape="4" size="32"/>
			<output>
				<port id="1" precision="I64">
					<dim>4</dim>
				</port>
			</output>
		</layer>
		<layer id="164" name="StatefulPartitionedCall/shufflenet/shufflenet_block_1/strided_slice_4/Cast_224259_const" type="Const" version="opset1">
			<data element_type="i64" offset="9324" shape="4" size="32"/>
			<output>
				<port id="1" precision="I64">
					<dim>4</dim>
				</port>
			</output>
		</layer>
		<layer id="165" name="StatefulPartitionedCall/shufflenet/shufflenet_block_1/strided_slice_4/Cast_324261_const" type="Const" version="opset1">
			<data element_type="i64" offset="9356" shape="4" size="32"/>
			<output>
				<port id="1" precision="I64">
					<dim>4</dim>
				</port>
			</output>
		</layer>
		<layer id="166" name="StatefulPartitionedCall/shufflenet/shufflenet_block_1/strided_slice_4" type="StridedSlice" version="opset1">
			<data begin_mask="1,0,1,1" ellipsis_mask="0,0,0,0" end_mask="1,1,1,1" new_axis_mask="0,0,0,0" shrink_axis_mask="0,0,0,0"/>
			<input>
				<port id="0">
					<dim>1</dim>
					<dim>96</dim>
					<dim>10</dim>
					<dim>10</dim>
				</port>
				<port id="1">
					<dim>4</dim>
				</port>
				<port id="2">
					<dim>4</dim>
				</port>
				<port id="3">
					<dim>4</dim>
				</port>
			</input>
			<output>
				<port id="4" precision="FP16">
					<dim>1</dim>
					<dim>48</dim>
					<dim>10</dim>
					<dim>10</dim>
				</port>
			</output>
		</layer>
		<layer id="167" name="StatefulPartitionedCall/shufflenet/shufflenet_block_1/strided_slice_2/Cast_124135_const" type="Const" version="opset1">
			<data element_type="i64" offset="22492" shape="4" size="32"/>
			<output>
				<port id="1" precision="I64">
					<dim>4</dim>
				</port>
			</output>
		</layer>
		<layer id="168" name="StatefulPartitionedCall/shufflenet/shufflenet_block_1/strided_slice_2/Cast_224137_const" type="Const" version="opset1">
			<data element_type="i64" offset="9324" shape="4" size="32"/>
			<output>
				<port id="1" precision="I64">
					<dim>4</dim>
				</port>
			</output>
		</layer>
		<layer id="169" name="StatefulPartitionedCall/shufflenet/shufflenet_block_1/strided_slice_2/Cast_324139_const" type="Const" version="opset1">
			<data element_type="i64" offset="9356" shape="4" size="32"/>
			<output>
				<port id="1" precision="I64">
					<dim>4</dim>
				</port>
			</output>
		</layer>
		<layer id="170" name="StatefulPartitionedCall/shufflenet/shufflenet_block_1/strided_slice_2" type="StridedSlice" version="opset1">
			<data begin_mask="1,0,1,1" ellipsis_mask="0,0,0,0" end_mask="1,1,1,1" new_axis_mask="0,0,0,0" shrink_axis_mask="0,0,0,0"/>
			<input>
				<port id="0">
					<dim>1</dim>
					<dim>96</dim>
					<dim>10</dim>
					<dim>10</dim>
				</port>
				<port id="1">
					<dim>4</dim>
				</port>
				<port id="2">
					<dim>4</dim>
				</port>
				<port id="3">
					<dim>4</dim>
				</port>
			</input>
			<output>
				<port id="4" precision="FP16">
					<dim>1</dim>
					<dim>48</dim>
					<dim>10</dim>
					<dim>10</dim>
				</port>
			</output>
		</layer>
		<layer id="171" name="StatefulPartitionedCall/shufflenet/shufflenet_block_1/strided_slice_3/Cast_124227_const" type="Const" version="opset1">
			<data element_type="i64" offset="22492" shape="4" size="32"/>
			<output>
				<port id="1" precision="I64">
					<dim>4</dim>
				</port>
			</output>
		</layer>
		<layer id="172" name="StatefulPartitionedCall/shufflenet/shufflenet_block_1/strided_slice_3/Cast_224229_const" type="Const" version="opset1">
			<data element_type="i64" offset="9324" shape="4" size="32"/>
			<output>
				<port id="1" precision="I64">
					<dim>4</dim>
				</port>
			</output>
		</layer>
		<layer id="173" name="StatefulPartitionedCall/shufflenet/shufflenet_block_1/strided_slice_3/Cast_324231_const" type="Const" version="opset1">
			<data element_type="i64" offset="9356" shape="4" size="32"/>
			<output>
				<port id="1" precision="I64">
					<dim>4</dim>
				</port>
			</output>
		</layer>
		<layer id="174" name="StatefulPartitionedCall/shufflenet/shufflenet_block_1/strided_slice_3" type="StridedSlice" version="opset1">
			<data begin_mask="1,0,1,1" ellipsis_mask="0,0,0,0" end_mask="1,1,1,1" new_axis_mask="0,0,0,0" shrink_axis_mask="0,0,0,0"/>
			<input>
				<port id="0">
					<dim>1</dim>
					<dim>96</dim>
					<dim>10</dim>
					<dim>10</dim>
				</port>
				<port id="1">
					<dim>4</dim>
				</port>
				<port id="2">
					<dim>4</dim>
				</port>
				<port id="3">
					<dim>4</dim>
				</port>
			</input>
			<output>
				<port id="4" precision="FP16">
					<dim>1</dim>
					<dim>48</dim>
					<dim>10</dim>
					<dim>10</dim>
				</port>
			</output>
		</layer>
		<layer id="175" name="StatefulPartitionedCall/shufflenet/shufflenet_block_1/concat_1" type="Concat" version="opset1">
			<data axis="1"/>
			<input>
				<port id="0">
					<dim>1</dim>
					<dim>48</dim>
					<dim>10</dim>
					<dim>10</dim>
				</port>
				<port id="1">
					<dim>1</dim>
					<dim>48</dim>
					<dim>10</dim>
					<dim>10</dim>
				</port>
			</input>
			<output>
				<port id="2" precision="FP16">
					<dim>1</dim>
					<dim>96</dim>
					<dim>10</dim>
					<dim>10</dim>
				</port>
			</output>
		</layer>
		<layer id="176" name="StatefulPartitionedCall/shufflenet/shufflenet_block_1/strided_slice_5/Cast_124355_const" type="Const" version="opset1">
			<data element_type="i64" offset="9324" shape="4" size="32"/>
			<output>
				<port id="1" precision="I64">
					<dim>4</dim>
				</port>
			</output>
		</layer>
		<layer id="177" name="StatefulPartitionedCall/shufflenet/shufflenet_block_1/strided_slice_5/Cast_224357_const" type="Const" version="opset1">
			<data element_type="i64" offset="9324" shape="4" size="32"/>
			<output>
				<port id="1" precision="I64">
					<dim>4</dim>
				</port>
			</output>
		</layer>
		<layer id="178" name="StatefulPartitionedCall/shufflenet/shufflenet_block_1/strided_slice_5/Cast_324359_const" type="Const" version="opset1">
			<data element_type="i64" offset="9356" shape="4" size="32"/>
			<output>
				<port id="1" precision="I64">
					<dim>4</dim>
				</port>
			</output>
		</layer>
		<layer id="179" name="StatefulPartitionedCall/shufflenet/shufflenet_block_1/strided_slice_5" type="StridedSlice" version="opset1">
			<data begin_mask="1,0,1,1" ellipsis_mask="0,0,0,0" end_mask="1,1,1,1" new_axis_mask="0,0,0,0" shrink_axis_mask="0,0,0,0"/>
			<input>
				<port id="0">
					<dim>1</dim>
					<dim>96</dim>
					<dim>10</dim>
					<dim>10</dim>
				</port>
				<port id="1">
					<dim>4</dim>
				</port>
				<port id="2">
					<dim>4</dim>
				</port>
				<port id="3">
					<dim>4</dim>
				</port>
			</input>
			<output>
				<port id="4" precision="FP16">
					<dim>1</dim>
					<dim>48</dim>
					<dim>10</dim>
					<dim>10</dim>
				</port>
			</output>
		</layer>
		<layer id="180" name="StatefulPartitionedCall/shufflenet/shufflenet_block_1/concat_2" type="Concat" version="opset1">
			<data axis="1"/>
			<input>
				<port id="0">
					<dim>1</dim>
					<dim>48</dim>
					<dim>10</dim>
					<dim>10</dim>
				</port>
				<port id="1">
					<dim>1</dim>
					<dim>48</dim>
					<dim>10</dim>
					<dim>10</dim>
				</port>
			</input>
			<output>
				<port id="2" precision="FP16">
					<dim>1</dim>
					<dim>96</dim>
					<dim>10</dim>
					<dim>10</dim>
				</port>
			</output>
		</layer>
		<layer id="181" name="StatefulPartitionedCall/shufflenet/shufflenet_block_1/basic_unit_4/sequential_9/batch_normalization_15/FusedBatchNormV3/mean/Fused_Mul_1386513867_const" type="Const" version="opset1">
			<data element_type="f16" offset="141388" shape="96,96,1,1" size="18432"/>
			<output>
				<port id="1" precision="FP16">
					<dim>96</dim>
					<dim>96</dim>
					<dim>1</dim>
					<dim>1</dim>
				</port>
			</output>
		</layer>
		<layer id="182" name="StatefulPartitionedCall/shufflenet/shufflenet_block_1/basic_unit_4/sequential_9/conv2d_7/Conv2D" type="Convolution" version="opset1">
			<data auto_pad="same_upper" dilations="1,1" output_padding="0,0" pads_begin="0,0" pads_end="0,0" strides="1,1"/>
			<input>
				<port id="0">
					<dim>1</dim>
					<dim>96</dim>
					<dim>10</dim>
					<dim>10</dim>
				</port>
				<port id="1">
					<dim>96</dim>
					<dim>96</dim>
					<dim>1</dim>
					<dim>1</dim>
				</port>
			</input>
			<output>
				<port id="2" precision="FP16">
					<dim>1</dim>
					<dim>96</dim>
					<dim>10</dim>
					<dim>10</dim>
				</port>
			</output>
		</layer>
		<layer id="183" name="data_add_1297812983/copy_const" type="Const" version="opset1">
			<data element_type="f16" offset="159820" shape="1,96,1,1" size="192"/>
			<output>
				<port id="1" precision="FP16">
					<dim>1</dim>
					<dim>96</dim>
					<dim>1</dim>
					<dim>1</dim>
				</port>
			</output>
		</layer>
		<layer id="184" name="StatefulPartitionedCall/shufflenet/shufflenet_block_1/basic_unit_4/sequential_9/batch_normalization_15/FusedBatchNormV3/variance/Fused_Add_" type="Add" version="opset1">
			<input>
				<port id="0">
					<dim>1</dim>
					<dim>96</dim>
					<dim>10</dim>
					<dim>10</dim>
				</port>
				<port id="1">
					<dim>1</dim>
					<dim>96</dim>
					<dim>1</dim>
					<dim>1</dim>
				</port>
			</input>
			<output>
				<port id="2" precision="FP16">
					<dim>1</dim>
					<dim>96</dim>
					<dim>10</dim>
					<dim>10</dim>
				</port>
			</output>
		</layer>
		<layer id="185" name="StatefulPartitionedCall/shufflenet/shufflenet_block_1/basic_unit_4/sequential_9/re_lu_15/Relu" type="ReLU" version="opset1">
			<input>
				<port id="0">
					<dim>1</dim>
					<dim>96</dim>
					<dim>10</dim>
					<dim>10</dim>
				</port>
			</input>
			<output>
				<port id="1" precision="FP16">
					<dim>1</dim>
					<dim>96</dim>
					<dim>10</dim>
					<dim>10</dim>
				</port>
			</output>
		</layer>
		<layer id="186" name="2355223555_const" type="Const" version="opset1">
			<data element_type="f16" offset="160012" shape="96,1,1,3,3" size="1728"/>
			<output>
				<port id="1" precision="FP16">
					<dim>96</dim>
					<dim>1</dim>
					<dim>1</dim>
					<dim>3</dim>
					<dim>3</dim>
				</port>
			</output>
		</layer>
		<layer id="187" name="StatefulPartitionedCall/shufflenet/shufflenet_block_1/basic_unit_4/sequential_9/separable_conv2d_8/separable_conv2d/depthwise" type="GroupConvolution" version="opset1">
			<data auto_pad="same_upper" dilations="1,1" output_padding="0,0" pads_begin="0,0" pads_end="0,0" strides="1,1"/>
			<input>
				<port id="0">
					<dim>1</dim>
					<dim>96</dim>
					<dim>10</dim>
					<dim>10</dim>
				</port>
				<port id="1">
					<dim>96</dim>
					<dim>1</dim>
					<dim>1</dim>
					<dim>3</dim>
					<dim>3</dim>
				</port>
			</input>
			<output>
				<port id="2" precision="FP16">
					<dim>1</dim>
					<dim>96</dim>
					<dim>10</dim>
					<dim>10</dim>
				</port>
			</output>
		</layer>
		<layer id="188" name="StatefulPartitionedCall/shufflenet/shufflenet_block_1/basic_unit_4/sequential_9/batch_normalization_16/FusedBatchNormV3/mean/Fused_Mul_1386913871_const" type="Const" version="opset1">
			<data element_type="f16" offset="161740" shape="96,96,1,1" size="18432"/>
			<output>
				<port id="1" precision="FP16">
					<dim>96</dim>
					<dim>96</dim>
					<dim>1</dim>
					<dim>1</dim>
				</port>
			</output>
		</layer>
		<layer id="189" name="StatefulPartitionedCall/shufflenet/shufflenet_block_1/basic_unit_4/sequential_9/separable_conv2d_8/separable_conv2d" type="Convolution" version="opset1">
			<data auto_pad="valid" dilations="1,1" output_padding="0,0" pads_begin="0,0" pads_end="0,0" strides="1,1"/>
			<input>
				<port id="0">
					<dim>1</dim>
					<dim>96</dim>
					<dim>10</dim>
					<dim>10</dim>
				</port>
				<port id="1">
					<dim>96</dim>
					<dim>96</dim>
					<dim>1</dim>
					<dim>1</dim>
				</port>
			</input>
			<output>
				<port id="2" precision="FP16">
					<dim>1</dim>
					<dim>96</dim>
					<dim>10</dim>
					<dim>10</dim>
				</port>
			</output>
		</layer>
		<layer id="190" name="data_add_1298612991/copy_const" type="Const" version="opset1">
			<data element_type="f16" offset="180172" shape="1,96,1,1" size="192"/>
			<output>
				<port id="1" precision="FP16">
					<dim>1</dim>
					<dim>96</dim>
					<dim>1</dim>
					<dim>1</dim>
				</port>
			</output>
		</layer>
		<layer id="191" name="StatefulPartitionedCall/shufflenet/shufflenet_block_1/basic_unit_4/sequential_9/batch_normalization_16/FusedBatchNormV3/variance/Fused_Add_" type="Add" version="opset1">
			<input>
				<port id="0">
					<dim>1</dim>
					<dim>96</dim>
					<dim>10</dim>
					<dim>10</dim>
				</port>
				<port id="1">
					<dim>1</dim>
					<dim>96</dim>
					<dim>1</dim>
					<dim>1</dim>
				</port>
			</input>
			<output>
				<port id="2" precision="FP16">
					<dim>1</dim>
					<dim>96</dim>
					<dim>10</dim>
					<dim>10</dim>
				</port>
			</output>
		</layer>
		<layer id="192" name="StatefulPartitionedCall/shufflenet/shufflenet_block_1/basic_unit_4/sequential_9/re_lu_16/Relu" type="ReLU" version="opset1">
			<input>
				<port id="0">
					<dim>1</dim>
					<dim>96</dim>
					<dim>10</dim>
					<dim>10</dim>
				</port>
			</input>
			<output>
				<port id="1" precision="FP16">
					<dim>1</dim>
					<dim>96</dim>
					<dim>10</dim>
					<dim>10</dim>
				</port>
			</output>
		</layer>
		<layer id="193" name="StatefulPartitionedCall/shufflenet/shufflenet_block_1/strided_slice_8/Cast_124185_const" type="Const" version="opset1">
			<data element_type="i64" offset="9324" shape="4" size="32"/>
			<output>
				<port id="1" precision="I64">
					<dim>4</dim>
				</port>
			</output>
		</layer>
		<layer id="194" name="StatefulPartitionedCall/shufflenet/shufflenet_block_1/strided_slice_8/Cast_224187_const" type="Const" version="opset1">
			<data element_type="i64" offset="9324" shape="4" size="32"/>
			<output>
				<port id="1" precision="I64">
					<dim>4</dim>
				</port>
			</output>
		</layer>
		<layer id="195" name="StatefulPartitionedCall/shufflenet/shufflenet_block_1/strided_slice_8/Cast_324189_const" type="Const" version="opset1">
			<data element_type="i64" offset="9356" shape="4" size="32"/>
			<output>
				<port id="1" precision="I64">
					<dim>4</dim>
				</port>
			</output>
		</layer>
		<layer id="196" name="StatefulPartitionedCall/shufflenet/shufflenet_block_1/strided_slice_8" type="StridedSlice" version="opset1">
			<data begin_mask="1,0,1,1" ellipsis_mask="0,0,0,0" end_mask="1,1,1,1" new_axis_mask="0,0,0,0" shrink_axis_mask="0,0,0,0"/>
			<input>
				<port id="0">
					<dim>1</dim>
					<dim>96</dim>
					<dim>10</dim>
					<dim>10</dim>
				</port>
				<port id="1">
					<dim>4</dim>
				</port>
				<port id="2">
					<dim>4</dim>
				</port>
				<port id="3">
					<dim>4</dim>
				</port>
			</input>
			<output>
				<port id="4" precision="FP16">
					<dim>1</dim>
					<dim>48</dim>
					<dim>10</dim>
					<dim>10</dim>
				</port>
			</output>
		</layer>
		<layer id="197" name="StatefulPartitionedCall/shufflenet/shufflenet_block_1/strided_slice_6/Cast_124209_const" type="Const" version="opset1">
			<data element_type="i64" offset="22492" shape="4" size="32"/>
			<output>
				<port id="1" precision="I64">
					<dim>4</dim>
				</port>
			</output>
		</layer>
		<layer id="198" name="StatefulPartitionedCall/shufflenet/shufflenet_block_1/strided_slice_6/Cast_224211_const" type="Const" version="opset1">
			<data element_type="i64" offset="9324" shape="4" size="32"/>
			<output>
				<port id="1" precision="I64">
					<dim>4</dim>
				</port>
			</output>
		</layer>
		<layer id="199" name="StatefulPartitionedCall/shufflenet/shufflenet_block_1/strided_slice_6/Cast_324213_const" type="Const" version="opset1">
			<data element_type="i64" offset="9356" shape="4" size="32"/>
			<output>
				<port id="1" precision="I64">
					<dim>4</dim>
				</port>
			</output>
		</layer>
		<layer id="200" name="StatefulPartitionedCall/shufflenet/shufflenet_block_1/strided_slice_6" type="StridedSlice" version="opset1">
			<data begin_mask="1,0,1,1" ellipsis_mask="0,0,0,0" end_mask="1,1,1,1" new_axis_mask="0,0,0,0" shrink_axis_mask="0,0,0,0"/>
			<input>
				<port id="0">
					<dim>1</dim>
					<dim>96</dim>
					<dim>10</dim>
					<dim>10</dim>
				</port>
				<port id="1">
					<dim>4</dim>
				</port>
				<port id="2">
					<dim>4</dim>
				</port>
				<port id="3">
					<dim>4</dim>
				</port>
			</input>
			<output>
				<port id="4" precision="FP16">
					<dim>1</dim>
					<dim>48</dim>
					<dim>10</dim>
					<dim>10</dim>
				</port>
			</output>
		</layer>
		<layer id="201" name="StatefulPartitionedCall/shufflenet/shufflenet_block_1/strided_slice_7/Cast_124331_const" type="Const" version="opset1">
			<data element_type="i64" offset="22492" shape="4" size="32"/>
			<output>
				<port id="1" precision="I64">
					<dim>4</dim>
				</port>
			</output>
		</layer>
		<layer id="202" name="StatefulPartitionedCall/shufflenet/shufflenet_block_1/strided_slice_7/Cast_224333_const" type="Const" version="opset1">
			<data element_type="i64" offset="9324" shape="4" size="32"/>
			<output>
				<port id="1" precision="I64">
					<dim>4</dim>
				</port>
			</output>
		</layer>
		<layer id="203" name="StatefulPartitionedCall/shufflenet/shufflenet_block_1/strided_slice_7/Cast_324335_const" type="Const" version="opset1">
			<data element_type="i64" offset="9356" shape="4" size="32"/>
			<output>
				<port id="1" precision="I64">
					<dim>4</dim>
				</port>
			</output>
		</layer>
		<layer id="204" name="StatefulPartitionedCall/shufflenet/shufflenet_block_1/strided_slice_7" type="StridedSlice" version="opset1">
			<data begin_mask="1,0,1,1" ellipsis_mask="0,0,0,0" end_mask="1,1,1,1" new_axis_mask="0,0,0,0" shrink_axis_mask="0,0,0,0"/>
			<input>
				<port id="0">
					<dim>1</dim>
					<dim>96</dim>
					<dim>10</dim>
					<dim>10</dim>
				</port>
				<port id="1">
					<dim>4</dim>
				</port>
				<port id="2">
					<dim>4</dim>
				</port>
				<port id="3">
					<dim>4</dim>
				</port>
			</input>
			<output>
				<port id="4" precision="FP16">
					<dim>1</dim>
					<dim>48</dim>
					<dim>10</dim>
					<dim>10</dim>
				</port>
			</output>
		</layer>
		<layer id="205" name="StatefulPartitionedCall/shufflenet/shufflenet_block_1/concat_3" type="Concat" version="opset1">
			<data axis="1"/>
			<input>
				<port id="0">
					<dim>1</dim>
					<dim>48</dim>
					<dim>10</dim>
					<dim>10</dim>
				</port>
				<port id="1">
					<dim>1</dim>
					<dim>48</dim>
					<dim>10</dim>
					<dim>10</dim>
				</port>
			</input>
			<output>
				<port id="2" precision="FP16">
					<dim>1</dim>
					<dim>96</dim>
					<dim>10</dim>
					<dim>10</dim>
				</port>
			</output>
		</layer>
		<layer id="206" name="StatefulPartitionedCall/shufflenet/shufflenet_block_1/strided_slice_9/Cast_124399_const" type="Const" version="opset1">
			<data element_type="i64" offset="9324" shape="4" size="32"/>
			<output>
				<port id="1" precision="I64">
					<dim>4</dim>
				</port>
			</output>
		</layer>
		<layer id="207" name="StatefulPartitionedCall/shufflenet/shufflenet_block_1/strided_slice_9/Cast_224401_const" type="Const" version="opset1">
			<data element_type="i64" offset="9324" shape="4" size="32"/>
			<output>
				<port id="1" precision="I64">
					<dim>4</dim>
				</port>
			</output>
		</layer>
		<layer id="208" name="StatefulPartitionedCall/shufflenet/shufflenet_block_1/strided_slice_9/Cast_324403_const" type="Const" version="opset1">
			<data element_type="i64" offset="9356" shape="4" size="32"/>
			<output>
				<port id="1" precision="I64">
					<dim>4</dim>
				</port>
			</output>
		</layer>
		<layer id="209" name="StatefulPartitionedCall/shufflenet/shufflenet_block_1/strided_slice_9" type="StridedSlice" version="opset1">
			<data begin_mask="1,0,1,1" ellipsis_mask="0,0,0,0" end_mask="1,1,1,1" new_axis_mask="0,0,0,0" shrink_axis_mask="0,0,0,0"/>
			<input>
				<port id="0">
					<dim>1</dim>
					<dim>96</dim>
					<dim>10</dim>
					<dim>10</dim>
				</port>
				<port id="1">
					<dim>4</dim>
				</port>
				<port id="2">
					<dim>4</dim>
				</port>
				<port id="3">
					<dim>4</dim>
				</port>
			</input>
			<output>
				<port id="4" precision="FP16">
					<dim>1</dim>
					<dim>48</dim>
					<dim>10</dim>
					<dim>10</dim>
				</port>
			</output>
		</layer>
		<layer id="210" name="StatefulPartitionedCall/shufflenet/shufflenet_block_1/concat_4" type="Concat" version="opset1">
			<data axis="1"/>
			<input>
				<port id="0">
					<dim>1</dim>
					<dim>48</dim>
					<dim>10</dim>
					<dim>10</dim>
				</port>
				<port id="1">
					<dim>1</dim>
					<dim>48</dim>
					<dim>10</dim>
					<dim>10</dim>
				</port>
			</input>
			<output>
				<port id="2" precision="FP16">
					<dim>1</dim>
					<dim>96</dim>
					<dim>10</dim>
					<dim>10</dim>
				</port>
			</output>
		</layer>
		<layer id="211" name="StatefulPartitionedCall/shufflenet/shufflenet_block_1/basic_unit_5/sequential_10/batch_normalization_17/FusedBatchNormV3/mean/Fused_Mul_1387313875_const" type="Const" version="opset1">
			<data element_type="f16" offset="180364" shape="96,96,1,1" size="18432"/>
			<output>
				<port id="1" precision="FP16">
					<dim>96</dim>
					<dim>96</dim>
					<dim>1</dim>
					<dim>1</dim>
				</port>
			</output>
		</layer>
		<layer id="212" name="StatefulPartitionedCall/shufflenet/shufflenet_block_1/basic_unit_5/sequential_10/conv2d_8/Conv2D" type="Convolution" version="opset1">
			<data auto_pad="same_upper" dilations="1,1" output_padding="0,0" pads_begin="0,0" pads_end="0,0" strides="1,1"/>
			<input>
				<port id="0">
					<dim>1</dim>
					<dim>96</dim>
					<dim>10</dim>
					<dim>10</dim>
				</port>
				<port id="1">
					<dim>96</dim>
					<dim>96</dim>
					<dim>1</dim>
					<dim>1</dim>
				</port>
			</input>
			<output>
				<port id="2" precision="FP16">
					<dim>1</dim>
					<dim>96</dim>
					<dim>10</dim>
					<dim>10</dim>
				</port>
			</output>
		</layer>
		<layer id="213" name="data_add_1299412999/copy_const" type="Const" version="opset1">
			<data element_type="f16" offset="198796" shape="1,96,1,1" size="192"/>
			<output>
				<port id="1" precision="FP16">
					<dim>1</dim>
					<dim>96</dim>
					<dim>1</dim>
					<dim>1</dim>
				</port>
			</output>
		</layer>
		<layer id="214" name="StatefulPartitionedCall/shufflenet/shufflenet_block_1/basic_unit_5/sequential_10/batch_normalization_17/FusedBatchNormV3/variance/Fused_Add_" type="Add" version="opset1">
			<input>
				<port id="0">
					<dim>1</dim>
					<dim>96</dim>
					<dim>10</dim>
					<dim>10</dim>
				</port>
				<port id="1">
					<dim>1</dim>
					<dim>96</dim>
					<dim>1</dim>
					<dim>1</dim>
				</port>
			</input>
			<output>
				<port id="2" precision="FP16">
					<dim>1</dim>
					<dim>96</dim>
					<dim>10</dim>
					<dim>10</dim>
				</port>
			</output>
		</layer>
		<layer id="215" name="StatefulPartitionedCall/shufflenet/shufflenet_block_1/basic_unit_5/sequential_10/re_lu_17/Relu" type="ReLU" version="opset1">
			<input>
				<port id="0">
					<dim>1</dim>
					<dim>96</dim>
					<dim>10</dim>
					<dim>10</dim>
				</port>
			</input>
			<output>
				<port id="1" precision="FP16">
					<dim>1</dim>
					<dim>96</dim>
					<dim>10</dim>
					<dim>10</dim>
				</port>
			</output>
		</layer>
		<layer id="216" name="2358823591_const" type="Const" version="opset1">
			<data element_type="f16" offset="198988" shape="96,1,1,3,3" size="1728"/>
			<output>
				<port id="1" precision="FP16">
					<dim>96</dim>
					<dim>1</dim>
					<dim>1</dim>
					<dim>3</dim>
					<dim>3</dim>
				</port>
			</output>
		</layer>
		<layer id="217" name="StatefulPartitionedCall/shufflenet/shufflenet_block_1/basic_unit_5/sequential_10/separable_conv2d_9/separable_conv2d/depthwise" type="GroupConvolution" version="opset1">
			<data auto_pad="same_upper" dilations="1,1" output_padding="0,0" pads_begin="0,0" pads_end="0,0" strides="1,1"/>
			<input>
				<port id="0">
					<dim>1</dim>
					<dim>96</dim>
					<dim>10</dim>
					<dim>10</dim>
				</port>
				<port id="1">
					<dim>96</dim>
					<dim>1</dim>
					<dim>1</dim>
					<dim>3</dim>
					<dim>3</dim>
				</port>
			</input>
			<output>
				<port id="2" precision="FP16">
					<dim>1</dim>
					<dim>96</dim>
					<dim>10</dim>
					<dim>10</dim>
				</port>
			</output>
		</layer>
		<layer id="218" name="StatefulPartitionedCall/shufflenet/shufflenet_block_1/basic_unit_5/sequential_10/batch_normalization_18/FusedBatchNormV3/mean/Fused_Mul_1387713879_const" type="Const" version="opset1">
			<data element_type="f16" offset="200716" shape="96,96,1,1" size="18432"/>
			<output>
				<port id="1" precision="FP16">
					<dim>96</dim>
					<dim>96</dim>
					<dim>1</dim>
					<dim>1</dim>
				</port>
			</output>
		</layer>
		<layer id="219" name="StatefulPartitionedCall/shufflenet/shufflenet_block_1/basic_unit_5/sequential_10/separable_conv2d_9/separable_conv2d" type="Convolution" version="opset1">
			<data auto_pad="valid" dilations="1,1" output_padding="0,0" pads_begin="0,0" pads_end="0,0" strides="1,1"/>
			<input>
				<port id="0">
					<dim>1</dim>
					<dim>96</dim>
					<dim>10</dim>
					<dim>10</dim>
				</port>
				<port id="1">
					<dim>96</dim>
					<dim>96</dim>
					<dim>1</dim>
					<dim>1</dim>
				</port>
			</input>
			<output>
				<port id="2" precision="FP16">
					<dim>1</dim>
					<dim>96</dim>
					<dim>10</dim>
					<dim>10</dim>
				</port>
			</output>
		</layer>
		<layer id="220" name="data_add_1300213007/copy_const" type="Const" version="opset1">
			<data element_type="f16" offset="219148" shape="1,96,1,1" size="192"/>
			<output>
				<port id="1" precision="FP16">
					<dim>1</dim>
					<dim>96</dim>
					<dim>1</dim>
					<dim>1</dim>
				</port>
			</output>
		</layer>
		<layer id="221" name="StatefulPartitionedCall/shufflenet/shufflenet_block_1/basic_unit_5/sequential_10/batch_normalization_18/FusedBatchNormV3/variance/Fused_Add_" type="Add" version="opset1">
			<input>
				<port id="0">
					<dim>1</dim>
					<dim>96</dim>
					<dim>10</dim>
					<dim>10</dim>
				</port>
				<port id="1">
					<dim>1</dim>
					<dim>96</dim>
					<dim>1</dim>
					<dim>1</dim>
				</port>
			</input>
			<output>
				<port id="2" precision="FP16">
					<dim>1</dim>
					<dim>96</dim>
					<dim>10</dim>
					<dim>10</dim>
				</port>
			</output>
		</layer>
		<layer id="222" name="StatefulPartitionedCall/shufflenet/shufflenet_block_1/basic_unit_5/sequential_10/re_lu_18/Relu" type="ReLU" version="opset1">
			<input>
				<port id="0">
					<dim>1</dim>
					<dim>96</dim>
					<dim>10</dim>
					<dim>10</dim>
				</port>
			</input>
			<output>
				<port id="1" precision="FP16">
					<dim>1</dim>
					<dim>96</dim>
					<dim>10</dim>
					<dim>10</dim>
				</port>
			</output>
		</layer>
		<layer id="223" name="StatefulPartitionedCall/shufflenet/shufflenet_block_1/strided_slice_12/Cast_124361_const" type="Const" version="opset1">
			<data element_type="i64" offset="9324" shape="4" size="32"/>
			<output>
				<port id="1" precision="I64">
					<dim>4</dim>
				</port>
			</output>
		</layer>
		<layer id="224" name="StatefulPartitionedCall/shufflenet/shufflenet_block_1/strided_slice_12/Cast_224363_const" type="Const" version="opset1">
			<data element_type="i64" offset="9324" shape="4" size="32"/>
			<output>
				<port id="1" precision="I64">
					<dim>4</dim>
				</port>
			</output>
		</layer>
		<layer id="225" name="StatefulPartitionedCall/shufflenet/shufflenet_block_1/strided_slice_12/Cast_324365_const" type="Const" version="opset1">
			<data element_type="i64" offset="9356" shape="4" size="32"/>
			<output>
				<port id="1" precision="I64">
					<dim>4</dim>
				</port>
			</output>
		</layer>
		<layer id="226" name="StatefulPartitionedCall/shufflenet/shufflenet_block_1/strided_slice_12" type="StridedSlice" version="opset1">
			<data begin_mask="1,0,1,1" ellipsis_mask="0,0,0,0" end_mask="1,1,1,1" new_axis_mask="0,0,0,0" shrink_axis_mask="0,0,0,0"/>
			<input>
				<port id="0">
					<dim>1</dim>
					<dim>96</dim>
					<dim>10</dim>
					<dim>10</dim>
				</port>
				<port id="1">
					<dim>4</dim>
				</port>
				<port id="2">
					<dim>4</dim>
				</port>
				<port id="3">
					<dim>4</dim>
				</port>
			</input>
			<output>
				<port id="4" precision="FP16">
					<dim>1</dim>
					<dim>48</dim>
					<dim>10</dim>
					<dim>10</dim>
				</port>
			</output>
		</layer>
		<layer id="227" name="StatefulPartitionedCall/shufflenet/shufflenet_block_1/strided_slice_10/Cast_124251_const" type="Const" version="opset1">
			<data element_type="i64" offset="22492" shape="4" size="32"/>
			<output>
				<port id="1" precision="I64">
					<dim>4</dim>
				</port>
			</output>
		</layer>
		<layer id="228" name="StatefulPartitionedCall/shufflenet/shufflenet_block_1/strided_slice_10/Cast_224253_const" type="Const" version="opset1">
			<data element_type="i64" offset="9324" shape="4" size="32"/>
			<output>
				<port id="1" precision="I64">
					<dim>4</dim>
				</port>
			</output>
		</layer>
		<layer id="229" name="StatefulPartitionedCall/shufflenet/shufflenet_block_1/strided_slice_10/Cast_324255_const" type="Const" version="opset1">
			<data element_type="i64" offset="9356" shape="4" size="32"/>
			<output>
				<port id="1" precision="I64">
					<dim>4</dim>
				</port>
			</output>
		</layer>
		<layer id="230" name="StatefulPartitionedCall/shufflenet/shufflenet_block_1/strided_slice_10" type="StridedSlice" version="opset1">
			<data begin_mask="1,0,1,1" ellipsis_mask="0,0,0,0" end_mask="1,1,1,1" new_axis_mask="0,0,0,0" shrink_axis_mask="0,0,0,0"/>
			<input>
				<port id="0">
					<dim>1</dim>
					<dim>96</dim>
					<dim>10</dim>
					<dim>10</dim>
				</port>
				<port id="1">
					<dim>4</dim>
				</port>
				<port id="2">
					<dim>4</dim>
				</port>
				<port id="3">
					<dim>4</dim>
				</port>
			</input>
			<output>
				<port id="4" precision="FP16">
					<dim>1</dim>
					<dim>48</dim>
					<dim>10</dim>
					<dim>10</dim>
				</port>
			</output>
		</layer>
		<layer id="231" name="StatefulPartitionedCall/shufflenet/shufflenet_block_1/strided_slice_11/Cast_124203_const" type="Const" version="opset1">
			<data element_type="i64" offset="22492" shape="4" size="32"/>
			<output>
				<port id="1" precision="I64">
					<dim>4</dim>
				</port>
			</output>
		</layer>
		<layer id="232" name="StatefulPartitionedCall/shufflenet/shufflenet_block_1/strided_slice_11/Cast_224205_const" type="Const" version="opset1">
			<data element_type="i64" offset="9324" shape="4" size="32"/>
			<output>
				<port id="1" precision="I64">
					<dim>4</dim>
				</port>
			</output>
		</layer>
		<layer id="233" name="StatefulPartitionedCall/shufflenet/shufflenet_block_1/strided_slice_11/Cast_324207_const" type="Const" version="opset1">
			<data element_type="i64" offset="9356" shape="4" size="32"/>
			<output>
				<port id="1" precision="I64">
					<dim>4</dim>
				</port>
			</output>
		</layer>
		<layer id="234" name="StatefulPartitionedCall/shufflenet/shufflenet_block_1/strided_slice_11" type="StridedSlice" version="opset1">
			<data begin_mask="1,0,1,1" ellipsis_mask="0,0,0,0" end_mask="1,1,1,1" new_axis_mask="0,0,0,0" shrink_axis_mask="0,0,0,0"/>
			<input>
				<port id="0">
					<dim>1</dim>
					<dim>96</dim>
					<dim>10</dim>
					<dim>10</dim>
				</port>
				<port id="1">
					<dim>4</dim>
				</port>
				<port id="2">
					<dim>4</dim>
				</port>
				<port id="3">
					<dim>4</dim>
				</port>
			</input>
			<output>
				<port id="4" precision="FP16">
					<dim>1</dim>
					<dim>48</dim>
					<dim>10</dim>
					<dim>10</dim>
				</port>
			</output>
		</layer>
		<layer id="235" name="StatefulPartitionedCall/shufflenet/shufflenet_block_1/concat_5" type="Concat" version="opset1">
			<data axis="1"/>
			<input>
				<port id="0">
					<dim>1</dim>
					<dim>48</dim>
					<dim>10</dim>
					<dim>10</dim>
				</port>
				<port id="1">
					<dim>1</dim>
					<dim>48</dim>
					<dim>10</dim>
					<dim>10</dim>
				</port>
			</input>
			<output>
				<port id="2" precision="FP16">
					<dim>1</dim>
					<dim>96</dim>
					<dim>10</dim>
					<dim>10</dim>
				</port>
			</output>
		</layer>
		<layer id="236" name="StatefulPartitionedCall/shufflenet/shufflenet_block_1/strided_slice_13/Cast_124173_const" type="Const" version="opset1">
			<data element_type="i64" offset="9324" shape="4" size="32"/>
			<output>
				<port id="1" precision="I64">
					<dim>4</dim>
				</port>
			</output>
		</layer>
		<layer id="237" name="StatefulPartitionedCall/shufflenet/shufflenet_block_1/strided_slice_13/Cast_224175_const" type="Const" version="opset1">
			<data element_type="i64" offset="9324" shape="4" size="32"/>
			<output>
				<port id="1" precision="I64">
					<dim>4</dim>
				</port>
			</output>
		</layer>
		<layer id="238" name="StatefulPartitionedCall/shufflenet/shufflenet_block_1/strided_slice_13/Cast_324177_const" type="Const" version="opset1">
			<data element_type="i64" offset="9356" shape="4" size="32"/>
			<output>
				<port id="1" precision="I64">
					<dim>4</dim>
				</port>
			</output>
		</layer>
		<layer id="239" name="StatefulPartitionedCall/shufflenet/shufflenet_block_1/strided_slice_13" type="StridedSlice" version="opset1">
			<data begin_mask="1,0,1,1" ellipsis_mask="0,0,0,0" end_mask="1,1,1,1" new_axis_mask="0,0,0,0" shrink_axis_mask="0,0,0,0"/>
			<input>
				<port id="0">
					<dim>1</dim>
					<dim>96</dim>
					<dim>10</dim>
					<dim>10</dim>
				</port>
				<port id="1">
					<dim>4</dim>
				</port>
				<port id="2">
					<dim>4</dim>
				</port>
				<port id="3">
					<dim>4</dim>
				</port>
			</input>
			<output>
				<port id="4" precision="FP16">
					<dim>1</dim>
					<dim>48</dim>
					<dim>10</dim>
					<dim>10</dim>
				</port>
			</output>
		</layer>
		<layer id="240" name="StatefulPartitionedCall/shufflenet/shufflenet_block_1/concat_6" type="Concat" version="opset1">
			<data axis="1"/>
			<input>
				<port id="0">
					<dim>1</dim>
					<dim>48</dim>
					<dim>10</dim>
					<dim>10</dim>
				</port>
				<port id="1">
					<dim>1</dim>
					<dim>48</dim>
					<dim>10</dim>
					<dim>10</dim>
				</port>
			</input>
			<output>
				<port id="2" precision="FP16">
					<dim>1</dim>
					<dim>96</dim>
					<dim>10</dim>
					<dim>10</dim>
				</port>
			</output>
		</layer>
		<layer id="241" name="StatefulPartitionedCall/shufflenet/shufflenet_block_1/basic_unit_6/sequential_11/batch_normalization_19/FusedBatchNormV3/mean/Fused_Mul_1388113883_const" type="Const" version="opset1">
			<data element_type="f16" offset="219340" shape="96,96,1,1" size="18432"/>
			<output>
				<port id="1" precision="FP16">
					<dim>96</dim>
					<dim>96</dim>
					<dim>1</dim>
					<dim>1</dim>
				</port>
			</output>
		</layer>
		<layer id="242" name="StatefulPartitionedCall/shufflenet/shufflenet_block_1/basic_unit_6/sequential_11/conv2d_9/Conv2D" type="Convolution" version="opset1">
			<data auto_pad="same_upper" dilations="1,1" output_padding="0,0" pads_begin="0,0" pads_end="0,0" strides="1,1"/>
			<input>
				<port id="0">
					<dim>1</dim>
					<dim>96</dim>
					<dim>10</dim>
					<dim>10</dim>
				</port>
				<port id="1">
					<dim>96</dim>
					<dim>96</dim>
					<dim>1</dim>
					<dim>1</dim>
				</port>
			</input>
			<output>
				<port id="2" precision="FP16">
					<dim>1</dim>
					<dim>96</dim>
					<dim>10</dim>
					<dim>10</dim>
				</port>
			</output>
		</layer>
		<layer id="243" name="data_add_1301013015/copy_const" type="Const" version="opset1">
			<data element_type="f16" offset="237772" shape="1,96,1,1" size="192"/>
			<output>
				<port id="1" precision="FP16">
					<dim>1</dim>
					<dim>96</dim>
					<dim>1</dim>
					<dim>1</dim>
				</port>
			</output>
		</layer>
		<layer id="244" name="StatefulPartitionedCall/shufflenet/shufflenet_block_1/basic_unit_6/sequential_11/batch_normalization_19/FusedBatchNormV3/variance/Fused_Add_" type="Add" version="opset1">
			<input>
				<port id="0">
					<dim>1</dim>
					<dim>96</dim>
					<dim>10</dim>
					<dim>10</dim>
				</port>
				<port id="1">
					<dim>1</dim>
					<dim>96</dim>
					<dim>1</dim>
					<dim>1</dim>
				</port>
			</input>
			<output>
				<port id="2" precision="FP16">
					<dim>1</dim>
					<dim>96</dim>
					<dim>10</dim>
					<dim>10</dim>
				</port>
			</output>
		</layer>
		<layer id="245" name="StatefulPartitionedCall/shufflenet/shufflenet_block_1/basic_unit_6/sequential_11/re_lu_19/Relu" type="ReLU" version="opset1">
			<input>
				<port id="0">
					<dim>1</dim>
					<dim>96</dim>
					<dim>10</dim>
					<dim>10</dim>
				</port>
			</input>
			<output>
				<port id="1" precision="FP16">
					<dim>1</dim>
					<dim>96</dim>
					<dim>10</dim>
					<dim>10</dim>
				</port>
			</output>
		</layer>
		<layer id="246" name="2358423587_const" type="Const" version="opset1">
			<data element_type="f16" offset="237964" shape="96,1,1,3,3" size="1728"/>
			<output>
				<port id="1" precision="FP16">
					<dim>96</dim>
					<dim>1</dim>
					<dim>1</dim>
					<dim>3</dim>
					<dim>3</dim>
				</port>
			</output>
		</layer>
		<layer id="247" name="StatefulPartitionedCall/shufflenet/shufflenet_block_1/basic_unit_6/sequential_11/separable_conv2d_10/separable_conv2d/depthwise" type="GroupConvolution" version="opset1">
			<data auto_pad="same_upper" dilations="1,1" output_padding="0,0" pads_begin="0,0" pads_end="0,0" strides="1,1"/>
			<input>
				<port id="0">
					<dim>1</dim>
					<dim>96</dim>
					<dim>10</dim>
					<dim>10</dim>
				</port>
				<port id="1">
					<dim>96</dim>
					<dim>1</dim>
					<dim>1</dim>
					<dim>3</dim>
					<dim>3</dim>
				</port>
			</input>
			<output>
				<port id="2" precision="FP16">
					<dim>1</dim>
					<dim>96</dim>
					<dim>10</dim>
					<dim>10</dim>
				</port>
			</output>
		</layer>
		<layer id="248" name="StatefulPartitionedCall/shufflenet/shufflenet_block_1/basic_unit_6/sequential_11/batch_normalization_20/FusedBatchNormV3/mean/Fused_Mul_1388513887_const" type="Const" version="opset1">
			<data element_type="f16" offset="239692" shape="96,96,1,1" size="18432"/>
			<output>
				<port id="1" precision="FP16">
					<dim>96</dim>
					<dim>96</dim>
					<dim>1</dim>
					<dim>1</dim>
				</port>
			</output>
		</layer>
		<layer id="249" name="StatefulPartitionedCall/shufflenet/shufflenet_block_1/basic_unit_6/sequential_11/separable_conv2d_10/separable_conv2d" type="Convolution" version="opset1">
			<data auto_pad="valid" dilations="1,1" output_padding="0,0" pads_begin="0,0" pads_end="0,0" strides="1,1"/>
			<input>
				<port id="0">
					<dim>1</dim>
					<dim>96</dim>
					<dim>10</dim>
					<dim>10</dim>
				</port>
				<port id="1">
					<dim>96</dim>
					<dim>96</dim>
					<dim>1</dim>
					<dim>1</dim>
				</port>
			</input>
			<output>
				<port id="2" precision="FP16">
					<dim>1</dim>
					<dim>96</dim>
					<dim>10</dim>
					<dim>10</dim>
				</port>
			</output>
		</layer>
		<layer id="250" name="data_add_1301813023/copy_const" type="Const" version="opset1">
			<data element_type="f16" offset="258124" shape="1,96,1,1" size="192"/>
			<output>
				<port id="1" precision="FP16">
					<dim>1</dim>
					<dim>96</dim>
					<dim>1</dim>
					<dim>1</dim>
				</port>
			</output>
		</layer>
		<layer id="251" name="StatefulPartitionedCall/shufflenet/shufflenet_block_1/basic_unit_6/sequential_11/batch_normalization_20/FusedBatchNormV3/variance/Fused_Add_" type="Add" version="opset1">
			<input>
				<port id="0">
					<dim>1</dim>
					<dim>96</dim>
					<dim>10</dim>
					<dim>10</dim>
				</port>
				<port id="1">
					<dim>1</dim>
					<dim>96</dim>
					<dim>1</dim>
					<dim>1</dim>
				</port>
			</input>
			<output>
				<port id="2" precision="FP16">
					<dim>1</dim>
					<dim>96</dim>
					<dim>10</dim>
					<dim>10</dim>
				</port>
			</output>
		</layer>
		<layer id="252" name="StatefulPartitionedCall/shufflenet/shufflenet_block_1/basic_unit_6/sequential_11/re_lu_20/Relu" type="ReLU" version="opset1">
			<input>
				<port id="0">
					<dim>1</dim>
					<dim>96</dim>
					<dim>10</dim>
					<dim>10</dim>
				</port>
			</input>
			<output>
				<port id="1" precision="FP16">
					<dim>1</dim>
					<dim>96</dim>
					<dim>10</dim>
					<dim>10</dim>
				</port>
			</output>
		</layer>
		<layer id="253" name="StatefulPartitionedCall/shufflenet/shufflenet_block_1/strided_slice_16/Cast_124155_const" type="Const" version="opset1">
			<data element_type="i64" offset="9324" shape="4" size="32"/>
			<output>
				<port id="1" precision="I64">
					<dim>4</dim>
				</port>
			</output>
		</layer>
		<layer id="254" name="StatefulPartitionedCall/shufflenet/shufflenet_block_1/strided_slice_16/Cast_224157_const" type="Const" version="opset1">
			<data element_type="i64" offset="9324" shape="4" size="32"/>
			<output>
				<port id="1" precision="I64">
					<dim>4</dim>
				</port>
			</output>
		</layer>
		<layer id="255" name="StatefulPartitionedCall/shufflenet/shufflenet_block_1/strided_slice_16/Cast_324159_const" type="Const" version="opset1">
			<data element_type="i64" offset="9356" shape="4" size="32"/>
			<output>
				<port id="1" precision="I64">
					<dim>4</dim>
				</port>
			</output>
		</layer>
		<layer id="256" name="StatefulPartitionedCall/shufflenet/shufflenet_block_1/strided_slice_16" type="StridedSlice" version="opset1">
			<data begin_mask="1,0,1,1" ellipsis_mask="0,0,0,0" end_mask="1,1,1,1" new_axis_mask="0,0,0,0" shrink_axis_mask="0,0,0,0"/>
			<input>
				<port id="0">
					<dim>1</dim>
					<dim>96</dim>
					<dim>10</dim>
					<dim>10</dim>
				</port>
				<port id="1">
					<dim>4</dim>
				</port>
				<port id="2">
					<dim>4</dim>
				</port>
				<port id="3">
					<dim>4</dim>
				</port>
			</input>
			<output>
				<port id="4" precision="FP16">
					<dim>1</dim>
					<dim>48</dim>
					<dim>10</dim>
					<dim>10</dim>
				</port>
			</output>
		</layer>
		<layer id="257" name="StatefulPartitionedCall/shufflenet/shufflenet_block_1/strided_slice_14/Cast_124313_const" type="Const" version="opset1">
			<data element_type="i64" offset="22492" shape="4" size="32"/>
			<output>
				<port id="1" precision="I64">
					<dim>4</dim>
				</port>
			</output>
		</layer>
		<layer id="258" name="StatefulPartitionedCall/shufflenet/shufflenet_block_1/strided_slice_14/Cast_224315_const" type="Const" version="opset1">
			<data element_type="i64" offset="9324" shape="4" size="32"/>
			<output>
				<port id="1" precision="I64">
					<dim>4</dim>
				</port>
			</output>
		</layer>
		<layer id="259" name="StatefulPartitionedCall/shufflenet/shufflenet_block_1/strided_slice_14/Cast_324317_const" type="Const" version="opset1">
			<data element_type="i64" offset="9356" shape="4" size="32"/>
			<output>
				<port id="1" precision="I64">
					<dim>4</dim>
				</port>
			</output>
		</layer>
		<layer id="260" name="StatefulPartitionedCall/shufflenet/shufflenet_block_1/strided_slice_14" type="StridedSlice" version="opset1">
			<data begin_mask="1,0,1,1" ellipsis_mask="0,0,0,0" end_mask="1,1,1,1" new_axis_mask="0,0,0,0" shrink_axis_mask="0,0,0,0"/>
			<input>
				<port id="0">
					<dim>1</dim>
					<dim>96</dim>
					<dim>10</dim>
					<dim>10</dim>
				</port>
				<port id="1">
					<dim>4</dim>
				</port>
				<port id="2">
					<dim>4</dim>
				</port>
				<port id="3">
					<dim>4</dim>
				</port>
			</input>
			<output>
				<port id="4" precision="FP16">
					<dim>1</dim>
					<dim>48</dim>
					<dim>10</dim>
					<dim>10</dim>
				</port>
			</output>
		</layer>
		<layer id="261" name="StatefulPartitionedCall/shufflenet/shufflenet_block_1/strided_slice_15/Cast_124191_const" type="Const" version="opset1">
			<data element_type="i64" offset="22492" shape="4" size="32"/>
			<output>
				<port id="1" precision="I64">
					<dim>4</dim>
				</port>
			</output>
		</layer>
		<layer id="262" name="StatefulPartitionedCall/shufflenet/shufflenet_block_1/strided_slice_15/Cast_224193_const" type="Const" version="opset1">
			<data element_type="i64" offset="9324" shape="4" size="32"/>
			<output>
				<port id="1" precision="I64">
					<dim>4</dim>
				</port>
			</output>
		</layer>
		<layer id="263" name="StatefulPartitionedCall/shufflenet/shufflenet_block_1/strided_slice_15/Cast_324195_const" type="Const" version="opset1">
			<data element_type="i64" offset="9356" shape="4" size="32"/>
			<output>
				<port id="1" precision="I64">
					<dim>4</dim>
				</port>
			</output>
		</layer>
		<layer id="264" name="StatefulPartitionedCall/shufflenet/shufflenet_block_1/strided_slice_15" type="StridedSlice" version="opset1">
			<data begin_mask="1,0,1,1" ellipsis_mask="0,0,0,0" end_mask="1,1,1,1" new_axis_mask="0,0,0,0" shrink_axis_mask="0,0,0,0"/>
			<input>
				<port id="0">
					<dim>1</dim>
					<dim>96</dim>
					<dim>10</dim>
					<dim>10</dim>
				</port>
				<port id="1">
					<dim>4</dim>
				</port>
				<port id="2">
					<dim>4</dim>
				</port>
				<port id="3">
					<dim>4</dim>
				</port>
			</input>
			<output>
				<port id="4" precision="FP16">
					<dim>1</dim>
					<dim>48</dim>
					<dim>10</dim>
					<dim>10</dim>
				</port>
			</output>
		</layer>
		<layer id="265" name="StatefulPartitionedCall/shufflenet/shufflenet_block_1/concat_7" type="Concat" version="opset1">
			<data axis="1"/>
			<input>
				<port id="0">
					<dim>1</dim>
					<dim>48</dim>
					<dim>10</dim>
					<dim>10</dim>
				</port>
				<port id="1">
					<dim>1</dim>
					<dim>48</dim>
					<dim>10</dim>
					<dim>10</dim>
				</port>
			</input>
			<output>
				<port id="2" precision="FP16">
					<dim>1</dim>
					<dim>96</dim>
					<dim>10</dim>
					<dim>10</dim>
				</port>
			</output>
		</layer>
		<layer id="266" name="StatefulPartitionedCall/shufflenet/shufflenet_block_1/strided_slice_17/Cast_124167_const" type="Const" version="opset1">
			<data element_type="i64" offset="9324" shape="4" size="32"/>
			<output>
				<port id="1" precision="I64">
					<dim>4</dim>
				</port>
			</output>
		</layer>
		<layer id="267" name="StatefulPartitionedCall/shufflenet/shufflenet_block_1/strided_slice_17/Cast_224169_const" type="Const" version="opset1">
			<data element_type="i64" offset="9324" shape="4" size="32"/>
			<output>
				<port id="1" precision="I64">
					<dim>4</dim>
				</port>
			</output>
		</layer>
		<layer id="268" name="StatefulPartitionedCall/shufflenet/shufflenet_block_1/strided_slice_17/Cast_324171_const" type="Const" version="opset1">
			<data element_type="i64" offset="9356" shape="4" size="32"/>
			<output>
				<port id="1" precision="I64">
					<dim>4</dim>
				</port>
			</output>
		</layer>
		<layer id="269" name="StatefulPartitionedCall/shufflenet/shufflenet_block_1/strided_slice_17" type="StridedSlice" version="opset1">
			<data begin_mask="1,0,1,1" ellipsis_mask="0,0,0,0" end_mask="1,1,1,1" new_axis_mask="0,0,0,0" shrink_axis_mask="0,0,0,0"/>
			<input>
				<port id="0">
					<dim>1</dim>
					<dim>96</dim>
					<dim>10</dim>
					<dim>10</dim>
				</port>
				<port id="1">
					<dim>4</dim>
				</port>
				<port id="2">
					<dim>4</dim>
				</port>
				<port id="3">
					<dim>4</dim>
				</port>
			</input>
			<output>
				<port id="4" precision="FP16">
					<dim>1</dim>
					<dim>48</dim>
					<dim>10</dim>
					<dim>10</dim>
				</port>
			</output>
		</layer>
		<layer id="270" name="StatefulPartitionedCall/shufflenet/shufflenet_block_1/concat_8" type="Concat" version="opset1">
			<data axis="1"/>
			<input>
				<port id="0">
					<dim>1</dim>
					<dim>48</dim>
					<dim>10</dim>
					<dim>10</dim>
				</port>
				<port id="1">
					<dim>1</dim>
					<dim>48</dim>
					<dim>10</dim>
					<dim>10</dim>
				</port>
			</input>
			<output>
				<port id="2" precision="FP16">
					<dim>1</dim>
					<dim>96</dim>
					<dim>10</dim>
					<dim>10</dim>
				</port>
			</output>
		</layer>
		<layer id="271" name="StatefulPartitionedCall/shufflenet/shufflenet_block_1/basic_unit_7/sequential_12/batch_normalization_21/FusedBatchNormV3/mean/Fused_Mul_1388913891_const" type="Const" version="opset1">
			<data element_type="f16" offset="258316" shape="96,96,1,1" size="18432"/>
			<output>
				<port id="1" precision="FP16">
					<dim>96</dim>
					<dim>96</dim>
					<dim>1</dim>
					<dim>1</dim>
				</port>
			</output>
		</layer>
		<layer id="272" name="StatefulPartitionedCall/shufflenet/shufflenet_block_1/basic_unit_7/sequential_12/conv2d_10/Conv2D" type="Convolution" version="opset1">
			<data auto_pad="same_upper" dilations="1,1" output_padding="0,0" pads_begin="0,0" pads_end="0,0" strides="1,1"/>
			<input>
				<port id="0">
					<dim>1</dim>
					<dim>96</dim>
					<dim>10</dim>
					<dim>10</dim>
				</port>
				<port id="1">
					<dim>96</dim>
					<dim>96</dim>
					<dim>1</dim>
					<dim>1</dim>
				</port>
			</input>
			<output>
				<port id="2" precision="FP16">
					<dim>1</dim>
					<dim>96</dim>
					<dim>10</dim>
					<dim>10</dim>
				</port>
			</output>
		</layer>
		<layer id="273" name="data_add_1302613031/copy_const" type="Const" version="opset1">
			<data element_type="f16" offset="276748" shape="1,96,1,1" size="192"/>
			<output>
				<port id="1" precision="FP16">
					<dim>1</dim>
					<dim>96</dim>
					<dim>1</dim>
					<dim>1</dim>
				</port>
			</output>
		</layer>
		<layer id="274" name="StatefulPartitionedCall/shufflenet/shufflenet_block_1/basic_unit_7/sequential_12/batch_normalization_21/FusedBatchNormV3/variance/Fused_Add_" type="Add" version="opset1">
			<input>
				<port id="0">
					<dim>1</dim>
					<dim>96</dim>
					<dim>10</dim>
					<dim>10</dim>
				</port>
				<port id="1">
					<dim>1</dim>
					<dim>96</dim>
					<dim>1</dim>
					<dim>1</dim>
				</port>
			</input>
			<output>
				<port id="2" precision="FP16">
					<dim>1</dim>
					<dim>96</dim>
					<dim>10</dim>
					<dim>10</dim>
				</port>
			</output>
		</layer>
		<layer id="275" name="StatefulPartitionedCall/shufflenet/shufflenet_block_1/basic_unit_7/sequential_12/re_lu_21/Relu" type="ReLU" version="opset1">
			<input>
				<port id="0">
					<dim>1</dim>
					<dim>96</dim>
					<dim>10</dim>
					<dim>10</dim>
				</port>
			</input>
			<output>
				<port id="1" precision="FP16">
					<dim>1</dim>
					<dim>96</dim>
					<dim>10</dim>
					<dim>10</dim>
				</port>
			</output>
		</layer>
		<layer id="276" name="2356423567_const" type="Const" version="opset1">
			<data element_type="f16" offset="276940" shape="96,1,1,3,3" size="1728"/>
			<output>
				<port id="1" precision="FP16">
					<dim>96</dim>
					<dim>1</dim>
					<dim>1</dim>
					<dim>3</dim>
					<dim>3</dim>
				</port>
			</output>
		</layer>
		<layer id="277" name="StatefulPartitionedCall/shufflenet/shufflenet_block_1/basic_unit_7/sequential_12/separable_conv2d_11/separable_conv2d/depthwise" type="GroupConvolution" version="opset1">
			<data auto_pad="same_upper" dilations="1,1" output_padding="0,0" pads_begin="0,0" pads_end="0,0" strides="1,1"/>
			<input>
				<port id="0">
					<dim>1</dim>
					<dim>96</dim>
					<dim>10</dim>
					<dim>10</dim>
				</port>
				<port id="1">
					<dim>96</dim>
					<dim>1</dim>
					<dim>1</dim>
					<dim>3</dim>
					<dim>3</dim>
				</port>
			</input>
			<output>
				<port id="2" precision="FP16">
					<dim>1</dim>
					<dim>96</dim>
					<dim>10</dim>
					<dim>10</dim>
				</port>
			</output>
		</layer>
		<layer id="278" name="StatefulPartitionedCall/shufflenet/shufflenet_block_1/basic_unit_7/sequential_12/batch_normalization_22/FusedBatchNormV3/mean/Fused_Mul_1389313895_const" type="Const" version="opset1">
			<data element_type="f16" offset="278668" shape="96,96,1,1" size="18432"/>
			<output>
				<port id="1" precision="FP16">
					<dim>96</dim>
					<dim>96</dim>
					<dim>1</dim>
					<dim>1</dim>
				</port>
			</output>
		</layer>
		<layer id="279" name="StatefulPartitionedCall/shufflenet/shufflenet_block_1/basic_unit_7/sequential_12/separable_conv2d_11/separable_conv2d" type="Convolution" version="opset1">
			<data auto_pad="valid" dilations="1,1" output_padding="0,0" pads_begin="0,0" pads_end="0,0" strides="1,1"/>
			<input>
				<port id="0">
					<dim>1</dim>
					<dim>96</dim>
					<dim>10</dim>
					<dim>10</dim>
				</port>
				<port id="1">
					<dim>96</dim>
					<dim>96</dim>
					<dim>1</dim>
					<dim>1</dim>
				</port>
			</input>
			<output>
				<port id="2" precision="FP16">
					<dim>1</dim>
					<dim>96</dim>
					<dim>10</dim>
					<dim>10</dim>
				</port>
			</output>
		</layer>
		<layer id="280" name="data_add_1303413039/copy_const" type="Const" version="opset1">
			<data element_type="f16" offset="297100" shape="1,96,1,1" size="192"/>
			<output>
				<port id="1" precision="FP16">
					<dim>1</dim>
					<dim>96</dim>
					<dim>1</dim>
					<dim>1</dim>
				</port>
			</output>
		</layer>
		<layer id="281" name="StatefulPartitionedCall/shufflenet/shufflenet_block_1/basic_unit_7/sequential_12/batch_normalization_22/FusedBatchNormV3/variance/Fused_Add_" type="Add" version="opset1">
			<input>
				<port id="0">
					<dim>1</dim>
					<dim>96</dim>
					<dim>10</dim>
					<dim>10</dim>
				</port>
				<port id="1">
					<dim>1</dim>
					<dim>96</dim>
					<dim>1</dim>
					<dim>1</dim>
				</port>
			</input>
			<output>
				<port id="2" precision="FP16">
					<dim>1</dim>
					<dim>96</dim>
					<dim>10</dim>
					<dim>10</dim>
				</port>
			</output>
		</layer>
		<layer id="282" name="StatefulPartitionedCall/shufflenet/shufflenet_block_1/basic_unit_7/sequential_12/re_lu_22/Relu" type="ReLU" version="opset1">
			<input>
				<port id="0">
					<dim>1</dim>
					<dim>96</dim>
					<dim>10</dim>
					<dim>10</dim>
				</port>
			</input>
			<output>
				<port id="1" precision="FP16">
					<dim>1</dim>
					<dim>96</dim>
					<dim>10</dim>
					<dim>10</dim>
				</port>
			</output>
		</layer>
		<layer id="283" name="StatefulPartitionedCall/shufflenet/shufflenet_block_1/strided_slice_20/Cast_124281_const" type="Const" version="opset1">
			<data element_type="i64" offset="9324" shape="4" size="32"/>
			<output>
				<port id="1" precision="I64">
					<dim>4</dim>
				</port>
			</output>
		</layer>
		<layer id="284" name="StatefulPartitionedCall/shufflenet/shufflenet_block_1/strided_slice_20/Cast_224283_const" type="Const" version="opset1">
			<data element_type="i64" offset="9324" shape="4" size="32"/>
			<output>
				<port id="1" precision="I64">
					<dim>4</dim>
				</port>
			</output>
		</layer>
		<layer id="285" name="StatefulPartitionedCall/shufflenet/shufflenet_block_1/strided_slice_20/Cast_324285_const" type="Const" version="opset1">
			<data element_type="i64" offset="9356" shape="4" size="32"/>
			<output>
				<port id="1" precision="I64">
					<dim>4</dim>
				</port>
			</output>
		</layer>
		<layer id="286" name="StatefulPartitionedCall/shufflenet/shufflenet_block_1/strided_slice_20" type="StridedSlice" version="opset1">
			<data begin_mask="1,0,1,1" ellipsis_mask="0,0,0,0" end_mask="1,1,1,1" new_axis_mask="0,0,0,0" shrink_axis_mask="0,0,0,0"/>
			<input>
				<port id="0">
					<dim>1</dim>
					<dim>96</dim>
					<dim>10</dim>
					<dim>10</dim>
				</port>
				<port id="1">
					<dim>4</dim>
				</port>
				<port id="2">
					<dim>4</dim>
				</port>
				<port id="3">
					<dim>4</dim>
				</port>
			</input>
			<output>
				<port id="4" precision="FP16">
					<dim>1</dim>
					<dim>48</dim>
					<dim>10</dim>
					<dim>10</dim>
				</port>
			</output>
		</layer>
		<layer id="287" name="StatefulPartitionedCall/shufflenet/shufflenet_block_1/strided_slice_18/Cast_124299_const" type="Const" version="opset1">
			<data element_type="i64" offset="22492" shape="4" size="32"/>
			<output>
				<port id="1" precision="I64">
					<dim>4</dim>
				</port>
			</output>
		</layer>
		<layer id="288" name="StatefulPartitionedCall/shufflenet/shufflenet_block_1/strided_slice_18/Cast_224301_const" type="Const" version="opset1">
			<data element_type="i64" offset="9324" shape="4" size="32"/>
			<output>
				<port id="1" precision="I64">
					<dim>4</dim>
				</port>
			</output>
		</layer>
		<layer id="289" name="StatefulPartitionedCall/shufflenet/shufflenet_block_1/strided_slice_18/Cast_324303_const" type="Const" version="opset1">
			<data element_type="i64" offset="9356" shape="4" size="32"/>
			<output>
				<port id="1" precision="I64">
					<dim>4</dim>
				</port>
			</output>
		</layer>
		<layer id="290" name="StatefulPartitionedCall/shufflenet/shufflenet_block_1/strided_slice_18" type="StridedSlice" version="opset1">
			<data begin_mask="1,0,1,1" ellipsis_mask="0,0,0,0" end_mask="1,1,1,1" new_axis_mask="0,0,0,0" shrink_axis_mask="0,0,0,0"/>
			<input>
				<port id="0">
					<dim>1</dim>
					<dim>96</dim>
					<dim>10</dim>
					<dim>10</dim>
				</port>
				<port id="1">
					<dim>4</dim>
				</port>
				<port id="2">
					<dim>4</dim>
				</port>
				<port id="3">
					<dim>4</dim>
				</port>
			</input>
			<output>
				<port id="4" precision="FP16">
					<dim>1</dim>
					<dim>48</dim>
					<dim>10</dim>
					<dim>10</dim>
				</port>
			</output>
		</layer>
		<layer id="291" name="StatefulPartitionedCall/shufflenet/shufflenet_block_1/strided_slice_19/Cast_124123_const" type="Const" version="opset1">
			<data element_type="i64" offset="22492" shape="4" size="32"/>
			<output>
				<port id="1" precision="I64">
					<dim>4</dim>
				</port>
			</output>
		</layer>
		<layer id="292" name="StatefulPartitionedCall/shufflenet/shufflenet_block_1/strided_slice_19/Cast_224125_const" type="Const" version="opset1">
			<data element_type="i64" offset="9324" shape="4" size="32"/>
			<output>
				<port id="1" precision="I64">
					<dim>4</dim>
				</port>
			</output>
		</layer>
		<layer id="293" name="StatefulPartitionedCall/shufflenet/shufflenet_block_1/strided_slice_19/Cast_324127_const" type="Const" version="opset1">
			<data element_type="i64" offset="9356" shape="4" size="32"/>
			<output>
				<port id="1" precision="I64">
					<dim>4</dim>
				</port>
			</output>
		</layer>
		<layer id="294" name="StatefulPartitionedCall/shufflenet/shufflenet_block_1/strided_slice_19" type="StridedSlice" version="opset1">
			<data begin_mask="1,0,1,1" ellipsis_mask="0,0,0,0" end_mask="1,1,1,1" new_axis_mask="0,0,0,0" shrink_axis_mask="0,0,0,0"/>
			<input>
				<port id="0">
					<dim>1</dim>
					<dim>96</dim>
					<dim>10</dim>
					<dim>10</dim>
				</port>
				<port id="1">
					<dim>4</dim>
				</port>
				<port id="2">
					<dim>4</dim>
				</port>
				<port id="3">
					<dim>4</dim>
				</port>
			</input>
			<output>
				<port id="4" precision="FP16">
					<dim>1</dim>
					<dim>48</dim>
					<dim>10</dim>
					<dim>10</dim>
				</port>
			</output>
		</layer>
		<layer id="295" name="StatefulPartitionedCall/shufflenet/shufflenet_block_1/concat_9" type="Concat" version="opset1">
			<data axis="1"/>
			<input>
				<port id="0">
					<dim>1</dim>
					<dim>48</dim>
					<dim>10</dim>
					<dim>10</dim>
				</port>
				<port id="1">
					<dim>1</dim>
					<dim>48</dim>
					<dim>10</dim>
					<dim>10</dim>
				</port>
			</input>
			<output>
				<port id="2" precision="FP16">
					<dim>1</dim>
					<dim>96</dim>
					<dim>10</dim>
					<dim>10</dim>
				</port>
			</output>
		</layer>
		<layer id="296" name="StatefulPartitionedCall/shufflenet/shufflenet_block_1/strided_slice_21/Cast_124325_const" type="Const" version="opset1">
			<data element_type="i64" offset="9324" shape="4" size="32"/>
			<output>
				<port id="1" precision="I64">
					<dim>4</dim>
				</port>
			</output>
		</layer>
		<layer id="297" name="StatefulPartitionedCall/shufflenet/shufflenet_block_1/strided_slice_21/Cast_224327_const" type="Const" version="opset1">
			<data element_type="i64" offset="9324" shape="4" size="32"/>
			<output>
				<port id="1" precision="I64">
					<dim>4</dim>
				</port>
			</output>
		</layer>
		<layer id="298" name="StatefulPartitionedCall/shufflenet/shufflenet_block_1/strided_slice_21/Cast_324329_const" type="Const" version="opset1">
			<data element_type="i64" offset="9356" shape="4" size="32"/>
			<output>
				<port id="1" precision="I64">
					<dim>4</dim>
				</port>
			</output>
		</layer>
		<layer id="299" name="StatefulPartitionedCall/shufflenet/shufflenet_block_1/strided_slice_21" type="StridedSlice" version="opset1">
			<data begin_mask="1,0,1,1" ellipsis_mask="0,0,0,0" end_mask="1,1,1,1" new_axis_mask="0,0,0,0" shrink_axis_mask="0,0,0,0"/>
			<input>
				<port id="0">
					<dim>1</dim>
					<dim>96</dim>
					<dim>10</dim>
					<dim>10</dim>
				</port>
				<port id="1">
					<dim>4</dim>
				</port>
				<port id="2">
					<dim>4</dim>
				</port>
				<port id="3">
					<dim>4</dim>
				</port>
			</input>
			<output>
				<port id="4" precision="FP16">
					<dim>1</dim>
					<dim>48</dim>
					<dim>10</dim>
					<dim>10</dim>
				</port>
			</output>
		</layer>
		<layer id="300" name="StatefulPartitionedCall/shufflenet/shufflenet_block_1/concat_10" type="Concat" version="opset1">
			<data axis="1"/>
			<input>
				<port id="0">
					<dim>1</dim>
					<dim>48</dim>
					<dim>10</dim>
					<dim>10</dim>
				</port>
				<port id="1">
					<dim>1</dim>
					<dim>48</dim>
					<dim>10</dim>
					<dim>10</dim>
				</port>
			</input>
			<output>
				<port id="2" precision="FP16">
					<dim>1</dim>
					<dim>96</dim>
					<dim>10</dim>
					<dim>10</dim>
				</port>
			</output>
		</layer>
		<layer id="301" name="StatefulPartitionedCall/shufflenet/shufflenet_block_1/basic_unit_8/sequential_13/batch_normalization_23/FusedBatchNormV3/mean/Fused_Mul_1389713899_const" type="Const" version="opset1">
			<data element_type="f16" offset="297292" shape="96,96,1,1" size="18432"/>
			<output>
				<port id="1" precision="FP16">
					<dim>96</dim>
					<dim>96</dim>
					<dim>1</dim>
					<dim>1</dim>
				</port>
			</output>
		</layer>
		<layer id="302" name="StatefulPartitionedCall/shufflenet/shufflenet_block_1/basic_unit_8/sequential_13/conv2d_11/Conv2D" type="Convolution" version="opset1">
			<data auto_pad="same_upper" dilations="1,1" output_padding="0,0" pads_begin="0,0" pads_end="0,0" strides="1,1"/>
			<input>
				<port id="0">
					<dim>1</dim>
					<dim>96</dim>
					<dim>10</dim>
					<dim>10</dim>
				</port>
				<port id="1">
					<dim>96</dim>
					<dim>96</dim>
					<dim>1</dim>
					<dim>1</dim>
				</port>
			</input>
			<output>
				<port id="2" precision="FP16">
					<dim>1</dim>
					<dim>96</dim>
					<dim>10</dim>
					<dim>10</dim>
				</port>
			</output>
		</layer>
		<layer id="303" name="data_add_1304213047/copy_const" type="Const" version="opset1">
			<data element_type="f16" offset="315724" shape="1,96,1,1" size="192"/>
			<output>
				<port id="1" precision="FP16">
					<dim>1</dim>
					<dim>96</dim>
					<dim>1</dim>
					<dim>1</dim>
				</port>
			</output>
		</layer>
		<layer id="304" name="StatefulPartitionedCall/shufflenet/shufflenet_block_1/basic_unit_8/sequential_13/batch_normalization_23/FusedBatchNormV3/variance/Fused_Add_" type="Add" version="opset1">
			<input>
				<port id="0">
					<dim>1</dim>
					<dim>96</dim>
					<dim>10</dim>
					<dim>10</dim>
				</port>
				<port id="1">
					<dim>1</dim>
					<dim>96</dim>
					<dim>1</dim>
					<dim>1</dim>
				</port>
			</input>
			<output>
				<port id="2" precision="FP16">
					<dim>1</dim>
					<dim>96</dim>
					<dim>10</dim>
					<dim>10</dim>
				</port>
			</output>
		</layer>
		<layer id="305" name="StatefulPartitionedCall/shufflenet/shufflenet_block_1/basic_unit_8/sequential_13/re_lu_23/Relu" type="ReLU" version="opset1">
			<input>
				<port id="0">
					<dim>1</dim>
					<dim>96</dim>
					<dim>10</dim>
					<dim>10</dim>
				</port>
			</input>
			<output>
				<port id="1" precision="FP16">
					<dim>1</dim>
					<dim>96</dim>
					<dim>10</dim>
					<dim>10</dim>
				</port>
			</output>
		</layer>
		<layer id="306" name="2357223575_const" type="Const" version="opset1">
			<data element_type="f16" offset="315916" shape="96,1,1,3,3" size="1728"/>
			<output>
				<port id="1" precision="FP16">
					<dim>96</dim>
					<dim>1</dim>
					<dim>1</dim>
					<dim>3</dim>
					<dim>3</dim>
				</port>
			</output>
		</layer>
		<layer id="307" name="StatefulPartitionedCall/shufflenet/shufflenet_block_1/basic_unit_8/sequential_13/separable_conv2d_12/separable_conv2d/depthwise" type="GroupConvolution" version="opset1">
			<data auto_pad="same_upper" dilations="1,1" output_padding="0,0" pads_begin="0,0" pads_end="0,0" strides="1,1"/>
			<input>
				<port id="0">
					<dim>1</dim>
					<dim>96</dim>
					<dim>10</dim>
					<dim>10</dim>
				</port>
				<port id="1">
					<dim>96</dim>
					<dim>1</dim>
					<dim>1</dim>
					<dim>3</dim>
					<dim>3</dim>
				</port>
			</input>
			<output>
				<port id="2" precision="FP16">
					<dim>1</dim>
					<dim>96</dim>
					<dim>10</dim>
					<dim>10</dim>
				</port>
			</output>
		</layer>
		<layer id="308" name="StatefulPartitionedCall/shufflenet/shufflenet_block_1/basic_unit_8/sequential_13/batch_normalization_24/FusedBatchNormV3/mean/Fused_Mul_1390113903_const" type="Const" version="opset1">
			<data element_type="f16" offset="317644" shape="96,96,1,1" size="18432"/>
			<output>
				<port id="1" precision="FP16">
					<dim>96</dim>
					<dim>96</dim>
					<dim>1</dim>
					<dim>1</dim>
				</port>
			</output>
		</layer>
		<layer id="309" name="StatefulPartitionedCall/shufflenet/shufflenet_block_1/basic_unit_8/sequential_13/separable_conv2d_12/separable_conv2d" type="Convolution" version="opset1">
			<data auto_pad="valid" dilations="1,1" output_padding="0,0" pads_begin="0,0" pads_end="0,0" strides="1,1"/>
			<input>
				<port id="0">
					<dim>1</dim>
					<dim>96</dim>
					<dim>10</dim>
					<dim>10</dim>
				</port>
				<port id="1">
					<dim>96</dim>
					<dim>96</dim>
					<dim>1</dim>
					<dim>1</dim>
				</port>
			</input>
			<output>
				<port id="2" precision="FP16">
					<dim>1</dim>
					<dim>96</dim>
					<dim>10</dim>
					<dim>10</dim>
				</port>
			</output>
		</layer>
		<layer id="310" name="data_add_1305013055/copy_const" type="Const" version="opset1">
			<data element_type="f16" offset="336076" shape="1,96,1,1" size="192"/>
			<output>
				<port id="1" precision="FP16">
					<dim>1</dim>
					<dim>96</dim>
					<dim>1</dim>
					<dim>1</dim>
				</port>
			</output>
		</layer>
		<layer id="311" name="StatefulPartitionedCall/shufflenet/shufflenet_block_1/basic_unit_8/sequential_13/batch_normalization_24/FusedBatchNormV3/variance/Fused_Add_" type="Add" version="opset1">
			<input>
				<port id="0">
					<dim>1</dim>
					<dim>96</dim>
					<dim>10</dim>
					<dim>10</dim>
				</port>
				<port id="1">
					<dim>1</dim>
					<dim>96</dim>
					<dim>1</dim>
					<dim>1</dim>
				</port>
			</input>
			<output>
				<port id="2" precision="FP16">
					<dim>1</dim>
					<dim>96</dim>
					<dim>10</dim>
					<dim>10</dim>
				</port>
			</output>
		</layer>
		<layer id="312" name="StatefulPartitionedCall/shufflenet/shufflenet_block_1/basic_unit_8/sequential_13/re_lu_24/Relu" type="ReLU" version="opset1">
			<input>
				<port id="0">
					<dim>1</dim>
					<dim>96</dim>
					<dim>10</dim>
					<dim>10</dim>
				</port>
			</input>
			<output>
				<port id="1" precision="FP16">
					<dim>1</dim>
					<dim>96</dim>
					<dim>10</dim>
					<dim>10</dim>
				</port>
			</output>
		</layer>
		<layer id="313" name="StatefulPartitionedCall/shufflenet/shufflenet_block_1/strided_slice_24/Cast_124305_const" type="Const" version="opset1">
			<data element_type="i64" offset="9324" shape="4" size="32"/>
			<output>
				<port id="1" precision="I64">
					<dim>4</dim>
				</port>
			</output>
		</layer>
		<layer id="314" name="StatefulPartitionedCall/shufflenet/shufflenet_block_1/strided_slice_24/Cast_224307_const" type="Const" version="opset1">
			<data element_type="i64" offset="9324" shape="4" size="32"/>
			<output>
				<port id="1" precision="I64">
					<dim>4</dim>
				</port>
			</output>
		</layer>
		<layer id="315" name="StatefulPartitionedCall/shufflenet/shufflenet_block_1/strided_slice_24/Cast_324309_const" type="Const" version="opset1">
			<data element_type="i64" offset="9356" shape="4" size="32"/>
			<output>
				<port id="1" precision="I64">
					<dim>4</dim>
				</port>
			</output>
		</layer>
		<layer id="316" name="StatefulPartitionedCall/shufflenet/shufflenet_block_1/strided_slice_24" type="StridedSlice" version="opset1">
			<data begin_mask="1,0,1,1" ellipsis_mask="0,0,0,0" end_mask="1,1,1,1" new_axis_mask="0,0,0,0" shrink_axis_mask="0,0,0,0"/>
			<input>
				<port id="0">
					<dim>1</dim>
					<dim>96</dim>
					<dim>10</dim>
					<dim>10</dim>
				</port>
				<port id="1">
					<dim>4</dim>
				</port>
				<port id="2">
					<dim>4</dim>
				</port>
				<port id="3">
					<dim>4</dim>
				</port>
			</input>
			<output>
				<port id="4" precision="FP16">
					<dim>1</dim>
					<dim>48</dim>
					<dim>10</dim>
					<dim>10</dim>
				</port>
			</output>
		</layer>
		<layer id="317" name="StatefulPartitionedCall/shufflenet/shufflenet_block_1/strided_slice_22/Cast_124233_const" type="Const" version="opset1">
			<data element_type="i64" offset="22492" shape="4" size="32"/>
			<output>
				<port id="1" precision="I64">
					<dim>4</dim>
				</port>
			</output>
		</layer>
		<layer id="318" name="StatefulPartitionedCall/shufflenet/shufflenet_block_1/strided_slice_22/Cast_224235_const" type="Const" version="opset1">
			<data element_type="i64" offset="9324" shape="4" size="32"/>
			<output>
				<port id="1" precision="I64">
					<dim>4</dim>
				</port>
			</output>
		</layer>
		<layer id="319" name="StatefulPartitionedCall/shufflenet/shufflenet_block_1/strided_slice_22/Cast_324237_const" type="Const" version="opset1">
			<data element_type="i64" offset="9356" shape="4" size="32"/>
			<output>
				<port id="1" precision="I64">
					<dim>4</dim>
				</port>
			</output>
		</layer>
		<layer id="320" name="StatefulPartitionedCall/shufflenet/shufflenet_block_1/strided_slice_22" type="StridedSlice" version="opset1">
			<data begin_mask="1,0,1,1" ellipsis_mask="0,0,0,0" end_mask="1,1,1,1" new_axis_mask="0,0,0,0" shrink_axis_mask="0,0,0,0"/>
			<input>
				<port id="0">
					<dim>1</dim>
					<dim>96</dim>
					<dim>10</dim>
					<dim>10</dim>
				</port>
				<port id="1">
					<dim>4</dim>
				</port>
				<port id="2">
					<dim>4</dim>
				</port>
				<port id="3">
					<dim>4</dim>
				</port>
			</input>
			<output>
				<port id="4" precision="FP16">
					<dim>1</dim>
					<dim>48</dim>
					<dim>10</dim>
					<dim>10</dim>
				</port>
			</output>
		</layer>
		<layer id="321" name="StatefulPartitionedCall/shufflenet/shufflenet_block_1/strided_slice_23/Cast_124179_const" type="Const" version="opset1">
			<data element_type="i64" offset="22492" shape="4" size="32"/>
			<output>
				<port id="1" precision="I64">
					<dim>4</dim>
				</port>
			</output>
		</layer>
		<layer id="322" name="StatefulPartitionedCall/shufflenet/shufflenet_block_1/strided_slice_23/Cast_224181_const" type="Const" version="opset1">
			<data element_type="i64" offset="9324" shape="4" size="32"/>
			<output>
				<port id="1" precision="I64">
					<dim>4</dim>
				</port>
			</output>
		</layer>
		<layer id="323" name="StatefulPartitionedCall/shufflenet/shufflenet_block_1/strided_slice_23/Cast_324183_const" type="Const" version="opset1">
			<data element_type="i64" offset="9356" shape="4" size="32"/>
			<output>
				<port id="1" precision="I64">
					<dim>4</dim>
				</port>
			</output>
		</layer>
		<layer id="324" name="StatefulPartitionedCall/shufflenet/shufflenet_block_1/strided_slice_23" type="StridedSlice" version="opset1">
			<data begin_mask="1,0,1,1" ellipsis_mask="0,0,0,0" end_mask="1,1,1,1" new_axis_mask="0,0,0,0" shrink_axis_mask="0,0,0,0"/>
			<input>
				<port id="0">
					<dim>1</dim>
					<dim>96</dim>
					<dim>10</dim>
					<dim>10</dim>
				</port>
				<port id="1">
					<dim>4</dim>
				</port>
				<port id="2">
					<dim>4</dim>
				</port>
				<port id="3">
					<dim>4</dim>
				</port>
			</input>
			<output>
				<port id="4" precision="FP16">
					<dim>1</dim>
					<dim>48</dim>
					<dim>10</dim>
					<dim>10</dim>
				</port>
			</output>
		</layer>
		<layer id="325" name="StatefulPartitionedCall/shufflenet/shufflenet_block_1/concat_11" type="Concat" version="opset1">
			<data axis="1"/>
			<input>
				<port id="0">
					<dim>1</dim>
					<dim>48</dim>
					<dim>10</dim>
					<dim>10</dim>
				</port>
				<port id="1">
					<dim>1</dim>
					<dim>48</dim>
					<dim>10</dim>
					<dim>10</dim>
				</port>
			</input>
			<output>
				<port id="2" precision="FP16">
					<dim>1</dim>
					<dim>96</dim>
					<dim>10</dim>
					<dim>10</dim>
				</port>
			</output>
		</layer>
		<layer id="326" name="StatefulPartitionedCall/shufflenet/shufflenet_block_1/strided_slice_25/Cast_124367_const" type="Const" version="opset1">
			<data element_type="i64" offset="9324" shape="4" size="32"/>
			<output>
				<port id="1" precision="I64">
					<dim>4</dim>
				</port>
			</output>
		</layer>
		<layer id="327" name="StatefulPartitionedCall/shufflenet/shufflenet_block_1/strided_slice_25/Cast_224369_const" type="Const" version="opset1">
			<data element_type="i64" offset="9324" shape="4" size="32"/>
			<output>
				<port id="1" precision="I64">
					<dim>4</dim>
				</port>
			</output>
		</layer>
		<layer id="328" name="StatefulPartitionedCall/shufflenet/shufflenet_block_1/strided_slice_25/Cast_324371_const" type="Const" version="opset1">
			<data element_type="i64" offset="9356" shape="4" size="32"/>
			<output>
				<port id="1" precision="I64">
					<dim>4</dim>
				</port>
			</output>
		</layer>
		<layer id="329" name="StatefulPartitionedCall/shufflenet/shufflenet_block_1/strided_slice_25" type="StridedSlice" version="opset1">
			<data begin_mask="1,0,1,1" ellipsis_mask="0,0,0,0" end_mask="1,1,1,1" new_axis_mask="0,0,0,0" shrink_axis_mask="0,0,0,0"/>
			<input>
				<port id="0">
					<dim>1</dim>
					<dim>96</dim>
					<dim>10</dim>
					<dim>10</dim>
				</port>
				<port id="1">
					<dim>4</dim>
				</port>
				<port id="2">
					<dim>4</dim>
				</port>
				<port id="3">
					<dim>4</dim>
				</port>
			</input>
			<output>
				<port id="4" precision="FP16">
					<dim>1</dim>
					<dim>48</dim>
					<dim>10</dim>
					<dim>10</dim>
				</port>
			</output>
		</layer>
		<layer id="330" name="StatefulPartitionedCall/shufflenet/shufflenet_block_1/concat_12" type="Concat" version="opset1">
			<data axis="1"/>
			<input>
				<port id="0">
					<dim>1</dim>
					<dim>48</dim>
					<dim>10</dim>
					<dim>10</dim>
				</port>
				<port id="1">
					<dim>1</dim>
					<dim>48</dim>
					<dim>10</dim>
					<dim>10</dim>
				</port>
			</input>
			<output>
				<port id="2" precision="FP16">
					<dim>1</dim>
					<dim>96</dim>
					<dim>10</dim>
					<dim>10</dim>
				</port>
			</output>
		</layer>
…
		<layer id="444" name="StatefulPartitionedCall/shufflenet/shufflenet_block_2/basic_unit_12/sequential_19/conv2d_16/Conv2D" type="Convolution" version="opset1">
			<data auto_pad="same_upper" dilations="1,1" output_padding="0,0" pads_begin="0,0" pads_end="0,0" strides="1,1"/>
			<input>
				<port id="0">
					<dim>1</dim>
					<dim>192</dim>
					<dim>5</dim>
					<dim>5</dim>
				</port>
				<port id="1">
					<dim>192</dim>
					<dim>192</dim>
					<dim>1</dim>
					<dim>1</dim>
				</port>
			</input>
			<output>
				<port id="2" precision="FP16">
					<dim>1</dim>
					<dim>192</dim>
					<dim>5</dim>
					<dim>5</dim>
				</port>
			</output>
		</layer>
		<layer id="445" name="data_add_1313013135/copy_const" type="Const" version="opset1">
			<data element_type="f16" offset="981580" shape="1,192,1,1" size="384"/>
			<output>
				<port id="1" precision="FP16">
					<dim>1</dim>
					<dim>192</dim>
					<dim>1</dim>
					<dim>1</dim>
				</port>
			</output>
		</layer>
		<layer id="446" name="StatefulPartitionedCall/shufflenet/shufflenet_block_2/basic_unit_12/sequential_19/batch_normalization_34/FusedBatchNormV3/variance/Fused_Add_" type="Add" version="opset1">
			<input>
				<port id="0">
					<dim>1</dim>
					<dim>192</dim>
					<dim>5</dim>
					<dim>5</dim>
				</port>
				<port id="1">
					<dim>1</dim>
					<dim>192</dim>
					<dim>1</dim>
					<dim>1</dim>
				</port>
			</input>
			<output>
				<port id="2" precision="FP16">
					<dim>1</dim>
					<dim>192</dim>
					<dim>5</dim>
					<dim>5</dim>
				</port>
			</output>
		</layer>
		<layer id="447" name="StatefulPartitionedCall/shufflenet/shufflenet_block_2/basic_unit_12/sequential_19/re_lu_34/Relu" type="ReLU" version="opset1">
			<input>
				<port id="0">
					<dim>1</dim>
					<dim>192</dim>
					<dim>5</dim>
					<dim>5</dim>
				</port>
			</input>
			<output>
				<port id="1" precision="FP16">
					<dim>1</dim>
					<dim>192</dim>
					<dim>5</dim>
					<dim>5</dim>
				</port>
			</output>
		</layer>
		<layer id="448" name="2351623519_const" type="Const" version="opset1">
			<data element_type="f16" offset="981964" shape="192,1,1,3,3" size="3456"/>
			<output>
				<port id="1" precision="FP16">
					<dim>192</dim>
					<dim>1</dim>
					<dim>1</dim>
					<dim>3</dim>
					<dim>3</dim>
				</port>
			</output>
		</layer>
		<layer id="449" name="StatefulPartitionedCall/shufflenet/shufflenet_block_2/basic_unit_12/sequential_19/separable_conv2d_18/separable_conv2d/depthwise" type="GroupConvolution" version="opset1">
			<data auto_pad="same_upper" dilations="1,1" output_padding="0,0" pads_begin="0,0" pads_end="0,0" strides="1,1"/>
			<input>
				<port id="0">
					<dim>1</dim>
					<dim>192</dim>
					<dim>5</dim>
					<dim>5</dim>
				</port>
				<port id="1">
					<dim>192</dim>
					<dim>1</dim>
					<dim>1</dim>
					<dim>3</dim>
					<dim>3</dim>
				</port>
			</input>
			<output>
				<port id="2" precision="FP16">
					<dim>1</dim>
					<dim>192</dim>
					<dim>5</dim>
					<dim>5</dim>
				</port>
			</output>
		</layer>
		<layer id="450" name="StatefulPartitionedCall/shufflenet/shufflenet_block_2/basic_unit_12/sequential_19/batch_normalization_35/FusedBatchNormV3/mean/Fused_Mul_1394513947_const" type="Const" version="opset1">
			<data element_type="f16" offset="985420" shape="192,192,1,1" size="73728"/>
			<output>
				<port id="1" precision="FP16">
					<dim>192</dim>
					<dim>192</dim>
					<dim>1</dim>
					<dim>1</dim>
				</port>
			</output>
		</layer>
		<layer id="451" name="StatefulPartitionedCall/shufflenet/shufflenet_block_2/basic_unit_12/sequential_19/separable_conv2d_18/separable_conv2d" type="Convolution" version="opset1">
			<data auto_pad="valid" dilations="1,1" output_padding="0,0" pads_begin="0,0" pads_end="0,0" strides="1,1"/>
			<input>
				<port id="0">
					<dim>1</dim>
					<dim>192</dim>
					<dim>5</dim>
					<dim>5</dim>
				</port>
				<port id="1">
					<dim>192</dim>
					<dim>192</dim>
					<dim>1</dim>
					<dim>1</dim>
				</port>
			</input>
			<output>
				<port id="2" precision="FP16">
					<dim>1</dim>
					<dim>192</dim>
					<dim>5</dim>
					<dim>5</dim>
				</port>
			</output>
		</layer>
		<layer id="452" name="data_add_1313813143/copy_const" type="Const" version="opset1">
			<data element_type="f16" offset="1059148" shape="1,192,1,1" size="384"/>
			<output>
				<port id="1" precision="FP16">
					<dim>1</dim>
					<dim>192</dim>
					<dim>1</dim>
					<dim>1</dim>
				</port>
			</output>
		</layer>
		<layer id="453" name="StatefulPartitionedCall/shufflenet/shufflenet_block_2/basic_unit_12/sequential_19/batch_normalization_35/FusedBatchNormV3/variance/Fused_Add_" type="Add" version="opset1">
			<input>
				<port id="0">
					<dim>1</dim>
					<dim>192</dim>
					<dim>5</dim>
					<dim>5</dim>
				</port>
				<port id="1">
					<dim>1</dim>
					<dim>192</dim>
					<dim>1</dim>
					<dim>1</dim>
				</port>
			</input>
			<output>
				<port id="2" precision="FP16">
					<dim>1</dim>
					<dim>192</dim>
					<dim>5</dim>
					<dim>5</dim>
				</port>
			</output>
		</layer>
		<layer id="454" name="StatefulPartitionedCall/shufflenet/shufflenet_block_2/basic_unit_12/sequential_19/re_lu_35/Relu" type="ReLU" version="opset1">
			<input>
				<port id="0">
					<dim>1</dim>
					<dim>192</dim>
					<dim>5</dim>
					<dim>5</dim>
				</port>
			</input>
			<output>
				<port id="1" precision="FP16">
					<dim>1</dim>
					<dim>192</dim>
					<dim>5</dim>
					<dim>5</dim>
				</port>
			</output>
		</layer>
		<layer id="455" name="StatefulPartitionedCall/shufflenet/shufflenet_block_2/strided_slice_10/Cast_124269_const" type="Const" version="opset1">
			<data element_type="i64" offset="22492" shape="4" size="32"/>
			<output>
				<port id="1" precision="I64">
					<dim>4</dim>
				</port>
			</output>
		</layer>
		<layer id="456" name="StatefulPartitionedCall/shufflenet/shufflenet_block_2/strided_slice_10/Cast_224271_const" type="Const" version="opset1">
			<data element_type="i64" offset="9324" shape="4" size="32"/>
			<output>
				<port id="1" precision="I64">
					<dim>4</dim>
				</port>
			</output>
		</layer>
		<layer id="457" name="StatefulPartitionedCall/shufflenet/shufflenet_block_2/strided_slice_10/Cast_324273_const" type="Const" version="opset1">
			<data element_type="i64" offset="9356" shape="4" size="32"/>
			<output>
				<port id="1" precision="I64">
					<dim>4</dim>
				</port>
			</output>
		</layer>
		<layer id="458" name="StatefulPartitionedCall/shufflenet/shufflenet_block_2/strided_slice_10" type="StridedSlice" version="opset1">
			<data begin_mask="1,0,1,1" ellipsis_mask="0,0,0,0" end_mask="1,1,1,1" new_axis_mask="0,0,0,0" shrink_axis_mask="0,0,0,0"/>
			<input>
				<port id="0">
					<dim>1</dim>
					<dim>192</dim>
					<dim>5</dim>
					<dim>5</dim>
				</port>
				<port id="1">
					<dim>4</dim>
				</port>
				<port id="2">
					<dim>4</dim>
				</port>
				<port id="3">
					<dim>4</dim>
				</port>
			</input>
			<output>
				<port id="4" precision="FP16">
					<dim>1</dim>
					<dim>96</dim>
					<dim>5</dim>
					<dim>5</dim>
				</port>
			</output>
		</layer>
		<layer id="459" name="StatefulPartitionedCall/shufflenet/shufflenet_block_2/strided_slice_11/Cast_124143_const" type="Const" version="opset1">
			<data element_type="i64" offset="22492" shape="4" size="32"/>
			<output>
				<port id="1" precision="I64">
					<dim>4</dim>
				</port>
			</output>
		</layer>
		<layer id="460" name="StatefulPartitionedCall/shufflenet/shufflenet_block_2/strided_slice_11/Cast_224145_const" type="Const" version="opset1">
			<data element_type="i64" offset="9324" shape="4" size="32"/>
			<output>
				<port id="1" precision="I64">
					<dim>4</dim>
				</port>
			</output>
		</layer>
		<layer id="461" name="StatefulPartitionedCall/shufflenet/shufflenet_block_2/strided_slice_11/Cast_324147_const" type="Const" version="opset1">
			<data element_type="i64" offset="9356" shape="4" size="32"/>
			<output>
				<port id="1" precision="I64">
					<dim>4</dim>
				</port>
			</output>
		</layer>
		<layer id="462" name="StatefulPartitionedCall/shufflenet/shufflenet_block_2/strided_slice_11" type="StridedSlice" version="opset1">
			<data begin_mask="1,0,1,1" ellipsis_mask="0,0,0,0" end_mask="1,1,1,1" new_axis_mask="0,0,0,0" shrink_axis_mask="0,0,0,0"/>
			<input>
				<port id="0">
					<dim>1</dim>
					<dim>192</dim>
					<dim>5</dim>
					<dim>5</dim>
				</port>
				<port id="1">
					<dim>4</dim>
				</port>
				<port id="2">
					<dim>4</dim>
				</port>
				<port id="3">
					<dim>4</dim>
				</port>
			</input>
			<output>
				<port id="4" precision="FP16">
					<dim>1</dim>
					<dim>96</dim>
					<dim>5</dim>
					<dim>5</dim>
				</port>
			</output>
		</layer>
		<layer id="463" name="StatefulPartitionedCall/shufflenet/shufflenet_block_2/concat_5" type="Concat" version="opset1">
			<data axis="1"/>
			<input>
				<port id="0">
					<dim>1</dim>
					<dim>96</dim>
					<dim>5</dim>
					<dim>5</dim>
				</port>
				<port id="1">
					<dim>1</dim>
					<dim>96</dim>
					<dim>5</dim>
					<dim>5</dim>
				</port>
			</input>
			<output>
				<port id="2" precision="FP16">
					<dim>1</dim>
					<dim>192</dim>
					<dim>5</dim>
					<dim>5</dim>
				</port>
			</output>
		</layer>
		<layer id="464" name="StatefulPartitionedCall/shufflenet/shufflenet_block_2/concat_6" type="Concat" version="opset1">
			<data axis="1"/>
			<input>
				<port id="0">
					<dim>1</dim>
					<dim>192</dim>
					<dim>5</dim>
					<dim>5</dim>
				</port>
				<port id="1">
					<dim>1</dim>
					<dim>192</dim>
					<dim>5</dim>
					<dim>5</dim>
				</port>
			</input>
			<output>
				<port id="2" precision="FP16">
					<dim>1</dim>
					<dim>384</dim>
					<dim>5</dim>
					<dim>5</dim>
				</port>
			</output>
		</layer>
		<layer id="465" name="StatefulPartitionedCall/global_average_pooling2d_2/Mean/Cast_124141_const" type="Const" version="opset1">
			<data element_type="i64" offset="43068" shape="2" size="16"/>
			<output>
				<port id="1" precision="I64">
					<dim>2</dim>
				</port>
			</output>
		</layer>
		<layer id="466" name="StatefulPartitionedCall/global_average_pooling2d_2/Mean" type="ReduceMean" version="opset1">
			<data keep_dims="False"/>
			<input>
				<port id="0">
					<dim>1</dim>
					<dim>384</dim>
					<dim>5</dim>
					<dim>5</dim>
				</port>
				<port id="1">
					<dim>2</dim>
				</port>
			</input>
			<output>
				<port id="2" precision="FP16">
					<dim>1</dim>
					<dim>384</dim>
				</port>
			</output>
		</layer>
		<layer id="467" name="StatefulPartitionedCall/concat" type="Concat" version="opset1">
			<data axis="1"/>
			<input>
				<port id="0">
					<dim>1</dim>
					<dim>96</dim>
				</port>
				<port id="1">
					<dim>1</dim>
					<dim>192</dim>
				</port>
				<port id="2">
					<dim>1</dim>
					<dim>384</dim>
				</port>
			</input>
			<output>
				<port id="3" precision="FP16">
					<dim>1</dim>
					<dim>672</dim>
				</port>
			</output>
		</layer>
		<layer id="468" name="StatefulPartitionedCall/simple_face_head/dense/MatMul/1_port_transpose18844_const" type="Const" version="opset1">
			<data element_type="f16" offset="1059532" shape="143,672" size="192192"/>
			<output>
				<port id="1" precision="FP16">
					<dim>143</dim>
					<dim>672</dim>
				</port>
			</output>
		</layer>
		<layer id="469" name="StatefulPartitionedCall/simple_face_head/dense/MatMul" type="MatMul" version="opset1">
			<data transpose_a="False" transpose_b="True"/>
			<input>
				<port id="0">
					<dim>1</dim>
					<dim>672</dim>
				</port>
				<port id="1">
					<dim>143</dim>
					<dim>672</dim>
				</port>
			</input>
			<output>
				<port id="2" precision="FP16">
					<dim>1</dim>
					<dim>143</dim>
				</port>
			</output>
		</layer>
		<layer id="470" name="StatefulPartitionedCall/simple_face_head/dense/BiasAdd/ReadVariableOp/Output_0/Data_/copy_const" type="Const" version="opset1">
			<data element_type="f16" offset="1251724" shape="1,143" size="286"/>
			<output>
				<port id="1" precision="FP16">
					<dim>1</dim>
					<dim>143</dim>
				</port>
			</output>
		</layer>
		<layer id="471" name="StatefulPartitionedCall/simple_face_head/dense/BiasAdd/Add" type="Add" version="opset1">
			<input>
				<port id="0">
					<dim>1</dim>
					<dim>143</dim>
				</port>
				<port id="1">
					<dim>1</dim>
					<dim>143</dim>
				</port>
			</input>
			<output>
				<port id="2" precision="FP16">
					<dim>1</dim>
					<dim>143</dim>
				</port>
			</output>
		</layer>
		<layer id="472" name="9123_const" type="Const" version="opset1">
			<data element_type="i64" offset="1252010" shape="" size="8"/>
			<output>
				<port id="1" precision="I64"/>
			</output>
		</layer>
		<layer id="473" name="9125_const" type="Const" version="opset1">
			<data element_type="i64" offset="1252018" shape="3" size="24"/>
			<output>
				<port id="1" precision="I64">
					<dim>3</dim>
				</port>
			</output>
		</layer>
		<layer id="474" name="StatefulPartitionedCall/strided_slice_2/Split" type="VariadicSplit" version="opset1">
			<input>
				<port id="0">
					<dim>1</dim>
					<dim>143</dim>
				</port>
				<port id="1"/>
				<port id="2">
					<dim>3</dim>
				</port>
			</input>
			<output>
				<port id="3" precision="FP16">
					<dim>1</dim>
					<dim>136</dim>
				</port>
				<port id="4" precision="FP16">
					<dim>1</dim>
					<dim>3</dim>
				</port>
				<port id="5" precision="FP16">
					<dim>1</dim>
					<dim>4</dim>
				</port>
			</output>
		</layer>
		<layer id="475" name="Identity/sink_port_0" type="Result" version="opset1">
			<input>
				<port id="0">
					<dim>1</dim>
					<dim>4</dim>
				</port>
			</input>
		</layer>
		<layer id="476" name="Identity_1/sink_port_0" type="Result" version="opset1">
			<input>
				<port id="0">
					<dim>1</dim>
					<dim>3</dim>
				</port>
			</input>
		</layer>
		<layer id="477" name="Identity_2/sink_port_0" type="Result" version="opset1">
			<input>
				<port id="0">
					<dim>1</dim>
					<dim>136</dim>
				</port>
			</input>
		</layer>
	</layers>
	<edges>
		<edge from-layer="0" from-port="0" to-layer="2" to-port="0"/>
		<edge from-layer="1" from-port="1" to-layer="2" to-port="1"/>
		<edge from-layer="2" from-port="2" to-layer="4" to-port="0"/>
		<edge from-layer="3" from-port="1" to-layer="4" to-port="1"/>
		<edge from-layer="4" from-port="2" to-layer="6" to-port="0"/>
		<edge from-layer="5" from-port="1" to-layer="6" to-port="1"/>
		<edge from-layer="6" from-port="2" to-layer="8" to-port="0"/>
		<edge from-layer="7" from-port="1" to-layer="8" to-port="1"/>
		<edge from-layer="8" from-port="2" to-layer="9" to-port="0"/>
		<edge from-layer="9" from-port="1" to-layer="10" to-port="0"/>
		<edge from-layer="10" from-port="1" to-layer="12" to-port="0"/>
		<edge from-layer="11" from-port="1" to-layer="12" to-port="1"/>
		<edge from-layer="12" from-port="2" to-layer="14" to-port="0"/>
		<edge from-layer="13" from-port="1" to-layer="14" to-port="1"/>
		<edge from-layer="14" from-port="2" to-layer="15" to-port="0"/>
		<edge from-layer="15" from-port="1" to-layer="17" to-port="0"/>
		<edge from-layer="16" from-port="1" to-layer="17" to-port="1"/>
		<edge from-layer="17" from-port="2" to-layer="19" to-port="0"/>
		<edge from-layer="18" from-port="1" to-layer="19" to-port="1"/>
		<edge from-layer="19" from-port="2" to-layer="21" to-port="0"/>
		<edge from-layer="20" from-port="1" to-layer="21" to-port="1"/>
		<edge from-layer="21" from-port="2" to-layer="22" to-port="0"/>
		<edge from-layer="22" from-port="1" to-layer="26" to-port="0"/>
		<edge from-layer="23" from-port="1" to-layer="26" to-port="1"/>
		<edge from-layer="24" from-port="1" to-layer="26" to-port="2"/>
		<edge from-layer="25" from-port="1" to-layer="26" to-port="3"/>
		<edge from-layer="10" from-port="1" to-layer="28" to-port="0"/>
		<edge from-layer="27" from-port="1" to-layer="28" to-port="1"/>
		<edge from-layer="28" from-port="2" to-layer="30" to-port="0"/>
		<edge from-layer="29" from-port="1" to-layer="30" to-port="1"/>
		<edge from-layer="30" from-port="2" to-layer="32" to-port="0"/>
		<edge from-layer="31" from-port="1" to-layer="32" to-port="1"/>
		<edge from-layer="32" from-port="2" to-layer="33" to-port="0"/>
		<edge from-layer="33" from-port="1" to-layer="37" to-port="0"/>
		<edge from-layer="34" from-port="1" to-layer="37" to-port="1"/>
		<edge from-layer="35" from-port="1" to-layer="37" to-port="2"/>
		<edge from-layer="36" from-port="1" to-layer="37" to-port="3"/>
		<edge from-layer="26" from-port="4" to-layer="38" to-port="0"/>
		<edge from-layer="37" from-port="4" to-layer="38" to-port="1"/>
		<edge from-layer="38" from-port="2" to-layer="40" to-port="0"/>
		<edge from-layer="39" from-port="1" to-layer="40" to-port="1"/>
		<edge from-layer="40" from-port="2" to-layer="42" to-port="0"/>
		<edge from-layer="41" from-port="1" to-layer="42" to-port="1"/>
		<edge from-layer="42" from-port="2" to-layer="43" to-port="0"/>
		<edge from-layer="43" from-port="1" to-layer="45" to-port="0"/>
		<edge from-layer="44" from-port="1" to-layer="45" to-port="1"/>
		<edge from-layer="45" from-port="2" to-layer="47" to-port="0"/>
		<edge from-layer="46" from-port="1" to-layer="47" to-port="1"/>
		<edge from-layer="47" from-port="2" to-layer="49" to-port="0"/>
		<edge from-layer="48" from-port="1" to-layer="49" to-port="1"/>
		<edge from-layer="49" from-port="2" to-layer="50" to-port="0"/>
		<edge from-layer="50" from-port="1" to-layer="54" to-port="0"/>
		<edge from-layer="51" from-port="1" to-layer="54" to-port="1"/>
		<edge from-layer="52" from-port="1" to-layer="54" to-port="2"/>
		<edge from-layer="53" from-port="1" to-layer="54" to-port="3"/>
		<edge from-layer="38" from-port="2" to-layer="58" to-port="0"/>
		<edge from-layer="55" from-port="1" to-layer="58" to-port="1"/>
		<edge from-layer="56" from-port="1" to-layer="58" to-port="2"/>
		<edge from-layer="57" from-port="1" to-layer="58" to-port="3"/>
		<edge from-layer="33" from-port="1" to-layer="62" to-port="0"/>
		<edge from-layer="59" from-port="1" to-layer="62" to-port="1"/>
		<edge from-layer="60" from-port="1" to-layer="62" to-port="2"/>
		<edge from-layer="61" from-port="1" to-layer="62" to-port="3"/>
		<edge from-layer="58" from-port="4" to-layer="63" to-port="0"/>
		<edge from-layer="62" from-port="4" to-layer="63" to-port="1"/>
		<edge from-layer="63" from-port="2" to-layer="67" to-port="0"/>
		<edge from-layer="64" from-port="1" to-layer="67" to-port="1"/>
		<edge from-layer="65" from-port="1" to-layer="67" to-port="2"/>
		<edge from-layer="66" from-port="1" to-layer="67" to-port="3"/>
		<edge from-layer="54" from-port="4" to-layer="68" to-port="0"/>
		<edge from-layer="67" from-port="4" to-layer="68" to-port="1"/>
		<edge from-layer="68" from-port="2" to-layer="70" to-port="0"/>
		<edge from-layer="69" from-port="1" to-layer="70" to-port="1"/>
		<edge from-layer="70" from-port="2" to-layer="72" to-port="0"/>
		<edge from-layer="71" from-port="1" to-layer="72" to-port="1"/>
		<edge from-layer="72" from-port="2" to-layer="73" to-port="0"/>
		<edge from-layer="73" from-port="1" to-layer="75" to-port="0"/>
		<edge from-layer="74" from-port="1" to-layer="75" to-port="1"/>
		<edge from-layer="75" from-port="2" to-layer="77" to-port="0"/>
		<edge from-layer="76" from-port="1" to-layer="77" to-port="1"/>
		<edge from-layer="77" from-port="2" to-layer="79" to-port="0"/>
		<edge from-layer="78" from-port="1" to-layer="79" to-port="1"/>
		<edge from-layer="79" from-port="2" to-layer="80" to-port="0"/>
		<edge from-layer="80" from-port="1" to-layer="84" to-port="0"/>
		<edge from-layer="81" from-port="1" to-layer="84" to-port="1"/>
		<edge from-layer="82" from-port="1" to-layer="84" to-port="2"/>
		<edge from-layer="83" from-port="1" to-layer="84" to-port="3"/>
		<edge from-layer="68" from-port="2" to-layer="88" to-port="0"/>
		<edge from-layer="85" from-port="1" to-layer="88" to-port="1"/>
		<edge from-layer="86" from-port="1" to-layer="88" to-port="2"/>
		<edge from-layer="87" from-port="1" to-layer="88" to-port="3"/>
		<edge from-layer="63" from-port="2" to-layer="92" to-port="0"/>
		<edge from-layer="89" from-port="1" to-layer="92" to-port="1"/>
		<edge from-layer="90" from-port="1" to-layer="92" to-port="2"/>
		<edge from-layer="91" from-port="1" to-layer="92" to-port="3"/>
		<edge from-layer="88" from-port="4" to-layer="93" to-port="0"/>
		<edge from-layer="92" from-port="4" to-layer="93" to-port="1"/>
		<edge from-layer="93" from-port="2" to-layer="97" to-port="0"/>
		<edge from-layer="94" from-port="1" to-layer="97" to-port="1"/>
		<edge from-layer="95" from-port="1" to-layer="97" to-port="2"/>
		<edge from-layer="96" from-port="1" to-layer="97" to-port="3"/>
		<edge from-layer="84" from-port="4" to-layer="98" to-port="0"/>
		<edge from-layer="97" from-port="4" to-layer="98" to-port="1"/>
		<edge from-layer="98" from-port="2" to-layer="100" to-port="0"/>
		<edge from-layer="99" from-port="1" to-layer="100" to-port="1"/>
		<edge from-layer="100" from-port="2" to-layer="102" to-port="0"/>
		<edge from-layer="101" from-port="1" to-layer="102" to-port="1"/>
		<edge from-layer="102" from-port="2" to-layer="103" to-port="0"/>
		<edge from-layer="103" from-port="1" to-layer="105" to-port="0"/>
		<edge from-layer="104" from-port="1" to-layer="105" to-port="1"/>
		<edge from-layer="105" from-port="2" to-layer="107" to-port="0"/>
		<edge from-layer="106" from-port="1" to-layer="107" to-port="1"/>
		<edge from-layer="107" from-port="2" to-layer="109" to-port="0"/>
		<edge from-layer="108" from-port="1" to-layer="109" to-port="1"/>
		<edge from-layer="109" from-port="2" to-layer="110" to-port="0"/>
		<edge from-layer="98" from-port="2" to-layer="114" to-port="0"/>
		<edge from-layer="111" from-port="1" to-layer="114" to-port="1"/>
		<edge from-layer="112" from-port="1" to-layer="114" to-port="2"/>
		<edge from-layer="113" from-port="1" to-layer="114" to-port="3"/>
		<edge from-layer="93" from-port="2" to-layer="118" to-port="0"/>
		<edge from-layer="115" from-port="1" to-layer="118" to-port="1"/>
		<edge from-layer="116" from-port="1" to-layer="118" to-port="2"/>
		<edge from-layer="117" from-port="1" to-layer="118" to-port="3"/>
		<edge from-layer="114" from-port="4" to-layer="119" to-port="0"/>
		<edge from-layer="118" from-port="4" to-layer="119" to-port="1"/>
		<edge from-layer="110" from-port="1" to-layer="120" to-port="0"/>
		<edge from-layer="119" from-port="2" to-layer="120" to-port="1"/>
		<edge from-layer="120" from-port="2" to-layer="122" to-port="0"/>
		<edge from-layer="121" from-port="1" to-layer="122" to-port="1"/>
		<edge from-layer="120" from-port="2" to-layer="124" to-port="0"/>
		<edge from-layer="123" from-port="1" to-layer="124" to-port="1"/>
		<edge from-layer="124" from-port="2" to-layer="126" to-port="0"/>
		<edge from-layer="125" from-port="1" to-layer="126" to-port="1"/>
		<edge from-layer="126" from-port="2" to-layer="127" to-port="0"/>
		<edge from-layer="127" from-port="1" to-layer="129" to-port="0"/>
		<edge from-layer="128" from-port="1" to-layer="129" to-port="1"/>
		<edge from-layer="129" from-port="2" to-layer="131" to-port="0"/>
		<edge from-layer="130" from-port="1" to-layer="131" to-port="1"/>
		<edge from-layer="131" from-port="2" to-layer="133" to-port="0"/>
		<edge from-layer="132" from-port="1" to-layer="133" to-port="1"/>
		<edge from-layer="133" from-port="2" to-layer="134" to-port="0"/>
		<edge from-layer="134" from-port="1" to-layer="138" to-port="0"/>
		<edge from-layer="135" from-port="1" to-layer="138" to-port="1"/>
		<edge from-layer="136" from-port="1" to-layer="138" to-port="2"/>
		<edge from-layer="137" from-port="1" to-layer="138" to-port="3"/>
		<edge from-layer="120" from-port="2" to-layer="140" to-port="0"/>
		<edge from-layer="139" from-port="1" to-layer="140" to-port="1"/>
		<edge from-layer="140" from-port="2" to-layer="142" to-port="0"/>
		<edge from-layer="141" from-port="1" to-layer="142" to-port="1"/>
		<edge from-layer="142" from-port="2" to-layer="144" to-port="0"/>
		<edge from-layer="143" from-port="1" to-layer="144" to-port="1"/>
		<edge from-layer="144" from-port="2" to-layer="145" to-port="0"/>
		<edge from-layer="145" from-port="1" to-layer="149" to-port="0"/>
		<edge from-layer="146" from-port="1" to-layer="149" to-port="1"/>
		<edge from-layer="147" from-port="1" to-layer="149" to-port="2"/>
		<edge from-layer="148" from-port="1" to-layer="149" to-port="3"/>
		<edge from-layer="138" from-port="4" to-layer="150" to-port="0"/>
		<edge from-layer="149" from-port="4" to-layer="150" to-port="1"/>
		<edge from-layer="150" from-port="2" to-layer="152" to-port="0"/>
		<edge from-layer="151" from-port="1" to-layer="152" to-port="1"/>
		<edge from-layer="152" from-port="2" to-layer="154" to-port="0"/>
		<edge from-layer="153" from-port="1" to-layer="154" to-port="1"/>
		<edge from-layer="154" from-port="2" to-layer="155" to-port="0"/>
		<edge from-layer="155" from-port="1" to-layer="157" to-port="0"/>
		<edge from-layer="156" from-port="1" to-layer="157" to-port="1"/>
		<edge from-layer="157" from-port="2" to-layer="159" to-port="0"/>
		<edge from-layer="158" from-port="1" to-layer="159" to-port="1"/>
		<edge from-layer="159" from-port="2" to-layer="161" to-port="0"/>
		<edge from-layer="160" from-port="1" to-layer="161" to-port="1"/>
		<edge from-layer="161" from-port="2" to-layer="162" to-port="0"/>
		<edge from-layer="162" from-port="1" to-layer="166" to-port="0"/>
		<edge from-layer="163" from-port="1" to-layer="166" to-port="1"/>
		<edge from-layer="164" from-port="1" to-layer="166" to-port="2"/>
		<edge from-layer="165" from-port="1" to-layer="166" to-port="3"/>
		<edge from-layer="150" from-port="2" to-layer="170" to-port="0"/>
		<edge from-layer="167" from-port="1" to-layer="170" to-port="1"/>
		<edge from-layer="168" from-port="1" to-layer="170" to-port="2"/>
		<edge from-layer="169" from-port="1" to-layer="170" to-port="3"/>
		<edge from-layer="145" from-port="1" to-layer="174" to-port="0"/>
		<edge from-layer="171" from-port="1" to-layer="174" to-port="1"/>
		<edge from-layer="172" from-port="1" to-layer="174" to-port="2"/>
		<edge from-layer="173" from-port="1" to-layer="174" to-port="3"/>
		<edge from-layer="170" from-port="4" to-layer="175" to-port="0"/>
		<edge from-layer="174" from-port="4" to-layer="175" to-port="1"/>
		<edge from-layer="175" from-port="2" to-layer="179" to-port="0"/>
		<edge from-layer="176" from-port="1" to-layer="179" to-port="1"/>
		<edge from-layer="177" from-port="1" to-layer="179" to-port="2"/>
		<edge from-layer="178" from-port="1" to-layer="179" to-port="3"/>
		<edge from-layer="166" from-port="4" to-layer="180" to-port="0"/>
		<edge from-layer="179" from-port="4" to-layer="180" to-port="1"/>
		<edge from-layer="180" from-port="2" to-layer="182" to-port="0"/>
		<edge from-layer="181" from-port="1" to-layer="182" to-port="1"/>
		<edge from-layer="182" from-port="2" to-layer="184" to-port="0"/>
		<edge from-layer="183" from-port="1" to-layer="184" to-port="1"/>
		<edge from-layer="184" from-port="2" to-layer="185" to-port="0"/>
		<edge from-layer="185" from-port="1" to-layer="187" to-port="0"/>
		<edge from-layer="186" from-port="1" to-layer="187" to-port="1"/>
		<edge from-layer="187" from-port="2" to-layer="189" to-port="0"/>
		<edge from-layer="188" from-port="1" to-layer="189" to-port="1"/>
		<edge from-layer="189" from-port="2" to-layer="191" to-port="0"/>
		<edge from-layer="190" from-port="1" to-layer="191" to-port="1"/>
		<edge from-layer="191" from-port="2" to-layer="192" to-port="0"/>
		<edge from-layer="192" from-port="1" to-layer="196" to-port="0"/>
		<edge from-layer="193" from-port="1" to-layer="196" to-port="1"/>
		<edge from-layer="194" from-port="1" to-layer="196" to-port="2"/>
		<edge from-layer="195" from-port="1" to-layer="196" to-port="3"/>
		<edge from-layer="180" from-port="2" to-layer="200" to-port="0"/>
		<edge from-layer="197" from-port="1" to-layer="200" to-port="1"/>
		<edge from-layer="198" from-port="1" to-layer="200" to-port="2"/>
		<edge from-layer="199" from-port="1" to-layer="200" to-port="3"/>
		<edge from-layer="175" from-port="2" to-layer="204" to-port="0"/>
		<edge from-layer="201" from-port="1" to-layer="204" to-port="1"/>
		<edge from-layer="202" from-port="1" to-layer="204" to-port="2"/>
		<edge from-layer="203" from-port="1" to-layer="204" to-port="3"/>
		<edge from-layer="200" from-port="4" to-layer="205" to-port="0"/>
		<edge from-layer="204" from-port="4" to-layer="205" to-port="1"/>
		<edge from-layer="205" from-port="2" to-layer="209" to-port="0"/>
		<edge from-layer="206" from-port="1" to-layer="209" to-port="1"/>
		<edge from-layer="207" from-port="1" to-layer="209" to-port="2"/>
		<edge from-layer="208" from-port="1" to-layer="209" to-port="3"/>
		<edge from-layer="196" from-port="4" to-layer="210" to-port="0"/>
		<edge from-layer="209" from-port="4" to-layer="210" to-port="1"/>
		<edge from-layer="210" from-port="2" to-layer="212" to-port="0"/>
		<edge from-layer="211" from-port="1" to-layer="212" to-port="1"/>
		<edge from-layer="212" from-port="2" to-layer="214" to-port="0"/>
		<edge from-layer="213" from-port="1" to-layer="214" to-port="1"/>
		<edge from-layer="214" from-port="2" to-layer="215" to-port="0"/>
		<edge from-layer="215" from-port="1" to-layer="217" to-port="0"/>
		<edge from-layer="216" from-port="1" to-layer="217" to-port="1"/>
		<edge from-layer="217" from-port="2" to-layer="219" to-port="0"/>
		<edge from-layer="218" from-port="1" to-layer="219" to-port="1"/>
		<edge from-layer="219" from-port="2" to-layer="221" to-port="0"/>
		<edge from-layer="220" from-port="1" to-layer="221" to-port="1"/>
		<edge from-layer="221" from-port="2" to-layer="222" to-port="0"/>
		<edge from-layer="222" from-port="1" to-layer="226" to-port="0"/>
		<edge from-layer="223" from-port="1" to-layer="226" to-port="1"/>
		<edge from-layer="224" from-port="1" to-layer="226" to-port="2"/>
		<edge from-layer="225" from-port="1" to-layer="226" to-port="3"/>
		<edge from-layer="210" from-port="2" to-layer="230" to-port="0"/>
		<edge from-layer="227" from-port="1" to-layer="230" to-port="1"/>
		<edge from-layer="228" from-port="1" to-layer="230" to-port="2"/>
		<edge from-layer="229" from-port="1" to-layer="230" to-port="3"/>
		<edge from-layer="205" from-port="2" to-layer="234" to-port="0"/>
		<edge from-layer="231" from-port="1" to-layer="234" to-port="1"/>
		<edge from-layer="232" from-port="1" to-layer="234" to-port="2"/>
		<edge from-layer="233" from-port="1" to-layer="234" to-port="3"/>
		<edge from-layer="230" from-port="4" to-layer="235" to-port="0"/>
		<edge from-layer="234" from-port="4" to-layer="235" to-port="1"/>
		<edge from-layer="235" from-port="2" to-layer="239" to-port="0"/>
		<edge from-layer="236" from-port="1" to-layer="239" to-port="1"/>
		<edge from-layer="237" from-port="1" to-layer="239" to-port="2"/>
		<edge from-layer="238" from-port="1" to-layer="239" to-port="3"/>
		<edge from-layer="226" from-port="4" to-layer="240" to-port="0"/>
		<edge from-layer="239" from-port="4" to-layer="240" to-port="1"/>
		<edge from-layer="240" from-port="2" to-layer="242" to-port="0"/>
		<edge from-layer="241" from-port="1" to-layer="242" to-port="1"/>
		<edge from-layer="242" from-port="2" to-layer="244" to-port="0"/>
		<edge from-layer="243" from-port="1" to-layer="244" to-port="1"/>
		<edge from-layer="244" from-port="2" to-layer="245" to-port="0"/>
		<edge from-layer="245" from-port="1" to-layer="247" to-port="0"/>
		<edge from-layer="246" from-port="1" to-layer="247" to-port="1"/>
		<edge from-layer="247" from-port="2" to-layer="249" to-port="0"/>
		<edge from-layer="248" from-port="1" to-layer="249" to-port="1"/>
		<edge from-layer="249" from-port="2" to-layer="251" to-port="0"/>
		<edge from-layer="250" from-port="1" to-layer="251" to-port="1"/>
		<edge from-layer="251" from-port="2" to-layer="252" to-port="0"/>
		<edge from-layer="252" from-port="1" to-layer="256" to-port="0"/>
		<edge from-layer="253" from-port="1" to-layer="256" to-port="1"/>
		<edge from-layer="254" from-port="1" to-layer="256" to-port="2"/>
		<edge from-layer="255" from-port="1" to-layer="256" to-port="3"/>
		<edge from-layer="240" from-port="2" to-layer="260" to-port="0"/>
		<edge from-layer="257" from-port="1" to-layer="260" to-port="1"/>
		<edge from-layer="258" from-port="1" to-layer="260" to-port="2"/>
		<edge from-layer="259" from-port="1" to-layer="260" to-port="3"/>
		<edge from-layer="235" from-port="2" to-layer="264" to-port="0"/>
		<edge from-layer="261" from-port="1" to-layer="264" to-port="1"/>
		<edge from-layer="262" from-port="1" to-layer="264" to-port="2"/>
		<edge from-layer="263" from-port="1" to-layer="264" to-port="3"/>
		<edge from-layer="260" from-port="4" to-layer="265" to-port="0"/>
		<edge from-layer="264" from-port="4" to-layer="265" to-port="1"/>
		<edge from-layer="265" from-port="2" to-layer="269" to-port="0"/>
		<edge from-layer="266" from-port="1" to-layer="269" to-port="1"/>
		<edge from-layer="267" from-port="1" to-layer="269" to-port="2"/>
		<edge from-layer="268" from-port="1" to-layer="269" to-port="3"/>
		<edge from-layer="256" from-port="4" to-layer="270" to-port="0"/>
		<edge from-layer="269" from-port="4" to-layer="270" to-port="1"/>
		<edge from-layer="270" from-port="2" to-layer="272" to-port="0"/>
		<edge from-layer="271" from-port="1" to-layer="272" to-port="1"/>
		<edge from-layer="272" from-port="2" to-layer="274" to-port="0"/>
		<edge from-layer="273" from-port="1" to-layer="274" to-port="1"/>
		<edge from-layer="274" from-port="2" to-layer="275" to-port="0"/>
		<edge from-layer="275" from-port="1" to-layer="277" to-port="0"/>
		<edge from-layer="276" from-port="1" to-layer="277" to-port="1"/>
		<edge from-layer="277" from-port="2" to-layer="279" to-port="0"/>
		<edge from-layer="278" from-port="1" to-layer="279" to-port="1"/>
		<edge from-layer="279" from-port="2" to-layer="281" to-port="0"/>
		<edge from-layer="280" from-port="1" to-layer="281" to-port="1"/>
		<edge from-layer="281" from-port="2" to-layer="282" to-port="0"/>
		<edge from-layer="282" from-port="1" to-layer="286" to-port="0"/>
		<edge from-layer="283" from-port="1" to-layer="286" to-port="1"/>
		<edge from-layer="284" from-port="1" to-layer="286" to-port="2"/>
		<edge from-layer="285" from-port="1" to-layer="286" to-port="3"/>
		<edge from-layer="270" from-port="2" to-layer="290" to-port="0"/>
		<edge from-layer="287" from-port="1" to-layer="290" to-port="1"/>
		<edge from-layer="288" from-port="1" to-layer="290" to-port="2"/>
		<edge from-layer="289" from-port="1" to-layer="290" to-port="3"/>
		<edge from-layer="265" from-port="2" to-layer="294" to-port="0"/>
		<edge from-layer="291" from-port="1" to-layer="294" to-port="1"/>
		<edge from-layer="292" from-port="1" to-layer="294" to-port="2"/>
		<edge from-layer="293" from-port="1" to-layer="294" to-port="3"/>
		<edge from-layer="290" from-port="4" to-layer="295" to-port="0"/>
		<edge from-layer="294" from-port="4" to-layer="295" to-port="1"/>
		<edge from-layer="295" from-port="2" to-layer="299" to-port="0"/>
		<edge from-layer="296" from-port="1" to-layer="299" to-port="1"/>
		<edge from-layer="297" from-port="1" to-layer="299" to-port="2"/>
		<edge from-layer="298" from-port="1" to-layer="299" to-port="3"/>
		<edge from-layer="286" from-port="4" to-layer="300" to-port="0"/>
		<edge from-layer="299" from-port="4" to-layer="300" to-port="1"/>
		<edge from-layer="300" from-port="2" to-layer="302" to-port="0"/>
		<edge from-layer="301" from-port="1" to-layer="302" to-port="1"/>
		<edge from-layer="302" from-port="2" to-layer="304" to-port="0"/>
		<edge from-layer="303" from-port="1" to-layer="304" to-port="1"/>
		<edge from-layer="304" from-port="2" to-layer="305" to-port="0"/>
		<edge from-layer="305" from-port="1" to-layer="307" to-port="0"/>
		<edge from-layer="306" from-port="1" to-layer="307" to-port="1"/>
		<edge from-layer="307" from-port="2" to-layer="309" to-port="0"/>
		<edge from-layer="308" from-port="1" to-layer="309" to-port="1"/>
		<edge from-layer="309" from-port="2" to-layer="311" to-port="0"/>
		<edge from-layer="310" from-port="1" to-layer="311" to-port="1"/>
		<edge from-layer="311" from-port="2" to-layer="312" to-port="0"/>
		<edge from-layer="312" from-port="1" to-layer="316" to-port="0"/>
		<edge from-layer="313" from-port="1" to-layer="316" to-port="1"/>
		<edge from-layer="314" from-port="1" to-layer="316" to-port="2"/>
		<edge from-layer="315" from-port="1" to-layer="316" to-port="3"/>
		<edge from-layer="300" from-port="2" to-layer="320" to-port="0"/>
		<edge from-layer="317" from-port="1" to-layer="320" to-port="1"/>
		<edge from-layer="318" from-port="1" to-layer="320" to-port="2"/>
		<edge from-layer="319" from-port="1" to-layer="320" to-port="3"/>
		<edge from-layer="295" from-port="2" to-layer="324" to-port="0"/>
		<edge from-layer="321" from-port="1" to-layer="324" to-port="1"/>
		<edge from-layer="322" from-port="1" to-layer="324" to-port="2"/>
		<edge from-layer="323" from-port="1" to-layer="324" to-port="3"/>
		<edge from-layer="320" from-port="4" to-layer="325" to-port="0"/>
		<edge from-layer="324" from-port="4" to-layer="325" to-port="1"/>
		<edge from-layer="325" from-port="2" to-layer="329" to-port="0"/>
		<edge from-layer="326" from-port="1" to-layer="329" to-port="1"/>
		<edge from-layer="327" from-port="1" to-layer="329" to-port="2"/>
		<edge from-layer="328" from-port="1" to-layer="329" to-port="3"/>
		<edge from-layer="316" from-port="4" to-layer="330" to-port="0"/>
		<edge from-layer="329" from-port="4" to-layer="330" to-port="1"/>
		<edge from-layer="330" from-port="2" to-layer="332" to-port="0"/>
		<edge from-layer="331" from-port="1" to-layer="332" to-port="1"/>
		<edge from-layer="332" from-port="2" to-layer="334" to-port="0"/>
		<edge from-layer="333" from-port="1" to-layer="334" to-port="1"/>
		<edge from-layer="334" from-port="2" to-layer="335" to-port="0"/>
		<edge from-layer="335" from-port="1" to-layer="337" to-port="0"/>
		<edge from-layer="336" from-port="1" to-layer="337" to-port="1"/>
		<edge from-layer="337" from-port="2" to-layer="339" to-port="0"/>
		<edge from-layer="338" from-port="1" to-layer="339" to-port="1"/>
		<edge from-layer="339" from-port="2" to-layer="341" to-port="0"/>
		<edge from-layer="340" from-port="1" to-layer="341" to-port="1"/>
		<edge from-layer="341" from-port="2" to-layer="342" to-port="0"/>
		<edge from-layer="330" from-port="2" to-layer="346" to-port="0"/>
		<edge from-layer="343" from-port="1" to-layer="346" to-port="1"/>
		<edge from-layer="344" from-port="1" to-layer="346" to-port="2"/>
		<edge from-layer="345" from-port="1" to-layer="346" to-port="3"/>
		<edge from-layer="325" from-port="2" to-layer="350" to-port="0"/>
		<edge from-layer="347" from-port="1" to-layer="350" to-port="1"/>
		<edge from-layer="348" from-port="1" to-layer="350" to-port="2"/>
		<edge from-layer="349" from-port="1" to-layer="350" to-port="3"/>
		<edge from-layer="346" from-port="4" to-layer="351" to-port="0"/>
		<edge from-layer="350" from-port="4" to-layer="351" to-port="1"/>
		<edge from-layer="342" from-port="1" to-layer="352" to-port="0"/>
		<edge from-layer="351" from-port="2" to-layer="352" to-port="1"/>
		<edge from-layer="352" from-port="2" to-layer="354" to-port="0"/>
		<edge from-layer="353" from-port="1" to-layer="354" to-port="1"/>
		<edge from-layer="352" from-port="2" to-layer="356" to-port="0"/>
		<edge from-layer="355" from-port="1" to-layer="356" to-port="1"/>
		<edge from-layer="356" from-port="2" to-layer="358" to-port="0"/>
		<edge from-layer="357" from-port="1" to-layer="358" to-port="1"/>
		<edge from-layer="358" from-port="2" to-layer="359" to-port="0"/>
		<edge from-layer="359" from-port="1" to-layer="361" to-port="0"/>
		<edge from-layer="360" from-port="1" to-layer="361" to-port="1"/>
		<edge from-layer="361" from-port="2" to-layer="363" to-port="0"/>
		<edge from-layer="362" from-port="1" to-layer="363" to-port="1"/>
		<edge from-layer="363" from-port="2" to-layer="365" to-port="0"/>
		<edge from-layer="364" from-port="1" to-layer="365" to-port="1"/>
		<edge from-layer="365" from-port="2" to-layer="366" to-port="0"/>
		<edge from-layer="366" from-port="1" to-layer="370" to-port="0"/>
		<edge from-layer="367" from-port="1" to-layer="370" to-port="1"/>
		<edge from-layer="368" from-port="1" to-layer="370" to-port="2"/>
		<edge from-layer="369" from-port="1" to-layer="370" to-port="3"/>
		<edge from-layer="352" from-port="2" to-layer="372" to-port="0"/>
		<edge from-layer="371" from-port="1" to-layer="372" to-port="1"/>
		<edge from-layer="372" from-port="2" to-layer="374" to-port="0"/>
		<edge from-layer="373" from-port="1" to-layer="374" to-port="1"/>
		<edge from-layer="374" from-port="2" to-layer="376" to-port="0"/>
		<edge from-layer="375" from-port="1" to-layer="376" to-port="1"/>
		<edge from-layer="376" from-port="2" to-layer="377" to-port="0"/>
		<edge from-layer="377" from-port="1" to-layer="381" to-port="0"/>
		<edge from-layer="378" from-port="1" to-layer="381" to-port="1"/>
		<edge from-layer="379" from-port="1" to-layer="381" to-port="2"/>
		<edge from-layer="380" from-port="1" to-layer="381" to-port="3"/>
		<edge from-layer="370" from-port="4" to-layer="382" to-port="0"/>
		<edge from-layer="381" from-port="4" to-layer="382" to-port="1"/>
		<edge from-layer="382" from-port="2" to-layer="384" to-port="0"/>
		<edge from-layer="383" from-port="1" to-layer="384" to-port="1"/>
		<edge from-layer="384" from-port="2" to-layer="386" to-port="0"/>
		<edge from-layer="385" from-port="1" to-layer="386" to-port="1"/>
		<edge from-layer="386" from-port="2" to-layer="387" to-port="0"/>
		<edge from-layer="387" from-port="1" to-layer="389" to-port="0"/>
		<edge from-layer="388" from-port="1" to-layer="389" to-port="1"/>
		<edge from-layer="389" from-port="2" to-layer="391" to-port="0"/>
		<edge from-layer="390" from-port="1" to-layer="391" to-port="1"/>
		<edge from-layer="391" from-port="2" to-layer="393" to-port="0"/>
		<edge from-layer="392" from-port="1" to-layer="393" to-port="1"/>
		<edge from-layer="393" from-port="2" to-layer="394" to-port="0"/>
		<edge from-layer="394" from-port="1" to-layer="398" to-port="0"/>
		<edge from-layer="395" from-port="1" to-layer="398" to-port="1"/>
		<edge from-layer="396" from-port="1" to-layer="398" to-port="2"/>
		<edge from-layer="397" from-port="1" to-layer="398" to-port="3"/>
		<edge from-layer="382" from-port="2" to-layer="402" to-port="0"/>
		<edge from-layer="399" from-port="1" to-layer="402" to-port="1"/>
		<edge from-layer="400" from-port="1" to-layer="402" to-port="2"/>
		<edge from-layer="401" from-port="1" to-layer="402" to-port="3"/>
		<edge from-layer="377" from-port="1" to-layer="406" to-port="0"/>
		<edge from-layer="403" from-port="1" to-layer="406" to-port="1"/>
		<edge from-layer="404" from-port="1" to-layer="406" to-port="2"/>
		<edge from-layer="405" from-port="1" to-layer="406" to-port="3"/>
		<edge from-layer="402" from-port="4" to-layer="407" to-port="0"/>
		<edge from-layer="406" from-port="4" to-layer="407" to-port="1"/>
		<edge from-layer="407" from-port="2" to-layer="411" to-port="0"/>
		<edge from-layer="408" from-port="1" to-layer="411" to-port="1"/>
		<edge from-layer="409" from-port="1" to-layer="411" to-port="2"/>
		<edge from-layer="410" from-port="1" to-layer="411" to-port="3"/>
		<edge from-layer="398" from-port="4" to-layer="412" to-port="0"/>
		<edge from-layer="411" from-port="4" to-layer="412" to-port="1"/>
		<edge from-layer="412" from-port="2" to-layer="414" to-port="0"/>
		<edge from-layer="413" from-port="1" to-layer="414" to-port="1"/>
		<edge from-layer="414" from-port="2" to-layer="416" to-port="0"/>
		<edge from-layer="415" from-port="1" to-layer="416" to-port="1"/>
		<edge from-layer="416" from-port="2" to-layer="417" to-port="0"/>
		<edge from-layer="417" from-port="1" to-layer="419" to-port="0"/>
		<edge from-layer="418" from-port="1" to-layer="419" to-port="1"/>
		<edge from-layer="419" from-port="2" to-layer="421" to-port="0"/>
		<edge from-layer="420" from-port="1" to-layer="421" to-port="1"/>
		<edge from-layer="421" from-port="2" to-layer="423" to-port="0"/>
		<edge from-layer="422" from-port="1" to-layer="423" to-port="1"/>
		<edge from-layer="423" from-port="2" to-layer="424" to-port="0"/>
		<edge from-layer="424" from-port="1" to-layer="428" to-port="0"/>
		<edge from-layer="425" from-port="1" to-layer="428" to-port="1"/>
		<edge from-layer="426" from-port="1" to-layer="428" to-port="2"/>
		<edge from-layer="427" from-port="1" to-layer="428" to-port="3"/>
		<edge from-layer="412" from-port="2" to-layer="432" to-port="0"/>
		<edge from-layer="429" from-port="1" to-layer="432" to-port="1"/>
		<edge from-layer="430" from-port="1" to-layer="432" to-port="2"/>
		<edge from-layer="431" from-port="1" to-layer="432" to-port="3"/>
		<edge from-layer="407" from-port="2" to-layer="436" to-port="0"/>
		<edge from-layer="433" from-port="1" to-layer="436" to-port="1"/>
		<edge from-layer="434" from-port="1" to-layer="436" to-port="2"/>
		<edge from-layer="435" from-port="1" to-layer="436" to-port="3"/>
		<edge from-layer="432" from-port="4" to-layer="437" to-port="0"/>
		<edge from-layer="436" from-port="4" to-layer="437" to-port="1"/>
		<edge from-layer="437" from-port="2" to-layer="441" to-port="0"/>
		<edge from-layer="438" from-port="1" to-layer="441" to-port="1"/>
		<edge from-layer="439" from-port="1" to-layer="441" to-port="2"/>
		<edge from-layer="440" from-port="1" to-layer="441" to-port="3"/>
		<edge from-layer="428" from-port="4" to-layer="442" to-port="0"/>
		<edge from-layer="441" from-port="4" to-layer="442" to-port="1"/>
		<edge from-layer="442" from-port="2" to-layer="444" to-port="0"/>
		<edge from-layer="443" from-port="1" to-layer="444" to-port="1"/>
		<edge from-layer="444" from-port="2" to-layer="446" to-port="0"/>
		<edge from-layer="445" from-port="1" to-layer="446" to-port="1"/>
		<edge from-layer="446" from-port="2" to-layer="447" to-port="0"/>
		<edge from-layer="447" from-port="1" to-layer="449" to-port="0"/>
		<edge from-layer="448" from-port="1" to-layer="449" to-port="1"/>
		<edge from-layer="449" from-port="2" to-layer="451" to-port="0"/>
		<edge from-layer="450" from-port="1" to-layer="451" to-port="1"/>
		<edge from-layer="451" from-port="2" to-layer="453" to-port="0"/>
		<edge from-layer="452" from-port="1" to-layer="453" to-port="1"/>
		<edge from-layer="453" from-port="2" to-layer="454" to-port="0"/>
		<edge from-layer="442" from-port="2" to-layer="458" to-port="0"/>
		<edge from-layer="455" from-port="1" to-layer="458" to-port="1"/>
		<edge from-layer="456" from-port="1" to-layer="458" to-port="2"/>
		<edge from-layer="457" from-port="1" to-layer="458" to-port="3"/>
		<edge from-layer="437" from-port="2" to-layer="462" to-port="0"/>
		<edge from-layer="459" from-port="1" to-layer="462" to-port="1"/>
		<edge from-layer="460" from-port="1" to-layer="462" to-port="2"/>
		<edge from-layer="461" from-port="1" to-layer="462" to-port="3"/>
		<edge from-layer="458" from-port="4" to-layer="463" to-port="0"/>
		<edge from-layer="462" from-port="4" to-layer="463" to-port="1"/>
		<edge from-layer="454" from-port="1" to-layer="464" to-port="0"/>
		<edge from-layer="463" from-port="2" to-layer="464" to-port="1"/>
		<edge from-layer="464" from-port="2" to-layer="466" to-port="0"/>
		<edge from-layer="465" from-port="1" to-layer="466" to-port="1"/>
		<edge from-layer="122" from-port="2" to-layer="467" to-port="0"/>
		<edge from-layer="354" from-port="2" to-layer="467" to-port="1"/>
		<edge from-layer="466" from-port="2" to-layer="467" to-port="2"/>
		<edge from-layer="467" from-port="3" to-layer="469" to-port="0"/>
		<edge from-layer="468" from-port="1" to-layer="469" to-port="1"/>
		<edge from-layer="469" from-port="2" to-layer="471" to-port="0"/>
		<edge from-layer="470" from-port="1" to-layer="471" to-port="1"/>
		<edge from-layer="471" from-port="2" to-layer="474" to-port="0"/>
		<edge from-layer="472" from-port="1" to-layer="474" to-port="1"/>
		<edge from-layer="473" from-port="1" to-layer="474" to-port="2"/>
		<edge from-layer="474" from-port="5" to-layer="475" to-port="0"/>
		<edge from-layer="474" from-port="4" to-layer="476" to-port="0"/>
		<edge from-layer="474" from-port="3" to-layer="477" to-port="0"/>
	</edges>
	<meta_data>
		<MO_version value=""/>
		<cli_parameters>
			<blobs_as_inputs value="True"/>
			<data_type value="FP16"/>
			<disable_nhwc_to_nchw value="False"/>
			<disable_resnet_optimization value="False"/>
			<disable_weights_compression value="False"/>
			<enable_concat_optimization value="False"/>
			<extensions value="DIR"/>
			<framework value="tf"/>
			<freeze_placeholder_with_value value="{}"/>
			<generate_deprecated_IR_V2 value="False"/>
			<generate_deprecated_IR_V7 value="False"/>
			<generate_experimental_IR_V10 value="True"/>
			<input_model_is_text value="False"/>
			<input_shape value="[1,160,160,3]"/>
			<keep_quantize_ops_in_IR value="True"/>
			<keep_shape_ops value="False"/>
			<log_level value="ERROR"/>
			<mean_scale_values value="{}"/>
			<mean_values value="()"/>
			<model_name value="face_landmark_160x160"/>
			<move_to_preprocess value="False"/>
			<output_dir value="DIR"/>
			<placeholder_data_types value="{}"/>
			<placeholder_shapes value="[  1 160 160   3]"/>
			<progress value="False"/>
			<reverse_input_channels value="False"/>
			<saved_model_dir value="DIR"/>
			<scale_values value="()"/>
			<silent value="False"/>
			<stream_output value="False"/>
			<unset unset_cli_parameters="batch, disable_fusing, disable_gfusing, finegrain_fusing, input, input_checkpoint, input_meta_graph, input_model, output, saved_model_tags, scale, tensorboard_logdir, tensorflow_custom_layer_libraries, tensorflow_custom_operations_config_update, tensorflow_object_detection_api_pipeline_config, tensorflow_use_custom_operations_config, transformations_config"/>
		</cli_parameters>
	</meta_data>
</net>
